resutls_128/epoch_24.529.pth (torch, 34981 bytes, 5 tensors)

conv1.weight f4 [64, 1, 9, 9]
000000 99 8e 68 3d 0d c4 49 bd 84 35 ad bc 92 e7 58 3d
       0.056776617 -0.049259234 -0.021143682 0.052955218
000010 e8 be d3 bd de cb 89 3d d9 79 bd bc bf f1 63 3d
       -0.10339147 0.06728338 -0.02312939 0.05565047
000020 5c 77 69 3c e4 6f 59 bc 10 f0 00 3d fa 43 e0 3b
       0.014249649 -0.013271306 0.03147894 0.006844041
000030 39 d8 2d 3d c4 ca 27 bd 56 c7 cd bb 15 c2 15 bc
       0.042442534 -0.040964857 -0.006279866 -0.009140511
000040 c3 71 85 3c e7 1f 2f ba df c5 ca 3d df 07 17 3d
       0.016289597 -0.0006680474 0.09901022 0.03687274
000050 d6 ca 1c bd 99 e7 81 bd 9f aa 6b bc 52 08 35 bd
       -0.038279377 -0.06343002 -0.014383941 -0.044197388
000060 cb b9 06 bd af d2 ed 3b 8b 90 8a 3d 2a 01 81 3d
       -0.03289203 0.0072577815 0.06765851 0.0629905
000070 9c 0e d8 bd 21 40 95 3d 58 51 12 3d 36 a9 e2 3d
       -0.105496615 0.07287622 0.035722107 0.11067431
000080 ca df 9f 3d 5b df c7 bd 08 af d2 bd ac a3 52 bd
       0.07806356 -0.097593985 -0.10287291 -0.05142562
000090 8a fe ce 3d e0 82 6c bc 01 6e 57 3d 54 e3 3b bd
       0.10107143 -0.0144355 0.052595142 -0.045871094
0000a0 6b 51 ec 3d 67 e8 28 bd c4 19 b4 3d ce 38 a3 3b
       0.11538967 -0.04123726 0.08793977 0.004981137
0000b0 b5 8f 63 bd cb 84 76 3d 42 99 62 bd 89 e2 18 3d
       -0.05555697 0.060185235 -0.05532194 0.037325416
0000c0 5b e9 da bc 9f 47 cd bb f8 f1 cf bd 9a 56 48 bd
       -0.0267226 -0.0062646414 -0.10153574 -0.048910715
0000d0 6e c4 81 3d 7f d4 c9 bc 02 e7 e7 3d 07 e9 bc 3d
       0.06336294 -0.024637459 0.11323358 0.09224134
0000e0 33 aa 8d ba 54 16 8e bd d8 65 95 3d 6a 01 20 3d
       -0.001080817 -0.069378525 0.07294816 0.03906385
0000f0 d9 48 8c bd 41 94 98 3d 2f 93 8d 3d 72 66 cd 3d
       -0.06849832 0.07450152 0.06912839 0.100293055
000100 9f ae 75 bd fb 42 77 bc 69 90 d6 3a 18 4a a7 3c
       -0.059980985 -0.015091653 0.0016369942 0.020421073
000110 b9 a8 a5 bd 84 09 9d bd e9 97 7c 3d 74 fa cf bc
       -0.08088822 -0.076678306 0.06166831 -0.02538798
000120 c4 d4 62 3d 1f 6f 01 3c d0 23 1f 3d fa a8 df 3c
       0.05537869 0.0079000285 0.038852513 0.027302254
000130 dd 92 32 3d 02 7e 6b 3d 78 50 d0 bd 5c 6a 66 3d
       0.04359709 0.057493217 -0.10171598 0.056253776
000140 b9 3b a0 bd 84 75 ac bd 04 63 cc 3b 4e 3a a1 bc
       -0.07823891 -0.08420852 0.0062373895 -0.019681122
000150 a8 ce 83 3d b0 20 85 bd 2d 81 cb bd aa f0 a4 3d
       0.06435901 -0.06500375 -0.09936748 0.080537155
000160 d5 43 89 bc da c2 7c 3d 8c 04 10 3d e6 ce ab bd
       -0.016755978 0.061709262 0.035160586 -0.08389072
000170 60 0e b0 3c 4b 2b d3 3c be cb 99 bd b1 34 5a bd
       0.02149123 0.02577748 -0.07509564 -0.053272907
000180 14 c7 19 3d d9 55 a1 3c f0 68 44 bd 8c 74 0d bd
       0.03754337 0.019694256 -0.04795164 -0.034534976
000190 44 40 ce 3d 5e 1a b2 bc ad 86 7b 3d 09 43 41 3d
       0.100708514 -0.021741088 0.061407734 0.04718307
0001a0 31 eb 94 bd 5c a4 c2 bd 4f c3 d9 3d 20 e3 a1 3b
       -0.07271422 -0.09504005 0.10632955 0.0049404055
0001b0 e1 04 9a 3d c3 d4 b4 3c 17 a4 0d 3d 6f 98 a7 3d
       0.07520462 0.022074109 0.034580316 0.08183371
0001c0 22 fb d5 3d cb 60 98 bd 47 df 5d 3c 67 7e a9 3d
       0.104482904 -0.07440337 0.013542003 0.082760625
0001d0 da 73 a3 3d 05 e5 8c 3d 17 33 a5 bd d1 99 a4 bd
       0.07981081 0.068796195 -0.08066385 -0.08037151
0001e0 36 5a 8a bd b1 0c 65 3c b3 21 e3 3d 14 9f 8e bd
       -0.067554876 0.013980077 0.11090412 -0.069639355
0001f0 9f 51 75 3d 96 28 7b bd ac c5 d6 bd 78 d5 c5 bc
       0.059892293 -0.061318003 -0.10486922 -0.024149641
000200 01 a1 81 3d ad de d1 3d ec 7f 8d bd 7e 37 c6 3c
       0.06329537 0.1024755 -0.06909165 0.024196383
000210 f4 14 c5 3d 22 d6 97 3d 55 bb 8d 3d 47 78 9f 3d
       0.09623137 0.074138895 0.069204964 0.07786613
000220 2e ad 8d 3d 15 9d e1 3c 54 d4 9d bd 94 6f c0 bd
       0.06917797 0.027540723 -0.07706514 -0.09396282
000230 48 07 52 bd e9 bd 54 bc 80 79 8b bd 2d 1b 24 3d
       -0.051276475 -0.012984731 -0.06810284 0.04006498
000240 32 3b 06 3d 75 67 db bc 6d b0 27 3d fb 0b 0c 3d
       0.032771297 -0.02678273 0.040939737 0.034191113
000250 68 7a 88 3d 4a 13 97 3d 10 38 1d bd d5 ca dc 3d
       0.06663972 0.07376726 -0.038383543 0.10780875
000260 93 57 68 bc ea 85 bd bb e2 09 db bd af ec 96 bd
       -0.014181036 -0.005783786 -0.10695244 -0.073693626
000270 8e 51 89 bd d6 c5 49 bd 81 a7 9e 3d 0b 16 1a bd
       -0.067050084 -0.049260937 0.077467926 -0.037618678
000280 35 95 ac bd 7f 73 27 3d 22 84 17 3d 56 7d 97 3d
       -0.084268965 0.04088163 0.036991246 0.07396953
000290 73 ee 5f bd a2 ab df 3c 05 9e 18 bd 71 48 b2 bc
       -0.054670762 0.02730352 -0.037260074 -0.021763058
0002a0 75 91 af bd 80 b0 46 bd 30 e1 03 bd 5f 21 49 3d
       -0.085726656 -0.048508167 -0.032197177 0.04910409
0002b0 f1 de b8 3c d2 2d fa 3c f9 6e ea 3d 78 0c e5 3d
       0.022567244 0.030539427 0.114469476 0.11184019
0002c0 57 77 a2 3d 87 c2 d8 3b ee 90 98 bd ae c3 b5 3d
       0.079329185 0.0066149863 -0.07449518 0.088752136
0002d0 b2 6a d0 bc 08 40 c1 bb 60 fc bb bd 3f c3 8f bc
       -0.025441501 -0.0058975257 -0.09178996 -0.017549155
0002e0 ce a7 89 bd 61 2e da 3d 23 c2 bc bd 2e 0f ab bd
       -0.06721459 0.10653377 -0.09216716 -0.08352505
0002f0 71 f2 8a ba e0 8a 69 bd a4 ac 32 3d 87 a7 1b bd
       -0.0010600818 -0.057017207 0.043621674 -0.038001563
000300 ae 60 40 bd 50 64 3c 3c 95 57 af 3d 81 7b 96 bd
       -0.0469672 0.011498526 0.08561627 -0.07347775
000310 f9 64 65 3d 01 3b 99 3d d0 bc e5 3d da 73 96 bd
       0.0560045 0.07481957 0.11217654 -0.07346316
000320 c6 a7 03 3d 40 ab 9c bd 5c bb cd 3d 6c ca 19 bd
       0.032142423 -0.07649851 0.100455016 -0.03754656
000330 a7 4d 93 3d db 7e f5 3b 7b c2 a0 bb 49 03 fb b8
       0.071925454 0.007491929 -0.0049059964 -0.000119692246
000340 60 02 be 3c ad 10 6c 3d 61 a2 c0 3c 55 e2 21 3d
       0.023194492 0.05763309 0.023514928 0.039522488
000350 6d 53 c1 bd 9d 07 b0 3d 25 f6 ce 3d 1d d2 c3 3d
       -0.0943974 0.08595202 0.10105542 0.0956156
000360 75 45 ae 3d d3 57 9c bd b4 17 15 bd 44 57 d3 3d
       0.085093416 -0.07633939 -0.03639956 0.10319379
000370 c2 bd a2 bd 45 da d8 3d 00 87 a9 bd 8a 72 98 bd
       -0.0794635 0.105885066 -0.08277702 -0.074437216
000380 7f 6b 6c 3d 61 fa 9e bd de a0 b7 bc 2d b4 ad 3d
       0.057719704 -0.077626 -0.022415575 0.084816314
000390 d1 51 bd 3d 59 3d e0 3d 91 cf 94 bc c0 c9 a8 bd
       0.09244121 0.10949201 -0.018165382 -0.08241606
0003a0 9b 92 e6 3d f5 3f ab bc 71 e4 34 bd e9 e7 f0 3c
       0.112584315 -0.02090452 -0.04416317 0.029407458
0003b0 2a 84 98 bd 11 12 9d 3d f4 27 96 3d ba f7 ac bd
       -0.07447083 0.076694615 0.07331839 -0.084456876
0003c0 1a 13 b4 bd 32 c7 e9 bb 9c 2f 48 3d 55 da 3f bb
       -0.08792706 -0.0071343416 0.04887353 -0.0029274423
0003d0 6d ab 65 bd 33 20 3a 3b 57 08 d5 bd fd f9 9f bd
       -0.056071687 0.002840054 -0.10401981 -0.07811353
0003e0 01 66 96 bd 75 5b bd 3d bc 8c ca 3d 9a d3 16 bd
       -0.073436745 0.0924596 0.09890124 -0.036822893
0003f0 a2 76 ac 3b 98 05 4c 3d 0d e0 5e 3c 9d cb 62 bd
       0.0052631656 0.049810022 0.013603223 -0.055369962

conv1.bias f4 [64]
000000 a2 6e 74 bd 82 42 d4 3c 44 c6 9b bd fd 9c 2e bd
       -0.05967582 0.02591062 -0.076061755 -0.042630184
000010 b3 ac a0 3d 9d 8a 6c 3d ce e5 9f 3d c0 14 ec bc
       0.0784544 0.05774938 0.07807504 -0.028818488
000020 b9 08 d2 3d bd ca a2 3d 48 69 73 3d a2 63 45 3d
       0.1025557 0.079488255 0.059426576 0.04819072
000030 a2 e0 c2 bd 97 85 81 bd aa 00 d5 bb 1b cb fc 3c
       -0.095155016 -0.06324308 -0.0065003233 0.030858567
000040 ad 51 f7 3d 35 64 c9 3d 99 e3 14 bd 5c 54 8d 3d
       0.12076125 0.09833566 -0.036349867 0.06900856
000050 0f 82 2b 3d 42 a2 64 bd f4 a4 e4 bd f8 78 38 3d
       0.04187208 -0.055818804 -0.11164275 0.04503724
000060 47 cd a9 3b d7 ce f1 3c f6 1b ad 3d 06 63 1a bd
       0.0051819417 0.029517574 0.08452599 -0.037692092
000070 e6 65 33 bd 99 f9 c2 3c 67 69 30 bd 32 f4 85 bd
       -0.04379835 0.023800658 -0.04306927 -0.06540717
000080 49 1e e5 bd f0 ec bf bd e4 13 0e bc c3 55 b6 3d
       -0.11187417 -0.09371364 -0.0086717345 0.089030765
000090 57 6f 8f bd ca c1 00 3d 87 ae a1 3d 23 2c 3e 3c
       -0.07003658 0.03143481 0.078946166 0.011607203
0000a0 3c d6 2a bb 7f b0 c0 3d 97 c6 d7 bd b9 d9 a8 3d
       -0.0026067635 0.09408664 -0.10535925 0.08244652
0000b0 a7 c0 be 3d d6 7c b7 3d fd c7 a8 3d c7 d1 f0 bb
       0.09314089 0.089593574 0.0824127 -0.007349226
0000c0 a6 11 c9 bd 2e 96 8f bd 1e 71 c8 bd 7d 19 8b bd
       -0.09817819 -0.070110664 -0.097872004 -0.06791971
0000d0 35 c6 ca bd 41 f8 a4 3d f7 45 1e 3d c4 44 45 bd
       -0.09901086 0.08055163 0.038640942 -0.048161283
0000e0 ff c9 31 3b b2 c0 87 3a 9b 28 44 bc de d6 92 3d
       0.0027128456 0.001035711 -0.011972572 0.07169889
0000f0 54 6a 53 3d a4 a3 a9 bd d3 fc c2 3d f9 8b 33 bd
       0.051615074 -0.08283165 0.09520879 -0.04383466

conv2.weight f4 [32, 64, 1, 1]
000000 ff f5 65 bd 83 07 f6 3d 1f 29 a6 bd 2b a7 fd bc
       -0.056142803 0.120131515 -0.08113312 -0.030963501
000010 5c 83 0f 3c 41 8e f2 bd 8c d5 bb 3d 63 d7 a9 3d
       0.008759346 -0.11843539 0.0917159 0.08293035
000020 ac 6c f4 bd 3c 8a ac bc 08 8f b5 3c fe 67 81 3d
       -0.1193479 -0.021062009 0.02216293 0.06318663
000030 74 0b 53 3d aa b4 53 bc 64 e3 da 3d a9 bb 07 bd
       0.051524594 -0.012921492 0.106879026 -0.03313795
000040 c4 27 75 3b 0f f0 a3 bd 70 50 93 bd 12 f3 31 bd
       0.0037407735 -0.08004772 -0.071930766 -0.0434447
000050 c9 21 ea bd 5a 14 ab bc 41 53 ce 3c 30 8e b0 bd
       -0.11432225 -0.020883728 0.025186183 -0.0862087
000060 72 34 df bd ee 16 e1 3d 1d f6 65 bd be a4 bc bd
       -0.10898675 0.109907016 -0.056142915 -0.092111096
000070 b2 98 00 bd 93 ee 78 bd 5a 57 f4 bd 88 ab 88 bc
       -0.03139562 -0.060774397 -0.119307235 -0.016683355
000080 57 a1 75 bd b7 b4 28 bd b0 49 64 3d a7 45 bf 3b
       -0.05996832 -0.041187968 0.055734336 0.0058371606
000090 ba d3 d5 3d 48 f5 01 be ce d2 df 3d 14 9a 8a 3d
       0.10440774 -0.12691224 0.1092888 0.06767669
0000a0 4f fc 0c bd 70 14 b1 3d 98 b4 ef 3d 6a 0f 48 3c
       -0.034420308 0.08646476 0.117043674 0.012210706
0000b0 4c 3e 0e 3d 65 3b 26 bd 85 04 18 bc 00 42 c4 bb
       0.03472738 -0.040583987 -0.009278421 -0.005989313
0000c0 2b 82 83 bd 58 04 b1 3c 33 c2 75 bd 2c a6 82 3d
       -0.06421312 0.021608517 -0.059999656 0.06379351
0000d0 c8 2f 9d 3c 58 64 c6 bd 23 3c de 3d e0 2a 19 3d
       0.019187823 -0.09687108 0.10851314 0.037394404
0000e0 8c 4a 58 3d d2 bf 04 be 11 a5 be 3d cc 80 fd 3c
       0.05280547 -0.12963799 0.09308828 0.030945204
0000f0 2d 31 56 bc c2 91 a7 bd b0 42 5b 3c b9 56 43 3d
       -0.013073248 -0.08182098 0.013382599 0.047690127
000100 07 e5 21 3d 3f 82 bd 3d e4 2c e4 bd be 57 c7 bd
       0.039525058 0.09253358 -0.11141375 -0.09733532
000110 ac 06 fa 3d 52 0a df 3d 10 bc 37 bc fa db 9e 3d
       0.12208304 0.1089064 -0.011214271 0.07756801
000120 0a 06 b7 3d 1e 9b b9 3d 58 61 73 bd ef 67 25 bd
       0.08936699 0.090627894 -0.059419006 -0.040382322
000130 ba c7 85 bd e8 09 0c bd 09 1a f3 3d a5 96 38 3a
       -0.065322354 -0.034189135 0.118702 0.0007041491
000140 4c 75 cc bd 5d 28 c3 3d 22 6a 50 3d 1a d8 c4 3c
       -0.0998331 0.09529183 0.050882466 0.024028827
000150 a4 3d 86 bd 44 9d bb 3d a9 87 cf bd d0 39 7e 3d
       -0.06554726 0.091608554 -0.10133297 0.062066853
000160 a2 7b 35 bc 81 f6 32 bd 8c ae e2 bd 2c e5 8e 3c
       -0.01107684 -0.043692116 -0.110684484 0.017443262
000170 4c 33 71 bd b7 fb 48 bd 28 a5 90 3d f6 43 a4 bd
       -0.05888681 -0.04906818 0.07062751 -0.08020775
000180 4c ee f3 3d bc 70 d4 3d 16 63 ba 3d 07 7d 62 3c
       0.11910686 0.10373065 0.091009304 0.013823754
000190 a8 e8 c3 bd 3e 6f e5 bc b2 7b 78 bd c9 c2 88 bc
       -0.0956586 -0.028007146 -0.06066484 -0.016694443
0001a0 56 9a ee bd 20 f7 65 bd d0 ee af bc 91 a0 3c 3a
       -0.11650531 -0.05614388 -0.02147618 0.0007195557
0001b0 2c 11 04 bd e3 08 f0 3c 38 89 8b bd b6 63 ae bd
       -0.03224294 0.029301113 -0.06813282 -0.08515112
0001c0 22 7c ba bd 16 cf ec 3d 61 1c 9c 3d 3a e8 e1 bd
       -0.09105708 0.11562936 0.076226 -0.11030622
0001d0 90 6f d8 bd a0 c5 a2 bb 8d d9 86 bd e0 94 2d 3d
       -0.10568154 -0.0049674064 -0.06584463 0.042378306
0001e0 03 ea 2f bd b0 fd 6d 3c b1 77 d6 bc 4d 06 bf bd
       -0.04294778 0.014525816 -0.02618012 -0.09327374
0001f0 65 0d 17 bc 7e 8e ea 3d f0 9a cf 3d f5 a4 ac bd
       -0.009219502 0.114529595 0.10136974 -0.084299006
000200 a8 a0 40 3d 0c 78 f4 3d 46 f3 ce 3c a1 7d 32 bc
       0.047028214 0.119369596 0.025262486 -0.01089421
000210 ac 13 df 3d 89 bd 8e 3c e5 9f be bc 2f cf 28 3e
       0.10892424 0.017424362 -0.023269603 0.16485284
000220 96 ee 51 3d e9 5c b0 bd 16 a4 b9 3d 8c 70 08 3e
       0.051252924 -0.08611471 0.090645 0.13324183
000230 b4 e4 cc 3d 19 03 64 bd 19 e8 0a bd 49 08 bd 3d
       0.10004559 -0.055667017 -0.03391275 0.09230096
000240 89 a0 aa 3d 6a 43 d1 bd 6d ed e1 3d 45 5f a7 3d
       0.08331401 -0.10217936 0.110316135 0.08172468
000250 7d fc 1d 3d af 87 d1 bc 41 7f 2d bc 15 c9 9b 3d
       0.03857087 -0.025577394 -0.010589422 0.07606713
000260 4e 64 27 3d 02 97 da 3d ea 2f 90 bd 99 f5 30 bd
       0.040867142 0.10673334 -0.07040389 -0.04320297
000270 83 b1 69 bc df cf 49 3d fc 59 32 3d c4 d3 87 3d
       -0.0142635135 0.049270507 0.043542847 0.06632188
000280 5a 9b 72 bd 28 0b 13 bc 07 76 47 3d af bc 5e bd
       -0.059230186 -0.008974828 0.048696544 -0.05437916
000290 c8 fc b6 3d 11 a5 b6 3d 9b a6 72 3d 2a aa 93 3d
       0.08934933 0.08918203 0.05924092 0.072101906
0002a0 54 87 9a 3d be 50 db bd 60 e1 14 bd d1 14 bc 3d
       0.07545343 -0.1070876 -0.036347747 0.09183658
0002b0 fb 43 5c bd 44 f3 b9 3c c2 33 37 bd c0 6f a2 bb
       -0.05377577 0.022699006 -0.044727094 -0.0049571693
0002c0 7c 59 9e bc 60 00 13 bd a7 2f 30 3d bc 1e eb 3d
       -0.019329779 -0.03588903 0.043014195 0.114804715
0002d0 40 9f 1c 3b cc 27 16 bd ca 5d d8 3d b4 a1 69 bd
       0.0023898631 -0.036659047 0.10564764 -0.057038978
0002e0 e5 9c 23 3d 84 b9 6d 3c 6a 24 8f 3d a9 73 b4 3d
       0.03994455 0.014509562 0.06989367 0.08811123
0002f0 75 b4 30 3d e0 05 a4 bb 84 b3 9c 3d 17 73 ab 3c
       0.043140847 -0.005005583 0.076514274 0.020928903
000300 7f c4 4b bc c8 b5 14 3d fd 6f 4a bd cf 92 43 3c
       -0.012436985 0.036306173 -0.049423207 0.011936857
000310 f2 38 96 bd 3e 9f 8e 3d 9b 94 f7 3d 52 33 b7 3a
       -0.0733508 0.06963967 0.12088891 0.0013977087
000320 8e 29 e7 bd 2a fb c9 3d 8a dc 86 bd 9d 47 de 3d
       -0.11287223 0.09862359 -0.06585033 0.10853503
000330 24 6d b1 3d d7 f5 28 bd 54 df 4e 3c 0f bd 2d bd
       0.08663395 -0.041250076 0.012626488 -0.04241663
000340 57 7e c8 3d d6 16 b9 bd a4 8d 98 3c 4c 1c 5c bd
       0.097897224 -0.09037559 0.018622227 -0.053737924
000350 2c 17 cb 3d 56 10 93 3d 34 56 e8 3d 64 b0 6b bd
       0.09916529 0.0718085 0.11344567 -0.057541266
000360 12 f5 71 3d 65 91 cd bd 16 9e a1 3d e2 cc 26 bd
       0.059071608 -0.100374974 0.078914806 -0.040722735
000370 58 d4 2a 3d b7 88 79 3d a4 8a a0 bd da d8 8f 3d
       0.041706413 0.060921397 -0.078389436 0.07023783
000380 dc ef 28 bd b7 1f 73 3d ae ce 2e bd 97 79 be 3b
       -0.041244373 0.059356418 -0.042677574 0.0058128345
000390 10 31 50 3c 64 b6 df 3d 21 fd e8 3c 16 22 cc 3c
       0.01270701 0.1092346 0.028441014 0.024918597
0003a0 75 2a bd bc 01 54 00 be d8 55 5f bd e0 85 34 bd
       -0.023091534 -0.12532045 -0.054525226 -0.044072986
0003b0 32 26 39 3d 2a eb c8 3a a6 43 18 3d ce cc 84 bd
       0.04520244 0.0015328873 0.03717389 -0.06484376
0003c0 a0 55 fa bd e4 95 3b 3d bc 08 b1 3d 20 47 87 3d
       -0.12223363 0.045797244 0.08644244 0.06605363
0003d0 9e 41 d4 3d 2a c3 fa bd 6a b8 2a 3d 70 48 cb 3d
       0.10364078 -0.12244256 0.041679777 0.09925926
0003e0 90 d9 5e bd 38 b3 a6 3d 82 ec c3 3d a8 20 22 3d
       -0.054406703 0.08139652 0.09566595 0.039581925
0003f0 63 7d e4 bd 9e 6d 7d 3d e3 f1 07 3e a9 e9 77 bc
       -0.11156728 0.061872117 0.13275866 -0.0151313925

conv2.bias f4 [32]
000000 c7 84 85 bd c3 9f 30 bd de 15 c4 3d c6 c2 8b 3d
       -0.06519466 -0.04312111 0.09574483 0.068242595
000010 8e 78 c7 3c 52 89 da bd 4b ff 33 3d 21 7a c2 3d
       0.024349477 -0.10670723 0.04394464 0.094959505
000020 93 1a b9 3d c8 c5 8c bd 7e 90 f0 bd 8e ec 9d bd
       0.09038272 -0.06873661 -0.1174631 -0.07711135
000030 b3 28 ef bd 0d 65 d9 3d 50 ac 96 bd 0a c2 8f 3c
       -0.11677685 0.10614977 -0.07357085 0.01754858
000040 c1 17 c2 3d 64 de 0c 3d 5d 57 ee bd 37 cd 1f bb
       0.09477187 0.034391776 -0.11637757 -0.0024383792
000050 c3 31 da 3d 25 f9 92 bb b6 ae b1 bc 17 b1 e7 3d
       0.106540225 -0.0044852667 -0.021689754 0.11313074
000060 e6 e5 e2 bd e2 dc 6b bd d3 8c 32 3c 78 b4 12 3e
       -0.11079006 -0.057583697 0.010897833 0.14326656
000070 5e c8 9b bb 8d 7b 98 bd e4 86 f2 bd 66 a3 eb bd
       -0.0047541102 -0.074454404 -0.118421346 -0.11505775

conv3.weight f4 [1, 32, 5, 5]
000000 90 8c 97 3c 22 2c a4 bc 94 10 99 3b 7d 24 40 3c
       0.018499643 -0.020040575 0.0046711657 0.0117274495
000010 94 fc 62 3c b9 68 0c bd c0 c0 84 3c cc 6b 38 bc
       0.013854165 -0.03427956 0.016205192 -0.0112561695
000020 73 14 4a bc 8e 7b ce bb 91 e0 07 bd d2 86 a6 bb
       -0.012333977 -0.00630135 -0.033173148 -0.00508199
000030 69 21 1e 3c 7b f2 0b bd b6 11 8a bc a7 d0 c9 bc
       0.00965152 -0.034166794 -0.016854148 -0.024635626
000040 b0 e9 b9 bc 6f 4e 9e bc a5 4f e1 3c c2 01 21 3c
       -0.022694439 -0.01932451 0.027503798 0.009827079
000050 e0 f0 85 3c 84 4e ea bc 40 6b 86 bc 92 c4 e1 bc
       0.01635021 -0.028601892 -0.016408563 -0.027559552
000060 76 dc b2 3c 75 c3 03 bd 8d 96 f2 bc 83 26 63 3a
       0.02183364 -0.032168824 -0.029612804 0.00086651015
000070 b4 d3 3a 3c 61 53 66 3c 99 63 50 bb 23 bb e5 3b
       0.011403013 0.014057965 -0.0031797646 0.007010834
000080 ff 40 06 3c fb 77 36 3c cc 6d fb bb 65 14 d8 3c
       0.008194207 0.011137004 -0.007673001 0.026376912
000090 eb 61 8d 3b af d1 ad 3c 4a bf 4b 3c a2 41 91 bc
       0.0043146512 0.021218149 0.012435744 -0.017731491
0000a0 14 60 64 bc c4 37 99 bc 73 7c 0b bb 8f e4 b8 3b
       -0.013938922 -0.018703349 -0.0021283894 0.0056424807
0000b0 93 4e a6 3a 89 a9 02 3d cf 56 09 3d dc 68 30 3c
       0.0012688212 0.031899963 0.033530053 0.010767188
0000c0 65 7d 62 3b 82 03 a0 bc 19 8e e8 3c 0c 3b 22 bc
       0.0034559604 -0.019532923 0.02838807 -0.009901773
0000d0 de ca a7 bc 41 6f c0 3c 40 22 d6 3c da fc c6 3c
       -0.020482477 0.02349055 0.026139379 0.02429049
0000e0 35 f9 41 3c 82 cb f7 bb 4d bc f4 3c 83 fb 1e 3d
       0.011839201 -0.007562102 0.029874945 0.03881408
0000f0 a4 c8 d3 3c 28 c0 fa 3c 9f 68 5d bb 1d bf c6 3c
       0.025852509 0.030609205 -0.0033784283 0.024261052
000100 b9 a9 dd bb a9 40 a9 ba 1b d6 ba 3c bc 0e c0 3c
       -0.0067646173 -0.0012912947 0.022807172 0.023444526
000110 0c 24 ec 3c d2 54 4b 3b 98 7f 13 bb 87 18 7f 3c
       0.028825782 0.0031025899 -0.0022506472 0.015569813
000120 cf 94 e1 3c 96 9f 5b 3c 84 77 a8 bc 66 c1 0e 3d
       0.027536778 0.0134047475 -0.020564802 0.034852408
000130 c5 c6 96 3c 17 3e 81 3c a2 f7 a6 bb 63 57 0a 3d
       0.018405328 0.015776677 -0.005095438 0.033774745
000140 cf 35 8b 3b aa 85 2f 3b 0d cf a0 3c 0c 33 2f 3a
       0.004248358 0.002678255 0.01962998 0.0006683327
000150 66 11 0c 3c fd 18 a1 3b d9 9d 56 3c 41 97 d0 3b
       0.00854907 0.004916309 0.013099157 0.006365687
000160 24 6f 94 bc c9 59 dd bb 82 b9 0d 3d 8a 39 db 3c
       -0.018119402 -0.006755088 0.034600742 0.026760835
000170 18 ce 69 3a fa 86 cb 3b c0 77 a6 bc 05 8e ed 3c
       0.0008918955 0.006211159 -0.020320773 0.028998384
000180 62 97 fc bc 12 80 b1 3c 25 da e8 3c 04 31 29 3c
       -0.030833904 0.021667514 0.028424332 0.010326628
000190 70 46 6c 3c 75 88 0b bd f1 ac 5e bc 44 db 9d bc
       0.0144210905 -0.034065682 -0.013591037 -0.019269593
0001a0 e3 e9 41 3c 65 94 05 bd f3 56 c5 bc 97 9e 3a 3c
       0.011835548 -0.032612223 -0.024089312 0.01139035
0001b0 4e 2d b9 3b 45 e8 15 bd 19 50 c5 3c 9c ef 9f 3c
       0.0056511527 -0.036598463 0.024086045 0.019523434
0001c0 9d d0 77 3b f6 e7 58 ba 62 cc 01 bd 09 f9 16 bd
       0.0037813552 -0.0008274311 -0.031689055 -0.036858592
0001d0 6a f6 f1 bc 5d 79 e6 bc 5d 62 d8 bc 73 f1 b3 bc
       -0.029536445 -0.028134042 -0.02641409 -0.021965718
0001e0 cc 86 ff 3c 0c 0a 19 bd fb 6a e3 3c 76 92 dd 3c
       0.031192206 -0.037363097 0.027760973 0.027047377
0001f0 fc cf ed 3a 2a 81 e2 3a 7a 03 41 3c e6 49 85 3b
       0.0018143649 0.0017280926 0.011780614 0.0040676473
000200 91 42 e1 bc c0 9d e9 bc 2a fb 08 3d 50 15 4c bc
       -0.027497562 -0.028517604 0.033442654 -0.012456253
000210 a0 b7 99 3c 12 93 57 3c 11 e3 91 bc 37 ba 46 bb
       0.018764317 0.013157623 -0.017808469 -0.0030323395
000220 5e 3d db bb 9b f9 07 3d 55 fe 52 3b 69 4d 39 3c
       -0.006690665 0.033197027 0.003219505 0.01130996
000230 5b e5 af bc a0 ef 93 bc 30 e8 d8 bc 65 1d 84 3c
       -0.02147167 -0.018058598 -0.026477903 0.016127298
000240 ca ea ec bc cf e6 8b 3c ab 33 91 3c 65 3c c3 3b
       -0.02892055 0.017077832 0.017724833 0.0059581273
000250 60 3f 35 bc 46 69 ab 3c 4f 5f df bc 1d 06 c2 3c
       -0.011062473 0.020924222 -0.027267126 0.023684556
000260 15 f9 9e 3a aa c7 ed bc 0e d1 32 3c e4 25 94 bc
       0.0012128676 -0.029025871 0.0109141 -0.018084474
000270 06 85 e3 3c 90 44 ec bc 3f fc bb 3c 7b d6 d1 3b
       0.027773391 -0.028841287 0.022947429 0.006403742
000280 b3 d1 13 bd 89 f4 3f 3c cf 74 41 bc 58 c8 42 3c
       -0.036088657 0.011716017 -0.0118076345 0.011888586
000290 d7 7b 2d 3b b7 4c a4 bc 04 85 eb 3b 8d 83 a2 bc
       0.002647152 -0.020056112 0.0071874876 -0.019838119
0002a0 01 30 00 bc ae 50 e6 ba 56 45 81 3c 1c 90 79 3b
       -0.007823945 -0.0017571652 0.015780132 0.003808028
0002b0 f2 92 0b bd a4 a5 5e 3c 98 20 c7 bb 16 4e b3 bc
       -0.034075685 0.0135892965 -0.0060768835 -0.02188782
0002c0 c0 2e 09 3d a5 77 27 3c 23 67 8b 3c 14 72 0b ba
       0.03349185 0.010221397 0.017016953 -0.0005319428
0002d0 8b 5f 01 bd 36 f7 c6 3c c0 bb 43 3c d5 35 6d bc
       -0.031585258 0.024287801 0.011946619 -0.014478167
0002e0 d6 6a fd 3c 03 8a ea bc 82 78 df 3c 8f 99 9e 3c
       0.030934732 -0.028630262 0.027279142 0.019360332
0002f0 d9 0c cb 3c 7b 59 44 3b 4d c0 b1 bc 51 75 ae 3b
       0.0247864 0.002996056 -0.021698141 0.005324044
000300 89 24 ac bc 1a 0e d4 bb b9 8d 5b bc a0 95 d3 bc
       -0.021013515 -0.0064714076 -0.0134004885 -0.025828183
000310 b8 55 f5 3c dc 0e f0 bc fc 25 cf 3c 75 1b 26 bc
       0.0299481 -0.02930396 0.025286667 -0.010138382
000320 4e 9e c5 bc ad 1b 41 3c 5a 8f 8b bc ce 59 da 3c
       -0.024123337 0.011786384 -0.017036129 0.02665415
000330 7f 25 a2 3c ca 4a f7 3c 51 b7 00 3a d4 54 0f bd
       0.01979327 0.03018703 0.0004910129 -0.034993008
000340 e5 3d cf 3b af 50 05 bc 76 9f 3c 3c c9 b3 d8 3b
       0.006324517 -0.008136912 0.011512628 0.006613229
000350 25 10 f7 bc 97 f2 b3 3c 04 ef d0 bc f2 a4 02 bd
       -0.030159065 0.021966262 -0.025504597 -0.031895585
000360 56 63 fc bb d9 3a 0d 3d be 0d bd bc f1 1b 48 ba
       -0.0077022715 0.03447995 -0.023077842 -0.0007633558
000370 68 73 b5 bc c9 24 a6 3c cb 93 38 bc 1a 87 f0 bc
       -0.022149757 0.020281212 -0.011265705 -0.029361296
000380 d1 be 5d 3c 5f e7 d2 bc dd 95 e9 3c 87 4c 8c 3c
       0.013534264 -0.025745092 0.028513843 0.017126335
000390 c7 e7 73 3b 08 13 5a 3c 9b 71 a1 bc 4d 26 00 3d
       0.0037217007 0.0133102015 -0.019707492 0.031286526
0003a0 f9 f6 ee 3a a6 fd df bc 7b d8 e6 3b d0 cc d6 bc
       0.0018231563 -0.027342629 0.0070448495 -0.02622071
0003b0 30 26 98 bb c5 89 d1 bc cf cb 0d bd 6f 70 1e 3c
       -0.004643224 -0.025578389 -0.034618195 0.009670361
0003c0 53 c1 e9 bc e4 14 b7 3c a6 0c e2 3c f0 a6 43 3c
       -0.028534567 0.022348829 0.027593922 0.0119416565
0003d0 f6 10 86 bb 0e af 21 bc c2 8b 45 bc ce de f7 b8
       -0.0040913774 -0.009868396 -0.012057247 -0.000118193784
0003e0 77 64 b5 3c 1b 10 bf 3c 31 58 2e 3c b7 17 f8 3c
       0.022142632 0.02332311 0.010641144 0.030284746
0003f0 4c 65 02 bd ac 62 27 39 ae 99 00 3d f8 a2 bb bb
       -0.031834885 0.00015963119 0.03139656 -0.0057262145
