resutls_128/epoch_24.522.pth (torch, 34981 bytes, 5 tensors)

conv1.weight f4 [64, 1, 9, 9]
0	0x3d68abc6	0.05680444
1	0xbd49a814	-0.049232557
2	0xbcad01d7	-0.021119041
3	0x3d58fec8	0.052977353
4	0xbdd3b4b7	-0.10337203
5	0x3d89d86f	0.067307346
6	0xbcbd3969	-0.023098664
7	0x3d641722	0.055686124
8	0x3c6a1497	0.014287136
9	0xbc590de4	-0.013247941
10	0x3d0106e9	0.03150073
11	0x3be0e4b6	0.006863202
12	0x3d2de8f2	0.042458482
13	0xbd27bd77	-0.040952172
14	0xbbcd3972	-0.0062629515
15	0xbc155e0e	-0.009116663
16	0x3c85af19	0.016318845
17	0xba26d141	-0.0006363579
18	0x3dcacd23	0.09902408
19	0x3d171414	0.036884382
20	0xbd1cc215	-0.03827103
21	0xbd81e542	-0.063425556
22	0xbc6ba874	-0.014383424
23	0xbd350361	-0.044192676
24	0xbd06ad49	-0.0328801
25	0x3bee6a0e	0.0072758263
26	0x3d8a9bb1	0.06767977
27	0x3d810654	0.06300035
28	0xbdd80add	-0.10548947
29	0x3d9541aa	0.07287915
30	0x3d124fb4	0.035720542
31	0x3de2a621	0.11066843
32	0x3d9fdf19	0.078062244
33	0xbdc7dbfe	-0.09758757
34	0xbdd2a828	-0.102859795
35	0xbd5291dd	-0.051408637
36	0x3dcf00ca	0.101075724
37	0xbc6c7f0f	-0.01443459
38	0x3d576a20	0.052591443
39	0xbd3bec6d	-0.04587977
40	0x3dec4a88	0.11537653
41	0xbd28f141	-0.041245703
42	0x3db419bd	0.08793972
43	0x3ba37540	0.0049883425
44	0xbd638363	-0.055545222
45	0x3d768cda	0.06019292
46	0xbd6294d7	-0.055317726
47	0x3d18e203	0.037324917
48	0xbcdaf4e9	-0.02672811
49	0xbbcd986d	-0.006274274
50	0xbdcff482	-0.10154058
51	0xbd48525c	-0.04890667
52	0x3d81ca90	0.06337464
53	0xbcc9b233	-0.024621105
54	0x3de7ed94	0.11324611
55	0x3dbcedb2	0.09225024
56	0xba8d167f	-0.0010764151
57	0xbd8e1664	-0.069378644
58	0x3d9563af	0.07294404
59	0x3d200308	0.03906539
60	0xbd8c4360	-0.06848788
61	0x3d989dc5	0.07451967
62	0x3d8d9efe	0.06915091
63	0x3dcd70a5	0.10031251
64	0xbd759da4	-0.05996479
65	0xbc771019	-0.015079522
66	0x3ad79e39	0.0016450352
67	0x3ca754bd	0.020426149
68	0xbda5a2fe	-0.08087729
69	0xbd9cff11	-0.076658376
70	0x3d7cb48b	0.061695617
71	0xbccfb9dc	-0.02535718
72	0x3d62ee34	0.05540295
73	0x3c01ca13	0.007921713
74	0x3d1f3704	0.038870826
75	0x3cdfc80c	0.02731707
76	0x3d329fe9	0.043609533
77	0x3d6b916c	0.057511732
78	0xbdd0422c	-0.10168871
79	0x3d668e00	0.056287766
80	0xbda0288d	-0.078202344
81	0xbdac74e6	-0.08420734
82	0x3bcc7ce9	0.0062404764
83	0xbca12fb7	-0.019676073
84	0x3d83d25d	0.06436608
85	0xbd851d20	-0.06499696
86	0xbdcb7e1f	-0.09936165
87	0x3da4f260	0.08054042
88	0xbc893dea	-0.016753156
89	0x3d7cc94f	0.06171542
90	0x3d1007c9	0.035163675
91	0xbdabcd60	-0.083887815
92	0x3cb01982	0.021496538
93	0x3cd3395c	0.025784187
94	0xbd99c827	-0.07508879
95	0xbd5a304c	-0.053268716
96	0x3d19ca6c	0.03754656
97	0x3ca15a63	0.01969642
98	0xbd446379	-0.047946427
99	0xbd0d6fd0	-0.03453046
100	0x3dce43bc	0.10071513
101	0xbcb20b48	-0.021733895
102	0x3d7b8f80	0.06141615
103	0x3d414a76	0.047190152
104	0xbd94e793	-0.07270732
105	0xbdc2a1cb	-0.09503516
106	0x3dd9c48b	0.10633191
107	0x3ba2150f	0.004946358
108	0x3d9a079c	0.075209826
109	0x3cb4ded7	0.022078915
110	0x3d0dab42	0.034587152
111	0x3da79c3a	0.08184095
112	0x3dd5fecb	0.104489885
113	0xbd985de6	-0.07439785
114	0x3c5dea59	0.013544642
115	0x3da97e98	0.08276099
116	0x3da37682	0.07981588
117	0x3d8ce508	0.06879622
118	0xbda5330c	-0.08066377
119	0xbda498dd	-0.08036969
120	0xbd8a582f	-0.06755101
121	0x3c6512c7	0.013981528
122	0x3de321b3	0.11090412
123	0xbd8e9f9b	-0.06964036
124	0x3d754ddc	0.059888706
125	0xbd7b28fb	-0.06131838
126	0xbdd6c543	-0.104868434
127	0xbcc5cf80	-0.024146795
128	0x3d81a40c	0.063301176
129	0x3dd1e21e	0.102482066
130	0xbd8d7f38	-0.06909031
131	0x3cc6386a	0.024196822
132	0x3dc514cf	0.096231095
133	0x3d97d57c	0.07413766
134	0x3d8dbb7b	0.06920525
135	0x3d9f7bcc	0.07787284
136	0x3d8db0d2	0.069184914
137	0x3ce1acbd	0.027548188
138	0xbd9dd07f	-0.07705783
139	0xbdc06c13	-0.093956135
140	0xbd5203e1	-0.05127323
141	0xbc54b95b	-0.012983645
142	0xbd8b7973	-0.06810274
143	0x3d241f94	0.040069178
144	0x3d064421	0.032779817
145	0xbcdb547b	-0.026773682
146	0x3d27bbb6	0.0409505
147	0x3d0c1806	0.034202598
148	0x3d887ea4	0.0666478
149	0x3d971705	0.073774375
150	0xbd1d32f9	-0.03837869
151	0x3ddccd7b	0.1078138
152	0xbc6834a0	-0.014172703
153	0xbbbd2d4f	-0.0057732235
154	0xbddb0403	-0.106941245
155	0xbd96e58d	-0.07368002
156	0xbd894a23	-0.067035936
157	0xbd49b98b	-0.049249213
158	0x3d9eac59	0.077477165
159	0xbd1a0d81	-0.037610535
160	0xbdac9154	-0.08426157
161	0x3d277f72	0.040893026
162	0x3d1797c5	0.037009973
163	0x3d9784ea	0.07398398
164	0xbd5fe4a2	-0.0546614
165	0x3cdfb764	0.027309127
166	0xbd189930	-0.037255466
167	0xbcb23dc4	-0.021757968
168	0xbdaf8d2e	-0.0857185
169	0xbd46a29a	-0.048494913
170	0xbd03d143	-0.03218199
171	0x3d4933ac	0.049121544
172	0x3cb8fa86	0.022580396
173	0x3cfa3d0a	0.030546684
174	0x3dea7066	0.114472196
175	0x3de50cfc	0.11184117
176	0x3da27824	0.07933071
177	0x3bd8fcaf	0.006621919
178	0xbd988aa7	-0.07448321
179	0x3db5cb18	0.08876628
180	0xbcd050a7	-0.025429083
181	0xbbc0ffd2	-0.005889871
182	0xbdbbfc3e	-0.09178971
183	0xbc8fc976	-0.017552119
184	0xbd89aa73	-0.06721964
185	0x3dda2c55	0.10652987
186	0xbdbcc217	-0.09216707
187	0xbdab0b84	-0.08351806
188	0xba89c9df	-0.0010512433
189	0xbd698344	-0.05700995
190	0x3d32aedc	0.04362379
191	0xbd1bac30	-0.038006008
192	0xbd406a25	-0.046976227
193	0x3c3c3950	0.011488274
194	0x3daf5335	0.08560792
195	0xbd967e8d	-0.073483564
196	0x3d656590	0.05600506
197	0x3d993d39	0.074823804
198	0x3de5bf27	0.112181
199	0xbd967420	-0.07346368
200	0x3d039ee1	0.03213394
201	0xbd9cb29a	-0.07651253
202	0x3dcdb3ea	0.100440815
203	0xbd19d825	-0.037559647
204	0x3d9349e9	0.071918316
205	0x3bf56a48	0.0074894764
206	0xbba0bca4	-0.0049053
207	0xb8eef309	-0.00011393993
208	0x3cbe01e9	0.02319427
209	0x3d6c091b	0.05762587
210	0x3cc089eb	0.023503264
211	0x3d21d53f	0.039510008
212	0xbdc159bf	-0.09440946
213	0x3db003f9	0.08594508
214	0x3dcef617	0.10105532
215	0x3dc3d297	0.09561651
216	0x3dae4a8e	0.08510314
217	0xbd9c5565	-0.07633475
218	0xbd151adf	-0.03640258
219	0x3dd35385	0.103186645
220	0xbda2c1af	-0.079470985
221	0x3dd8d68e	0.10587798
222	0xbda98788	-0.08277804
223	0xbd987178	-0.074435174
224	0x3d6c7181	0.057725433
225	0xbd9ef1b3	-0.07760944
226	0xbcb78920	-0.022404253
227	0x3dadb6d8	0.0848214
228	0x3dbd51d1	0.09244121
229	0x3de03d1d	0.109491564
230	0xbc94d069	-0.018165784
231	0xbda8c752	-0.08241142
232	0x3de696d7	0.11259239
233	0xbcab277d	-0.020892853
234	0xbd34cd66	-0.044141196
235	0x3cf10b98	0.029424474
236	0xbd987ebf	-0.0744605
237	0x3d9d15a2	0.07670142
238	0x3d962ae6	0.07332401
239	0xbdacf4a8	-0.08445102
240	0xbdb40ea4	-0.08791855
241	0xbbe9559a	-0.0071208
242	0x3d484098	0.048889726
243	0xbb4033be	-0.0029327716
244	0xbd65b125	-0.05607714
245	0x3b39c4ca	0.0028346055
246	0xbdd50c0e	-0.1040269
247	0xbd9ffdb4	-0.07812062
248	0xbd9669b8	-0.07344383
249	0x3dbd57be	0.09245251
250	0x3dca8905	0.09889416
251	0xbd16db4d	-0.036830235
252	0x3bac4a66	0.0052578924
253	0x3d4c0002	0.049804695
254	0x3c5ec952	0.013597803
255	0xbd62d17e	-0.05537557

conv1.bias f4 [64]
0	0xbd745834	-0.05965443
1	0x3cd4514f	0.025917677
2	0xbd9bc24d	-0.07605419
3	0xbd2ea62c	-0.042638943
4	0x3da0b06a	0.07846148
5	0x3d6c81b3	0.05774088
6	0x3d9fe946	0.07808165
7	0xbcec13ec	-0.028818093
8	0x3dd20533	0.10254898
9	0x3da2c036	0.079468176
10	0x3d735a3d	0.05941223
11	0x3d4575db	0.0482081
12	0xbdc2e0a2	-0.095155016
13	0xbd8181ea	-0.06323607
14	0xbbd539bd	-0.006507127
15	0x3cfc8c78	0.0308287
16	0x3df7406c	0.12072834
17	0x3dc967ec	0.09834275
18	0xbd152a27	-0.036417153
19	0x3d8d5784	0.06901458
20	0x3d2b887e	0.041878216
21	0xbd64a324	-0.055819646
22	0xbde49e10	-0.111629605
23	0x3d387953	0.04503758
24	0x3baab8d3	0.005210021
25	0x3cf1a4eb	0.029497584
26	0x3dad1125	0.08450536
27	0xbd1a57bd	-0.03768133
28	0xbd33622f	-0.043794807
29	0x3cc2c6ba	0.0237764
30	0xbd306967	-0.04306927
31	0xbd85f432	-0.06540717
32	0xbde51ad5	-0.111867584
33	0xbdbfed2b	-0.09371408
34	0xbc0e1cb2	-0.008673834
35	0x3db65969	0.089037724
36	0xbd8f6f57	-0.07003658
37	0x3d00a505	0.031407375
38	0x3da194ec	0.07889733
39	0x3c3e134e	0.011601282
40	0xbb2b3ec7	-0.0026129948
41	0x3dc0a1e0	0.09405875
42	0xbdd7ca4e	-0.105366334
43	0x3da8d807	0.08244329
44	0x3dbec0a7	0.09314089
45	0x3db7859d	0.089610316
46	0x3da8cb37	0.08241885
47	0xbbf0d1c7	-0.007349226
48	0xbdc9098e	-0.098162755
49	0xbd8f962e	-0.070110664
50	0xbdc87559	-0.09788007
51	0xbd8b1d34	-0.067926794
52	0xbdcac635	-0.09901086
53	0x3da4f359	0.080542274
54	0x3d1e4783	0.038642418
55	0xbd4544c4	-0.048161283
56	0x3b31469b	0.002705014
57	0x3a8b6ada	0.0010636703
58	0xbc43f5b1	-0.011960433
59	0x3d92dc58	0.071709335
60	0x3d536044	0.051605478
61	0xbda9a9e9	-0.08284361
62	0x3dc2fd12	0.095209256
63	0xbd338fb1	-0.043838207

conv2.weight f4 [32, 64, 1, 1]
0	0xbd65f240	-0.05613923
1	0x3df60b3a	0.1201386
2	0xbda6291f	-0.08113312
3	0xbcfda72b	-0.030963501
4	0x3c0f9526	0.008763587
5	0xbdf28a8a	-0.118428305
6	0x3dbbd58c	0.0917159
7	0x3da9df1d	0.082945086
8	0xbdf46cac	-0.1193479
9	0xbcac8685	-0.021060238
10	0x3cb58f08	0.02216293
11	0x3d816f7c	0.06320092
12	0x3d530b74	0.051524594
13	0xbc53ad57	-0.012919745
14	0x3ddae365	0.10687903
15	0xbd07b445	-0.033130903
16	0x3b756a8c	0.003744754
17	0xbda3f00f	-0.08004772
18	0xbd935070	-0.071930766
19	0xbd31e8f4	-0.043435052
20	0xbdea21c9	-0.11432225
21	0xbcab0f74	-0.020881392
22	0x3cce5341	0.025186183
23	0xbdb08e30	-0.0862087
24	0xbddf30bb	-0.108979665
25	0x3de11763	0.10990789
26	0xbd65f61d	-0.056142915
27	0xbdbca4be	-0.092111096
28	0xbd0098b2	-0.03139562
29	0xbd78ead8	-0.06077084
30	0xbdf4575a	-0.119307235
31	0xbc88ab88	-0.016683355
32	0xbd759da0	-0.059964776
33	0xbd28b4ad	-0.04118793
34	0x3d6449b0	0.055734336
35	0x3bbf495e	0.0058376035
36	0x3dd5d3ba	0.10440774
37	0xbe01f548	-0.12691224
38	0x3ddfd2ce	0.1092888
39	0x3d8a9b8f	0.06767952
40	0xbd0cfc4f	-0.034420308
41	0x3db11470	0.08646476
42	0x3defb498	0.117043674
43	0x3c481321	0.012211592
44	0x3d0e3e4c	0.03472738
45	0xbd2637ae	-0.040580444
46	0xbc180485	-0.009278421
47	0xbbc44200	-0.005989313
48	0xbd83822b	-0.06421312
49	0x3cb10458	0.021608517
50	0xbd75be6a	-0.059996046
51	0x3d82a62c	0.06379351
52	0x3c9d2fc8	0.019187823
53	0xbdc66458	-0.09687108
54	0x3dde3cf1	0.108514674
55	0x3d192ae0	0.037394404
56	0x3d584e46	0.052809022
57	0xbe04bfd2	-0.12963799
58	0x3dbeac81	0.09310246
59	0x3cfd95bd	0.03095519
60	0xbc5616a4	-0.013066921
61	0xbda791c2	-0.08182098
62	0x3c5b6416	0.013390562
63	0x3d4356b9	0.047690127
64	0x3d21e0e4	0.039521113
65	0x3dbd7e85	0.09252647
66	0xbde432cb	-0.111425005
67	0xbdc757be	-0.09733532
68	0x3dfa02da	0.12207575
69	0x3ddeffe8	0.10888654
70	0xbc37bc10	-0.011214271
71	0x3d9ec7d3	0.07752957
72	0x3db7060a	0.08936699
73	0x3db99b1e	0.090627894
74	0xbd736158	-0.059419006
75	0xbd2582cf	-0.040407952
76	0xbd85c7ba	-0.065322354
77	0xbd0c0abf	-0.034189936
78	0x3df31623	0.118694566
79	0x3a34acf9	0.000689223
80	0xbdcc724b	-0.09982737
81	0x3dc324a6	0.095284745
82	0x3d505640	0.050863504
83	0x3cc4a991	0.024006637
84	0xbd863da4	-0.06554726
85	0x3dbb9d66	0.09160881
86	0xbdcf87a9	-0.10133297
87	0x3d7e39d0	0.062066853
88	0xbc35ce95	-0.011096616
89	0xbd3308f0	-0.043709695
90	0xbde2b5fa	-0.110698655
91	0x3c8ee175	0.01744149
92	0xbd71334c	-0.05888681
93	0xbd48f8fe	-0.049065582
94	0x3d90a528	0.07062751
95	0xbda443f6	-0.08020775
96	0x3df3ee48	0.11910683
97	0x3dd4696b	0.103716694
98	0x3dba6316	0.091009304
99	0x3c62620d	0.013817322
100	0xbdc3e8a8	-0.0956586
101	0xbce5701b	-0.028007558
102	0xbd7877ff	-0.060661312
103	0xbc88d4f1	-0.0167031
104	0xbdee9a56	-0.11650531
105	0xbd65f720	-0.05614388
106	0xbcaff286	-0.021477949
107	0x3a3afb7b	0.00071328104
108	0xbd04112c	-0.03224294
109	0x3cefe47e	0.029283758
110	0xbd8b8938	-0.06813282
111	0xbdae63b6	-0.08515112
112	0xbdba7c22	-0.09105708
113	0x3deccf16	0.11562936
114	0x3d9c1a94	0.07622257
115	0xbde1e83a	-0.11030622
116	0xbdd86f90	-0.10568154
117	0xbba2c5a0	-0.0049674064
118	0xbd86d979	-0.06584448
119	0x3d2d94e0	0.042378306
120	0xbd2febdf	-0.042949554
121	0x3c6de80d	0.014520657
122	0xbcd69b6a	-0.026197154
123	0xbdbf1127	-0.093294434
124	0xbc175145	-0.009235685
125	0x3dea8acf	0.11452257
126	0x3dcf92df	0.10135435
127	0xbdaca8ac	-0.08430609
128	0x3d40adb8	0.04704067
129	0x3df46d54	0.11934915
130	0x3cceb731	0.025233837
131	0xbc32a59a	-0.01090374
132	0x3ddf098a	0.10890491
133	0x3c8e69f6	0.01738451
134	0xbcbe9c6e	-0.02326795
135	0x3e28b7f2	0.1647642
136	0x3d51f0f3	0.051255178
137	0xbdb0403e	-0.08606003
138	0x3db9a7cc	0.09065208
139	0x3e086591	0.13319995
140	0x3dcce4b4	0.10004559
141	0xbd640e7e	-0.055677883
142	0xbd0b24b6	-0.033970557
143	0x3dbd0e19	0.092312045
144	0x3daacb36	0.08339541
145	0xbdd15096	-0.10220449
146	0x3de1cb05	0.11025051
147	0x3da743d2	0.081672326
148	0x3d1df1b1	0.038560573
149	0xbcd14e2e	-0.025549974
150	0xbc2d74b2	-0.010586904
151	0x3d9bc915	0.07606713
152	0x3d2722be	0.040804617
153	0x3dda74e2	0.10666825
154	0xbd904a2f	-0.070453994
155	0xbd30f950	-0.043206513
156	0xbc69b53a	-0.014264399
157	0x3d49fdc3	0.04931427
158	0x3d3259fc	0.043542847
159	0x3d87d3c4	0.06632188
160	0xbd7295cb	-0.059224885
161	0xbc137e9f	-0.009002357
162	0x3d477607	0.048696544
163	0xbd5ec97a	-0.05439136
164	0x3db6fcc8	0.08934933
165	0x3db6b2b5	0.089208044
166	0x3d72eaf8	0.059306115
167	0x3d939351	0.07205833
168	0x3d9a8754	0.07545343
169	0xbddb4feb	-0.107086025
170	0xbd14ef76	-0.03636118
171	0x3dbc113c	0.09182975
172	0xbd5c3feb	-0.053771894
173	0x3cb9b23d	0.022667998
174	0xbd373259	-0.04472575
175	0xbba26fc0	-0.0049571693
176	0xbc9e5d30	-0.019331545
177	0xbd130060	-0.03588903
178	0x3d303034	0.04301472
179	0x3deb1ebc	0.114804715
180	0x3b1c9f40	0.0023898631
181	0xbd1625e1	-0.036657218
182	0x3dd86ee2	0.10568024
183	0xbd69a1b4	-0.057038978
184	0x3d23d9e7	0.04000273
185	0x3c6e0db3	0.014529633
186	0x3d8f29fd	0.069904305
187	0x3db465b1	0.088084586
188	0x3d3086b9	0.04309723
189	0xbba4f56f	-0.005034141
190	0x3d9caabb	0.07649752
191	0x3cab4a85	0.020909557
192	0xbc4ba315	-0.0124290185
193	0x3d14aa04	0.036294952
194	0xbd4a7a3b	-0.049432974
195	0x3c437df6	0.011931887
196	0xbd963ca5	-0.07335786
197	0x3d8e9149	0.06961305
198	0x3df7949b	0.12088891
199	0x3ab08fa4	0.0013470543
200	0xbde72989	-0.11287219
201	0x3dca0d0d	0.098657705
202	0xbd86d974	-0.06584445
203	0x3dde3cee	0.10851465
204	0x3db16d24	0.08663395
205	0xbd28fce8	-0.041256815
206	0x3c4e63cc	0.012597036
207	0xbd2dac82	-0.042400844
208	0x3dc89ac0	0.09795141
209	0xbdb91ee0	-0.09039092
210	0x3c9835fb	0.018580427
211	0xbd5c40df	-0.053772803
212	0x3dcb137a	0.09915824
213	0x3d9317ca	0.07182272
214	0x3de85636	0.113445684
215	0xbd6bb064	-0.057541266
216	0x3d71cd78	0.05903384
217	0xbdcdaa9b	-0.10042306
218	0x3da19042	0.07888843
219	0xbd26d07f	-0.04072618
220	0x3d2ad458	0.041706413
221	0x3d79a68a	0.06094984
222	0xbda08aa4	-0.078389436
223	0x3d8fd8da	0.07023783
224	0xbd28f2d0	-0.04124719
225	0x3d730f30	0.059340656
226	0xbd2eceae	-0.042677574
227	0x3bbe4884	0.0058069844
228	0x3c503110	0.01270701
229	0x3ddfbf57	0.10925167
230	0x3ce95103	0.028481012
231	0x3ccbf23a	0.024895776
232	0xbcbd2a75	-0.023091534
233	0xbe005401	-0.12532045
234	0xbd5f5d3c	-0.054532275
235	0xbd348acb	-0.044077676
236	0x3d3929bb	0.045205813
237	0x3ac656a1	0.0015132019
238	0x3d184570	0.037175596
239	0xbd84ccce	-0.06484376
240	0xbdfa55a0	-0.12223363
241	0x3d3b95e4	0.045797244
242	0x3db10916	0.08644311
243	0x3d874720	0.06605363
244	0x3dd4419e	0.10364078
245	0xbdfac32a	-0.12244256
246	0x3d2acc21	0.04169858
247	0x3dcb4870	0.09925926
248	0xbd5eb564	-0.054372206
249	0x3da6bc8c	0.08141431
250	0x3dc3ef67	0.09567147
251	0x3d220f96	0.039565645
252	0xbde48beb	-0.111595
253	0x3d7d562a	0.06184975
254	0x3e07f0a7	0.13275395
255	0xbc78186a	-0.0151425395

conv2.bias f4 [32]
0	0xbd857d53	-0.06518044
1	0xbd30d709	-0.043173824
2	0x3dc42101	0.095766075
3	0x3d8bd50f	0.06827747
4	0x3cc6f67a	0.024287451
5	0xbdda8952	-0.10670723
6	0x3d33f88a	0.043938197
7	0x3dc272d9	0.09494562
8	0x3db91d0c	0.090387434
9	0xbd8cc4ac	-0.0687345
10	0xbdf0907e	-0.1174631
11	0xbd9dde08	-0.07708365
12	0xbdef24a5	-0.11676911
13	0x3dd95a93	0.10612979
14	0xbd96a829	-0.07356293
15	0x3c8f8333	0.017518615
16	0x3dc21172	0.09475984
17	0x3d0ce05d	0.034393657
18	0xbdee4c56	-0.11635654
19	0xbb1fcd37	-0.0024383792
20	0x3dda26bd	0.1065192
21	0xbb911319	-0.0044273254
22	0xbcb17a4f	-0.021664767
23	0x3de79f34	0.113096625
24	0xbde2e5e6	-0.11079006
25	0xbd6be3ad	-0.057590175
26	0x3c32ba3d	0.0109086605
27	0x3e1299eb	0.14316528
28	0xbb9d643d	-0.004803209
29	0xbd987b8d	-0.074454404
30	0xbdf286e4	-0.118421346
31	0xbdeba366	-0.11505775

conv3.weight f4 [1, 32, 5, 5]
0	0x3c978c90	0.018499643
1	0xbca42c22	-0.020040575
2	0x3b991094	0.0046711657
3	0x3c40247d	0.0117274495
4	0x3c62fc94	0.013854165
5	0xbd0c68b9	-0.03427956
6	0x3c84c0c0	0.016205192
7	0xbc386bcc	-0.0112561695
8	0xbc4a1473	-0.012333977
9	0xbbce7ca9	-0.0063014817
10	0xbd07e091	-0.033173148
11	0xbba686d2	-0.00508199
12	0x3c1e2169	0.00965152
13	0xbd0bf27b	-0.034166794
14	0xbc8a11b6	-0.016854148
15	0xbcc9d0a7	-0.024635626
16	0xbcb9e9b0	-0.022694439
17	0xbc9e4e6f	-0.01932451
18	0x3ce14fa5	0.027503798
19	0x3c20fedf	0.009826391
20	0x3c85f0df	0.016350208
21	0xbcea4e85	-0.028601894
22	0xbc866b47	-0.016408576
23	0xbce1c4c4	-0.027559645
24	0x3cb2db86	0.021833193
25	0xbd03c8e5	-0.03217401
26	0xbcf2a2e9	-0.029618697
27	0x3a6127be	0.0008588991
28	0x3c3ab555	0.011395772
29	0x3c663cdc	0.014052596
30	0xbb50c06d	-0.0031852976
31	0x3be585bc	0.007004468
32	0x3c061f6a	0.008186201
33	0x3c3658bc	0.011129554
34	0xbbfb9ad9	-0.0076783714
35	0x3cd80680	0.026370287
36	0x3b8d242c	0.0043072905
37	0x3cadbee3	0.021209186
38	0x3c4b9c55	0.012427409
39	0xbc914e6e	-0.017737594
40	0xbc647e7a	-0.01394617
41	0xbc99480e	-0.018711116
42	0xbb0c1841	-0.002137676
43	0x3bb89c50	0.0056338683
44	0x3aa57810	0.0012624282
45	0x3d02a441	0.031894926
46	0x3d0950fc	0.0335245
47	0x3c304cfe	0.010760544
48	0x3b621a53	0.0034500554
49	0xbca00b3d	-0.019536609
50	0x3ce89659	0.028392004
51	0xbc2240bd	-0.00990313
52	0xbca7ec9b	-0.020498564
53	0x3cc071da	0.023491789
54	0x3cd63a53	0.026150858
55	0x3cc6f410	0.0242863
56	0x3c41d15f	0.011829703
57	0xbbf89625	-0.007586258
58	0x3cf4af34	0.0298687
59	0x3d1f001b	0.03881846
60	0x3cd39d28	0.025831774
61	0x3cfa89d3	0.030583298
62	0xbb600ebc	-0.003418847
63	0x3cc690c3	0.02423895
64	0xbbde0744	-0.0067757685
65	0xbaaa5bef	-0.0012997369
66	0x3cbaba79	0.022793995
67	0x3cbfd59b	0.023417285
68	0x3cec1143	0.028816825
69	0x3b4b7356	0.0031044087
70	0xbb135e39	-0.002248658
71	0x3c7f0f21	0.015567572
72	0x3ce17361	0.027520837
73	0x3c5ba873	0.013406861
74	0xbca85d80	-0.020552397
75	0x3d0ec8fb	0.03485964
76	0x3c96d947	0.018414153
77	0x3c814490	0.015779763
78	0xbba695b4	-0.005083764
79	0x3d0a6851	0.03379089
80	0x3b8b4cf1	0.0042511155
81	0x3b2fcfb1	0.0026826675
82	0x3ca0cc76	0.019628745
83	0x3a31319a	0.00067594054
84	0x3c0c44a2	0.008561285
85	0x3ba0f149	0.004911576
86	0x3c5690a6	0.01309601
87	0x3bd04c4f	0.006356753
88	0xbc946f6d	-0.018119538
89	0xbbdd354d	-0.0067507387
90	0x3d0dbd90	0.03460461
91	0x3cdb4516	0.026766341
92	0x3a69a888	0.0008913358
93	0x3bcbc779	0.0062188474
94	0xbca65f53	-0.020309126
95	0x3ceda028	0.029007033
96	0xbcfc8205	-0.030823717
97	0x3cb1880c	0.021671318
98	0x3ce8f1fb	0.028435698
99	0x3c296ebc	0.010341343
100	0x3c6c6ff6	0.01443099
101	0xbd0b7bd0	-0.034053624
102	0xbc5e73a8	-0.013577379
103	0xbc9db415	-0.019250909
104	0x3c4240cf	0.011856272
105	0xbd058907	-0.032601383
106	0xbcc539c6	-0.0240754
107	0x3c3ae1eb	0.011406402
108	0x3bb9e139	0.0056726006
109	0xbd15cfb7	-0.036575045
110	0x3cc5677c	0.024097197
111	0x3ca00d66	0.019537639
112	0x3b78e629	0.0037978983
113	0xba531cc5	-0.0008053298
114	0xbd01b34c	-0.03166513
115	0xbd16eacc	-0.036845013
116	0xbcf1d4b7	-0.029520376
117	0xbce6538d	-0.028116012
118	0xbcd831ab	-0.026390871
119	0xbcb3bda2	-0.02194101
120	0x3cffa484	0.031206377
121	0xbd18f867	-0.03734627
122	0x3ce39062	0.027778808
123	0x3cddc125	0.027069638
124	0x3af0de7c	0.0018376852
125	0x3ae2812a	0.0017280926
126	0x3c41037a	0.011780614
127	0x3b8549e6	0.0040676473
128	0xbce14291	-0.027497562
129	0xbce99dc0	-0.028517604
130	0x3d08fb2a	0.033442654
131	0xbc4c1550	-0.012456253
132	0x3c99b7a0	0.018764317
133	0x3c579312	0.013157623
134	0xbc91e311	-0.017808469
135	0xbb46ba37	-0.0030323395
136	0xbbdb3d5e	-0.006690665
137	0x3d07f99b	0.033197027
138	0x3b52fe55	0.003219505
139	0x3c394d69	0.01130996
140	0xbcafe55b	-0.02147167
141	0xbc93efa0	-0.018058598
142	0xbcd8e830	-0.026477903
143	0x3c841d65	0.016127298
144	0xbceceaca	-0.02892055
145	0x3c8be6cf	0.017077832
146	0x3c9133ab	0.017724833
147	0x3bc33c65	0.0059581273
148	0xbc353f60	-0.011062473
149	0x3cab6946	0.020924222
150	0xbcdf5d32	-0.027266119
151	0x3cc2017b	0.023682347
152	0x3a9e6c31	0.0012086687
153	0xbcedc69e	-0.029025372
154	0x3c32dcb8	0.010916881
155	0xbc9421d0	-0.01808253
156	0x3ce381e9	0.027771907
157	0xbcec4c65	-0.028845022
158	0x3cbbfdaa	0.022948105
159	0x3bd1ed80	0.006406486
160	0xbd13cf2e	-0.036086254
161	0x3c3fee45	0.011714523
162	0xbc418606	-0.011811739
163	0x3c42c8a1	0.011888654
164	0x3b2d9cd4	0.0026491182
165	0xbca443cb	-0.020051857
166	0x3beb889d	0.0071879164
167	0xbca2889c	-0.019840531
168	0xbc002959	-0.007822358
169	0xbae5e0c0	-0.0017538294
170	0x3c814cc4	0.015783675
171	0x3b7987fd	0.003807544
172	0xbd0b96a1	-0.034079198
173	0x3c5ea7c2	0.013589801
174	0xbbc70d5c	-0.0060745906
175	0xbcb3397b	-0.021877995
176	0x3d093627	0.03349891
177	0x3c2785da	0.010224784
178	0x3c8b76c4	0.017024405
179	0xba08e7dc	-0.0005222538
180	0xbd01577b	-0.03157757
181	0x3cc7020f	0.024292974
182	0x3c43c298	0.01194825
183	0xbc6d1d9c	-0.014472391
184	0x3cfd7ba9	0.030942755
185	0xbcea8106	-0.028625976
186	0x3cdf7b11	0.027280362
187	0x3c9e946a	0.019357879
188	0x3ccb1055	0.024788061
189	0x3b449bc9	0.0030000082
190	0xbcb1b26f	-0.02169153
191	0x3bae91e6	0.005327451
192	0xbcac2535	-0.021013835
193	0xbbd3efa1	-0.006467775
194	0xbc5b74af	-0.013394519
195	0xbcd385f3	-0.025820708
196	0x3cf55e9c	0.02995234
197	0xbcf00e01	-0.029303553
198	0x3ccf2f28	0.02529104
199	0xbc25fee3	-0.0101315705
200	0xbcc5975f	-0.02412003
201	0x3c4123fd	0.011788365
202	0xbc8b916b	-0.017037114
203	0x3cda5e42	0.026656274
204	0x3ca22cd3	0.019796764
205	0x3cf74d59	0.03018825
206	0x3a00c3a3	0.00049119646
207	0xbd0f57d7	-0.03499588
208	0x3bcf42c9	0.0063251
209	0xbc0548be	-0.008135019
210	0x3c3c9131	0.011509226
211	0x3bd89070	0.006609015
212	0xbcf71e85	-0.03016592
213	0x3cb3eb2a	0.02196272
214	0xbcd0f394	-0.025506772
215	0xbd02a5d3	-0.031896424
216	0xbbfc73e1	-0.0077042435
217	0x3d0d3648	0.034475595
218	0xbcbd0ffc	-0.023078911
219	0xba480a21	-0.0007630904
220	0xbcb56e94	-0.022147454
221	0x3ca62810	0.020282775
222	0xbc389843	-0.011266771
223	0xbcf08260	-0.029359043
224	0x3c5dce32	0.01353793
225	0xbcd2e75c	-0.025745086
226	0x3ce995ef	0.028513877
227	0x3c8c4cb5	0.01712642
228	0x3b73f11c	0.003722257
229	0x3c5a162a	0.013310948
230	0xbca17190	-0.019707471
231	0x3d00264d	0.031286526
232	0x3aef0c64	0.0018237946
233	0xbcdffd4b	-0.02734246
234	0x3be6de35	0.007045532
235	0xbcd6ccbe	-0.026220676
236	0xbb982125	-0.004642623
237	0xbcd1894b	-0.025578162
238	0xbd0dcbcf	-0.034618195
239	0x3c1e73ca	0.009671161
240	0xbce9c14c	-0.028534554
241	0x3cb71512	0.022348914
242	0x3ce20cef	0.027594058
243	0x3c43a9e5	0.0119423615
244	0xbb860bb1	-0.004090749
245	0xbc21ae38	-0.009868197
246	0xbc458a02	-0.012056829
247	0xb8f6d752	-0.000117703006
248	0x3cb5647f	0.022142647
249	0x3cbf102f	0.023323147
250	0x3c2e5831	0.010641144
251	0x3cf817b7	0.030284746
252	0xbd02654c	-0.031834885
253	0x392762ac	0.00015963119
254	0x3d0099ae	0.03139656
255	0xbbbba2f8	-0.0057262145
