resutls_128/epoch_24.515.pth (torch, 34981 bytes, 5 tensors)

conv1.weight f4 [64, 1, 9, 9]
000000 21 c9 68 3d 01 8c 49 bd d2 cd ac bc 1f 16 59 3d
       0.056832436 -0.049205784 -0.021094237 0.052999612
000010 60 aa d3 bd 10 e5 89 3d a6 f8 bc bc a0 3c 64 3d
       -0.10335231 0.06733143 -0.023067784 0.05572188
000020 44 b2 6a 3c 4f ab 58 bc d5 1d 01 3d 61 86 e1 3b
       0.014324728 -0.013224437 0.03152259 0.0068824743
000030 c8 f9 2d 3d 1e b0 27 bd be aa cc bb b0 f9 14 bc
       0.042474538 -0.040939443 -0.00624594 -0.009092733
000040 91 ec 85 3c ed 7c 1e ba 7d d4 ca 3d 5b 20 17 3d
       0.016348155 -0.0006045837 0.0990381 0.03689609
000050 44 b9 1c bd dd e2 81 bd 06 a6 6b bc 56 fe 34 bd
       -0.03826262 -0.06342099 -0.014382845 -0.044187866
000060 a7 a0 06 bd e3 01 ef 3b e3 a6 8a 3d 72 0b 81 3d
       -0.032868054 0.007293926 0.06770112 0.06301011
000070 13 07 d8 bd 34 43 95 3d 29 4e 12 3d 0e a3 e2 3d
       -0.10548224 0.072882086 0.03571907 0.110662565
000080 5f de 9f 3d 97 d8 c7 bd 3a a1 d2 bd 19 80 52 bd
       0.07806086 -0.09758108 -0.10284658 -0.051391695
000090 fe 02 cf 3d 25 7b 6c bc 47 66 57 3d 79 f5 3b bd
       0.101079926 -0.014433657 0.052587774 -0.045888398
0000a0 ab 43 ec 3d 13 fa 28 bd ba 19 b4 3d d3 b1 a3 3b
       0.11536344 -0.041254114 0.087939695 0.0049955635
0000b0 0d 77 63 bd 01 95 76 3d 55 90 62 bd 7f e1 18 3d
       -0.055533458 0.060200695 -0.055313427 0.037324425
0000c0 6c 00 db bc 15 e9 cd bb 01 f7 cf bd 19 4e 48 bd
       -0.0267336 -0.006283889 -0.10154534 -0.048902605
0000d0 b2 d0 81 3d dc 8f c9 bc 2f f4 e7 3d 5c f2 bc 3d
       0.063386336 -0.02460473 0.11325871 0.09225914
0000e0 5c 82 8c ba 7c 16 8e bd 97 61 95 3d ad 04 20 3d
       -0.0010720002 -0.06937882 0.072940044 0.03906696
0000f0 e8 3d 8c bd 4c a7 98 3d d3 aa 8d 3d d3 7a cd 3d
       -0.06847745 0.07453784 0.06917348 0.100331925
000100 99 8c 75 bd 3b dd 76 bc c1 ab d8 3a 53 5f a7 3c
       -0.059948537 -0.015067394 0.0016530679 0.020431196
000110 48 9d a5 bd 8c f4 9c bd 30 d1 7c 3d 30 79 cf bc
       -0.0808664 -0.07663831 0.061722934 -0.025326341
000120 bf 07 63 3d 1b 25 02 3c 24 4a 1f 3d 22 e7 df 3c
       0.05542731 0.007943417 0.038889065 0.027331892
000130 fe ac 32 3d d3 a4 6b 3d d5 33 d0 bd 96 b1 66 3d
       0.04362201 0.057530235 -0.10166136 0.056321703
000140 5e 15 a0 bd 45 74 ac bd e3 96 cc 3b 1c 25 a1 bc
       -0.078165755 -0.08420614 0.006243573 -0.019671015
000150 11 d6 83 3d 90 19 85 bd 0c 7b cb bd 26 f4 a4 3d
       0.06437314 -0.06499016 -0.09935579 0.0805438
000160 f9 37 89 bc dd cf 7c 3d 11 0b 10 3d d0 cb ab bd
       -0.016750323 0.06172167 0.035166804 -0.083884835
000170 a7 24 b0 3c 7b 47 d3 3c 95 c4 99 bd e0 2b 5a bd
       0.021501852 0.02579092 -0.07508198 -0.0532645
000180 df cd 19 3d f3 5e a1 3c 03 5e 44 bd 13 6b 0d bd
       0.03754985 0.019698596 -0.04794122 -0.034525942
000190 3e 47 ce 3d 3c fc b1 bc 4d 98 7b 3d dc 51 41 3d
       0.10072182 -0.02172672 0.061424542 0.047197208
0001a0 f9 e3 94 bd 31 9f c2 bd bd c5 d9 3d 27 47 a2 3b
       -0.07270045 -0.095030196 0.10633419 0.0049523297
0001b0 6c 0a 9a 3d eb e8 b4 3c 63 b2 0d 3d fd 9f a7 3d
       0.07521519 0.02208372 0.03459395 0.08184812
0001c0 72 02 d6 3d f5 5a 98 bd 5e f5 5d 3c c1 7e a9 3d
       0.10449685 -0.07439224 0.01354727 0.082761295
0001d0 49 79 a3 3d 0a e5 8c 3d 08 33 a5 bd eb 97 a4 bd
       0.07982118 0.06879623 -0.08066374 -0.080367886
0001e0 2b 56 8a bd c7 18 65 3c b3 21 e3 3d 1b a0 8e bd
       -0.067547165 0.013982958 0.11090412 -0.069641314
0001f0 22 4a 75 3d 5d 29 7b bd de c4 d6 bd 8b c9 c5 bc
       0.05988515 -0.061318744 -0.10486768 -0.024143955
000200 26 a7 81 3d 95 e5 d1 3d 8b 7e 8d bd 45 39 c6 3c
       0.06330709 0.102488674 -0.06908902 0.02419723
000210 b0 14 c5 3d d2 d4 97 3d 98 bb 8d 3d 52 7f 9f 3d
       0.096230865 0.07413639 0.06920546 0.07787956
000220 79 b4 8d 3d 64 bc e1 3c b8 cc 9d bd 87 68 c0 bd
       0.06919188 0.027555652 -0.07705063 -0.09394937
000230 81 00 52 bd eb b4 54 bc 69 79 8b bd e4 23 24 3d
       -0.05127001 -0.012982587 -0.068102665 0.04007329
000240 14 4d 06 3d 5c 41 db bc fc c6 27 3d 12 24 0c 3d
       0.03278835 -0.026764564 0.04096125 0.034214087
000250 d4 82 88 3d bc 1a 97 3d cc 2d 1d bd 35 d0 dc 3d
       0.066655785 0.07378146 -0.038373753 0.107819
000260 95 11 68 bc 38 d4 bc bb 04 fe da bd 67 de 96 bd
       -0.014164348 -0.005762603 -0.10692981 -0.07366639
000270 b9 42 89 bd 46 ad 49 bd 29 b1 9e 3d f6 04 1a bd
       -0.067021795 -0.049237512 0.07748634 -0.037602387
000280 82 8d ac bd 5a 8b 27 3d 45 ab 17 3d 7e 8c 97 3d
       -0.08425428 0.04090438 0.03702857 0.07399844
000290 d9 da 5f bd 03 c3 df 3c 76 94 18 bd 4e 33 b2 bc
       -0.05465207 0.027314669 -0.03725096 -0.02175298
0002a0 ef 88 af bd b9 94 46 bd 61 c1 03 bd e2 45 49 3d
       -0.0857104 -0.048481677 -0.032166842 0.04913891
0002b0 ea 15 b9 3c 1c 4c fa 3c c1 71 ea 3d 67 0d e5 3d
       0.022593457 0.03055387 0.11447478 0.11184197
0002c0 db 78 a2 3d 2f 36 d9 3b 57 84 98 bd 7d d2 b5 3d
       0.079332076 0.0066287736 -0.07447117 0.08878038
0002d0 b0 36 d0 bc 64 c0 c0 bb 22 fc bb bd da cf 8f bc
       -0.025416702 -0.0058823097 -0.0917895 -0.017555166
0002e0 39 ad 89 bd 18 2a da 3d 10 c2 bc bd e6 07 ab bd
       -0.06722493 0.1065256 -0.09216702 -0.08351116
0002f0 7f a3 88 ba b9 7b 69 bd ed b0 32 3d ed b0 1b bd
       -0.0010424702 -0.057002757 0.04362576 -0.038010526
000300 c9 73 40 bd da 0d 3c 3c cf 4e af 3d a9 81 96 bd
       -0.04698542 0.011477912 0.085599534 -0.073489495
000310 1a 66 65 3d 4e 3f 99 3d 5c c1 e5 3d 6d 74 96 bd
       0.056005575 0.074827775 0.11218521 -0.07346425
000320 cc 95 03 3d f6 b9 9c bd 7b ac cd 3d 01 e6 19 bd
       0.03212528 -0.07652657 0.10042664 -0.037572864
000330 2a 46 93 3d 32 55 f5 3b 5e b7 a0 bb d2 1a e3 b8
       0.07191117 0.0074869627 -0.0049046716 -0.00010829199
000340 35 01 be 3c 63 01 6c 3d 35 71 c0 3c 04 c8 21 3d
       0.023193935 0.05761851 0.023491481 0.03949739
000350 2b 60 c1 bd 48 00 b0 3d 07 f6 ce 3d 0c d3 c3 3d
       -0.09442171 0.08593804 0.1010552 0.09561738
000360 8b 4f ae 3d 08 53 9c bd 0b 1e 15 bd c4 4f d3 3d
       0.08511265 -0.076330245 -0.036405604 0.103179485
000370 96 c5 a2 bd d3 d2 d8 3d 23 88 a9 bd 7e 70 98 bd
       -0.07947843 0.105870865 -0.08277919 -0.07443331
000380 63 77 6c 3d 24 e9 9e bd af 71 b7 bc 62 b9 ad 3d
       0.057731044 -0.07759312 -0.022393076 0.084826246
000390 cb 51 bd 3d dc 3c e0 3d 86 d1 94 bc fd c4 a8 bd
       0.092441164 0.10949108 -0.018166315 -0.082406975
0003a0 0b 9b e6 3d 30 0f ab bc 6f b6 34 bd 06 2f f1 3c
       0.11260041 -0.020881265 -0.044119295 0.029441368
0003b0 6c 79 98 bd 30 19 9d 3d b7 2d 96 3d a0 f1 ac bd
       -0.074450344 0.0767082 0.07332938 -0.08444524
0003c0 54 0a b4 bd dc e4 e8 bb 67 51 48 3d db 8c 40 bb
       -0.087910324 -0.0071073603 0.048905756 -0.0029380831
0003d0 cf b6 65 bd b4 69 39 3b c5 0f d5 bd 6b 01 a0 bd
       -0.056082543 0.0028291764 -0.104033984 -0.078127705
0003e0 6f 6d 96 bd 07 54 bd 3d 4e 85 ca 3d f5 e2 16 bd
       -0.073450916 0.092445426 0.09888707 -0.036837537
0003f0 40 1e ac 3b 77 fa 4b 3d a3 b2 5e 3c 50 d7 62 bd
       0.0052526295 0.04979941 0.013592395 -0.05538112

conv1.bias f4 [64]
000000 63 41 74 bd 33 60 d4 3c 4a be 9b bd 54 af 2e bd
       -0.05963267 0.025924778 -0.07604654 -0.042647675
000010 1e b4 a0 3d b4 78 6c 3d bd ec 9f 3d 90 12 ec bc
       0.078468546 0.0577323 0.07808826 -0.028817445
000020 a9 01 d2 3d ab b5 a2 3d 0d 4b 73 3d 48 88 45 3d
       0.10254223 0.07944807 0.059397746 0.04822567
000030 a2 e0 c2 bd 3e 7e 81 bd e4 70 d5 bb 62 4d fc 3c
       -0.095155016 -0.06322907 -0.0065137018 0.030798618
000040 05 2f f7 3d a2 6b c9 3d 50 71 15 bd b3 5a 8d 3d
       0.12069515 0.098349825 -0.036485016 0.06902065
000050 ed 8e 2b 3d 09 a4 64 bd 1a 97 e4 bd ad 79 38 3d
       0.04188435 -0.0558205 -0.11161633 0.045037914
000060 6b a7 ab 3b c9 7a f1 3c 36 06 ad 3d 77 4c 1a bd
       0.0052384636 0.029477494 0.0844845 -0.03767058
000070 78 5e 33 bd c3 93 c2 3c 67 69 30 bd 32 f4 85 bd
       -0.043791264 0.023752099 -0.04306927 -0.06540717
000080 6a 17 e5 bd 78 ed bf bd 8a 25 0e bc 0e 5d b6 3d
       -0.111861065 -0.093714654 -0.008675942 0.089044675
000090 57 6f 8f bd 2c 88 00 3d 0c 7b a1 3d 32 fb 3d 3c
       -0.07003658 0.031379864 0.078847975 0.011595534
0000a0 93 a7 2b bb 23 93 c0 3d 05 ce d7 bd 6a d6 a8 3d
       -0.0026192411 0.09403064 -0.10537342 0.08244021
0000b0 a7 c0 be 3d 83 8e b7 3d 6a ce a8 3d c7 d1 f0 bb
       0.09314089 0.08962729 0.08242495 -0.007349226
0000c0 65 01 c9 bd 2e 96 8f bd 8f 79 c8 bd eb 20 8b bd
       -0.09814719 -0.070110664 -0.097888105 -0.06793388
0000d0 35 c6 ca bd 66 ee a4 3d 40 49 1e 3d c4 44 45 bd
       -0.09901086 0.080532834 0.038644075 -0.048161283
0000e0 f3 bf 30 3b 81 1c 8f 3a 1d c1 43 bc d5 e1 92 3d
       0.002696988 0.0010918529 -0.011947897 0.0717198
0000f0 39 56 53 3d 4b b0 a9 bd 67 fd c2 3d 68 93 33 bd
       0.0515959 -0.08285578 0.09520989 -0.04384175

conv2.weight f4 [32, 64, 1, 1]
000000 83 ee 65 bd f1 0e f6 3d 1f 29 a6 bd 2b a7 fd bc
       -0.056135666 0.120145686 -0.08113312 -0.030963501
000010 03 a7 0f 3c d3 86 f2 bd 8c d5 bb 3d d3 e6 a9 3d
       0.008767846 -0.11842122 0.0917159 0.08295979
000020 ac 6c f4 bd ce 82 ac bc 08 8f b5 3c fb 76 81 3d
       -0.1193479 -0.021058466 0.02216293 0.06321522
000030 74 0b 53 3d fa a5 53 bc 65 e3 da 3d db ac 07 bd
       0.051524594 -0.01291799 0.10687903 -0.033123832
000040 92 ad 75 3b 0f f0 a3 bd 70 50 93 bd c9 de 31 bd
       0.003748749 -0.08004772 -0.071930766 -0.043425355
000050 c9 21 ea bd 70 0a ab bc 41 53 ce 3c 30 8e b0 bd
       -0.11432225 -0.020879 0.025186183 -0.0862087
000060 04 2d df bd d8 17 e1 3d 1d f6 65 bd be a4 bc bd
       -0.10897258 0.10990876 -0.056142915 -0.092111096
000070 b2 98 00 bd 1f e7 78 bd 5a 57 f4 bd 88 ab 88 bc
       -0.03139562 -0.06076729 -0.119307235 -0.016683355
000080 e9 99 75 bd a4 b4 28 bd b0 49 64 3d 15 4d bf 3b
       -0.059961233 -0.041187897 0.055734336 0.0058380463
000090 ba d3 d5 3d 48 f5 01 be ce d2 df 3d 26 9d 8a 3d
       0.10440774 -0.12691224 0.1092888 0.06768255
0000a0 4f fc 0c bd 70 14 b1 3d 98 b4 ef 3d d8 16 48 3c
       -0.034420308 0.08646476 0.117043674 0.012212478
0000b0 4c 3e 0e 3d f7 33 26 bd 85 04 18 bc 00 42 c4 bb
       0.03472738 -0.0405769 -0.009278421 -0.005989313
0000c0 2b 82 83 bd 58 04 b1 3c a3 ba 75 bd 2c a6 82 3d
       -0.06421312 0.021608517 -0.059992444 0.06379351
0000d0 c8 2f 9d 3c 58 64 c6 bd c1 3d de 3d e0 2a 19 3d
       0.019187823 -0.09687108 0.108516224 0.037394404
0000e0 02 52 58 3d d2 bf 04 be f2 b3 be 3d ba aa fd 3c
       0.052812584 -0.12963799 0.093116656 0.030965198
0000f0 f0 fb 55 bc c2 91 a7 bd ad 85 5b 3c b9 56 43 3d
       -0.013060555 -0.08182098 0.01339857 0.047690127
000100 ba dc 21 3d c8 7a bd 3d c1 38 e4 bd be 57 c7 bd
       0.039517142 0.09251934 -0.111436374 -0.09733532
000110 07 ff f9 3d 79 f5 de 3d 10 bc 37 bc 7b b3 9e 3d
       0.12206846 0.10886664 -0.011214271 0.07749077
000120 0a 06 b7 3d 1e 9b b9 3d 58 61 73 bd ec 9d 25 bd
       0.08936699 0.090627894 -0.059419006 -0.04043381
000130 ba c7 85 bd a0 0b 0c bd 38 12 f3 3d 79 bd 30 3a
       -0.065322354 -0.034190774 0.11868709 0.0006742101
000140 4c 6f cc bd ef 20 c3 3d 57 42 50 3d e6 7a c4 3c
       -0.09982166 0.09527766 0.050844517 0.023984384
000150 a4 3d 86 bd 7e 9d bb 3d a9 87 cf bd d0 39 7e 3d
       -0.06554726 0.091608986 -0.10133297 0.062066853
000160 ed 21 36 bc 56 1b 33 bd 69 bd e2 bd be dd 8e 3c
       -0.011116487 -0.04372724 -0.11071283 0.01743972
000170 4c 33 71 bd 44 f6 48 bd 28 a5 90 3d f6 43 a4 bd
       -0.05888681 -0.049062982 0.07062751 -0.08020775
000180 48 ee f3 3d 17 62 d4 3d 16 63 ba 3d fd 46 62 3c
       0.11910683 0.10370272 0.091009304 0.01381087
000190 a8 e8 c3 bd 2e 71 e5 bc 4b 74 78 bd 14 e7 88 bc
       -0.0956586 -0.02800807 -0.06065778 -0.01671175
0001a0 56 9a ee bd 20 f7 65 bd 3d f6 af bc f3 57 39 3a
       -0.11650531 -0.05614388 -0.02147972 0.00070702954
0001b0 2c 11 04 bd 1f c0 ef 3c 38 89 8b bd b6 63 ae bd
       -0.03224294 0.029266415 -0.06813282 -0.08515112
0001c0 22 7c ba bd 16 cf ec 3d ad 18 9c 3d 3a e8 e1 bd
       -0.09105708 0.11562936 0.07621894 -0.11030622
0001d0 90 6f d8 bd a0 c5 a2 bb 69 d9 86 bd e0 94 2d 3d
       -0.10568154 -0.0049674064 -0.065844364 0.042378306
0001e0 d8 ed 2f bd 1a d2 6d 3c 7b bf d6 bc 0e 1c bf bd
       -0.042951435 0.014515424 -0.026214352 -0.09331523
0001f0 5a 95 17 bc 20 87 ea 3d cd 8a cf 3d 63 ac ac bd
       -0.009251917 0.11451554 0.10133896 -0.08431318
000200 b1 ba 40 3d 9e 62 f4 3d 89 7a ce 3c 7e cd 32 bc
       0.047053043 0.11932872 0.025204914 -0.010913251
000210 5d ff de 3d c2 15 8e 3c e5 98 be bc 85 a0 28 3e
       0.108885504 0.01734436 -0.023266265 0.16467483
000220 54 f3 51 3d 7b 23 b0 bd 80 ab b9 3d 8b 5a 08 3e
       0.051257446 -0.08600517 0.09065914 0.1331579
000230 b4 e4 cc 3d e6 19 64 bd 77 61 0b bd b8 13 bd 3d
       0.10004559 -0.05568876 -0.034028497 0.09232277
000240 db f5 aa 3d d1 5d d1 bd 89 a8 e1 3d 2f 28 a7 3d
       0.083476745 -0.10222972 0.11018474 0.08161961
000250 ee e6 1d 3d 0e 15 d1 bc 2a 6a 2d bc 15 c9 9b 3d
       0.03855031 -0.025522735 -0.0105843935 0.07606713
000260 e8 e0 26 3d b0 52 da 3d 94 64 90 bd 07 fd 30 bd
       0.04074183 0.10660303 -0.07050434 -0.043210056
000270 f0 b8 69 bc 99 2b 4a 3d fc 59 32 3d c4 d3 87 3d
       -0.014265284 0.049357984 0.043542847 0.06632188
000280 6e 90 72 bd 05 f3 13 bc 07 76 47 3d 61 d6 5e bd
       -0.05921977 -0.009030108 0.048696544 -0.054403666
000290 c8 fc b6 3d 33 c0 b6 3d 4c 2f 73 3d 78 7c 93 3d
       0.08934933 0.08923378 0.059371278 0.07201475
0002a0 54 87 9a 3d 04 4f db bd 88 fd 14 bd ac 0d bc 3d
       0.07545343 -0.107084304 -0.0363746 0.09182295
0002b0 d3 3b 5c bd 10 71 b9 3c d4 30 37 bd c0 6f a2 bb
       -0.05376799 0.02263692 -0.0447243 -0.0049571693
0002c0 e5 60 9e bc 60 00 13 bd 74 30 30 3d bc 1e eb 3d
       -0.019333312 -0.03588903 0.04301496 0.114804715
0002d0 40 9f 1c 3b f0 23 16 bd 03 80 d8 3d b4 a1 69 bd
       0.0023898631 -0.036655366 0.10571291 -0.057038978
0002e0 d2 16 24 3d d5 61 6e 3c 45 2f 8f 3d 8a 57 b4 3d
       0.040060826 0.014549692 0.06991438 0.08805759
0002f0 c4 58 30 3d 6b e5 a5 bb c8 a1 9c 3d d4 21 ab 3c
       0.043053403 -0.005062749 0.07648045 0.020890154
000300 c1 81 4b bc 24 9e 14 3d 8b 84 4a bd 1c 69 43 3c
       -0.012421072 0.036283627 -0.04944281 0.0119269155
000310 58 40 96 bd 35 83 8e 3d 9b 94 f7 3d 13 d9 a9 3a
       -0.07336491 0.069586195 0.12088891 0.001295837
000320 84 29 e7 bd 0a 1f ca 3d 72 d6 86 bd 03 32 de 3d
       -0.11287215 0.098692015 -0.06583871 0.10849383
000330 24 6d b1 3d 0d 04 29 bd 7a e7 4d 3c 28 9c 2d bd
       0.08663395 -0.04126363 0.012567395 -0.04238525
000340 25 b7 c8 3d de 26 b9 bd fe dd 97 3c 9f 65 5c bd
       0.09800557 -0.090406165 0.018538471 -0.05380785
000350 c5 0f cb 3d 1c 1f 93 3d 3b 56 e8 3d 64 b0 6b bd
       0.09915117 0.07183668 0.11344572 -0.057541266
000360 97 a5 71 3d df c3 cd bd 70 82 a1 3d 23 d4 26 bd
       0.05899581 -0.10047125 0.07886207 -0.040729653
000370 58 d4 2a 3d 57 c4 79 3d a4 8a a0 bd da d8 8f 3d
       0.041706413 0.06097826 -0.078389436 0.07023783
000380 d6 f5 28 bd 83 fe 72 3d ae ce 2e bd 32 17 be 3b
       -0.041250072 0.059324753 -0.042677574 0.005801105
000390 10 31 50 3c 3f c8 df 3d 0c a5 e9 3c 32 c2 cb 3c
       0.01270701 0.10926866 0.028521083 0.024872873
0003a0 75 2a bd bc 01 54 00 be a1 64 5f bd b0 8f 34 bd
       -0.023091534 -0.12532045 -0.054539327 -0.044082344
0003b0 3d 2d 39 3d 1e c0 c3 3a 3d 47 18 3d ce cc 84 bd
       0.04520916 0.0014934575 0.037177313 -0.06484376
0003c0 a0 55 fa bd e4 95 3b 3d 4e 09 b1 3d 20 47 87 3d
       -0.12223363 0.045797244 0.08644353 0.06605363
0003d0 9e 41 d4 3d 2a c3 fa bd dc df 2a 3d 70 48 cb 3d
       0.10364078 -0.12244256 0.041717395 0.09925926
0003e0 40 91 5e bd fa c5 a6 3d 27 f2 c3 3d 65 fe 21 3d
       -0.05433774 0.0814323 0.09567671 0.03954925
0003f0 88 9a e4 bd ac 3e 7d 3d 56 ef 07 3e 41 47 78 bc
       -0.11162287 0.061827347 0.13274893 -0.015153707

conv2.bias f4 [32]
000000 dc 75 85 bd 69 0e 31 bd 68 2c c4 3d 89 e7 8b 3d
       -0.065166205 -0.043226633 0.09578782 0.06831271
000010 f8 72 c6 3c 52 89 da bd 86 f1 33 3d 8c 6b c2 3d
       0.024224743 -0.10670723 0.043931507 0.09493169
000020 7d 1f b9 3d 93 c3 8c bd 7e 90 f0 bd 78 cf 9d bd
       0.09039209 -0.0687324 -0.1174631 -0.07705587
000030 9b 20 ef bd cb 4f d9 3d b2 a3 96 bd 0b 44 8f 3c
       -0.11676141 0.106109224 -0.07355441 0.0174885
000040 59 0b c2 3d 86 e2 0c 3d 4e 41 ee bd 37 cd 1f bb
       0.09474821 0.034395717 -0.1163355 -0.0024383792
000050 d7 1b da 3d 0a 29 8f bb a9 45 b1 bc 3a 8d e7 3d
       0.10649841 -0.004368906 -0.021639662 0.11306234
000060 e6 e5 e2 bd 83 ea 6b bd 41 e8 32 3c 31 7f 12 3e
       -0.11079006 -0.057596695 0.010919631 0.14306332
000070 d1 0a 9f bb 8d 7b 98 bd e4 86 f2 bd 66 a3 eb bd
       -0.0048535843 -0.074454404 -0.118421346 -0.11505775

conv3.weight f4 [1, 32, 5, 5]
000000 90 8c 97 3c 22 2c a4 bc 94 10 99 3b 7d 24 40 3c
       0.018499643 -0.020040575 0.0046711657 0.0117274495
000010 94 fc 62 3c b9 68 0c bd c0 c0 84 3c cc 6b 38 bc
       0.013854165 -0.03427956 0.016205192 -0.0112561695
000020 73 14 4a bc f5 7d ce bb 91 e0 07 bd d2 86 a6 bb
       -0.012333977 -0.0063016363 -0.033173148 -0.00508199
000030 69 21 1e 3c 7b f2 0b bd b6 11 8a bc a7 d0 c9 bc
       0.00965152 -0.034166794 -0.016854148 -0.024635626
000040 b0 e9 b9 bc 6f 4e 9e bc a5 4f e1 3c d3 fb 20 3c
       -0.022694439 -0.01932451 0.027503798 0.009825665
000050 dd f0 85 3c 87 4e ea bc 4b 6b 86 bc ef c4 e1 bc
       0.016350204 -0.028601898 -0.016408583 -0.027559726
000060 85 da b2 3c 67 ce 03 bd 55 af f2 bc a3 26 5f 3a
       0.021832714 -0.032179262 -0.02962462 0.0008512532
000070 d7 96 3a 3c 17 26 66 3c bb 1d 51 bb 16 50 e5 3b
       0.011388502 0.014047167 -0.003190859 0.0069980724
000080 bd fd 05 3c 57 39 36 3c 19 c8 fb bb 82 f8 d7 3c
       0.008178172 0.011122069 -0.0076837656 0.026363615
000090 13 e6 8c 3b ff ab ad 3c 41 79 4b 3c 44 5b 91 bc
       0.004299888 0.021200178 0.012419046 -0.017743714
0000a0 0c 9d 64 bc 76 58 99 bc b5 b4 0c bb c9 53 b8 3b
       -0.0139534585 -0.01871894 -0.0021470014 0.0056252223
0000b0 41 a0 a4 3a c2 9e 02 3d f5 4a 09 3d f2 30 30 3c
       0.0012559966 0.031889684 0.03351875 0.010753857
0000c0 84 b6 61 3b fc 12 a0 bc 85 9e e8 3c ad 46 22 bc
       0.0034441063 -0.019540302 0.0283959 -0.009904546
0000d0 9d 0e a8 bc 5d 74 c0 3c 4e 52 d6 3c 0c eb c6 3c
       -0.02051478 0.023492986 0.026162293 0.024282001
0000e0 0a a9 41 3c d9 61 f9 bb e1 a1 f4 3c a4 04 1f 3d
       0.011820087 -0.0076105413 0.029862346 0.038822785
0000f0 7a 71 d3 3c 24 53 fa 3c 5e b7 62 bb 18 62 c6 3c
       0.025810946 0.030557223 -0.0034594159 0.024216697
000100 c0 65 de bb ed 7a ab ba 83 9e ba 3c 2f 9c bf 3c
       -0.006787032 -0.0013082899 0.022780662 0.023389904
000110 31 fe eb 3c ce 8f 4b 3b a0 3e 13 bb 3c 05 7f 3c
       0.028807731 0.0031061056 -0.0022467747 0.015565213
000120 a2 51 e1 3c c9 b0 5b 3c c2 43 a8 bc a5 d0 0e 3d
       0.027504746 0.013408848 -0.020540122 0.034866948
000130 cc eb 96 3c fb 4a 81 3c b9 33 a6 bb 5d 79 0a 3d
       0.018422984 0.015782824 -0.005072084 0.033807147
000140 f1 63 8b 3b 3b 19 30 3b d8 c9 a0 3c 2c 2e 33 3a
       0.0042538573 0.0026870507 0.019627497 0.0006835188
000150 cb 77 0c 3c 45 c9 a0 3b 34 83 56 3c f4 00 d0 3b
       0.008573483 0.0049068057 0.013092805 0.00634777
000160 cc 6f 94 bc 2e 11 dd bb a0 c1 0d 3d 76 50 db 3c
       -0.018119715 -0.0067464327 0.034608483 0.026771765
000170 61 7e 69 3a 79 07 cc 3b ff 46 a6 bc 41 b2 ed 3c
       0.00089070766 0.0062264767 -0.020297525 0.029015662
000180 bd 6c fc bc c1 8f b1 3c 9c 09 e9 3c 37 ac 29 3c
       -0.03081357 0.021674993 0.028446965 0.010356001
000190 7e 99 6c 3c 3b 6f 0b bd 54 3a 5e bc df 8c 9d bc
       0.014440892 -0.034041625 -0.013563711 -0.019232212
0001a0 dd 97 42 3c b3 7d 05 bd 8b 1c c5 bc 3d 25 3b 3c
       0.011877027 -0.03259058 -0.024061462 0.0114224525
0001b0 55 95 ba 3b 2a b7 15 bd e5 7e c5 3c 36 2b a0 3c
       0.0056940713 -0.036551632 0.02410836 0.019551855
0001c0 0c fc 79 3b 64 50 4d ba 45 9a 01 bd 98 dc 16 bd
       0.0038144616 -0.00078321085 -0.031641264 -0.03683147
0001d0 fe b2 f1 bc a9 2d e6 bc f7 00 d8 bc d9 89 b3 bc
       -0.029504295 -0.028097944 -0.026367648 -0.021916317
0001e0 3a c2 ff 3c ce e6 18 bd d5 b5 e3 3c d0 ef dd 3c
       0.031220544 -0.037329488 0.027796665 0.02709189
0001f0 51 ed f3 3a 2a 81 e2 3a 7a 03 41 3c e6 49 85 3b
       0.0018610155 0.0017280926 0.011780614 0.0040676473
000200 91 42 e1 bc c0 9d e9 bc 2a fb 08 3d 50 15 4c bc
       -0.027497562 -0.028517604 0.033442654 -0.012456253
000210 a0 b7 99 3c 12 93 57 3c 11 e3 91 bc 37 ba 46 bb
       0.018764317 0.013157623 -0.017808469 -0.0030323395
000220 5e 3d db bb 9b f9 07 3d 55 fe 52 3b 69 4d 39 3c
       -0.006690665 0.033197027 0.003219505 0.01130996
000230 5b e5 af bc a0 ef 93 bc 30 e8 d8 bc 65 1d 84 3c
       -0.02147167 -0.018058598 -0.026477903 0.016127298
000240 ca ea ec bc cf e6 8b 3c ab 33 91 3c 65 3c c3 3b
       -0.02892055 0.017077832 0.017724833 0.0059581273
000250 60 3f 35 bc 46 69 ab 3c 19 5b df bc e4 fc c1 3c
       -0.011062473 0.020924222 -0.027265118 0.023680158
000260 8e df 9d 3a 9b c5 ed bc 63 e8 32 3c a9 1d 94 bc
       0.0012044774 -0.02902489 0.010919663 -0.01808055
000270 d9 7e e3 3c 40 54 ec bc 0c ff bb 3c 9d 04 d2 3b
       0.027770447 -0.028848767 0.022948764 0.0064092414
000280 a8 cc 13 bd 03 e8 3f 3c 63 97 41 bc f7 c8 42 3c
       -0.036083847 0.011713031 -0.011815879 0.011888734
000290 e9 bd 2d 3b e2 3a a4 bc 49 8c eb 3b 91 8d a2 bc
       0.00265109 -0.020047609 0.007188354 -0.019842895
0002a0 bb 22 00 bc ad 70 e5 ba 43 54 81 3c fd 7f 79 3b
       -0.00782078 -0.0017504893 0.01578725 0.0038070672
0002b0 44 9a 0b bd ea a9 5e 3c 18 fa c6 bb d2 24 b3 bc
       -0.034082666 0.013590315 -0.006072294 -0.021868143
0002c0 8d 3d 09 3d 2d 94 27 3c 73 86 8b 3c f7 5b 06 ba
       0.033505965 0.010228199 0.017031884 -0.0005125398
0002d0 62 4f 01 bd f8 0c c7 3c 90 c9 43 3c 46 05 6d bc
       -0.031569846 0.024298176 0.011949912 -0.014466589
0002e0 8b 8c fd 3c 0a 78 ea bc a0 7d df 3c 3e 8f 9e 3c
       0.030950805 -0.028621692 0.027281582 0.019355413
0002f0 d9 13 cb 3c 36 de 44 3b 98 a4 b1 bc 5d ae ae 3b
       0.024789738 0.0030039675 -0.02168493 0.0053308443
000300 e7 25 ac bc 2c d1 d3 bb ac 5b 5b bc 46 76 d3 bc
       -0.021014167 -0.006464144 -0.0133885555 -0.025813233
000310 8f 67 f5 3c 36 0d f0 bc 53 38 cf 3c 47 e2 25 bc
       0.029956607 -0.029303174 0.025295412 -0.0101247495
000320 72 90 c5 bc 5e 2c 41 3c 81 93 8b bc b6 62 da 3c
       -0.024116728 0.011790363 -0.017038109 0.026658397
000330 37 34 a2 3c e5 4f f7 3c 50 d0 00 3a db 5a 0f bd
       0.019800289 0.030189464 0.00049138535 -0.034998756
000340 bd 47 cf 3b aa 40 05 bc f6 82 3c 3c 1d 6d d8 3b
       0.0063256905 -0.008133093 0.011505833 0.006604804
000350 e9 2c f7 bc c8 e3 b3 3c 12 f8 d0 bc c8 a6 02 bd
       -0.030172782 0.0219592 -0.025508914 -0.031897336
000360 7a 84 fc bb ac 31 0d 3d 40 12 bd bc c0 f7 47 ba
       -0.007706222 0.0344712 -0.023079991 -0.0007628165
000370 b9 69 b5 bc 63 2b a6 3c 9f 9c 38 bc 95 7d f0 bc
       -0.022145139 0.02028436 -0.01126781 -0.029356757
000380 a6 dd 5d 3c 5c e7 d2 bc fc 95 e9 3c d9 4c 8c 3c
       0.013541615 -0.025745086 0.028513901 0.017126488
000390 7e fa 73 3b 65 19 5a 3c 88 71 a1 bc 4d 26 00 3d
       0.0037228162 0.013311719 -0.019707456 0.031286526
0003a0 0d 22 ef 3a fc fc df bc 06 e4 e6 3b b3 cc d6 bc
       0.0018244401 -0.027342312 0.0070462255 -0.026220655
0003b0 0d 1c 98 bb de 88 d1 bc cf cb 0d bd 2c 77 1e 3c
       -0.004642016 -0.025577959 -0.034618195 0.0096719675
0003c0 4a c1 e9 bc 36 15 b7 3c 30 0d e2 3c f7 ac 43 3c
       -0.02853455 0.022348981 0.027594179 0.0119430935
0003d0 57 06 86 bb 3f ad 21 bc 28 88 45 bc f7 cd f5 b8
       -0.0040901112 -0.009867965 -0.012056388 -0.00011720874
0003e0 80 64 b5 3c 42 10 bf 3c 31 58 2e 3c b7 17 f8 3c
       0.022142649 0.023323182 0.010641144 0.030284746
0003f0 4c 65 02 bd ac 62 27 39 ae 99 00 3d f8 a2 bb bb
       -0.031834885 0.00015963119 0.03139656 -0.0057262145
