resutls_128/epoch_19.889.pth (torch, 34981 bytes, 5 tensors)

conv1.weight f4 [64, 1, 9, 9]
000000 d9 f1 75 3d 4b 5a 3d bd 26 3a 99 bc 0d 51 61 3d
       0.060045097 -0.04622869 -0.018704485 0.055008937
000010 a5 57 d0 bd 58 4f 8e 3d a3 4a a4 bc 09 d9 72 3d
       -0.10172967 0.06948727 -0.02005512 0.059289012
000020 b4 eb 94 3c e8 e7 2f bc fe 12 0a 3d 14 9f 09 3c
       0.018178798 -0.010736443 0.03370952 0.008399744
000030 cd 46 32 3d 11 37 25 bd 11 0c a9 bb 25 0e e9 bb
       0.043524552 -0.04033572 -0.005158909 -0.007112282
000040 8f 3d 9b 3c 26 27 1b 3b 26 08 cd 3d 13 f6 19 3d
       0.018950252 0.0023674457 0.1001132 0.03758819
000050 fc 05 1d bd 9f 24 83 bd 24 6c 7e bc 45 b9 37 bd
       -0.038335785 -0.06403469 -0.015528712 -0.04485442
000060 72 7b 05 bd cd c3 07 3c 5b a5 8d 3d 39 eb 81 3d
       -0.03258843 0.008286429 0.06916305 0.06343693
000070 4b 26 d8 bd c9 6f 93 3d 82 03 0c 3d f6 55 de 3d
       -0.10554179 0.07199056 0.034183033 0.108562395
000080 86 a2 9c 3d 69 05 c9 bd 83 29 d2 bd b7 4b 4f bd
       0.076481864 -0.09815485 -0.10261824 -0.050609317
000090 61 2d ce 3d 4a ce 7b bc 32 c7 4f 3d 7c 59 46 bd
       0.10067249 -0.015369007 0.050727077 -0.048425183
0000a0 76 e7 e5 3d 01 6e 33 bd 69 15 b1 3d 42 1f 90 3b
       0.11225788 -0.04380608 0.08646662 0.0043982575
0000b0 39 54 63 bd 08 8b 76 3d e5 d3 64 bd 14 c2 12 3d
       -0.055500243 0.060191184 -0.05586614 0.03582962
0000c0 a4 c0 ec bc ff 13 13 bc e8 44 d4 bd bd 42 4c bd
       -0.028900452 -0.008976935 -0.10364705 -0.049868334
0000d0 3d b8 81 3d 50 af c4 bc ba e8 e8 3d b1 ba bc 3d
       0.06333969 -0.024009377 0.11372514 0.09215296
0000e0 a0 39 08 bb 6b 6e 91 bd 44 11 91 3d 60 18 1a 3d
       -0.00207863 -0.07101139 0.07083371 0.037620902
0000f0 89 cf 8c bd 17 f8 99 3d fe 37 90 3d 58 f9 cf 3d
       -0.06875522 0.075180225 0.0704193 0.101549804
000100 90 ab 72 bd bc 53 79 bc 32 e6 77 3a 0d 70 9e 3c
       -0.059245646 -0.015217718 0.0009456604 0.01934054
000110 02 66 a6 bd c5 51 9b bd df d4 81 3d 00 9d bd bc
       -0.08124925 -0.07583956 0.0633943 -0.023146152
000120 05 6d 6a 3d 14 bb 18 3c 56 ca 21 3d e9 0b e1 3c
       0.057232875 0.009321947 0.039499603 0.0274715
000130 3f f9 31 3d 26 f2 6d 3d cb b4 cc bd 21 ee 70 3d
       0.04345059 0.05809226 -0.09995421 0.058820847
000140 2d 26 9a bd ef be ac bd 22 35 cc 3b 53 7d 9f bc
       -0.07526813 -0.08434855 0.00623192 -0.019468939
000150 4a 91 84 3d 70 ca 84 bd 01 4c cb bd 9c a2 a4 3d
       0.06473024 -0.064839244 -0.09926606 0.08038828
000160 18 c9 8a bc 0f f8 7d 3d 51 1b 10 3d 8b c3 ab bd
       -0.016941592 0.062004145 0.0351823 -0.08386906
000170 02 49 b2 3c 67 1f d6 3c 95 68 99 bd d2 04 5a bd
       0.021763328 0.02613802 -0.074906506 -0.053227253
000180 33 2d 19 3d ea 1f 9f 3c 4e a6 43 bd 94 2b 0c bd
       0.03739662 0.019424397 -0.047766022 -0.034221247
000190 7e 30 cf 3d d2 61 ad bc 63 24 7e 3d 83 ca 42 3d
       0.10116671 -0.021164808 0.06204642 0.04755641
0001a0 2e 38 94 bd ee 99 c2 bd e4 5f d9 3d c5 80 ac 3b
       -0.07237278 -0.09502016 0.10613993 0.005264374
0001b0 cf bd 9a 3d 8b 93 b7 3c 0a d1 0f 3d 80 b8 a8 3d
       0.07555734 0.022409221 0.035111465 0.082383156
0001c0 2e 9c d6 3d 4c 25 98 bd c5 d7 5a 3c 61 bf a8 3d
       0.10479008 -0.07428989 0.0133571075 0.08239628
0001d0 e2 bb a3 3d fb 37 8c 3d 4b db a5 bd 2c 0c a5 bd
       0.0799482 0.06846615 -0.080984674 -0.08058962
0001e0 a0 c5 8a bd eb 47 5c 3c 6e c4 e1 3d 6e b8 90 bd
       -0.06775975 0.013444881 0.11023794 -0.07066427
0001f0 c1 9c 70 3d 97 e9 7d bd b8 20 d7 bd 33 40 c6 bc
       0.058743242 -0.061990347 -0.105042875 -0.024200534
000200 0a e7 81 3d 3f 15 d2 3d d3 63 8e bd 7c 5a c1 3c
       0.06342895 0.102579586 -0.06952634 0.023602717
000210 ab 5a c3 3d 7b d0 95 3d 0a c8 8c 3d ce 78 a0 3d
       0.09538778 0.07315155 0.06874092 0.07835542
000220 f7 ac 8e 3d 22 09 e6 3c 2e d7 9c bd 91 38 c0 bd
       0.06966584 0.028080527 -0.0765823 -0.09385789
000230 f7 bf 52 bd 77 74 5c bc f1 86 8c bd a4 47 24 3d
       -0.051452603 -0.013455502 -0.068616755 0.040107384
000240 c5 42 0a 3d f6 5c d3 bc 4b 44 2c 3d e5 7e 10 3d
       0.033755083 -0.025801163 0.042057317 0.035277266
000250 01 bc 89 3d 4c 11 98 3d 48 66 1c bd 2b 33 dd 3d
       0.06725312 0.07425174 -0.03818348 0.10800775
000260 52 05 5c bc 88 58 92 bb f8 21 d8 bd c6 d1 93 bd
       -0.013429003 -0.00446612 -0.10553354 -0.072177455
000270 70 46 86 bd 81 28 45 bd 73 8c a0 3d 95 1f 17 bd
       -0.06556404 -0.04813433 0.078392886 -0.036895353
000280 65 3d ab bd 7d 97 2c 3d d3 ce 1e 3d fb 11 9a 3d
       -0.083613195 0.042136658 0.03877146 0.07522961
000290 50 df 5d bd a4 b3 e0 3c 8c 0e 18 bd e7 4b b1 bc
       -0.054168046 0.02742941 -0.037123248 -0.021642638
0002a0 ee 9a ae bd 20 31 42 bd 61 99 fc bc e9 c1 4f 3d
       -0.08525644 -0.04741013 -0.030834856 0.050722037
0002b0 46 22 c1 3c 0d 3c fc 3c 33 ff e9 3d 26 a1 e4 3d
       0.023575913 0.030790353 0.114256285 0.11163549
0002c0 bd 09 a2 3d 2d 30 e0 3b 6f c9 96 bd 9f 63 b8 3d
       0.07912014 0.0068416805 -0.07362639 0.09003376
0002d0 1a f3 c8 bc 04 4a b9 bb b8 14 bd bd 73 dc 97 bc
       -0.024529982 -0.0056545753 -0.092324674 -0.018537736
0002e0 cd cf 8b bd b9 0b d8 3d 38 db bd bd c1 a4 aa bd
       -0.06826744 0.10549111 -0.09270328 -0.083322056
0002f0 7b 88 0a ba cd 99 68 bd 13 a4 30 3d d3 18 21 bd
       -0.00052846194 -0.0567873 0.043125223 -0.039330315
000300 80 9f 47 bd e5 6f 1f 3c 2e c0 ab 3d 48 1f 99 bd
       -0.048736095 0.009731268 0.08386265 -0.074766695
000310 20 55 63 3d 45 e7 98 3d de 5e e5 3d 19 56 98 bd
       0.055501103 0.07465986 0.11199735 -0.07438297
000320 1f c8 f8 3c 52 27 a1 bd de 59 c9 3d 26 6f 22 bd
       0.030368863 -0.07868828 0.09831594 -0.03965678
000330 07 0b 90 3d 90 b3 d9 3b 96 bb af bb 57 f7 6d b9
       0.07033353 0.00664372 -0.005362938 -0.00022694223
000340 cb 91 b6 3c f7 c0 64 3d fb 80 ae 3c ec 06 19 3d
       0.022286316 0.055848088 0.021301737 0.037360117
000350 89 9e c5 bd a1 c6 ac 3d 09 40 cd 3d 2a dc c2 3d
       -0.09649379 0.08436323 0.10021979 0.09514649
000360 65 f9 ae 3d ec 49 9d bd 54 91 1a bd 66 bc cf 3d
       0.08543662 -0.07680115 -0.037736252 0.10143356
000370 40 42 a6 bd fd 7a d5 3d 68 02 ac bd bc 77 99 bd
       -0.08118105 0.10423849 -0.083988965 -0.07493541
000380 ec f5 6b 3d 38 d6 9c bd e8 43 b5 bc 02 82 ac 3d
       0.057607576 -0.076580465 -0.022127107 0.084232345
000390 8e 3b bb 3d 74 2b de 3d 36 f1 9c bc 7b 00 aa bd
       0.091422185 0.10848132 -0.019157987 -0.08300873
0003a0 9f c9 e6 3d 7d 50 a7 bc 79 20 2e bd c2 b9 f8 3c
       0.11268925 -0.020424122 -0.042511437 0.030362014
0003b0 c6 48 98 bd 44 71 9c 3d f6 76 95 3d 6b b9 ad bd
       -0.074357554 0.07638791 0.072980806 -0.08482631
0003c0 c7 22 b4 bd 35 a3 d4 bb dd 46 4c 3d bf e7 52 bb
       -0.08795696 -0.0064891824 0.049872268 -0.0032181588
0003d0 03 ca 66 bd 40 7d 26 3b d5 dc d5 bd af cd a0 bd
       -0.056344997 0.0025404245 -0.10442511 -0.07851731
0003e0 a2 75 97 bd 65 87 bb 3d ae b8 c8 3d 1e 5f 1a bd
       -0.073954836 0.09156684 0.0980085 -0.037688367
0003f0 d0 43 a3 3b b8 f3 4a 3d 03 1c 5a 3c 1e ea 63 bd
       0.004982449 0.049548835 0.013312343 -0.055643193

conv1.bias f4 [64]
000000 bd 01 4b bd 83 f7 ee 3c e4 0e 92 bd 50 a7 30 bd
       -0.049562205 0.029170757 -0.071317464 -0.04312831
000010 4f 73 a5 3d 00 76 5c 3d a1 26 a5 3d ba 24 79 bc
       0.08078634 0.05382347 0.080640085 -0.01520651
000020 b0 90 ce 3d d7 05 9c 3d 97 84 63 3d 24 6e 89 3d
       0.10086191 0.07618301 0.05554637 0.06710461
000030 a2 e0 c2 bd a1 fc 7a bd de e3 a0 3a 56 16 ae 3c
       -0.095155016 -0.061276082 0.0012274941 0.021250885
000040 11 e6 e2 3d 31 e1 c6 3d b3 04 43 bd 15 70 96 3d
       0.11079038 0.097109206 -0.047611903 0.07345597
000050 ba 3f 2e 3d ef 89 5a bd 98 33 df bd 9b 87 3b 3d
       0.042541243 -0.0533542 -0.108985126 0.04578362
000060 8b 6a c0 3c 52 13 dd 3c 68 ec 9e 3d 6a 67 11 bd
       0.023488304 0.026986752 0.07759935 -0.035499014
000070 de 71 31 bd 41 fd b6 3c 67 69 30 bd 32 f4 85 bd
       -0.043321483 0.022337558 -0.04306927 -0.06540717
000080 d5 49 e3 bd ab 10 c0 bd 18 27 11 bc 3b 64 b6 3d
       -0.11098067 -0.09378179 -0.008859418 0.08905836
000090 57 6f 8f bd b0 3b c6 3c 15 72 6b 3d 11 ee 84 3c
       -0.07003658 0.024198383 0.057481844 0.0162268
0000a0 78 96 5f bb a4 a3 a8 3d 0a 86 d8 bd ac 07 bb 3d
       -0.0034116786 0.08234337 -0.10572441 0.09132323
0000b0 c8 90 bc 3d 2a 8c c8 3d 3f b2 a8 3d c7 d1 f0 bb
       0.09207302 0.09792359 0.08237123 -0.007349226
0000c0 c4 82 bf bd 2e 96 8f bd f3 85 c0 bd 83 f3 8c bd
       -0.093511134 -0.070110664 -0.09400549 -0.06882384
0000d0 35 c6 ca bd b7 07 9e 3d 13 c4 56 3d c4 44 45 bd
       -0.09901086 0.07716315 0.052433085 -0.048161283
0000e0 32 7e b9 bb 1f 87 5f 3c 50 cc d9 3b 46 5b a4 3d
       -0.0056607956 0.013643055 0.0066466704 0.080252215
0000f0 ec dd 4a 3d 29 ff ad bd c2 c3 d8 3d 02 15 34 bd
       0.049528047 -0.084959336 0.10584213 -0.043965347

conv2.weight f4 [32, 64, 1, 1]
000000 e9 49 61 bd 25 5f f9 3d f0 3c a4 bd 2b a7 fd bc
       -0.055002127 0.121763505 -0.080194354 -0.030963501
000010 f0 a5 26 3c c3 4c ee bd 8c d5 bb 3d 56 fd b2 3d
       0.0101713985 -0.11635735 0.0917159 0.08739726
000020 ac 6c f4 bd e8 9f aa bc 08 8f b5 3c 09 47 89 3d
       -0.1193479 -0.020828202 0.02216293 0.06703002
000030 74 0b 53 3d 56 80 49 bc 6c 31 dd 3d 6b 0c 00 bd
       0.051524594 -0.012298664 0.10800442 -0.031261843
000040 8f 79 9d 3b eb ce a3 bd 6f 43 93 bd be ce 27 bd
       0.0048057507 -0.07998451 -0.07190596 -0.04096865
000050 c9 21 ea bd 6d 59 a5 bc d5 53 ce 3c 30 8e b0 bd
       -0.11432225 -0.020184243 0.025186459 -0.0862087
000060 4c 82 db bd 47 ae e2 3d d1 5f 64 bd be a4 bc bd
       -0.107182115 0.11068397 -0.05575544 -0.092111096
000070 b2 98 00 bd 90 64 75 bd 5a 57 f4 bd 88 ab 88 bc
       -0.03139562 -0.059910357 -0.119307235 -0.016683355
000080 90 c1 72 bd 03 01 27 bd b0 49 64 3d dc d4 c1 3b
       -0.059266627 -0.04077245 0.055734336 0.0059152674
000090 ba d3 d5 3d ae b6 00 be d6 d2 df 3d e7 4f 8c 3d
       0.10440774 -0.12569687 0.10928886 0.06851178
0000a0 4f fc 0c bd 70 14 b1 3d 98 b4 ef 3d 7c 0e 4a 3c
       -0.034420308 0.08646476 0.117043674 0.012332555
0000b0 4c 3e 0e 3d b6 6b 21 bd 85 04 18 bc 00 42 c4 bb
       0.03472738 -0.03940936 -0.009278421 -0.005989313
0000c0 2b 82 83 bd 58 04 b1 3c 48 13 70 bd 2c a6 82 3d
       -0.06421312 0.021608517 -0.058612138 0.06379351
0000d0 c8 2f 9d 3c 58 64 c6 bd 2e 1f e0 3d e0 2a 19 3d
       0.019187823 -0.09687108 0.10943447 0.037394404
0000e0 78 2a 5c 3d fc e1 03 be bb 7e c6 3d 80 50 09 3d
       0.05375144 -0.12879175 0.09692141 0.033524036
0000f0 59 88 3c bc c2 91 a7 bd d6 1d 84 3c b9 56 43 3d
       -0.011507117 -0.08182098 0.016127508 0.047690127
000100 ae 1d 1c 3d 72 36 ba 3d 29 dd e8 bd be 57 c7 bd
       0.038114242 0.09092416 -0.11370308 -0.09733532
000110 a4 9c f7 3d 6a 99 d8 3d 10 bc 37 bc 7d 79 8f 3d
       0.12090424 0.105761364 -0.011214271 0.07005594
000120 0a 06 b7 3d f7 de b8 3d 58 61 73 bd 4a b7 3a bd
       0.08936699 0.09026902 -0.059419006 -0.045584954
000130 ba c7 85 bd 64 4f 0c bd 78 d6 f0 3d b7 d3 15 bb
       -0.065322354 -0.0342554 0.11759657 -0.0022861788
000140 24 86 cc bd 94 8b c1 3d 79 c1 49 3d 0d c3 a7 3c
       -0.09986523 0.094504505 0.049256776 0.02047875
000150 a4 3d 86 bd 2f 7c b9 3d 8a 33 d0 bd d0 39 7e 3d
       -0.06554726 0.09056889 -0.1016608 0.062066853
000160 2a b3 70 bc 03 48 3a bd 86 46 e6 bd 74 6a 8c 3c
       -0.014691154 -0.045478832 -0.1124392 0.017140605
000170 4c 33 71 bd 53 96 4a bd 28 a5 90 3d f6 43 a4 bd
       -0.05888681 -0.049459767 0.07062751 -0.08020775
000180 ca 66 f2 3d d9 f6 cf 3d 16 63 ba 3d 82 24 55 3c
       0.11836012 0.10154504 0.091009304 0.013009192
000190 a8 e8 c3 bd 54 22 eb bc e0 6c 77 bd 65 e2 8f bc
       -0.0956586 -0.028702892 -0.060406566 -0.017564008
0001a0 56 9a ee bd 20 f7 65 bd a4 1e b1 bc 7b f2 40 38
       -0.11650531 -0.05614388 -0.021621056 4.6002195e-05
0001b0 2c 11 04 bd c1 d1 d8 3c 38 89 8b bd b6 63 ae bd
       -0.03224294 0.026467206 -0.06813282 -0.08515112
0001c0 a5 7d ba bd 16 cf ec 3d 68 6c 98 3d 3a e8 e1 bd
       -0.09105996 0.11562936 0.07442552 -0.11030622
0001d0 90 6f d8 bd a0 c5 a2 bb 08 e6 88 bd e0 94 2d 3d
       -0.10568154 -0.0049674064 -0.066845 0.042378306
0001e0 b7 97 35 bd 89 e1 4b 3c 66 70 fe bc 46 51 c6 bd
       -0.04433414 0.0124439085 -0.031059455 -0.096834704
0001f0 40 26 3e bc c7 2e e9 3d f8 14 c8 3d 8f 78 ae bd
       -0.011605799 0.11385875 0.097696245 -0.085190885
000200 dd 87 34 3d a5 fb eb 3d 83 51 72 3c c4 f4 44 bc
       0.04407488 0.11522607 0.014789942 -0.012021247
000210 df 25 de 3d c7 32 26 3c ed 0b ba bc 84 ab 0f 3e
       0.10847067 0.010143942 -0.022710765 0.14030272
000220 24 a6 56 3d de 82 9b bd 6e 8b bc 3d 44 6d f9 3d
       0.052404538 -0.0759332 0.092062816 0.12179044
000230 b4 e4 cc 3d ed a9 6c bd af d9 32 bd 11 13 b8 3d
       0.10004559 -0.05777924 -0.04366463 0.08988012
000240 66 04 c5 3d 25 0d d2 bd 6b c5 d5 3d 6e d4 95 3d
       0.096199796 -0.10256413 0.10438045 0.07315908
000250 c5 91 19 3d d1 09 e5 bc 5f 75 59 bc c3 06 9c 3d
       0.037492532 -0.027958782 -0.013272612 0.07618477
000260 3f ef e9 3c 0d b2 cb 3d df 4b 99 bd e6 11 34 bd
       0.028556464 0.0994607 -0.074851744 -0.04396238
000270 a6 b6 6b bc 8a e5 5b 3d fc 59 32 3d c4 d3 87 3d
       -0.0143868085 0.053685702 0.043542847 0.06632188
000280 25 6f 82 bd b1 b1 8c bc fd 5f 47 3d 70 60 62 bd
       -0.063688554 -0.017174574 0.048675526 -0.05526775
000290 c8 fc b6 3d 65 3a ba 3d d0 41 8d 3d 31 17 89 3d
       0.08934933 0.09093169 0.06897318 0.066938765
0002a0 54 87 9a 3d ef 20 d9 bd 23 c7 1b bd 76 42 bf 3d
       0.07545343 -0.10601985 -0.03803171 0.09338848
0002b0 82 73 55 bd 0a ca a1 3c d1 56 2f bd c0 6f a2 bb
       -0.05211211 0.01974966 -0.042807404 -0.0049571693
0002c0 1a 48 a6 bc 60 00 13 bd ff 16 0d 3d bc 1e eb 3d
       -0.020298053 -0.03588903 0.03444576 0.114804715
0002d0 40 9f 1c 3b cf 6f 13 bd dc f3 de 3d b4 a1 69 bd
       0.0023898631 -0.0359953 0.10886356 -0.057038978
0002e0 34 5d 33 3d 20 a3 66 3c a9 fd 78 3d 64 e0 a9 3d
       0.043790057 0.014076978 0.060788784 0.08294752
0002f0 3d 45 17 3d 9b 8b 0c bc 2e 65 92 3d d2 36 96 3c
       0.036931265 -0.008578206 0.07148205 0.018336687
000300 c9 29 74 bc 73 33 09 3d 0f 55 67 bd 94 73 38 3c
       -0.0149025405 0.03349633 -0.056477603 0.011258025
000310 d5 c9 94 bd 18 df 83 3d ed 4f f8 3d c2 a8 87 bc
       -0.07265059 0.06439036 0.1212462 -0.016559962
000320 2b 60 e5 bd 5c c0 d9 3d f5 5a 84 bd 70 8e ce 3d
       -0.11199983 0.10632393 -0.06462661 0.100857615
000330 24 6d b1 3d 17 d0 2e bd 40 e8 d3 3b 0f f7 31 bd
       0.08663395 -0.04267892 0.0064668953 -0.043448504
000340 40 66 dc 3d 8b 47 b8 bd 92 a0 68 3c 8e e5 74 bd
       0.1076169 -0.08998021 0.014198439 -0.059789233
000350 ca c2 c9 3d d8 f2 8c 3d 55 2d e3 3d d5 1d 6b bd
       0.09851606 0.06882256 0.11092631 -0.057401497
000360 ae f5 4c 3d d5 87 d9 bd 15 35 9d 3d 80 82 29 bd
       0.050038986 -0.10621611 0.0767614 -0.04138422
000370 f9 c6 2a 3d d0 85 82 3d a4 8a a0 bd da d8 8f 3d
       0.04169366 0.06373179 -0.078389436 0.07023783
000380 34 3c 3b bd 19 79 59 3d ae ce 2e bd bc 02 b4 3b
       -0.04571171 0.053094003 -0.042677574 0.00549349
000390 10 31 50 3c a0 48 e2 3d 62 76 11 3d 85 ac b3 3c
       0.01270701 0.11049008 0.03551329 0.02193285
0003a0 e2 2a bd bc 10 41 ff bd dd 35 63 bd b2 34 2f bd
       -0.023091737 -0.124635816 -0.05547129 -0.042774864
0003b0 1b e8 3e 3d 7b f3 91 b8 15 49 1f 3d ce cc 84 bd
       0.04660807 -6.9594906e-05 0.038888056 -0.06484376
0003c0 24 37 fc bd e4 95 3b 3d 7e 9c a2 3d 20 47 87 3d
       -0.12315205 0.045797244 0.07940005 0.06605363
0003d0 9e 41 d4 3d 2d da f9 bd 01 ea 32 3d 70 48 cb 3d
       0.10364078 -0.12199817 0.043680195 0.09925926
0003e0 e4 ff 56 bd de 44 a6 3d fb 50 b4 3d bb e3 13 3d
       -0.05249013 0.08118604 0.08804508 0.036105853
0003f0 71 40 ed bd 43 1a 71 3d cf e5 04 3e 63 c9 8a bc
       -0.11584557 0.058862936 0.1297829 -0.016941732

conv2.bias f4 [32]
000000 8d ed 79 bd 9d 0b 4f bd ba f1 0f 3e e4 97 de 3d
       -0.06101756 -0.050548185 0.14057055 0.108688146
000010 46 06 22 bc 52 89 da bd 18 6a 05 3d f0 1b cf 3d
       -0.009889191 -0.10670723 0.032571882 0.101127505
000020 ed 92 ac 3d 74 7b 8c bd 7e 90 f0 bd 18 7f 95 bd
       0.08426461 -0.06859484 -0.1174631 -0.07299632
000030 3e e5 e6 bd 4a e9 90 3d 09 4c 99 bd 2e 63 c5 3b
       -0.11274193 0.07075746 -0.07485206 0.006023786
000040 f4 7b fe 3d 81 22 42 3d 1c 71 e3 bd 37 cd 1f bb
       0.12425986 0.047396187 -0.11105558 -0.0024383792
000050 16 33 03 3e 47 e6 c9 3c 32 e3 84 bc f3 28 b7 3d
       0.12812456 0.024645938 -0.016221616 0.08943357
000060 e6 e5 e2 bd 47 4d 6e bd 45 e3 a3 3c 35 2d cb 3d
       -0.11079006 -0.058179166 0.020005831 0.09920732
000070 84 20 38 bd 8d 7b 98 bd e4 86 f2 bd 66 a3 eb bd
       -0.044952884 -0.074454404 -0.118421346 -0.11505775

conv3.weight f4 [1, 32, 5, 5]
000000 90 8c 97 3c 22 2c a4 bc f8 4c 98 3b 6c 64 3f 3c
       0.018499643 -0.020040575 0.0046478473 0.011681657
000010 fa ac 61 3c b9 68 0c bd 33 bf 84 3c ce 06 39 bc
       0.013774151 -0.03427956 0.016204452 -0.011293126
000020 c7 15 4b bc 4f 03 d2 bb 91 e0 07 bd a2 e3 a7 bb
       -0.012395329 -0.006409086 -0.033173148 -0.0051235715
000030 ed 4d 1d 3c e4 f2 0b bd 3f fd 8a bc 33 70 ca bc
       0.0096010985 -0.034167185 -0.01696646 -0.024711704
000040 b6 99 ba bc 00 22 9f bc c6 46 e0 3c c4 12 1e 3c
       -0.022778373 -0.019425392 0.027377497 0.009648029
000050 94 c2 84 3c b6 84 eb bc 0c b9 87 bc e0 3b e3 bc
       0.016206063 -0.028749805 -0.01656773 -0.027738512
000060 41 16 b1 3c c3 76 09 bd b3 d8 fe bc 34 d1 5f ba
       0.021617057 -0.033560526 -0.03110919 -0.00085379486
000070 f2 c1 1e 3c 9b 46 4e 3c f1 cf 96 bb 46 b4 b2 3b
       0.009689795 0.012590076 -0.0046024253 0.005453619
000080 e0 35 d2 3b e5 d0 19 3c 26 e8 15 bc 7d 2b cb 3c
       0.006415114 0.009388183 -0.009149587 0.02480101
000090 d3 0c 2b 3b b6 17 9e 3c 18 06 2d 3c 69 40 9e bc
       0.0026100173 0.019298416 0.010560535 -0.019317823
0000a0 3f f2 7f bc 94 ce a7 bc 8d 86 86 bb af b1 73 3b
       -0.015621721 -0.020484246 -0.004105395 0.0037184765
0000b0 cb 72 bd b9 3b af f9 3c 5b 4d 03 3d fb c8 15 3c
       -0.00036134417 0.030479064 0.032056194 0.009142156
0000c0 1f 1d f8 3a 5d 74 aa bc b7 99 f2 3c 19 71 1c bc
       0.0018929577 -0.02080744 0.029614313 -0.009548449
0000d0 ea 45 b5 bc 18 b3 c5 3c 10 a0 e6 3c b6 7a c5 3c
       -0.022128064 0.02413325 0.028152496 0.024106365
0000e0 71 b8 30 3c 1e 99 2d bc 41 24 ef 3c bf 05 22 3d
       0.010786162 -0.010595588 0.029192092 0.03955626
0000f0 8c 60 bf 3c 1a 5a df 3c d1 3c 0e bc cc 01 af 3c
       0.023361467 0.027264643 -0.008681492 0.021363162
000100 81 5f 06 bc 56 33 16 bb 3f 22 ac 3c 7f c1 a1 3c
       -0.008201481 -0.0022918782 0.021012424 0.019745586
000110 4c 8a e1 3c c3 af 54 3b 75 62 fe ba 57 2f 78 3c
       0.027531765 0.0032453395 -0.0019408005 0.015148005
000120 fe d8 ce 3c 55 10 5d 3c 99 69 9c bc 81 89 15 3d
       0.025249954 0.013492663 -0.019093322 0.036508087
000130 ee 3e a5 3c 07 f2 88 3c e2 16 44 bb a2 b1 15 3d
       0.020171609 0.01671697 -0.0029920866 0.036546357
000140 eb ed a6 3b 25 a8 6e 3b a1 0d a2 3c 14 d0 03 3b
       0.00509428 0.003641614 0.01978189 0.0020113038
000150 cb 16 2d 3c a7 71 97 3b 46 7e 53 3c a6 f6 ae 3b
       0.010564516 0.0046217027 0.012908524 0.0053394614
000160 0d 28 93 bc 89 da c2 bb 7d ac 10 3d b6 e7 e1 3c
       -0.017963434 -0.0059464616 0.035320748 0.027576309
000170 5a cf 59 3a 57 e2 ed 3b a9 18 99 bc 60 cd f7 3c
       0.0008308791 0.007259648 -0.018688517 0.030249298
000180 22 a3 f1 bc b4 d7 b4 3c cc 8a f4 3c 11 e0 48 3c
       -0.029496733 0.022075512 0.02985134 0.012260453
000190 05 4a 85 3c a0 89 02 bd 5f 80 36 bc 6e 5f 85 bc
       0.016270647 -0.03186953 -0.0111390045 -0.016280856
0001a0 d0 1c 76 3c ab f0 fa bc 4e ae b1 bc c2 94 67 3c
       0.015021518 -0.030632338 -0.02168956 0.014134588
0001b0 ea 24 13 3c e5 81 07 bd 1e 06 d6 3c 01 34 b4 3c
       0.008980969 -0.03308286 0.026125964 0.021997454
0001c0 09 2d d9 3b 3c fc 2b 3b 8a e6 e5 bc f7 9d 0d bd
       0.006627683 0.0026242873 -0.028064031 -0.034574475
0001d0 74 e7 db bc db b8 cd bc 9a 0f bb bc 98 7b 95 bc
       -0.026843764 -0.02511256 -0.022834588 -0.01824741
0001e0 dc bb 09 3d fc 8c 0d bd 1f 60 fc 3c fc 55 fa 3c
       0.033626422 -0.03455828 0.030807553 0.030558579
0001f0 11 3b b1 3b 2a 81 e2 3a 7a 03 41 3c e6 49 85 3b
       0.0054086526 0.0017280926 0.011780614 0.0040676473
000200 91 42 e1 bc c0 9d e9 bc 2a fb 08 3d 50 15 4c bc
       -0.027497562 -0.028517604 0.033442654 -0.012456253
000210 a0 b7 99 3c 12 93 57 3c 11 e3 91 bc 37 ba 46 bb
       0.018764317 0.013157623 -0.017808469 -0.0030323395
000220 5e 3d db bb 9b f9 07 3d 55 fe 52 3b 69 4d 39 3c
       -0.006690665 0.033197027 0.003219505 0.01130996
000230 5b e5 af bc a0 ef 93 bc 30 e8 d8 bc 65 1d 84 3c
       -0.02147167 -0.018058598 -0.026477903 0.016127298
000240 ca ea ec bc cf e6 8b 3c ab 33 91 3c 65 3c c3 3b
       -0.02892055 0.017077832 0.017724833 0.0059581273
000250 60 3f 35 bc 46 69 ab 3c 38 c5 d7 bc 3a f3 c5 3c
       -0.011062473 0.020924222 -0.026339158 0.024163831
000260 3f b7 b6 3a 97 8b e7 bc 03 0f 44 3c 1e b3 8b bc
       0.001394011 -0.028264804 0.01196647 -0.017053183
000270 57 0f e8 3c 23 83 ea bc cc 30 c2 3c a8 66 f3 3b
       0.028327627 -0.028626984 0.023704909 0.007428009
000280 c7 85 0f bd 6b 9c 48 3c 27 1a 3f bc 08 84 4d 3c
       -0.03503969 0.012244324 -0.01166395 0.012543686
000290 e3 c6 68 3b bb 66 99 bc 88 c7 02 3c e6 5e 9f bc
       0.0035518936 -0.018725744 0.007982142 -0.01945443
0002a0 e4 ea e3 bb 50 7d 2b ba 16 8f 8b 3c e3 9a 93 3b
       -0.0069554914 -0.00065418053 0.017036002 0.004504548
0002b0 c8 79 0a bd 3f fb 6a 3c c0 aa a6 bb 35 d2 a2 bc
       -0.033807546 0.014342128 -0.005086273 -0.019875625
0002c0 d2 c8 0f 3d ea 3d 3a 3c 6b 62 99 3c 3d 4d c7 3a
       0.035103627 0.0113673005 0.018723687 0.0015205514
0002d0 d5 8e f4 bc bb dc d1 3c 45 c2 51 3c 94 cf 55 bc
       -0.029853264 0.025617948 0.012802665 -0.013049979
0002e0 57 04 06 3d bb 35 e1 bc 20 67 e5 3c b5 85 a0 3c
       0.032718983 -0.027491441 0.028003275 0.019595006
0002f0 9c a8 d1 3c f1 65 88 3b d4 80 a6 bc 7d 87 cd 3b
       0.025593095 0.004162543 -0.020325102 0.006272255
000300 b1 7d a8 bc fa 3d b3 bb 85 1e 45 bc d5 8a c7 bc
       -0.020567747 -0.0054700347 -0.012031202 -0.024358192
000310 01 dc fd 3c 79 b7 eb bc 3e 06 d8 3c a9 1e 0e bc
       0.030988695 -0.02877401 0.026370164 -0.008674302
000320 2e 6b b9 bc e7 35 57 3c 13 9c 83 bc e1 c9 e5 3c
       -0.022634115 0.01313541 -0.016065633 0.028050365
000330 97 15 af 3c fc 87 00 3d a6 26 ce 3a 3d 60 0c bd
       0.0213726 0.031379685 0.0015728071 -0.034271467
000340 cb 65 f5 3b 3c a3 de bb d9 ac 46 3c 03 00 ea 3b
       0.0074889413 -0.0067943614 0.012126171 0.0071411147
000350 b3 7b f5 bc 5f 47 b9 3c 10 22 ca bc 90 f3 fd bc
       -0.029966211 0.02261704 -0.024674445 -0.030999929
000360 f8 ce e1 bb 45 41 0f 3d 5f 3a b5 bc ea 78 c3 39
       -0.0068911277 0.034974355 -0.02212256 0.00037283386
000370 e5 26 aa bc 9b bc b0 3c ab d4 28 bc bc f1 e4 bc
       -0.0207705 0.02157431 -0.01030461 -0.0279473
000380 c3 fe 77 3c ba 62 d4 bc bf 36 e8 3c e6 0a 8b 3c
       0.0151364235 -0.025925983 0.028346417 0.01697297
000390 e3 2d 6c 3b 81 49 58 3c e8 da a2 bc 98 ff fe 3c
       0.0036038093 0.013201118 -0.019879773 0.031127736
0003a0 31 52 e1 3a e0 16 e1 bc 2a 62 e3 3b 2e 34 d8 bc
       0.0017190633 -0.027476728 0.0069391923 -0.026392069
0003b0 fd f1 9b bb 4a 99 d2 bc af 6c 0e bd 21 b9 1c 3c
       -0.004759072 -0.02570786 -0.034771618 0.009565623
0003c0 7b 3c eb bc a4 bc b5 3c da d0 e0 3c d5 be 41 3c
       -0.028715363 0.022184677 0.027443338 0.011825283
0003d0 44 5d 8a bb b3 de 24 bc d0 46 48 bc eb 37 8e b9
       -0.004222544 -0.010062861 -0.012223914 -0.00027126013
0003e0 2d de b3 3c 32 7c bd 3c 31 58 2e 3c b7 17 f8 3c
       0.021956528 0.02313051 0.010641144 0.030284746
0003f0 4c 65 02 bd ac 62 27 39 ae 99 00 3d f8 a2 bb bb
       -0.031834885 0.00015963119 0.03139656 -0.0057262145
