resutls_128/epoch_20.905.pth (torch, 34981 bytes, 5 tensors)

conv1.weight f4 [64, 1, 9, 9]
0.06014721 -0.046106596 -0.01855076 0.055185534 -0.10153387 0.06966193 -0.019924678 0.059383713
0.018249702 -0.010583885 0.033885896 0.008612159 0.04376446 -0.040073358 -0.0049168263 -0.0069170124
0.019105462 0.0024943203 0.100357786 0.037861276 -0.038021825 -0.063688695 -0.015157318 -0.044503987
-0.032288153 0.008541176 0.06938387 0.06372497 -0.10522201 0.0723555 0.034583464 0.10898934
0.076886594 -0.097804986 -0.10231832 -0.05034755 0.10100961 -0.014996858 0.051147096 -0.047968652
0.11274062 -0.043348882 0.08686559 0.004743317 -0.05519686 0.06050036 -0.05552118 0.036222428
-0.02847229 -0.008524975 -0.10322422 -0.049506485 0.06364635 -0.023743805 0.114005364 0.09246794
-0.0017172805 -0.07061733 0.07124731 0.03800274 -0.0684361 0.07544524 0.070646256 0.10178543
-0.05897782 -0.014907337 0.0012845783 0.019695582 -0.08092884 -0.07558141 0.063601404 -0.02297238
0.05742826 0.00954544 0.039761066 0.027757287 0.043749582 0.058356207 -0.099750295 0.0589782
-0.07513836 -0.08432534 0.0062507205 -0.019454539 0.06474831 -0.06479684 -0.09922731 0.08044067
-0.016881756 0.06203455 0.03519855 -0.0838568 0.021772277 0.026152592 -0.074864924 -0.05318718
0.03745391 0.019490888 -0.047728505 -0.034233514 0.10115083 -0.021182507 0.062036905 0.047576793
-0.07235124 -0.094978936 0.10619206 0.0052877353 0.075540386 0.02238989 0.035092443 0.08237542
0.104816064 -0.07425943 0.013408508 0.08245789 0.0799802 0.06849855 -0.08095322 -0.08055534
-0.06771072 0.013531878 0.11033232 -0.07054834 0.058867674 -0.061898787 -0.10502498 -0.024182005
0.0634516 0.102619536 -0.06944586 0.023691962 0.09549794 0.07326613 0.06881895 0.07834048
0.069651894 0.028071024 -0.07657459 -0.09380992 -0.051396225 -0.013379892 -0.06853916 0.040145166
0.033706646 -0.025848228 0.04201417 0.03524911 0.067261964 0.07426613 -0.038151827 0.10804009
-0.013437109 -0.0045402437 -0.10560682 -0.07224823 -0.06562312 -0.048161853 0.078367285 -0.036906105
-0.083622985 0.042088486 0.038799837 0.07529481 -0.05405394 0.027558304 -0.037004035 -0.021522563
-0.08515217 -0.0473497 -0.03079002 0.050753664 0.023647113 0.030913018 0.114395194 0.11176504
0.07924977 0.0069532604 -0.07356246 0.090078875 -0.024458315 -0.00553995 -0.092156276 -0.018351858
-0.06809107 0.105666965 -0.09254731 -0.08321676 -0.00044525016 -0.05668161 0.043277107 -0.03912276
-0.048510738 0.009946796 0.084076576 -0.074575745 0.055639703 0.07477448 0.11211664 -0.07421471
0.03059411 -0.078445934 0.09854634 -0.039429754 0.070537135 0.006794008 -0.005236867 -9.59395e-05
0.022467703 0.056087986 0.021558879 0.037604336 -0.09625435 0.084579624 0.100383624 0.0952861
0.08555331 -0.07663352 -0.03751017 0.1016773 -0.080949865 0.10446574 -0.08378344 -0.07478128
0.05773748 -0.07649862 -0.021996219 0.08442116 0.09163 0.10867863 -0.018962618 -0.082833774
0.11281441 -0.020322269 -0.042457283 0.030461274 -0.074202225 0.07656184 0.073146544 -0.084659606
-0.08780789 -0.0063881795 0.049951028 -0.003233205 -0.056361485 0.0025256963 -0.1044252 -0.0785174
-0.073954836 0.0916235 0.09806515 -0.037648305 0.004966537 0.049529813 0.013296736 -0.05566132
00000000: ec5c 763d 45da 3cbd c3f7 97bc 3a0a 623d
00000010: fdf0 cfbd eaaa 8e3d 1439 a3bc 563c 733d
00000020: 6680 953c 0868 2dbc f0cb 0a3d 031a 0d3c
00000030: 5d42 333d f623 24bd 541d a1bb 1ba8 e2bb
00000040: 0f83 9c3c c077 233b 6288 cd3d 6d14 1b3d
00000050: c6bc 1bbd 386f 82bd 6656 78bc d049 36bd
00000060: 9540 04bd 4af0 0b3c 2119 8e3d 3d82 823d
00000070: a37e d7bd 1f2f 943d 64a7 0d3d ce35 df3d
00000080: b876 9d3d fb4d c8bd 448c d1bd 3c39 4ebd
00000090: 20de ce3d 62b5 75bc 9e7f 513d c77a 44bd
000000a0: 8ee4 e63d 998e 31bd 96e6 b13d d46d 9b3b
000000b0: 1a16 62bd 3acf 773d 2d6a 63bd f85d 143d
000000c0: b83e e9bc 56ac 0bbc 3867 d3bd 50c7 4abd
000000d0: 0459 823d 5e82 c2bc a57b e93d d55f bd3d
000000e0: 5f16 e1ba d29f 90bd 1cea 913d c3a8 1b3d
000000f0: 3a28 8cbd 0983 9a3d fcae 903d e174 d03d
00000100: ba92 71bd e73d 74bc 4c5f a83a a158 a13c
00000110: 05be a5bd 6dca 9abd 7441 823d 9330 bcbc
00000120: e539 6b3d 7a64 1c3c 80dc 223d 4063 e33c
00000130: c332 333d eb06 6f3d e249 ccbd 2093 713d
00000140: 24e2 99bd c4b2 acbd d8d2 cc3b 205f 9fbc
00000150: c39a 843d 35b4 84bd b037 cbbd 14be a43d
00000160: 9c4b 8abc f117 7e3d 5b2c 103d 1dbd abbd
00000170: c65b b23c f63d d63c c852 99bd cdda 59bd
00000180: 4569 193d 5bab 9f3c f77e 43bd 7138 0cbd
00000190: 2b28 cf3d f086 adbc 691a 7e3d e2df 423d
000001a0: e32c 94bd 5184 c2bd 397b d93d bd44 ad3b
000001b0: ebb4 9a3d 016b b73c 18bd 0f3d 72b4 a83d
000001c0: cea9 d63d 5415 98bd 5caf 5b3c afdf a83d
000001d0: a9cc a33d f848 8c3d cdca a5bd 33fa a4bd
000001e0: ebab 8abd cfb4 5d3c e9f5 e13d a67b 90bd
000001f0: 3b1f 713d 9589 7dbd 5617 d7bd 5719 c6bc
00000200: eaf2 813d 312a d23d a239 8ebd a515 c23c
00000210: 6d94 c33d 8e0c 963d f3f0 8c3d f970 a03d
00000220: a7a5 8e3d 34f5 e53c 23d3 9cbd 6a1f c0bd
00000230: d984 52bd 5637 5bbc 425e 8cbd 426f 243d
00000240: fb0f 0a3d aabf d3bc 0d17 2c3d 5f61 103d
00000250: a4c0 893d d718 983d 1745 1cbd 1f44 dd3d
00000260: 5227 5cbc 53c6 94bb 6348 d8bd e1f6 93bd
00000270: 6a65 86bd 5d45 45bd 077f a03d db2a 17bd
00000280: 8742 abbd fa64 2c3d 94ec 1e3d 2a34 9a3d
00000290: aa67 5dbd f4c1 e13c 8b91 17bd 1650 b0bc
000002a0: 4364 aebd c2f1 41bd 5a3b fcbc 13e3 4f3d
000002b0: 97b7 c13c 4c3d fd3c 0748 ea3d 12e5 e43d
000002c0: b44d a23d 2dd8 e33b eaa7 96bd 467b b83d
000002d0: ce5c c8bc 7888 b5bb 6ebc bcbd a356 96bc
000002e0: 5573 8bbd ec67 d83d 7289 bdbd 8c6d aabd
000002f0: 7770 e9b9 fa2a 68bd 5643 313d 303f 20bd
00000300: 32b3 46bd e3f7 223c 5730 ac3d 2bbb 98bd
00000310: 75e6 633d 5d23 993d 699d e53d e2fd 97bd
00000320: 80a0 fa3c 43a8 a0bd aad2 c93d 1881 21bd
00000330: c675 903d 45a0 de3b 069a abbb 2033 c9b8
00000340: 300e b83c 84bc 653d 3f9c b03c 0107 1a3d
00000350: 0021 c5bd 1538 ad3d ee95 cd3d 5c25 c33d
00000360: 9336 af3d 09f2 9cbd 44a4 19bd 303c d03d
00000370: 0bc9 a5bd 22f2 d53d a796 abbd ed26 99bd
00000380: 237e 6c3d 4fab 9cbd 6a31 b4bc 00e5 ac3d
00000390: 82a8 bb3d e792 de3d 7e57 9bbc c1a4 a9bd
000003a0: 3e0b e73d e37a a6bc b0e7 2dbd ec89 f93c
000003b0: 56f7 97bd 74cc 9c3d dbcd 953d 0462 adbd
000003c0: 9fd4 b3bd ef53 d1bb 7399 4c3d 2ee4 53bb
000003d0: 4ddb 66bd 2786 253b e1dc d5bd bbcd a0bd
000003e0: a275 97bd 1aa5 bb3d 62d6 c83d 1c35 1abd
000003f0: 55be a23b c6df 4a3d 8eda 593c 20fd 63bd

conv1.bias f4 [64]
-0.050954692 0.028206747 -0.07231614 -0.043156218 0.08005295 0.05442807 0.08018089 -0.0183247
0.10111163 0.076287486 0.056029048 0.06290607 -0.095155016 -0.061658125 -0.00066824077 0.022573333
0.11176775 0.09776704 -0.047222883 0.07277444 0.04252024 -0.054199673 -0.10903172 0.045576725
0.020413702 0.026948653 0.07818863 -0.03564858 -0.04335204 0.021721752 -0.04306927 -0.06540717
-0.110998616 -0.09394854 -0.008845154 0.08918315 -0.07003658 0.024915844 0.060685337 0.015139731
-0.0033749777 0.084318966 -0.10572441 0.08892269 0.09234012 0.09638386 0.0823776 -0.007349226
-0.09399211 -0.070110664 -0.09478398 -0.068763494 -0.09901086 0.07772058 0.04941234 -0.048161283
-0.0041728546 0.011295696 0.0028528986 0.07829259 0.049933985 -0.084880374 0.10348365 -0.043949053
00000000: deb5 50bd d611 e73c 7c1a 94bd 93c4 30bd
00000010: cdf2 a33d f8ef 5e3d e135 a43d ae1d 96bc
00000020: 9d13 cf3d 9d3c 9c3d b77e 653d e6d4 803d
00000030: a2e0 c2bd 3b8d 7cbd e12c 2fba b6eb b83c
00000040: 7de6 e43d 163a c83d c86c 41bd c40a 953d
00000050: b429 2e3d 7a00 5ebd 064c dfbd a9ae 3a3d
00000060: a33a a73c 6cc3 dc3c 5c21 a03d 3f04 12bd
00000070: e991 31bd d1f1 b13c 6769 30bd 32f4 85bd
00000080: 3e53 e3bd 1868 c0bd 44eb 10bc a8a5 b63d
00000090: 576f 8fbd 501c cc3c 3091 783d a20c 783c
000000a0: bb2e 5dbb 6caf ac3d 0a86 d8bd 191d b63d
000000b0: d11c bd3d e764 c53d 96b5 a83d c7d1 f0bb
000000c0: ef7e c0bd 2e96 8fbd 1a1e c2bd e0d3 8cbd
000000d0: 35c6 cabd f82b 9f3d 9864 4a3d c444 45bd
000000e0: 71bc 88bb 9511 393c b2f7 3a3b de57 a03d
000000f0: 9487 4c3d c3d5 adbd 3cef d33d ec03 34bd

conv2.weight f4 [32, 64, 1, 1]
-0.055108927 0.121593274 -0.080313 -0.030963501 0.010018537 -0.11656237 0.0917159 0.08692256
-0.1193479 -0.02084307 0.02216293 0.066632055 0.051524594 -0.0123729035 0.10786924 -0.03144396
0.0047073634 -0.080020614 -0.07190596 -0.04121386 -0.11432225 -0.020261584 0.025186168 -0.0862087
-0.10738002 0.110627286 -0.055819854 -0.092111096 -0.03139562 -0.05998274 -0.119307235 -0.016683355
-0.059331406 -0.040830094 0.055734336 0.0059081838 0.10440774 -0.12581024 0.10928886 0.06845509
-0.034420308 0.08646476 0.117043674 0.012317934 0.03472738 -0.039540496 -0.009278421 -0.005989313
-0.06421312 0.021608517 -0.058778457 0.06379351 0.019187823 -0.09687108 0.10934137 0.037394404
0.053657338 -0.1289051 0.0965241 0.03326683 -0.011653014 -0.08182098 0.015811859 0.047690127
0.038293082 0.09107421 -0.11349135 -0.09733532 0.120966785 0.105985425 -0.011214271 0.07071107
0.08936699 0.09033574 -0.059419006 -0.04510983 -0.065322354 -0.03425539 0.11765747 -0.0020303517
-0.09982305 0.094505 0.04931089 0.020740017 -0.06554726 0.09073639 -0.10159154 0.062066853
-0.014394937 -0.045422215 -0.11234794 0.017166596 -0.05888681 -0.049382612 0.07062751 -0.08020775
0.118470356 0.10172488 0.091009304 0.013052924 -0.0956586 -0.028623458 -0.06041165 -0.017545369
-0.11650531 -0.05614388 -0.021621056 8.799155e-05 -0.03224294 0.026694546 -0.06813282 -0.08515112
-0.091058016 0.11562936 0.07466507 -0.11030622 -0.10568154 -0.0049674064 -0.06669495 0.042378306
-0.0441339 0.012718672 -0.030528862 -0.0965484 -0.011460023 0.11385892 0.09806389 -0.08513499
0.045313656 0.11579329 0.016720029 -0.011948588 0.108000174 0.01090989 -0.022810055 0.14421739
0.05217959 -0.0769671 0.091866955 0.123669654 0.10004559 -0.057504945 -0.042776003 0.09071981
0.0948748 -0.10317365 0.104589745 0.074016996 0.03749756 -0.026656454 -0.012361363 0.076141395
0.030051554 0.09970245 -0.075047806 -0.043879114 -0.014375175 0.05362643 0.043542847 0.06632188
-0.06238864 -0.015817815 0.04867688 -0.055378936 0.08934933 0.091024786 0.06805152 0.06712928
0.07545343 -0.10619189 -0.037920382 0.092805214 -0.052424558 0.0198686 -0.04324496 -0.0049571693
-0.020132128 -0.03588903 0.036677897 0.114804715 0.0023898631 -0.03610652 0.10893285 -0.057038978
0.04441947 0.014995946 0.06346217 0.083545424 0.037317447 -0.008382572 0.07243102 0.018501893
-0.013852829 0.033960007 -0.054899115 0.011308433 -0.073111564 0.06500593 0.121159755 -0.013281723
-0.11219421 0.10544013 -0.064796776 0.102380455 0.08663395 -0.04245592 0.007137757 -0.042771734
0.1065163 -0.0905553 0.01440243 -0.059117705 0.09849906 0.07002395 0.11172347 -0.057439793
0.051301252 -0.10599579 0.076522924 -0.04130933 0.041701194 0.06374955 -0.078389436 0.07023783
-0.04455265 0.054258794 -0.042677574 0.0053764796 0.01270701 0.11056994 0.034737412 0.02205023
-0.023091715 -0.124786004 -0.055399116 -0.04327843 0.046335127 -3.140984e-05 0.03850117 -0.06484376
-0.122989416 0.045797244 0.08133401 0.06605363 0.10364078 -0.12209449 0.043773312 0.09925926
-0.051881164 0.081982635 0.09036183 0.036577832 -0.1155494 0.059042823 0.13054264 -0.016806941
00000000: e6b9 61bd e505 f93d 247b a4bd 2ba7 fdbc
00000010: ca24 243c 40b8 eebd 8cd5 bb3d 7504 b23d
00000020: ac6c f4bd 16bf aabc 088f b53c 6376 883d
00000030: 740b 533d b8b7 4abc 8cea dc3d 62cb 00bd
00000040: 3a40 9a3b d9e1 a3bd 6f43 93bd ddcf 28bd
00000050: c921 eabd 9ffb a5bc 3953 ce3c 308e b0bd
00000060: 0eea dbbd 8f90 e23d 5ca3 64bd bea4 bcbd
00000070: b298 00bd 76b0 75bd 5a57 f4bd 88ab 88bc
00000080: 7d05 73bd 753d 27bd b049 643d 7099 c13b
00000090: bad3 d53d 66d4 00be d6d2 df3d 2f32 8c3d
000000a0: 4ffc 0cbd 7014 b13d 98b4 ef3d 29d1 493c
000000b0: 4c3e 0e3d 37f5 21bd 8504 18bc 0042 c4bb
000000c0: 2b82 83bd 5804 b13c aec1 70bd 2ca6 823d
000000d0: c82f 9d3c 5864 c6bd 5eee df3d e02a 193d
000000e0: ccc7 5b3d b3ff 03be 6dae c53d cd42 083d
000000f0: 49ec 3ebc c291 a7bd df87 813c b956 433d
00000100: 35d9 1c3d 1e85 ba3d 276e e8bd be57 c7bd
00000110: 6fbd f73d e30e d93d 10bc 37bc f7d0 903d
00000120: 0a06 b73d f201 b93d 5861 73bd 16c5 38bd
00000130: bac7 85bd 614f 0cbd 66f6 f03d a60f 05bb
00000140: 0770 ccbd d68b c13d 37fa 493d f8e6 a93c
00000150: a43d 86bd 00d4 b93d 3a0f d0bd d039 7e3d
00000160: bed8 6bbc a50c 3abd ad16 e6bd f6a0 8c3c
00000170: 4c33 71bd 6c45 4abd 28a5 903d f643 a4bd
00000180: 96a0 f23d 2255 d03d 1663 ba3d eedb 553c
00000190: a8e8 c3bd be7b eabc 3572 77bd 4ebb 8fbc
000001a0: 569a eebd 20f7 65bd a41e b1bc 1b88 b838
000001b0: 2c11 04bd 85ae da3c 3889 8bbd b663 aebd
000001c0: a07c babd 16cf ec3d 00ea 983d 3ae8 e1bd
000001d0: 906f d8bd a0c5 a2bb 5d97 88bd e094 2d3d
000001e0: c0c5 34bd fa61 503c aa17 fabc 2bbb c5bd
000001f0: d2c2 3bbc de2e e93d b9d5 c83d 415b aebd
00000200: d09a 393d 0825 ed3d 71f8 883c 03c4 43bc
00000210: 322f dd3d 65bf 323c 27dc babc b9ad 133e
00000220: 44ba 553d eda0 9dbd be24 bc3d 8446 fd3d
00000230: b4e4 cc3d 4e8a 6bbd e435 2fbd 4fcb b93d
00000240: b84d c23d b54c d3bd 2633 d63d 3996 973d
00000250: 0b97 193d a35e dabc 5087 4abc 05f0 9b3d
00000260: ad2e f63c cc30 cc3d aab2 99bd 96ba 33bd
00000270: db85 6bbc 63a7 5b3d fc59 323d c4d3 873d
00000280: 3b8b 7fbd 5d94 81bc 6861 473d 06d5 62bd
00000290: c8fc b63d 346b ba3d 985e 8b3d 137b 893d
000002a0: 5487 9a3d 227b d9bd 6752 1bbd a910 be3d
000002b0: 22bb 56bd 79c3 a23c a121 31bd c06f a2bb
000002c0: 22ec a4bc 6000 13bd 903b 163d bc1e eb3d
000002d0: 409f 1c3b 6ee4 13bd 3018 df3d b4a1 69bd
000002e0: 31f1 353d 8eb1 753c 74f8 813d dd19 ab3d
000002f0: 2eda 183d 0e57 09bc b756 943d 4891 973c
00000300: faf6 62bc a619 0b3d e5dd 60bd 0147 393c
00000310: 84bb 95bd d421 853d 9b22 f83d 959b 59bc
00000320: 14c6 e5bd fff0 d73d 2cb4 84bd d8ac d13d
00000330: 246d b13d 42e6 2dbd d8e3 e93b 6a31 2fbd
00000340: 3825 da3d 0f75 b9bd 2bf8 6b3c 6825 72bd
00000350: e0b9 c93d b768 8f3d 46cf e43d fd45 6bbd
00000360: 4321 523d 5214 d9bd 0db8 9c3d f933 29bd
00000370: dfce 2a3d 208f 823d a48a a0bd dad8 8f3d
00000380: d77c 36bd 783e 5e3d aece 2ebd 2e2d b03b
00000390: 1031 503c 7e72 e23d d148 0e3d afa2 b43c
000003a0: d62a bdbc ce8f ffbd 2fea 62bd b944 31bd
000003b0: e7c9 3d3d 0fbe 03b8 67b3 1d3d cecc 84bd
000003c0: e0e1 fbbd e495 3b3d 7292 a63d 2047 873d
000003d0: 9e41 d43d ad0c fabd a54b 333d 7048 cb3d
000003e0: 5881 54bd 83e6 a73d a00f b93d a3d2 153d
000003f0: 2aa5 ecbd e3d6 713d f8ac 053e b6ae 89bc

conv2.bias f4 [32]
-0.06146524 -0.05005701 0.13049352 0.09973461 -0.004055994 -0.10670723 0.034894302 0.09903174
0.08545225 -0.06861174 -0.1174631 -0.07337843 -0.11344854 0.079869956 -0.07383725 0.007922585
0.11693669 0.044288207 -0.11177002 -0.0024383792 0.12249065 0.019722624 -0.016712796 0.093509614
-0.11079006 -0.05814263 0.018206457 0.10733736 -0.039644115 -0.074454404 -0.118421346 -0.11505775
00000000: fac2 7bbd 9408 4dbd 18a0 053e a941 cc3d
00000010: 25e8 84bb 5289 dabd 54ed 0e3d 27d1 ca3d
00000020: 9701 af3d 5084 8cbd 7e90 f0bd 6e47 96bd
00000030: b557 e8bd dc92 a33d fc37 97bd bbcd 013c
00000040: 817c ef3d 8d67 353d aee7 e4bd 37cd 1fbb
00000050: 61dc fa3d 5791 a13c 46e9 88bc f881 bf3d
00000060: e6e5 e2bd f726 6ebd b525 953c b1d3 db3d
00000070: de61 22bd 8d7b 98bd e486 f2bd 66a3 ebbd

conv3.weight f4 [1, 32, 5, 5]
0.018499643 -0.020040575 0.004652559 0.011688772 0.013786368 -0.03427956 0.01620518 -0.01128604
-0.012387321 -0.0063957497 -0.033173148 -0.005116324 0.009608381 -0.03416681 -0.016952274 -0.024697538
-0.022764202 -0.019411221 0.027391749 0.009668271 0.016220234 -0.028735634 -0.016553547 -0.027723718
0.021639705 -0.033332933 -0.0308737 -0.00060441584 0.00994095 0.012825941 -0.004373307 0.005691443
0.0066666165 0.009639953 -0.008914781 0.0250388 0.0028560094 0.019557482 0.0108188195 -0.019077722
-0.015377262 -0.02023366 -0.0038431112 0.00397919 -0.00011928088 0.030703858 0.032284006 0.009379479
0.0021278926 -0.020590818 0.029470678 -0.00963421 -0.022091083 0.024020374 0.027946297 0.024058253
0.010795214 -0.010465159 0.029168837 0.03943651 0.023454674 0.027413735 -0.008412491 0.021475023
-0.008188034 -0.0022943297 0.021062296 0.019912211 0.027541418 0.003158128 -0.0020296585 0.015107882
0.025324585 0.013412333 -0.019267218 0.036334045 0.019990144 0.016587047 -0.0032027063 0.036285106
0.0049805697 0.0035199653 0.019711 0.0018581478 0.010360654 0.00458527 0.012865346 0.0053490605
-0.018035209 -0.006067389 0.035220794 0.027470661 0.0007811883 0.0071336306 -0.01885926 0.03011523
-0.029635198 0.021997005 0.029702617 0.012072042 0.016070124 -0.032091748 -0.011382586 -0.01654617
0.014748893 -0.030842924 -0.021925662 0.013872386 0.008694169 -0.033376336 0.0259061 0.02175087
0.0063534365 0.002324179 -0.02837051 -0.034808695 -0.027103113 -0.025397103 -0.023142312 -0.01855978
0.033380546 -0.03482657 0.030519255 0.030252496 0.0051010726 0.0017280926 0.011780614 0.0040676473
-0.027497562 -0.028517604 0.033442654 -0.012456253 0.018764317 0.013157623 -0.017808469 -0.0030323395
-0.006690665 0.033197027 0.003219505 0.01130996 -0.02147167 -0.018058598 -0.026477903 0.016127298
-0.02892055 0.017077832 0.017724833 0.0059581273 -0.011062473 0.020924222 -0.026530556 0.024001645
0.0012535263 -0.028435726 0.011779817 -0.017250588 0.028161567 -0.02876853 0.023535201 0.007243794
-0.035236992 0.012080613 -0.011800484 0.01238083 0.0033751938 -0.01894132 0.0078016436 -0.019606188
-0.007132265 -0.0008441857 0.016824435 0.004329419 -0.033953685 0.014171279 -0.0052706343 -0.020101087
0.034900036 0.011192873 0.018510245 0.0012802703 -0.030059582 0.025433695 0.012647414 -0.01324527
0.03249639 -0.027656974 0.027860513 0.019482028 0.025439883 0.0039814184 -0.020502193 0.006118578
-0.020690989 -0.005632549 -0.012222209 -0.024540588 0.030829955 -0.02890198 0.026203262 -0.008870707
-0.02291489 0.012861711 -0.016316716 0.027770344 0.021080643 0.0311193 0.0013176025 -0.034505468
0.0072251055 -0.007069874 0.011901563 0.006920092 -0.030167434 0.02238493 -0.024918249 -0.031241182
-0.007129423 0.034754995 -0.022373114 0.00011055766 -0.02104374 0.02130492 -0.010554223 -0.028227324
0.014844241 -0.025853889 0.028416868 0.01704221 0.0036729155 0.013270571 -0.019808874 0.03119699
0.0017871469 -0.02740855 0.0070079356 -0.02632134 -0.004690072 -0.025639828 -0.03470315 0.009634847
-0.02864333 0.022254983 0.027512785 0.011895279 -0.0041513545 -0.009987994 -0.012150612 -0.00019869667
0.022029772 0.023205042 0.010641144 0.030284746 -0.031834885 0.00015963119 0.03139656 -0.0057262145
00000000: 908c 973c 222c a4bc 7e74 983b 4382 3f3c
00000010: 38e0 613c b968 0cbd bac0 843c 15e9 38bc
00000020: 31f4 4abc 7093 d1bb 91e0 07bd d6a6 a7bb
00000030: 796c 1d3c 7ff2 0bbd 7fdf 8abc 7e52 cabc
00000040: fe7b babc 4804 9fbc a964 e03c ab67 1e3c
00000050: 4ce0 843c fe66 ebbc 4e9b 87bc da1c e3bc
00000060: c045 b13c 1d88 08bd d7ea fcbc a971 1eba
00000070: 5edf 223c e523 523c f54d 8fbb 497f ba3b
00000080: a273 da3b e5f0 1d3c 4d0f 12bc 2b1e cd3c
00000090: e32b 3b3b 0337 a03c 6b41 313c e248 9cbc
000000a0: e9f0 7bbc 0fc1 a5bc b5dc 7bbb dd63 823b
000000b0: 6f26 fab8 a886 fb3c 3c3c 043d 63ac 193c
000000c0: 1d74 0b3b 13ae a8bc 7e6c f13c ced8 1dbc
000000d0: 5cf8 b4bc 60c6 c43c a2ef e43c d015 c53c
000000e0: 69de 303c 0f76 2bbc 7cf3 ee3c 2e88 213d
000000f0: 0424 c03c c592 e03c 8bd4 09bc 63ec af3c
00000100: 1b27 06bc 775c 16bb d68a ac3c ef1e a33c
00000110: 8a9e e13c 98f8 4e3b 0504 05bb 0d87 773c
00000120: 8175 cf3c 67bf 5b3c 49d6 9dbc 02d3 143d
00000130: 5fc2 a33c 8fe1 873c 7fe4 51bb b19f 143d
00000140: 0c34 a33b 38af 663b f778 a13c 188d f33a
00000150: bcbf 293c 0840 963b 2cc9 523c 2c47 af3b
00000160: 93be 93bc f3d0 c6bb ae43 103d 270a e13c
00000170: a9c8 4c3a 3bc1 e93b bc7e 9abc 37b4 f63c
00000180: 84c5 f2bc 1033 b43c e752 f33c d0c9 453c
00000190: 7ea5 833c a372 03bd 077e 3abc d58b 87bc
000001a0: 57a5 713c 4daa fcbc 729d b3bc 0149 633c
000001b0: fd71 0e3c a0b5 08bd 0839 d43c e12e b23c
000001c0: 7d30 d03b 4151 183b 4669 e8bc 9093 0ebd
000001d0: 5907 debc 960d d0bc f294 bdbc ae0a 98bc
000001e0: 0aba 083d 4ea6 0ebd 8403 fa3c 15d4 f73c
000001f0: e626 a73b 2a81 e23a 7a03 413c e649 853b
00000200: 9142 e1bc c09d e9bc 2afb 083d 5015 4cbc
00000210: a0b7 993c 1293 573c 11e3 91bc 37ba 46bb
00000220: 5e3d dbbb 9bf9 073d 55fe 523b 694d 393c
00000230: 5be5 afbc a0ef 93bc 30e8 d8bc 651d 843c
00000240: caea ecbc cfe6 8b3c ab33 913c 653c c33b
00000250: 603f 35bc 4669 ab3c 9c56 d9bc 199f c43c
00000260: 5d4d a43a 0af2 e8bc 2200 413c 1b51 8dbc
00000270: 16b3 e63c fbab ebbc e5cc c03c 595d ed3b
00000280: aa54 10bd c3ed 453c d156 41bc f7d8 4a3c
00000290: 5b32 5d3b d42a 9bbc eea4 ff3b 289d a0bc
000002a0: c6b5 e9bb 584c 5dba 66d3 893c cddd 8d3b
000002b0: 0513 0bbd a72e 683c 49b5 acbb 09ab a4bc
000002c0: 57f3 0e3d 5062 373c cca2 973c bece a73a
000002d0: 833f f6bc 535a d03c 1937 4f3c b002 59bc
000002e0: ef1a 053d e190 e2bc bb3b e43c c698 9f3c
000002f0: 4d67 d03c 8f76 823b 37f4 a7bc 5a7e c83b
00000300: 2680 a9bc 3f91 b8bb a93f 48bc 5809 c9bc
00000310: 1a8f fc3c d8c3 ecbc 39a8 d63c 7156 11bc
00000320: 02b8 bbbc edb9 523c a2aa 85bc a27e e33c
00000330: 50b1 ac3c e7ed fe3c 67b3 ac3a 9b55 0dbd
00000340: 94c0 ec3b 67aa e7bb c6fe 423c f0c1 e23b
00000350: b221 f7bc 9a60 b73c 5b21 ccbc 82ed ffbc
00000360: ef9d e9bb 415b 0e3d d247 b7bc 31db e738
00000370: ec63 acbc a887 ae3c 9feb 2cbc fd3c e7bc
00000380: 4235 733c 89cb d3bc 7eca e83c 1b9c 8b3c
00000390: 4cb5 703b cf6c 593c 3846 a2bc d490 ff3c
000003a0: b33e ea3a e587 e0bc d3a2 e53b da9f d7bc
000003b0: 2daf 99bb 9e0a d2bc e424 0ebd 7adb 1d3c
000003c0: 6ba5 eabc 1550 b63c 7e62 e13c 6be4 423c
000003d0: 1608 88bb afa4 23bc 5c13 47bc 3b59 50b9
000003e0: c877 b43c 8018 be3c 3158 2e3c b717 f83c
000003f0: 4c65 02bd ac62 2739 ae99 003d f8a2 bbbb
