resutls_128/epoch_24.572.pth (torch, 34981 bytes, 5 tensors)

conv1.weight f4 [64, 1, 9, 9]
000000 3c e4 67 3d 41 67 4a bd 4c 63 ae bc 5b 60 58 3d
       0.056614146 -0.049414877 -0.021287583 0.052826267
000010 3f fa d3 bd 83 82 89 3d 69 f4 be bc 10 15 63 3d
       -0.10350465 0.06714346 -0.023309903 0.05544001
000020 3d d7 65 3c c6 ab 5b bc 01 6b 00 3d a5 9c dc 3b
       0.014028368 -0.013407653 0.031352047 0.0067325407
000030 46 77 2d 3d 16 17 28 bd 46 ff d0 bb 2a 0c 18 bc
       0.042350076 -0.04103764 -0.006378087 -0.009280244
000040 1d 08 84 3c 61 2d 60 ba 9a 9b ca 3d ab c1 16 3d
       0.01611715 -0.0008551684 0.0989296 0.03680579
000050 72 fc 1c bd 48 f4 81 bd a0 ad 6b bc 25 23 35 bd
       -0.038326688 -0.06345421 -0.014384657 -0.04422297
000060 74 02 07 bd ed 58 ea 3b a8 4e 8a 3d 20 e4 80 3d
       -0.032961324 0.007151714 0.06753284 0.062935114
000070 00 24 d8 bd 50 38 95 3d 2d 5d 12 3d c5 bc e2 3d
       -0.105537415 0.072861314 0.03573339 0.11071161
000080 32 e5 9f 3d 32 f2 c7 bd 25 d7 d2 bd 5a 0c 53 bd
       0.078073874 -0.09762992 -0.10294942 -0.05152545
000090 be f2 ce 3d fd 8f 6c bc 5d 87 57 3d ef aa 3b bd
       0.10104893 -0.014438626 0.052619327 -0.04581731
0000a0 9d 7b ec 3d 69 b1 28 bd 0d 1b b4 3d 1f db a1 3b
       0.11547015 -0.041184817 0.08794222 0.0049394513
0000b0 b3 d7 63 bd ee 56 76 3d a6 b1 62 bd c3 e7 18 3d
       -0.05562563 0.060141496 -0.0553452 0.0373304
0000c0 ae a0 da bc c5 56 cb bb 03 e2 cf bd 04 6e 48 bd
       -0.026687946 -0.006205412 -0.1015053 -0.048933044
0000d0 51 a0 81 3d e7 9e ca bc 97 c0 e7 3d 17 ce bc 3d
       0.06329406 -0.024733974 0.113160305 0.09218996
0000e0 35 ed 90 ba 05 15 8e bd 18 73 95 3d 48 f9 1f 3d
       -0.0011057021 -0.06937603 0.07297343 0.039056093
0000f0 db 68 8c bd ae 5b 98 3d 12 4d 8d 3d 4f 2a cd 3d
       -0.06855937 0.074393615 0.068994656 0.10017835
000100 3a 13 76 bd b9 6e 78 bc 4e 64 d0 3a c2 0c a7 3c
       -0.06007693 -0.015163117 0.0015899034 0.020391826
000110 46 ca a5 bd d2 47 9d bd 33 ed 7b 3d 7d 7b d1 bc
       -0.08095221 -0.07679714 0.061505508 -0.02557158
000120 d8 3d 62 3d af a9 fe 3b d9 b2 1e 3d 43 f1 de 3c
       0.05523476 0.0077716927 0.03874478 0.027214652
000130 ee 45 32 3d 25 0b 6b 3d 8e a5 d0 bd 30 96 65 3d
       0.04352372 0.057383675 -0.10187827 0.056051433
000140 c6 ad a0 bd a5 78 ac bd 3e ce cb 3b 52 78 a1 bc
       -0.07845645 -0.084214486 0.0062196543 -0.019710694
000150 6d b8 83 3d ed 35 85 bd d9 92 cb bd 39 e7 a4 3d
       0.06431661 -0.06504426 -0.09940118 0.08051915
000160 32 66 89 bc 0f 9d 7c 3d cc f1 0f 3d f6 d6 ab bd
       -0.016772363 0.06167322 0.035142705 -0.0839061
000170 17 cd af 3c 27 d8 d2 3c 1a e1 99 bd 97 4e 5a bd
       0.0214601 0.025737835 -0.07513638 -0.053297605
000180 25 b3 19 3d c9 3b a1 3c d8 88 44 bd cc 8f 0d bd
       0.03752436 0.019681828 -0.047982067 -0.034560964
000190 f4 2b ce 3d a4 72 b2 bc b1 52 7b 3d 11 17 41 3d
       0.10066977 -0.02178318 0.061358158 0.04714114
0001a0 c2 00 95 bd 01 b3 c2 bd 07 bd d9 3d 30 be a0 3b
       -0.07275535 -0.095067985 0.10631757 0.0049054846
0001b0 34 f5 99 3d da 99 b4 3c c9 79 0d 3d d8 81 a7 3d
       0.07517472 0.022046018 0.03453997 0.081790626
0001c0 33 e5 d5 3d ff 71 98 bd 93 9e 5d 3c a1 7d a9 3d
       0.10444107 -0.07443618 0.013526577 0.08275915
0001d0 56 64 a3 3d f9 e4 8c 3d 4b 33 a5 bd 17 9f a4 bd
       0.07978122 0.068796106 -0.08066424 -0.080381565
0001e0 08 66 8a bd 47 e8 64 3c b2 21 e3 3d 11 9c 8e bd
       -0.06757742 0.013971395 0.11090411 -0.06963361
0001f0 f3 67 75 3d e9 25 7b bd e5 c7 d6 bd 19 f8 c5 bc
       0.059913587 -0.06131545 -0.104873456 -0.024166154
000200 34 8f 81 3d 34 ca d1 3d 2d 84 8d bd 4a 32 c6 3c
       0.06326142 0.10243645 -0.06909976 0.024193902
000210 b3 15 c5 3d 36 da 97 3d b3 ba 8d 3d 75 63 9f 3d
       0.096232794 0.07414667 0.06920376 0.07782642
000220 79 97 8d 3d 3b 40 e1 3c 16 eb 9d bd 93 84 c0 bd
       0.06913657 0.027496448 -0.07710855 -0.094002865
000230 0d 1b 52 bd 00 d8 54 bc c3 79 8b bd 7a 01 24 3d
       -0.05129533 -0.012990952 -0.068103336 0.04004047
000240 fa 06 06 3d d2 d6 db bc 8f 6d 27 3d e8 c4 0b 3d
       0.032721497 -0.026835833 0.040875968 0.03412333
000250 7f 61 88 3d 14 fd 96 3d 26 56 1d bd 83 bb dc 3d
       0.06659221 0.073724896 -0.038412236 0.107779525
000260 dc 24 69 bc 7e 8e bf bb 21 2c db bd 2b 17 97 bd
       -0.014229979 -0.005845844 -0.10701776 -0.07377466
000270 89 7d 89 bd 44 0e 4a bd 69 8b 9e 3d 28 48 1a bd
       -0.06713397 -0.04933001 0.07741434 -0.03766647
000280 01 ac ac bd 25 2d 27 3d 20 0e 17 3d 96 4f 97 3d
       -0.08431245 0.040814538 0.036878705 0.07388227
000290 8f 2a 60 bd af 63 df 3c 6a bb 18 bd a4 89 b2 bc
       -0.054728087 0.027269213 -0.037288107 -0.021794148
0002a0 82 ab af bd 7a 04 47 bd 0e 41 04 bd 32 b3 48 3d
       -0.085776344 -0.048588254 -0.032288603 0.04899902
0002b0 ea 37 b8 3c 8c d0 f9 3c 72 65 ea 3d 48 09 e5 3d
       0.0224876 0.03049495 0.114451304 0.11183411
0002c0 37 72 a2 3d c5 5d d7 3b 22 b7 98 bd 4c 97 b5 3d
       0.07931941 0.0065724575 -0.07456805 0.08866748
0002d0 ee 08 d1 bc 3e cb c2 bb 9c fd bb bd ea a0 8f bc
       -0.025516953 -0.0059446385 -0.091792315 -0.017532784
0002e0 c4 98 89 bd 4e 39 da 3d a5 c2 bc bd 06 25 ab bd
       -0.06718591 0.10655461 -0.09216813 -0.08356671
0002f0 bf f5 91 ba 8a b9 69 bd 36 9e 32 3d 44 8d 1b bd
       -0.001113586 -0.05706171 0.043607913 -0.03797652
000300 34 29 40 bd fc 62 3d 3c e4 70 af 3d b1 6a 96 bd
       -0.046914294 0.011559244 0.08566454 -0.073445685
000310 a9 60 65 3d 2c 2d 99 3d 3a ae e5 3d b3 72 96 bd
       0.056000385 0.07479319 0.11214872 -0.07346096
000320 d9 db 03 3d 88 7f 9c bd d6 e7 cd 3d 1f 79 19 bd
       0.032192085 -0.07641512 0.10053985 -0.037469026
000330 05 64 93 3d 96 f4 f5 3b dd e9 a0 bb 7b fe 22 b9
       0.071968116 0.0075059636 -0.004910691 -0.00015544325
000340 df 01 be 3c c6 3c 6c 3d 48 32 c1 3c e2 2f 22 3d
       0.023194252 0.057675146 0.023583546 0.039596446
000350 e0 2e c1 bd 39 1d b0 3d 6f f6 ce 3d 8a ce c3 3d
       -0.09432769 0.08599324 0.10105597 0.095608786
000360 ab 25 ae 3d 13 68 9c bd c8 06 15 bd 95 6d d3 3d
       0.08503278 -0.07637038 -0.03638342 0.103236355
000370 b1 a6 a2 bd 7d f0 d8 3d 91 84 a9 bd f1 79 98 bd
       -0.0794195 0.105927445 -0.08277238 -0.074451335
000380 61 46 6c 3d 98 2f 9f bd da 32 b8 bc f1 a2 ad 3d
       0.057684306 -0.0777275 -0.022485185 0.08478344
000390 a3 51 bd 3d 5f 3e e0 3d a7 cd 94 bc dc d9 a8 bd
       0.092440866 0.10949396 -0.018164469 -0.082446784
0003a0 66 78 e6 3d f8 d4 ab bc 92 70 35 bd c2 0d f0 3c
       0.11253433 -0.020975575 -0.04429681 0.029303435
0003b0 cb a6 98 bd 50 fc 9c 3d 9d 15 96 3d 3d 0b ad bd
       -0.07453688 0.07665312 0.07328341 -0.08449409
0003c0 26 2f b4 bd 21 7c ec bb ae c8 47 3d 63 bb 3d bb
       -0.08798055 -0.0072169458 0.048775367 -0.0028950803
0003d0 3c 88 65 bd ba 4b 3c 3b 13 f2 d4 bd ba e3 9f bd
       -0.056038126 0.002873166 -0.103977345 -0.07807107
0003e0 b8 4f 96 bd c0 71 bd 3d 07 a3 ca 3d 69 a5 16 bd
       -0.07339424 0.09250212 0.09894376 -0.03677884
0003f0 61 83 ad 3b 23 28 4c 3d 20 6a 5f 3c 43 a7 62 bd
       0.0052952026 0.049842965 0.013636142 -0.055335294

conv1.bias f4 [64]
000000 79 ec 74 bd bf ec d3 3c 13 dd 9b bd e1 64 2e bd
       -0.05979583 0.025869725 -0.07610526 -0.042576674
000010 6c 96 a0 3d b6 bd 6c 3d 4c d1 9f 3d 2f 09 ec bc
       0.07841191 0.05779811 0.07803592 -0.028812973
000020 55 1d d2 3d 7b 09 a3 3d cd c2 73 3d 63 fd 44 3d
       0.10259501 0.07960793 0.05951195 0.04809321
000030 a2 e0 c2 bd 86 9b 81 bd 0a 71 d3 bb b4 36 fe 3c
       -0.095155016 -0.06328492 -0.0064526843 0.031031944
000040 74 b5 f7 3d f8 4d c9 3d 1e 46 13 bd 68 42 8d 3d
       0.12095156 0.098293245 -0.03595554 0.068974316
000050 b7 5b 2b 3d a1 9b 64 bd b3 cc e4 bd 25 77 38 3d
       0.041835513 -0.05581248 -0.11171856 0.0450355
000060 b9 9d a4 3b d6 c8 f2 3c 69 59 ad 3d b0 a5 1a bd
       0.005023685 0.029636782 0.08464319 -0.03775567
000070 30 7c 33 bd 99 27 c4 3c 67 69 30 bd 32 f4 85 bd
       -0.043819606 0.023944663 -0.04306927 -0.06540717
000080 f1 32 e5 bd dd eb bf bd 12 dd 0d bc e1 3f b6 3d
       -0.11191357 -0.09371159 -0.008658664 0.08898903
000090 57 6f 8f bd 35 6a 01 3d f3 40 a2 3d 17 d9 3e 3c
       -0.07003658 0.031595428 0.07922544 0.011648438
0000a0 bb 66 28 bb 89 06 c1 3d 4d b0 d7 bd c0 e6 a8 3d
       -0.0025695998 0.094250746 -0.105316736 0.08247137
0000b0 a7 c0 be 3d 26 4a b7 3d 5c b4 a8 3d c7 d1 f0 bb
       0.09314089 0.089496896 0.08237526 -0.007349226
0000c0 4f 40 c9 bd 2e 96 8f bd c8 55 c8 bd 33 03 8b bd
       -0.09826719 -0.070110664 -0.097819865 -0.067877196
0000d0 35 c6 ca bd 5c 15 a5 3d 20 44 1e 3d c4 44 45 bd
       -0.09901086 0.080607146 0.038639188 -0.048161283
0000e0 e9 8a 34 3b 2b 17 65 3a 53 2d 45 bc f5 b6 92 3d
       0.0027548617 0.0008739109 -0.012034732 0.071638025
0000f0 c2 a6 53 3d 2e 80 a9 bd bb fd c2 3d 91 75 33 bd
       0.051672705 -0.082764015 0.095210515 -0.043813292

conv2.weight f4 [32, 64, 1, 1]
000000 56 0c 66 bd 39 f1 f5 3d 1f 29 a6 bd 2b a7 fd bc
       -0.05616411 0.120089 -0.08113312 -0.030963501
000010 53 1b 0f 3c 8b a4 f2 bd 8c d5 bb 3d be a9 a9 3d
       0.008734542 -0.1184779 0.0917159 0.08284329
000020 ac 6c f4 bd 86 a0 ac bc 08 8f b5 3c 4f 3b 81 3d
       -0.1193479 -0.021072637 0.02216293 0.0631014
000030 74 0b 53 3d 4a e0 53 bc 64 e3 da 3d e6 e7 07 bd
       0.051524594 -0.012931893 0.106879026 -0.03318014
000040 44 9d 73 3b 0f f0 a3 bd 70 50 93 bd 35 2e 32 bd
       0.0037172595 -0.08004772 -0.071930766 -0.043501098
000050 c9 21 ea bd 4e 30 ab bc 41 53 ce 3c 30 8e b0 bd
       -0.11432225 -0.020897057 0.025186183 -0.0862087
000060 bb 4a df bd 01 15 e1 3d 1d f6 65 bd be a4 bc bd
       -0.109029256 0.10990334 -0.056142915 -0.092111096
000070 b2 98 00 bd e4 04 79 bd 5a 57 f4 bd 88 ab 88 bc
       -0.03139562 -0.06079568 -0.119307235 -0.016683355
000080 9e b7 75 bd ca b4 28 bd b0 49 64 3d 5d 2f bf 3b
       -0.059989564 -0.04118804 0.055734336 0.0058345036
000090 ba d3 d5 3d 48 f5 01 be ce d2 df 3d 74 92 8a 3d
       0.10440774 -0.12691224 0.1092888 0.06766215
0000a0 4f fc 0c bd 70 14 b1 3d 98 b4 ef 3d 20 f9 47 3c
       -0.034420308 0.08646476 0.117043674 0.012205392
0000b0 4c 3e 0e 3d af 51 26 bd 85 04 18 bc 00 42 c4 bb
       0.03472738 -0.040605243 -0.009278421 -0.005989313
0000c0 2b 82 83 bd 58 04 b1 3c a4 d8 75 bd 2c a6 82 3d
       -0.06421312 0.021608517 -0.060021058 0.06379351
0000d0 c8 2f 9d 3c 58 64 c6 bd 55 38 de 3d e0 2a 19 3d
       0.019187823 -0.09687108 0.10850588 0.037394404
0000e0 38 34 58 3d d2 bf 04 be 98 78 be 3d c7 05 fd 3c
       0.052784175 -0.12963799 0.09300345 0.030886544
0000f0 1d ce 56 bc c2 91 a7 bd 6a 7e 5a 3c b9 56 43 3d
       -0.013110665 -0.08182098 0.0133358035 0.047690127
000100 96 fd 21 3d af 98 bd 3d bf 0a e4 bd be 57 c7 bd
       0.03954848 0.09257638 -0.11134862 -0.09733532
000110 7e 1d fa 3d ff 47 df 3d 10 bc 37 bc f2 53 9f 3d
       0.122126564 0.10902404 -0.011214271 0.07779683
000120 0a 06 b7 3d 1e 9b b9 3d 58 61 73 bd 89 c8 24 bd
       0.08936699 0.090627894 -0.059419006 -0.040230308
000130 ba c7 85 bd 8f 04 0c bd 6e 31 f3 3d 23 c6 4f 3a
       -0.065322354 -0.034184035 0.11874662 0.0007925948
000140 ee 87 cc bd a7 3e c3 3d c7 e1 50 3d d9 ed c5 3c
       -0.09986864 0.09533434 0.050996568 0.024161266
000150 a4 3d 86 bd 0e 9c bb 3d a9 87 cf bd d0 39 7e 3d
       -0.06554726 0.091606244 -0.10133297 0.062066853
000160 49 8f 33 bc 26 88 32 bd f5 81 e2 bd 76 fb 8e 3c
       -0.010959455 -0.043586873 -0.110599436 0.01745389
000170 4c 33 71 bd 05 0d 49 bd 28 a5 90 3d f6 43 a4 bd
       -0.05888681 -0.049084682 0.07062751 -0.08020775
000180 51 ee f3 3d 6d 9c d4 3d 16 63 ba 3d ac 1e 63 3c
       0.119106896 0.10381398 0.091009304 0.013862293
000190 a8 e8 c3 bd dd 6a e5 bc e9 91 78 bd 11 56 88 bc
       -0.0956586 -0.028005058 -0.060686026 -0.016642602
0001a0 56 9a ee bd 20 f7 65 bd 8a d8 af bc 76 a0 46 3a
       -0.11650531 -0.05614388 -0.021465559 0.0007577011
0001b0 2c 11 04 bd 40 e2 f0 3c 38 89 8b bd b6 63 ae bd
       -0.03224294 0.02940476 -0.06813282 -0.08515112
0001c0 22 7c ba bd 16 cf ec 3d 14 26 9c 3d 3a e8 e1 bd
       -0.09105708 0.11562936 0.0762445 -0.11030622
0001d0 90 6f d8 bd a0 c5 a2 bb 25 da 86 bd e0 94 2d 3d
       -0.10568154 -0.0049674064 -0.065845765 0.042378306
0001e0 09 e0 2f bd 31 7c 6e 3c 25 a6 d5 bc b5 c5 be bd
       -0.042938266 0.014555977 -0.0260802 -0.093150534
0001f0 1c 78 15 bc a0 a4 ea 3d 5e ca cf 3d ab 8e ac bd
       -0.009122875 0.11457181 0.1014602 -0.08425649
000200 50 53 40 3d fc b7 f4 3d d8 55 d0 3c 89 8c 31 bc
       0.046954453 0.11949155 0.025431558 -0.010836729
000210 6d 50 df 3d 13 ad 90 3c 4d b4 be bc ae 58 29 3e
       0.10904012 0.017660653 -0.023279333 0.16537735
000220 92 e0 51 3d 23 07 b1 bd e8 8d b9 3d b2 b1 08 3e
       0.051239558 -0.08643939 0.090602696 0.13349035
000230 b4 e4 cc 3d 94 bf 63 bd 1b 80 09 bd 15 e5 bc 3d
       0.10004559 -0.055602625 -0.033569437 0.092233814
000240 3a a1 a9 3d a4 f4 d0 bd c0 ba e2 3d db 02 a8 3d
       0.08282705 -0.102029115 0.11070776 0.0820367
000250 f4 3c 1e 3d 17 e3 d2 bc fc ba 2d bc 15 c9 9b 3d
       0.03863235 -0.02574305 -0.010603663 0.07606713
000260 7b ea 28 3d d9 62 db 3d f4 92 8f bd 4f df 30 bd
       0.041239243 0.10712213 -0.07010451 -0.043181714
000270 3a 9b 69 bc 00 bd 48 3d fc 59 32 3d c4 d3 87 3d
       -0.0142582 0.04900837 0.043542847 0.06632188
000280 b8 bd 72 bd 02 65 10 bc 07 76 47 3d 8e 70 5e bd
       -0.05926296 -0.008813145 0.048696544 -0.05430656
000290 c8 fc b6 3d 15 53 b6 3d 63 0d 71 3d 3e 32 94 3d
       0.08934933 0.089025654 0.058850657 0.072361454
0002a0 54 87 9a 3d 8c 55 db bd 75 8c 14 bd 74 2a bc 3d
       0.07545343 -0.10709676 -0.036266763 0.09187785
0002b0 00 5c 5c bd 5d 7b bb 3c 07 3c 37 bd c0 6f a2 bb
       -0.053798676 0.022885973 -0.04473498 -0.0049571693
0002c0 5e 43 9e bc 60 00 13 bd 5a 29 30 3d bc 1e eb 3d
       -0.019319233 -0.03588903 0.043008186 0.114804715
0002d0 40 9f 1c 3b 68 33 16 bd d7 f7 d7 3d b4 a1 69 bd
       0.0023898631 -0.03667012 0.105453186 -0.057038978
0002e0 74 2f 22 3d 7e cd 6b 3c 0e 02 8f 3d bd c6 b4 3d
       0.039596036 0.014392255 0.06982814 0.08826969
0002f0 66 c5 31 3d 55 73 9e bb c3 e7 9c 3d b2 65 ac 3c
       0.043401144 -0.004835526 0.076613925 0.021044586
000300 4b 87 4c bc b8 fb 14 3d 45 35 4a bd bb 0f 44 3c
       -0.012483428 0.03637287 -0.049367208 0.011966641
000310 f9 22 96 bd d0 f1 8e 3d 9a 94 f7 3d 50 44 de 3a
       -0.07330889 0.06979716 0.120888904 0.0016957615
000320 b5 29 e7 bd e9 91 c9 3d be ee 86 bd 3b 87 de 3d
       -0.11287252 0.09842283 -0.06588505 0.10865637
000330 24 6d b1 3d 4b cc 28 bd 7f b6 51 3c b6 20 2e bd
       0.08663395 -0.041210454 0.012799858 -0.042511664
000340 00 d5 c7 3d 79 e7 b8 bd 6e 93 9a 3c a7 42 5b bd
       0.097574234 -0.09028525 0.018869128 -0.05353036
000350 4c 2d cb 3d a4 e3 92 3d 41 56 e8 3d 64 b0 6b bd
       0.09920749 0.07172325 0.113445766 -0.057541266
000360 99 df 72 3d f7 fb cc bd 72 ef a1 3d 14 b8 26 bd
       0.05929527 -0.10008996 0.07906999 -0.040702894
000370 58 d4 2a 3d af d6 78 3d a4 8a a0 bd da d8 8f 3d
       0.041706413 0.060751613 -0.078389436 0.07023783
000380 ae de 28 bd 91 7f 73 3d ae ce 2e bd f7 98 bf 3b
       -0.04122799 0.05944783 -0.042677574 0.0058470923
000390 10 31 50 3c 00 81 df 3d 00 0a e7 3c e5 3d cd 3c
       0.01270701 0.10913277 0.02820301 0.025053928
0003a0 75 2a bd bc 01 54 00 be 9a 29 5f bd 3a 67 34 bd
       -0.023091534 -0.12532045 -0.054483034 -0.044043757
0003b0 5e 11 39 3d 93 7c d8 3a b1 39 18 3d ce cc 84 bd
       0.04518258 0.0016516618 0.037164394 -0.06484376
0003c0 a0 55 fa bd e4 95 3b 3d e4 05 b1 3d 20 47 87 3d
       -0.12223363 0.045797244 0.08643702 0.06605363
0003d0 9e 41 d4 3d 2e c3 fa bd 4d 44 2a 3d 70 48 cb 3d
       0.10364078 -0.12244259 0.041569043 0.09925926
0003e0 de b0 5f bd 7e 7c a6 3d 4d db c3 3d cc 85 22 3d
       -0.054612033 0.08129214 0.09563313 0.03967838
0003f0 44 27 e4 bd d1 f8 7d 3d 42 f9 07 3e 4a d5 76 bc
       -0.11140302 0.062004868 0.13278678 -0.0150655005

conv2.bias f4 [32]
000000 5d b1 85 bd c5 54 2f bd 18 dd c3 3d 6a 5d 8b 3d
       -0.0652797 -0.042805452 0.09563655 0.06804927
000010 22 60 ca 3c 52 89 da bd c8 21 34 3d eb a6 c2 3d
       0.024704043 -0.10670723 0.04397753 0.09504493
000020 f3 09 b9 3d de cb 8c bd 7e 90 f0 bd fd 42 9e bd
       0.09035101 -0.06874822 -0.1174631 -0.07727621
000030 73 3f ef bd b5 9c d9 3d b2 bf 96 bd 3a 31 91 3c
       -0.11682024 0.106255926 -0.07360782 0.017723668
000040 a6 44 c2 3d 4a d7 0c 3d d0 97 ee bd 37 cd 1f bb
       0.0948575 0.034385003 -0.1165005 -0.0024383792
000050 60 79 da 3d a8 e7 9d bb e5 e2 b2 bc aa 15 e8 3d
       0.10667682 -0.0048188753 -0.021836707 0.11332257
000060 e6 e5 e2 bd b5 b3 6b bd 62 91 31 3c 74 4f 13 3e
       -0.11079006 -0.05754443 0.010837885 0.14385778
000070 5e 1e 93 bb 8d 7b 98 bd e4 86 f2 bd 66 a3 eb bd
       -0.004489704 -0.074454404 -0.118421346 -0.11505775

conv3.weight f4 [1, 32, 5, 5]
000000 90 8c 97 3c 22 2c a4 bc 94 10 99 3b 7d 24 40 3c
       0.018499643 -0.020040575 0.0046711657 0.0117274495
000010 94 fc 62 3c b9 68 0c bd c0 c0 84 3c cc 6b 38 bc
       0.013854165 -0.03427956 0.016205192 -0.0112561695
000020 73 14 4a bc 2b 77 ce bb 91 e0 07 bd d2 86 a6 bb
       -0.012333977 -0.006300827 -0.033173148 -0.00508199
000030 69 21 1e 3c 7b f2 0b bd b6 11 8a bc a7 d0 c9 bc
       0.00965152 -0.034166794 -0.016854148 -0.024635626
000040 b0 e9 b9 bc 6f 4e 9e bc a5 4f e1 3c b4 11 21 3c
       -0.022694439 -0.01932451 0.027503798 0.009830881
000050 e1 f0 85 3c 81 4e ea bc 2d 6b 86 bc f7 c3 e1 bc
       0.016350212 -0.028601887 -0.016408527 -0.027559264
000060 d2 e0 b2 3c c4 a3 03 bd 98 4d f2 bc be fa 6e 3a
       0.021835718 -0.0321386 -0.029578015 0.0009116343
000070 ac 87 3b 3c 8d d8 66 3c 19 3d 4e bb d5 f6 e6 3b
       0.011445921 0.014089716 -0.0031469523 0.0070484676
000080 e8 07 07 3c ec 30 37 3c 2b 64 fa bb b0 66 d8 3c
       0.008241631 0.0111810975 -0.0076413355 0.026416153
000090 9d cf 8e 3b 57 41 ae 3c f8 8d 4c 3c 3e f6 90 bc
       0.0043582455 0.02127139 0.01248502 -0.017695542
0000a0 56 ab 63 bc 4d d7 98 bc 95 e0 07 bb 05 90 ba 3b
       -0.01389583 -0.01865735 -0.0020733227 0.005693438
0000b0 83 41 ab 3a 9e c8 02 3d 61 78 09 3d 6c 0d 31 3c
       0.0013065789 0.031929605 0.033562068 0.010806423
0000c0 6c c5 64 3b f2 d5 9f bc 82 5f e8 3c 89 15 22 bc
       0.0034907712 -0.019511197 0.028365854 -0.00989283
0000d0 45 ff a6 bc e9 60 c0 3c 0d 94 d5 3c 96 32 c7 3c
       -0.020385394 0.02348371 0.026071573 0.024316113
0000e0 b9 e7 42 3c 1f 11 f3 bb a8 0a f5 3c 0d e0 1e 3d
       0.011896067 -0.0074178125 0.029912308 0.03878789
0000f0 d6 cc d4 3c 99 04 fc 3c 06 99 4d bb ce d3 c7 3c
       0.02597658 0.030763911 -0.0031371727 0.024392989
000100 d8 7c db bb 01 a6 a2 ba 2f 7a bb 3c d7 62 c1 3c
       -0.006698232 -0.0012409092 0.02288541 0.0236067
000110 c0 92 ec 3c dc 95 4a 3b d4 49 14 bb dc 4d 7f 3c
       0.02887857 0.0030912077 -0.0022627013 0.015582528
000120 29 5b e2 3c 74 67 5b 3c 55 14 a9 bc 7f 95 0e 3d
       0.02763136 0.013391364 -0.020639578 0.03481054
000130 04 5a 96 3c 45 19 81 3c 0f 39 a9 bb b5 f2 09 3d
       0.01835347 0.01575912 -0.0051642726 0.03367873
000140 5b b3 8a 3b fa d5 2d 3b 59 df a0 3c 65 67 23 3a
       0.0042328066 0.0026525245 0.01963775 0.00062333635
000150 74 e1 0a 3c 4f 0b a2 3b 35 ee 56 3c 66 58 d2 3b
       0.008476604 0.0049451957 0.013118316 0.0064192293
000160 05 6d 94 bc 21 31 de bb 42 a1 0d 3d d1 f4 da 3c
       -0.01811839 -0.006780759 0.034577616 0.026728066
000170 95 a5 6a 3a 23 04 ca 3b e9 09 a7 bc c4 21 ed 3c
       0.0008951065 0.006165044 -0.020390468 0.028946765
000180 87 17 fd bc eb 4f b1 3c f7 4a e8 3c 8c bf 27 3c
       -0.030895008 0.021644553 0.028356059 0.010238539
000190 59 50 6b 3c 99 d2 0b bd f3 00 60 bc cc c4 9e bc
       0.014362418 -0.03413639 -0.013672101 -0.01938095
0001a0 03 e3 3f 3c 41 d8 05 bd be 04 c6 bc 30 0e 39 3c
       0.011711839 -0.03267694 -0.024172183 0.0112948865
0001b0 37 fb b4 3b 71 7a 16 bd 0e c5 c4 3c 2e 3e 9f 3c
       0.005523111 -0.036737863 0.024019744 0.01943883
0001c0 8c 5d 71 3b ea 79 7b ba 00 62 02 bd 91 4d 17 bd
       0.003682944 -0.0009593057 -0.03183174 -0.036939207
0001d0 89 bf f2 bc f8 5a e7 bc 40 85 d9 bc 81 27 b5 bc
       -0.029632347 -0.02824162 -0.026552796 -0.022113563
0001e0 a2 d5 fe 3c be 72 19 bd 24 8c e2 3c dc 7b dc 3c
       0.031107727 -0.037462942 0.027654715 0.02691453
0001f0 6d 8c db 3a 2a 81 e2 3a 7a 03 41 3c e6 49 85 3b
       0.0016750224 0.0017280926 0.011780614 0.0040676473
000200 91 42 e1 bc c0 9d e9 bc 2a fb 08 3d 50 15 4c bc
       -0.027497562 -0.028517604 0.033442654 -0.012456253
000210 a0 b7 99 3c 12 93 57 3c 11 e3 91 bc 37 ba 46 bb
       0.018764317 0.013157623 -0.017808469 -0.0030323395
000220 5e 3d db bb 9b f9 07 3d 55 fe 52 3b 69 4d 39 3c
       -0.006690665 0.033197027 0.003219505 0.01130996
000230 5b e5 af bc a0 ef 93 bc 30 e8 d8 bc 65 1d 84 3c
       -0.02147167 -0.018058598 -0.026477903 0.016127298
000240 ca ea ec bc cf e6 8b 3c ab 33 91 3c 65 3c c3 3b
       -0.02892055 0.017077832 0.017724833 0.0059581273
000250 60 3f 35 bc 46 69 ab 3c 22 6b df bc 53 22 c2 3c
       -0.011062473 0.020924222 -0.027272765 0.023698008
000260 01 4a a2 3a 14 cd ed bc 4b 8c 32 3c 5f 3d 94 bc
       0.0012381674 -0.029028453 0.010897706 -0.01809567
000270 17 98 e3 3c 8b 15 ec bc 9f f4 bb 3c db 4d d1 3b
       0.027782483 -0.028818866 0.022943793 0.006387455
000280 98 e0 13 bd 26 1b 40 3c ea 0c 41 bc c5 c6 42 3c
       -0.03610286 0.011725223 -0.011782864 0.011888211
000290 42 b8 2c 3b 52 81 a4 bc 4a 71 eb 3b 64 65 a2 bc
       0.0026354943 -0.020081196 0.007185136 -0.019823737
0002a0 79 57 00 bc 15 ea e8 ba 97 19 81 3c 85 c4 79 3b
       -0.007833355 -0.0017769957 0.015759273 0.003811152
0002b0 f3 7c 0b bd 6e 99 5e 3c 4f 92 c7 bb cb c7 b3 bc
       -0.034054708 0.013586385 -0.0060904394 -0.021945855
0002c0 97 02 09 3d 40 25 27 3c f2 0a 8b 3c 6e 71 1a ba
       0.033449735 0.010201752 0.016972993 -0.0005891536
0002d0 47 8f 01 bd 2f b7 c6 3c 7a 94 43 3c e2 c4 6d bc
       -0.03163078 0.02425727 0.011937255 -0.014512273
0002e0 b4 07 fd 3c 8f be ea bc 34 6a df 3c 14 b9 9e 3c
       0.030887462 -0.028655319 0.027272321 0.019375362
0002f0 4c f8 ca 3c 7c d4 42 3b 81 12 b2 bc 38 cc ad 3b
       0.0247766 0.0029728701 -0.021737339 0.005303886
000300 3c 20 ac bc 5c c2 d4 bb 23 22 5c bc 03 f3 d3 bc
       -0.021011464 -0.006492896 -0.013435873 -0.025872713
000310 eb 20 f5 3c 8d 13 f0 bc b3 ef ce 3c 5f c5 26 bc
       0.029922923 -0.029306198 0.025260782 -0.010178893
000320 80 c7 c5 bc 53 eb 40 3c 22 82 8b bc 09 40 da 3c
       -0.02414298 0.011774856 -0.017029826 0.026641862
000330 1c fa a1 3c b0 3b f7 3c 68 79 00 3a 57 42 0f bd
       0.019772582 0.030179828 0.00049009034 -0.034975376
000340 f4 21 cf 3b cc 7f 05 bc 90 f5 3c 3c 30 89 d9 3b
       0.006321186 -0.008148145 0.011533156 0.0066386685
000350 c2 b9 f6 bc ee 1e b4 3c 76 d3 d0 bc 7a 9f 02 bd
       -0.030117873 0.021987405 -0.025491457 -0.03189037
000360 5f fe fb bb eb 55 0d 3d c0 ff bc bc 37 78 48 ba
       -0.0076902355 0.034505766 -0.02307117 -0.0007647308
000370 39 8f b5 bc 92 11 a6 3c 26 78 38 bc c0 a2 f0 bc
       -0.02216302 0.02027205 -0.011259114 -0.02937448
000380 ee 63 5d 3c 69 e7 d2 bc 9e 95 e9 3c d9 4b 8c 3c
       0.013512595 -0.02574511 0.028513726 0.01712601
000390 d1 b1 73 3b f8 00 5a 3c c8 71 a1 bc 4d 26 00 3d
       0.0037184844 0.013305895 -0.019707575 0.031286526
0003a0 2d 7b ee 3a 31 ff df bc 2a b7 e6 3b 0f cd d6 bc
       0.0018194668 -0.027343364 0.007040878 -0.026220826
0003b0 63 43 98 bb d6 8b d1 bc cf cb 0d bd d3 5c 1e 3c
       -0.004646705 -0.025579374 -0.034618195 0.009665686
0003c0 6f c1 e9 bc 32 14 b7 3c 3e 0b e2 3c da 95 43 3c
       -0.02853462 0.022348497 0.027593251 0.011937583
0003d0 b1 2f 86 bb b8 b3 21 bc e1 95 45 bc 1c da fd b8
       -0.0040950407 -0.009869508 -0.01205966 -0.00012104606
0003e0 5e 64 b5 3c c7 0f bf 3c 31 58 2e 3c b7 17 f8 3c
       0.022142585 0.023322953 0.010641144 0.030284746
0003f0 4c 65 02 bd ac 62 27 39 ae 99 00 3d f8 a2 bb bb
       -0.031834885 0.00015963119 0.03139656 -0.0057262145
