resutls_128/epoch_23.884.pth (torch, 34981 bytes, 5 tensors)

conv1.weight f4 [64, 1, 9, 9]
0	0x3d70384f	0.05864745
1	0xbd427167	-0.04747143
2	0xbc9ff5c5	-0.019526372
3	0x3d5eddec	0.05441086
4	0xbdd1222f	-0.10211598
5	0x3d8cf9db	0.06883594
6	0xbcad9d0d	-0.021193052
7	0x3d6ced02	0.057843216
8	0x3c879af4	0.01655338
9	0xbc3fa1c7	-0.011696286
10	0x3d06eef4	0.032942727
11	0x3c04b8e9	0.008100727
12	0x3d3229bb	0.04349683
13	0xbd244f43	-0.040114652
14	0xbba9dc0e	-0.0051837033
15	0xbbfa8cb5	-0.007646168
16	0x3c9406f8	0.01806973
17	0x3aa54725	0.0012609704
18	0x3dccc535	0.09998552
19	0x3d1a69f9	0.03769872
20	0xbd1a7037	-0.037704673
21	0xbd81315b	-0.06308242
22	0xbc6a2bd0	-0.014292672
23	0xbd33ab15	-0.04386433
24	0xbd03a392	-0.032138415
25	0x3c089c7e	0.008338092
26	0x3d8d297c	0.06892678
27	0x3d8279bc	0.06370875
28	0xbdd7038d	-0.10498724
29	0x3d95bde9	0.07311613
30	0x3d1218a9	0.03566805
31	0x3de1fec1	0.110349186
32	0x3d9fc340	0.07800913
33	0xbdc712e9	-0.09720404
34	0xbdd11fb4	-0.10211125
35	0xbd4e94d8	-0.050434917
36	0x3dcfb8f6	0.101427004
37	0xbc6a4f42	-0.014301123
38	0x3d56a34b	0.052401822
39	0xbd3dee3f	-0.046369787
40	0x3deabcb7	0.11461776
41	0xbd2aee6e	-0.04173129
42	0x3db412d6	0.08792655
43	0x3baffe6d	0.005370906
44	0xbd60da87	-0.054895904
45	0x3d78b828	0.0607225
46	0xbd615034	-0.05500813
47	0x3d18c9b9	0.037301753
48	0xbcdd9bb8	-0.027051792
49	0xbbe03be3	-0.0068430766
50	0xbdd08b6f	-0.10182845
51	0xbd477323	-0.048693787
52	0x3d8314fb	0.06400486
53	0xbcc249ce	-0.023716833
54	0x3de9818e	0.11401664
55	0x3dbdfea2	0.09277083
56	0xba619cf8	-0.0008606459
57	0xbd8e365c	-0.06943962
58	0x3d94cc1f	0.072654955
59	0x3d202166	0.03909435
60	0xbd8b27b0	-0.06794679
61	0x3d9a94f3	0.07547941
62	0x3d901f6d	0.07037244
63	0x3dcfc269	0.10144503
64	0xbd71e10d	-0.059052516
65	0xbc6ced6c	-0.014460903
66	0x3b040f15	0.002015059
67	0x3ca8e571	0.020617219
68	0xbda48eb8	-0.08035034
69	0xbd9ad941	-0.07560969
70	0x3d814f32	0.063139334
71	0xbcc22383	-0.023698574
72	0x3d68a59f	0.056798574
73	0x3c15dc4f	0.009146764
74	0x3d233011	0.03984076
75	0x3ce6057f	0.028078793
76	0x3d352741	0.04422689
77	0x3d6f890a	0.0584803
78	0xbdcd3eef	-0.10021769
79	0x3d6e105b	0.058121067
80	0xbd9c11ab	-0.076205574
81	0xbdac4e97	-0.08413427
82	0x3bd1ec0f	0.006406314
83	0xbc9eecd0	-0.01940003
84	0x3d849fa5	0.06475762
85	0xbd846961	-0.06465412
86	0xbdcae8e2	-0.099077
87	0x3da538c0	0.08067465
88	0xbc882182	-0.01661754
89	0x3d7e3191	0.06205899
90	0x3d10bd4d	0.03533678
91	0xbdab7836	-0.08372538
92	0x3cb284f6	0.021791916
93	0x3cd62ebd	0.026145333
94	0xbd990fa5	-0.07473687
95	0xbd5946de	-0.0530461
96	0x3d1a7069	0.03770486
97	0x3ca22abc	0.019795768
98	0xbd433567	-0.04765835
99	0xbd0c59da	-0.034265377
100	0x3dcf06cf	0.101087205
101	0xbcaeb91a	-0.021328498
102	0x3d7d717b	0.0618758
103	0x3d42d3f4	0.047565416
104	0xbd94212a	-0.07232888
105	0xbdc22c6a	-0.094811276
106	0x3dd9f1c3	0.106418155
107	0x3bacf417	0.005278121
108	0x3d9aa654	0.07551256
109	0x3cb71228	0.022347525
110	0x3d0f3863	0.034965884
111	0x3da86de3	0.08224084
112	0x3dd6c3d7	0.10486572
113	0xbd97d443	-0.074135326
114	0x3c5fcea4	0.013660107
115	0x3da9818c	0.08276662
116	0x3da40406	0.0800858
117	0x3d8ce533	0.06879654
118	0xbda53245	-0.08066229
119	0xbda47d27	-0.080316834
120	0xbd8a203f	-0.06744432
121	0x3c65585b	0.013998116
122	0x3de317d8	0.11088532
123	0xbd8f0b3e	-0.06984566
124	0x3d743c7a	0.059627987
125	0xbd7b6faf	-0.061385807
126	0xbdd6b3b7	-0.10483497
127	0xbcc4a55d	-0.024004633
128	0x3d8239d8	0.06358689
129	0x3dd28791	0.102797635
130	0xbd8d7453	-0.06906953
131	0x3cc607bc	0.02417361
132	0x3dc4e7de	0.09614538
133	0x3d97738b	0.07395085
134	0x3d8dbd3e	0.06920861
135	0x3da0479d	0.07826159
136	0x3d8e7f1b	0.06957837
137	0x3ce50685	0.02795721
138	0xbd9cff15	-0.076658405
139	0xbdbfbecc	-0.093625635
140	0xbd516db2	-0.051130004
141	0xbc54767b	-0.012967701
142	0xbd8b7a05	-0.06810383
143	0x3d24fff2	0.04028315
144	0x3d0884a6	0.03332963
145	0xbcd6c00e	-0.026214626
146	0x3d2a5dd3	0.041593384
147	0x3d0ed065	0.03486671
148	0x3d89671f	0.06709122
149	0x3d97e7d3	0.07417264
150	0xbd1c07d4	-0.038093403
151	0x3ddd73d7	0.1081311
152	0xbc5ff9ba	-0.013670379
153	0xbba73f11	-0.0051039536
154	0xbdd97ea2	-0.106198564
155	0xbd9547d5	-0.072890915
156	0xbd87a844	-0.06623891
157	0xbd46f39d	-0.04857217
158	0x3d9fd75a	0.07804747
159	0xbd181596	-0.03712996
160	0xbdabb915	-0.08384911
161	0x3d2a5199	0.041581724
162	0x3d1ba79c	0.03800164
163	0x3d991e90	0.074765325
164	0xbd5e1f1e	-0.054228894
165	0x3ce1a130	0.02754268
166	0xbd17c7bb	-0.037055712
167	0xbcb091e5	-0.021553943
168	0xbdaeb946	-0.08531432
169	0xbd43daf5	-0.047816236
170	0xbd00875f	-0.0313791
171	0x3d4ced80	0.050031185
172	0x3cbe4770	0.023227423
173	0x3cfcc707	0.030856622
174	0x3dea859e	0.11451267
175	0x3de5123c	0.111851186
176	0x3da27ffe	0.07934569
177	0x3be2aa3c	0.006917266
178	0xbd97669e	-0.073926196
179	0x3db761e3	0.08954217
180	0xbccb5f07	-0.024825586
181	0xbbb6c278	-0.0055773817
182	0xbdbc0982	-0.09181501
183	0xbc920854	-0.017826237
184	0xbd8a6ddc	-0.06759235
185	0x3dd9707a	0.10617156
186	0xbdbcd0fd	-0.09219549
187	0xbdaa6efb	-0.08321949
188	0xba261902	-0.0006336124
189	0xbd684563	-0.056706797
190	0x3d329e80	0.04360819
191	0xbd1d44cd	-0.03839569
192	0xbd42f973	-0.047601175
193	0x3c3148c4	0.010820571
194	0x3dadfa94	0.084950596
195	0xbd974f33	-0.07388153
196	0x3d6531ba	0.055955626
197	0x3d99680b	0.07490548
198	0x3de5e782	0.11225797
199	0xbd96eb27	-0.073690705
200	0x3d011bc2	0.031520613
201	0xbd9e66e5	-0.07734469
202	0x3dcbf8d2	0.09959568
203	0xbd1d44f5	-0.03839584
204	0x3d923832	0.07139625
205	0x3bedf6dc	0.007262094
206	0xbba24344	-0.0049518663
207	0x388cabcc	6.70772e-05
208	0x3cbc96ae	0.023021068
209	0x3d69b411	0.05705649
210	0x3cb9fb38	0.022702798
211	0x3d1e76cb	0.03868751
212	0xbdc2f92d	-0.09520183
213	0x3daf0949	0.08546693
214	0x3dcea271	0.10089577
215	0x3dc3ce9f	0.09560894
216	0x3daf24cc	0.0855194
217	0xbd9c38f6	-0.07628052
218	0xbd167167	-0.036729243
219	0x3dd23745	0.10264448
220	0xbda3eb8f	-0.080039136
221	0x3dd7c5dc	0.105357856
222	0xbdaa1e82	-0.083066
223	0xbd986beb	-0.07442459
224	0x3d6d3f2d	0.057921577
225	0xbd9d512a	-0.076814964
226	0xbcb3dac9	-0.02195491
227	0x3dadd2c9	0.0848747
228	0x3dbcf878	0.09227079
229	0x3ddfcd69	0.10927851
230	0xbc966415	-0.01835827
231	0xbda8afd9	-0.08236665
232	0x3de74dc9	0.11294133
233	0xbca702a1	-0.020386996
234	0xbd30750f	-0.043080386
235	0x3cf73dbd	0.030180806
236	0xbd97b2b7	-0.07407134
237	0x3d9d6522	0.07685305
238	0x3d965a24	0.07341412
239	0xbdacc3ae	-0.084357604
240	0xbdb36b3a	-0.08760686
241	0xbbd60e53	-0.0065324693
242	0x3d4b4db7	0.04963466
243	0xbb512924	-0.003191539
244	0xbd66a5b9	-0.05631039
245	0x3b2875a6	0.002570489
246	0xbdd5d0c6	-0.10440211
247	0xbda0c1fe	-0.07849501
248	0xbd973988	-0.0738402
249	0x3dbc87b4	0.09205571
250	0x3dc9b8fc	0.09849736
251	0xbd188502	-0.03723622
252	0x3ba3eb68	0.005002428
253	0x3d4b0f35	0.04957505
254	0x3c5a7fd5	0.013336142
255	0xbd63ca84	-0.055613056

conv1.bias f4 [64]
0	0xbd6ba06b	-0.057526033
1	0x3cd88fa4	0.02643568
2	0xbd9a52e8	-0.07535344
3	0xbd305d6d	-0.043057848
4	0x3da17a87	0.07884698
5	0x3d699370	0.057025373
6	0x3da0dfe2	0.07855202
7	0xbce23c16	-0.027616542
8	0x3dd132d8	0.10214776
9	0x3da04623	0.078258775
10	0x3d6f3beb	0.05840675
11	0x3d4e6ce7	0.050396826
12	0xbdc2e0a2	-0.095155016
13	0xbd80ac10	-0.06282818
14	0xbbc6029b	-0.006042791
15	0x3ce933e5	0.028467128
16	0x3df1d171	0.11807526
17	0x3dca38c2	0.09874107
18	0xbd2d9a0e	-0.042383246
19	0x3d8ec6df	0.069715254
20	0x3d2cff9b	0.042235952
21	0xbd643b39	-0.05572054
22	0xbde27036	-0.11056559
23	0x3d38a4a1	0.045078877
24	0x3c06c7e9	0.008226373
25	0x3ce7616a	0.028244693
26	0x3da94f90	0.082671285
27	0xbd172acd	-0.036906052
28	0xbd329184	-0.043595806
29	0x3cb6e351	0.02232519
30	0xbd306967	-0.04306927
31	0xbd85f432	-0.06540717
32	0xbde477a1	-0.1115563
33	0xbdc07294	-0.09396854
34	0xbc0fbdce	-0.00877328
35	0x3db70a51	0.089375146
36	0xbd8f6f57	-0.07003658
37	0x3cf0c591	0.029391082
38	0x3d9877ad	0.07444701
39	0x3c45bdb1	0.012069152
40	0xbb437487	-0.0029824094
41	0x3dbc1805	0.09184269
42	0xbdd8839e	-0.10571979
43	0x3da9f4ee	0.0829867
44	0x3dbeb08c	0.093110174
45	0x3dba96cb	0.09110793
46	0x3da94e4a	0.082668856
47	0xbbf0d1c7	-0.007349226
48	0xbdc660e1	-0.09686447
49	0xbd8f962e	-0.070110664
50	0xbdc857ea	-0.09782393
51	0xbd8bed3c	-0.06832358
52	0xbdcac635	-0.09901086
53	0x3da3824b	0.07983836
54	0x3d233137	0.039841857
55	0xbd4544c4	-0.048161283
56	0x3ac8d571	0.00153224
57	0x3b5d201a	0.0033741058
58	0xbc201490	-0.0097705275
59	0x3d94f5bb	0.07273432
60	0x3d512424	0.051059857
61	0xbdab9219	-0.08377475
62	0x3dc49c9e	0.09600185
63	0xbd33fc9a	-0.04394207

conv2.weight f4 [32, 64, 1, 1]
0	0xbd649d32	-0.055813976
1	0x3df6f905	0.120592155
2	0xbda5ce9f	-0.080960505
3	0xbcfda72b	-0.030963501
4	0x3c15822d	0.009125275
5	0xbdf159e6	-0.11784725
6	0x3dbbd58c	0.0917159
7	0x3dac5f2f	0.08416592
8	0xbdf46cac	-0.1193479
9	0xbcabb531	-0.020960422
10	0x3cb58f08	0.02216293
11	0x3d83af77	0.06429952
12	0x3d530b74	0.051524594
13	0xbc513e80	-0.012771249
14	0x3ddb61b9	0.107119985
15	0xbd058b9e	-0.032603852
16	0x3b84c9b0	0.0040523633
17	0xbda3f00f	-0.08004772
18	0xbd934619	-0.071911044
19	0xbd2ef862	-0.042717345
20	0xbdea21c9	-0.11432225
21	0xbca970d4	-0.020683683
22	0x3cce5341	0.025186183
23	0xbdb08e30	-0.0862087
24	0xbdde36b4	-0.108502775
25	0x3de1adf3	0.11019506
26	0xbd65d572	-0.05611176
27	0xbdbca4be	-0.092111096
28	0xbd0098b2	-0.03139562
29	0xbd77c7c9	-0.060493264
30	0xbdf4575a	-0.119307235
31	0xbc88ab88	-0.016683355
32	0xbd74bb96	-0.05974921
33	0xbd2844fa	-0.041081406
34	0x3d6449b0	0.055734336
35	0x3bc01991	0.0058624228
36	0x3dd5d3ba	0.10440774
37	0xbe01b6b7	-0.12667356
38	0x3ddfd2d2	0.10928883
39	0x3d8b4f89	0.068022795
40	0xbd0cfc4f	-0.034420308
41	0x3db11470	0.08646476
42	0x3defb498	0.117043674
43	0x3c48e329	0.01226119
44	0x3d0e3e4c	0.03472738
45	0xbd2509d7	-0.040292587
46	0xbc180485	-0.009278421
47	0xbbc44200	-0.005989313
48	0xbd83822b	-0.06421312
49	0x3cb10458	0.021608517
50	0xbd7459ba	-0.059655882
51	0x3d82a62c	0.06379351
52	0x3c9d2fc8	0.019187823
53	0xbdc66458	-0.09687108
54	0x3ddedc10	0.10881817
55	0x3d192ae0	0.037394404
56	0x3d597e5b	0.053099018
57	0xbe04be39	-0.12963189
58	0x3dc0dffb	0.09417721
59	0x3d01e088	0.03170827
60	0xbc4e6494	-0.012597222
61	0xbda791c2	-0.08182098
62	0x3c668109	0.01406885
63	0x3d4356b9	0.047690127
64	0x3d20928f	0.03920227
65	0x3dbc7d38	0.09203571
66	0xbde5c2b6	-0.11218779
67	0xbdc757be	-0.09733532
68	0x3df90bf5	0.12160484
69	0x3ddc8ba7	0.10768824
70	0xbc37bc10	-0.011214271
71	0x3d998edc	0.074979514
72	0x3db7060a	0.08936699
73	0x3db99a90	0.090626836
74	0xbd736158	-0.059419006
75	0xbd2c8346	-0.04211738
76	0xbd85c7ba	-0.065322354
77	0xbd0c3ee2	-0.034239657
78	0x3df223cb	0.11823233
79	0xb9a36f48	-0.00031172694
80	0xbdcc19a1	-0.09965826
81	0x3dc2549e	0.09488796
82	0x3d4c6003	0.04989625
83	0x3cb9977e	0.022655245
84	0xbd863da4	-0.06554726
85	0x3dbb6db7	0.09151786
86	0xbdcf87a9	-0.10133297
87	0x3d7e39d0	0.062066853
88	0xbc4ac9a6	-0.012377178
89	0xbd37019f	-0.04467928
90	0xbde45728	-0.11149436
91	0x3c8e10bc	0.017341964
92	0xbd71334c	-0.05888681
93	0xbd48c904	-0.04901983
94	0x3d90a528	0.07062751
95	0xbda443f6	-0.08020775
96	0x3df3bb02	0.11900903
97	0x3dd2c3bd	0.1029124
98	0x3dba6316	0.091009304
99	0x3c5c4dcc	0.013446283
100	0xbdc3e8a8	-0.0956586
101	0xbce66feb	-0.028129539
102	0xbd77b595	-0.060475904
103	0xbc8cc246	-0.01718248
104	0xbdee9a56	-0.11650531
105	0xbd65f720	-0.05614388
106	0xbcb0c0ca	-0.021576304
107	0x39cef80f	0.000394762
108	0xbd04112c	-0.03224294
109	0x3ce74635	0.02823172
110	0xbd8b8938	-0.06813282
111	0xbdae63b6	-0.08515112
112	0xbdba7c22	-0.09105708
113	0x3deccf16	0.11562936
114	0x3d9b574f	0.07585012
115	0xbde1e83a	-0.11030622
116	0xbdd86f90	-0.10568154
117	0xbba2c5a0	-0.0049674064
118	0xbd870a6f	-0.06593787
119	0x3d2d94e0	0.042378306
120	0xbd30e6d7	-0.043188896
121	0x3c6689cd	0.01407094
122	0xbce155b1	-0.027506681
123	0xbdc1aceb	-0.094568096
124	0xbc2755f9	-0.010213369
125	0x3de9bd1f	0.11413025
126	0x3dcd5401	0.10025788
127	0xbdad78b4	-0.08470288
128	0x3d42fd0a	0.047604598
129	0x3df1caa5	0.118062295
130	0x3cbd1a3f	0.023083804
131	0xbc3b004d	-0.011413646
132	0x3ddccae7	0.10780888
133	0x3c72e2f0	0.014824614
134	0xbcbdae22	-0.023154322
135	0x3e226403	0.15858464
136	0x3d52b2bd	0.05143999
137	0xbda923d6	-0.08258788
138	0x3dba794b	0.09105166
139	0x3e056c65	0.1302963
140	0x3dcce4b4	0.10004559
141	0xbd66f605	-0.056386966
142	0xbd19f28b	-0.037584823
143	0x3dbd9c5b	0.09258338
144	0x3db45f46	0.088072345
145	0xbdd41a25	-0.10356549
146	0x3ddab187	0.10678392
147	0x3da0b64d	0.07847271
148	0x3d1b88ad	0.03797214
149	0xbcc7ef11	-0.024405988
150	0xbc2bd962	-0.01048884
151	0x3d9bc915	0.07606713
152	0x3d16e830	0.036842525
153	0x3dd2b770	0.10288894
154	0xbd962b30	-0.07332456
155	0xbd31d333	-0.043414306
156	0xbc6a8540	-0.014313996
157	0x3d53bffc	0.051696762
158	0x3d3259fc	0.043542847
159	0x3d87d3c4	0.06632188
160	0xbd72c8e0	-0.0592736
161	0xbc3448e3	-0.011003706
162	0x3d47749d	0.048695195
163	0xbd61a5a2	-0.0550896
164	0x3db6fcc8	0.08934933
165	0x3db94a23	0.090473436
166	0x3d8124c3	0.0630584
167	0x3d8e5a70	0.06950843
168	0x3d9a8754	0.07545343
169	0xbddade0c	-0.10686883
170	0xbd17f99c	-0.03710328
171	0x3dbbae3b	0.09164091
172	0xbd5b0d2a	-0.05347935
173	0x3cac34e4	0.021021314
174	0xbd366ad6	-0.04453548
175	0xbba26fc0	-0.0049571693
176	0xbc9faff9	-0.01949309
177	0xbd130060	-0.03588903
178	0x3d2dbfc9	0.04241923
179	0x3deb1ebc	0.114804715
180	0x3b1c9f40	0.0023898631
181	0xbd158dfa	-0.036512353
182	0x3ddc400b	0.10754403
183	0xbd69a1b4	-0.057038978
184	0x3d30b532	0.04314155
185	0x3c809354	0.015695252
186	0x3d8ee750	0.06977713
187	0x3db0cb7e	0.08632563
188	0x3d25b1a5	0.04045262
189	0xbbdb16ae	-0.0066860532
190	0x3d9a2d5f	0.07528185
191	0x3ca217cd	0.01978674
192	0xbc450368	-0.012024738
193	0x3d119ff9	0.035552952
194	0xbd4e6aaa	-0.05039469
195	0x3c3edc1e	0.01164916
196	0xbd9711a8	-0.073764145
197	0x3d8b038c	0.06787786
198	0x3df796c2	0.12089302
199	0xbb20ad31	-0.0024517293
200	0xbde70ae1	-0.11281372
201	0x3dced94f	0.10100042
202	0xbd861466	-0.065468594
203	0x3ddb1777	0.10697835
204	0x3db16d24	0.08663395
205	0xbd2ab914	-0.04168041
206	0x3c2d923f	0.01059395
207	0xbd2aedb7	-0.04173061
208	0x3dcf45e6	0.10120754
209	0xbdbad0c5	-0.09121851
210	0x3c84f19c	0.01622849
211	0xbd651698	-0.05592975
212	0x3dca4498	0.098763645
213	0x3d942c3c	0.072349995
214	0x3de845a6	0.113414094
215	0xbd6bafb0	-0.057540596
216	0x3d6755ed	0.05647843
217	0xbdd39a9d	-0.103322245
218	0x3d9e52d4	0.07730642
219	0xbd27a02b	-0.040924232
220	0x3d2ad458	0.041706413
221	0x3d80103a	0.06253095
222	0xbda08aa4	-0.078389436
223	0x3d8fd8da	0.07023783
224	0xbd2a8b59	-0.0416368
225	0x3d6dcc98	0.058056444
226	0xbd2eceae	-0.042677574
227	0x3bb26444	0.0054440815
228	0x3c503110	0.01270701
229	0x3de18ad3	0.11012807
230	0x3cfd5d1b	0.030928185
231	0x3cc07139	0.023491489
232	0xbcbd2a75	-0.023091534
233	0xbe005396	-0.12531886
234	0xbd60fda2	-0.054929383
235	0xbd352a23	-0.044229638
236	0x3d3a20f6	0.04544159
237	0x3a0221cf	0.00049641443
238	0x3d190ee5	0.03736772
239	0xbd84ccce	-0.06484376
240	0xbdfa93d1	-0.12235225
241	0x3d3b95e4	0.045797244
242	0x3db0338b	0.08603581
243	0x3d874720	0.06605363
244	0x3dd4419e	0.10364078
245	0xbdfabccf	-0.12243044
246	0x3d2f8d49	0.04285935
247	0x3dcb4870	0.09925926
248	0xbd56c50b	-0.05243401
249	0x3da8e5ee	0.082469806
250	0x3dc3a6f9	0.09553332
251	0x3d1d9fa5	0.038482327
252	0xbde81590	-0.11332238
253	0x3d77e284	0.060518757
254	0x3e077ce5	0.13231237
255	0xbc81d3d9	-0.015848087

conv2.bias f4 [32]
0	0xbd832cbc	-0.06405017
1	0xbd3d5df3	-0.046232175
2	0x3dcd01c9	0.10010106
3	0x3d951438	0.07279247
4	0x3c951ead	0.018203104
5	0xbdda8952	-0.10670723
6	0x3d2ec8b4	0.042671874
7	0x3dc1a1c9	0.09454686
8	0x3db8648c	0.09003553
9	0xbd8c8ef1	-0.068632014
10	0xbdf0907e	-0.1174631
11	0xbd9a783a	-0.07542463
12	0xbded422f	-0.11584889
13	0x3dd25b54	0.10271326
14	0xbd9446d8	-0.07240075
15	0x3c789736	0.01517277
16	0x3dc54f66	0.09634285
17	0x3d10f972	0.03539414
18	0xbdeb4e36	-0.11489527
19	0xbb1fcd37	-0.0024383792
20	0x3ddb6e49	0.107143946
21	0x3a61e61c	0.0008617358
22	0xbca36bfe	-0.019948956
23	0x3ddff96d	0.10936246
24	0xbde2e5e6	-0.11079006
25	0xbd6d2603	-0.05789758
26	0x3c479e2c	0.012183707
27	0x3e0a3e01	0.13500215
28	0xbc3b1e34	-0.011420775
29	0xbd987b8d	-0.074454404
30	0xbdf286e4	-0.118421346
31	0xbdeba366	-0.11505775

conv3.weight f4 [1, 32, 5, 5]
0	0x3c978c90	0.018499643
1	0xbca42c22	-0.020040575
2	0x3b991094	0.0046711657
3	0x3c40247b	0.011727448
4	0x3c62d65b	0.013845052
5	0xbd0c68b9	-0.03427956
6	0x3c84c0c0	0.016205192
7	0xbc386bcc	-0.0112561695
8	0xbc4a1c00	-0.012335777
9	0xbbcf45fe	-0.0063254824
10	0xbd07e091	-0.033173148
11	0xbba69aff	-0.005084395
12	0x3c1e2156	0.009651503
13	0xbd0bf27b	-0.034166794
14	0xbc8a148d	-0.016855503
15	0xbcc9d0a7	-0.024635626
16	0xbcb9e9b5	-0.022694448
17	0xbc9e4eee	-0.019324746
18	0x3ce14043	0.027496463
19	0x3c2031ac	0.009777468
20	0x3c85c030	0.016326994
21	0xbcea85e2	-0.028628293
22	0xbc86b8f0	-0.016445607
23	0xbce23a16	-0.027615588
24	0x3cb23854	0.021755375
25	0xbd0546cf	-0.03253823
26	0xbcf5e004	-0.030014046
27	0x39bf84ab	0.00036529204
28	0x3c32d78a	0.010915646
29	0x3c602697	0.013681076
30	0xbb68b5cb	-0.0035508748
31	0x3bd7b30f	0.0065826247
32	0x3bfb390b	0.007666712
33	0x3c2e38ce	0.0106336605
34	0xbc03f29e	-0.00805345
35	0x3cd47e71	0.025939198
36	0x3b7a8415	0.00382257
37	0x3ca8ff17	0.020629449
38	0x3c42978c	0.011876952
39	0xbc94c58f	-0.01816061
40	0xbc6c4103	-0.014419797
41	0xbc9d7f39	-0.019225704
42	0xbb338533	-0.0027392625
43	0x3ba5f5b4	0.0050646905
44	0x3a578ffb	0.0008223054
45	0x3d0121a3	0.03152622
46	0x3d07b9c6	0.03313615
47	0x3c28eba5	0.010310088
48	0x3b46ec35	0.0030353193
49	0xbca266ed	-0.01982447
50	0x3ceb49f0	0.02872178
51	0xbc228772	-0.009919988
52	0xbcaf2950	-0.021382004
53	0x3cc15b8b	0.023603221
54	0x3cdbf6eb	0.026851138
55	0x3cc52dbf	0.024069665
56	0x3c389919	0.01126697
57	0xbc1396b3	-0.009008097
58	0x3cf16a10	0.02946952
59	0x3d1fe1b5	0.03903361
60	0x3cc9c482	0.024629835
61	0x3cede782	0.029041056
62	0xbbbe699f	-0.005810931
63	0x3cbb8b3b	0.022893539
64	0xbbf56e7c	-0.0074899774
65	0xbaef91ef	-0.0018277745
66	0x3cb3d540	0.021952271
67	0x3cb22e25	0.021750519
68	0x3ce6fd60	0.02819699
69	0x3b4b760f	0.003104571
70	0xbb0fc941	-0.0021940025
71	0x3c7b48f3	0.015337217
72	0x3cd8f525	0.026484082
73	0x3c5b9c38	0.013403945
74	0xbca3835e	-0.019960102
75	0x3d10f416	0.03538903
76	0x3c9bbbb3	0.0190104
77	0x3c834cde	0.016027864
78	0xbb8e427a	-0.0043414207
79	0x3d0e8d94	0.03480299
80	0x3b92b472	0.004477077
81	0x3b43300c	0.0029783277
82	0x3ca06d19	0.019583272
83	0x3a95245c	0.0011378634
84	0x3c184e68	0.009296037
85	0x3b993265	0.004675197
86	0x3c53c10f	0.012924447
87	0x3bbf3331	0.00583496
88	0xbc9493da	-0.018136907
89	0xbbd516a9	-0.0065029454
90	0x3d0eafbd	0.034835566
91	0x3cddad90	0.0270603
92	0x3a56a33d	0.00081877765
93	0x3bd8ed34	0.0066200737
94	0xbca12941	-0.019672992
95	0x3cf18f33	0.029487228
96	0xbcf8128e	-0.030282285
97	0x3cb2c986	0.02182461
98	0x3cedc332	0.02902374
99	0x3c365cb9	0.011130505
100	0x3c767677	0.015042893
101	0xbd085b9e	-0.033290498
102	0xbc508f1e	-0.012729434
103	0xbc9489f1	-0.018132182
104	0x3c5650fd	0.013080833
105	0xbd02d570	-0.03194183
106	0xbcbe4ef5	-0.023231009
107	0x3c4add2e	0.012381835
108	0x3be36eed	0.0069407136
109	0xbd1033fd	-0.03520583
110	0x3ccaf910	0.024776965
111	0x3ca71fff	0.020401
112	0x3b9d75d1	0.0048053046
113	0x3a03f04c	0.00050330604
114	0xbcf7ea43	-0.030263072
115	0xbd13adfe	-0.036054604
116	0xbce9f26f	-0.028557984
117	0xbcdd6d5a	-0.027029682
118	0xbccd014b	-0.02502503
119	0xbca7eb3a	-0.020497907
120	0x3d033eae	0.032042198
121	0xbd14e51f	-0.03635132
122	0x3cec6d87	0.02886082
123	0x3ce88f32	0.028388593
124	0x3b524d3b	0.003208949
125	0x3ae2812a	0.0017280926
126	0x3c41037a	0.011780614
127	0x3b8549e6	0.0040676473
128	0xbce14291	-0.027497562
129	0xbce99dc0	-0.028517604
130	0x3d08fb2a	0.033442654
131	0xbc4c1550	-0.012456253
132	0x3c99b7a0	0.018764317
133	0x3c579312	0.013157623
134	0xbc91e311	-0.017808469
135	0xbb46ba37	-0.0030323395
136	0xbbdb3d5e	-0.006690665
137	0x3d07f99b	0.033197027
138	0x3b52fe55	0.003219505
139	0x3c394d69	0.01130996
140	0xbcafe55b	-0.02147167
141	0xbc93efa0	-0.018058598
142	0xbcd8e830	-0.026477903
143	0x3c841d65	0.016127298
144	0xbceceaca	-0.02892055
145	0x3c8be6cf	0.017077832
146	0x3c9133ab	0.017724833
147	0x3bc33c65	0.0059581273
148	0xbc353f60	-0.011062473
149	0x3cab6946	0.020924222
150	0xbcde5f71	-0.02714512
151	0x3cc1709c	0.023613267
152	0x3a859f07	0.0010194489
153	0xbced22a4	-0.028947182
154	0x3c3647de	0.011125533
155	0xbc92bb3c	-0.017911546
156	0x3ce34309	0.027741926
157	0xbcedac81	-0.02901292
158	0x3cbcac65	0.023031423
159	0x3bd88d02	0.0066086063
160	0xbd13096c	-0.035897657
161	0x3c3f5864	0.011678789
162	0xbc44b173	-0.012005198
163	0x3c437fdb	0.011932339
164	0x3b37b178	0.0028029364
165	0xbca1c726	-0.019748282
166	0x3bee1090	0.007265158
167	0xbca34a4e	-0.019932892
168	0xbbfbfdb7	-0.0076901573
169	0xbac71296	-0.0015188034
170	0x3c837871	0.016048642
171	0x3b7b5f2d	0.003835629
172	0xbd0c3839	-0.034233306
173	0x3c5fde82	0.01366389
174	0xbbc13410	-0.005896099
175	0xbcae0065	-0.021240423
176	0x3d0b15e0	0.03395641
177	0x3c2bca20	0.010485202
178	0x3c8f880a	0.017520923
179	0x38e53470	0.00010929338
180	0xbcfe57aa	-0.03104766
181	0x3cc9e35e	0.02464455
182	0x3c4627a3	0.012094411
183	0xbc66c958	-0.01408609
184	0x3d00e873	0.03147168
185	0xbce823d9	-0.028337406
186	0x3ce059b3	0.027386522
187	0x3c9db446	0.019251
188	0x3ccc2611	0.024920495
189	0x3b567b18	0.0032727178
190	0xbcae5c5f	-0.02128428
191	0x3bb5c8fe	0.005547642
192	0xbcac21e8	-0.021012262
193	0xbbcc4a0d	-0.0062344135
194	0xbc5548b9	-0.013017827
195	0xbccfcbcb	-0.02536573
196	0x3cf78bb9	0.030217992
197	0xbcefb5ab	-0.02926143
198	0x3cd16e0d	0.025565172
199	0xbc1f15ca	-0.009709785
200	0xbcc38972	-0.02386925
201	0x3c442374	0.011971343
202	0xbc8b74e3	-0.01702351
203	0x3cdbf621	0.026850762
204	0x3ca46bcf	0.020070938
205	0x3cf859bb	0.030316224
206	0x3a13eb85	0.00056427
207	0xbd0fb634	-0.03508587
208	0x3bd28b0e	0.006425268
209	0xbc026129	-0.007957735
210	0x3c3a67ac	0.011377256
211	0x3bd2cf58	0.0064334087
212	0xbcf9c9ba	-0.030491699
213	0x3cb2d9c0	0.021832347
214	0xbcd162c8	-0.025559798
215	0xbd02a6f8	-0.031897515
216	0xbbfe0db7	-0.0077531
217	0x3d0c6f8a	0.03428606
218	0xbcbd03c1	-0.023073079
219	0xba31f003	-0.00067877787
220	0xbcb3c907	-0.021946443
221	0x3ca77371	0.020440789
222	0xbc3870d2	-0.011257367
223	0xbceed96b	-0.029156407
224	0x3c6276f8	0.01382231
225	0xbcd2e6e8	-0.02574487
226	0x3ce99bab	0.028516611
227	0x3c8c5e60	0.017134845
228	0x3b764381	0.0037576857
229	0x3c5ad571	0.013356552
230	0xbca16e22	-0.019705836
231	0x3d00264d	0.031286526
232	0x3af4651c	0.0018645856
233	0xbcdfd55e	-0.027323421
234	0x3be84822	0.007088677
235	0xbcd6c848	-0.026218548
236	0xbb96e590	-0.0046050027
237	0xbcd15948	-0.025555268
238	0xbd0dcbcf	-0.034618195
239	0x3c1f3a18	0.0097184405
240	0xbce9bfed	-0.0285339
241	0x3cb7217d	0.022354836
242	0x3ce227d3	0.02760688
243	0x3c445f62	0.011985632
244	0xbb84d724	-0.004053967
245	0xbc218e1f	-0.009860544
246	0xbc452bcd	-0.012034369
247	0xb8bce8cf	-9.0079026e-05
248	0x3cb565c7	0.022143258
249	0x3cbf1330	0.023324579
250	0x3c2e5831	0.010641144
251	0x3cf817b7	0.030284746
252	0xbd02654c	-0.031834885
253	0x392762ac	0.00015963119
254	0x3d0099ae	0.03139656
255	0xbbbba2f8	-0.0057262145
