resutls_128/epoch_24.385.pth (torch, 34981 bytes, 5 tensors)

conv1.weight f4 [64, 1, 9, 9]
000000 8b bc 6a 3d 95 ad 47 bd 2c 57 a9 bc b6 a5 5a 3d
       0.057308715 -0.048749525 -0.02067145 0.05338069
000010 5a f9 d2 bd 13 bc 8a 3d 81 b9 b8 bc fe ab 66 3d
       -0.10301466 0.067741536 -0.022549393 0.05631637
000020 f1 eb 74 3c 90 19 52 bc 7e a5 02 3d 2c 59 ec 3b
       0.014948831 -0.012823477 0.031896107 0.0072127786
000030 d5 1c 2f 3d fe c5 26 bd c9 16 c3 bb 74 5d 0e bc
       0.042752106 -0.040716164 -0.005953644 -0.008689273
000040 42 ea 89 3c d4 1e a2 b8 cc 53 cb 3d 3f f9 17 3d
       0.016835336 -7.730504e-05 0.09928092 0.037102934
000050 75 1a 1c bd 5c b3 81 bd 53 43 6b bc f5 9e 34 bd
       -0.03811117 -0.06333038 -0.014359313 -0.044096906
000060 4b c6 05 bd 38 f0 f8 3b 35 61 8b 3d 58 68 81 3d
       -0.03265981 0.0075969957 0.0680565 0.0631873
000070 9b c3 d7 bd f5 64 95 3d 26 42 12 3d 01 77 e2 3d
       -0.10535356 0.07294647 0.035707615 0.110578544
000080 a1 d9 9f 3d be 9c c7 bd ac 2d d2 bd c4 56 51 bd
       0.07805181 -0.09746693 -0.102626175 -0.051108137
000090 dc 2f cf 3d d8 03 6c bc 80 34 57 3d da 7c 3c bd
       0.1011655 -0.014405213 0.052540302 -0.046017505
0000a0 0e d9 eb 3d 81 7d 29 bd a9 1d b4 3d c6 c1 a7 3b
       0.11516009 -0.041379455 0.0879472 0.005119535
0000b0 2a a8 62 bd 0e 26 77 3d 71 3b 62 bd f1 e3 18 3d
       -0.055336155 0.060339026 -0.05523247 0.037326757
0000c0 64 a6 db bc 85 b2 d2 bb f6 19 d0 bd 2a 00 48 bd
       -0.02681274 -0.0064299726 -0.10161202 -0.04882828
0000d0 ec 37 82 3d bd 56 c7 bc 91 64 e8 3d b3 41 bd 3d
       0.063583225 -0.024333352 0.113473065 0.09241047
0000e0 f1 42 82 ba 5f 15 8e bd ec 42 95 3d 8c 24 20 3d
       -0.0009938163 -0.0693767 0.07288155 0.039097354
0000f0 ce e1 8b bd 5e 43 99 3d c3 6a 8e 3d 67 23 ce 3d
       -0.06830178 0.074835524 0.06953957 0.10065346
000100 8c 74 74 bd 2f 9a 73 bc 1b fd e9 3a 7a 0e a8 3c
       -0.05968146 -0.014868303 0.001785192 0.020514715
000110 a2 3f a5 bd b1 49 9c bd 41 9f 7e 3d 49 65 cb bc
       -0.080687776 -0.07631243 0.062163595 -0.02482857
000120 29 aa 64 3d e2 f6 07 3c 87 82 20 3d 0e e3 e1 3c
       0.05582634 0.008298608 0.03918698 0.027574088
000130 f3 81 33 3d 94 e1 6c 3d 04 4b cf bd 90 f0 68 3d
       0.0438251 0.057832316 -0.1012173 0.056870043
000140 b7 df 9e bd 6d 68 ac bd 1c 3f ce 3b 02 79 a0 bc
       -0.07757514 -0.08418355 0.0062941443 -0.019588951
000150 61 11 84 3d 96 e0 84 bd 41 49 cb bd e3 10 a5 3d
       0.06448627 -0.06488149 -0.099260814 0.080598615
000160 a4 d7 88 bc b8 3a 7d 3d 88 40 10 3d 8a b1 ab bd
       -0.016704388 0.061823577 0.03521779 -0.08383472
000170 f0 d9 b0 3c c8 29 d4 3c 4d 8b 99 bd a4 e4 59 bd
       0.021588296 0.02589883 -0.07497273 -0.053196564
000180 95 04 1a 3d ca a8 a1 3c 21 03 44 bd d8 1c 0d bd
       0.037602026 0.019733805 -0.047854546 -0.034451336
000190 93 7f ce 3d a9 07 b1 bc 4e 26 7c 3d 2b c8 41 3d
       0.100829266 -0.021610098 0.061559968 0.047310036
0001a0 ae a9 94 bd 85 75 c2 bd 4c d9 d9 3d ca 7a a5 3b
       -0.07258926 -0.09495071 0.10637149 0.005050038
0001b0 ec 37 9a 3d 2d 8c b5 3c 88 25 0e 3d 47 dc a7 3d
       0.075301975 0.022161568 0.03470376 0.081963114
0001c0 09 3d d6 3d 0d 2c 98 bd 32 a2 5e 3c 95 80 a9 3d
       0.1046086 -0.07430277 0.013588475 0.08276478
0001d0 ad a5 a3 3d 25 e5 8c 3d 94 32 a5 bd 8e 8a a4 bd
       0.079905845 0.06879643 -0.08066288 -0.0803424
0001e0 ad 39 8a bd 3e 6a 65 3c aa 21 e3 3d d5 aa 8e bd
       -0.06749282 0.014002381 0.11090405 -0.069661774
0001f0 78 0c 75 3d a0 30 7b bd 01 be d6 bd 3c 6a c5 bc
       0.059826344 -0.06132567 -0.10485459 -0.024098508
000200 5b d8 81 3d a9 1c d2 3d 6a 76 8d bd 69 44 c6 3c
       0.06340095 0.10259373 -0.06907351 0.024202542
000210 6d 12 c5 3d 0a c9 97 3d e6 bc 8d 3d e5 b8 9f 3d
       0.09622655 0.07411392 0.06920795 0.07798938
000220 4f ef 8d 3d 41 b9 e2 3c 3d 90 9d bd 30 30 c0 bd
       0.0693041 0.027676227 -0.07693527 -0.09384191
000230 e4 ca 51 bd c8 71 54 bc 14 79 8b bd 79 6a 24 3d
       -0.051218882 -0.012966581 -0.06810203 0.040140603
000240 a3 e4 06 3d fb 03 da bc 5f 81 28 3d 3b e8 0c 3d
       0.03293289 -0.026613226 0.041139003 0.03440116
000250 b8 c7 88 3d 82 56 97 3d 26 d7 1c bd 9e fe dc 3d
       0.06678718 0.07389547 -0.03829112 0.10790752
000260 b9 c8 65 bc f8 01 b7 bb 49 97 da bd a5 69 96 bd
       -0.014024907 -0.0055849515 -0.106733866 -0.07344369
000270 b3 cb 88 bd 12 e5 48 bd 1c 03 9f 3d 6b 77 19 bd
       -0.066794775 -0.049046583 0.07764265 -0.0374674
000280 63 4f ac bd aa 51 28 3d 19 df 18 3d 2e 04 98 3d
       -0.08413579 0.041093506 0.037322138 0.07422672
000290 6b 47 5f bd 4c 6e e0 3c 3f 4e 18 bd a0 99 b1 bc
       -0.05451147 0.027396344 -0.037183996 -0.0216797
0002a0 bb 49 af bd df ba 45 bd e9 c5 02 bd 85 63 4a 3d
       -0.08558985 -0.048273917 -0.031927023 0.049411315
0002b0 16 bd ba 3c 91 2c fb 3c e4 7f ea 3d 2b 11 e5 3d
       0.022795241 0.0306609 0.114501745 0.11184915
0002c0 c1 7e a2 3d 0f 93 dc 3b b3 22 98 bd ae 48 b6 3d
       0.07934333 0.006731398 -0.07428493 0.08900581
0002d0 6b a8 ce bc 28 1b bd bb bd fb bb bd dc 48 90 bc
       -0.025226792 -0.0057710595 -0.09178875 -0.017612867
0002e0 11 e0 89 bd ff fc d9 3d fb c1 bc bd 5b ce aa bd
       -0.067321904 0.10643958 -0.09216686 -0.083401404
0002f0 d9 c1 6d ba e5 0a 69 bd 9a c4 32 3d 82 0a 1c bd
       -0.0009069718 -0.056895155 0.043644525 -0.03809596
000300 f4 18 41 bd 5f 37 39 3c ae fe ae 3d 54 b9 96 bd
       -0.047142938 0.011304705 0.0854467 -0.07359567
000310 72 69 65 3d 43 5a 99 3d 46 db e5 3d 8e 7f 96 bd
       0.056008764 0.07487919 0.11223464 -0.07348548
000320 7f f7 02 3d 8d 30 9d bd e8 34 cd 3d 3e cc 1a bd
       0.031974312 -0.07675276 0.10019857 -0.037792437
000330 fe 08 93 3d e0 d0 f3 3b 63 8f a0 bb 4c 61 f3 b7
       0.071794495 0.0074406713 -0.0048999055 -2.9013165e-05
000340 65 db bd 3c 7c 79 6b 3d 23 cd be 3c a5 e9 20 3d
       0.023175905 0.057488903 0.023291176 0.03928532
000350 1d cf c1 bd e3 c4 af 3d 53 f3 ce 3d ac d5 c3 3d
       -0.09463332 0.08582475 0.10105004 0.09562239
000360 cd 95 ae 3d 87 3a 9c bd 7e 5d 15 bd 1b 12 d3 3d
       0.08524666 -0.07628351 -0.036466114 0.10306188
000370 8e 07 a3 bd 1a 96 d8 3d 89 9b a9 bd 59 68 98 bd
       -0.07960425 0.105755046 -0.08281619 -0.07441778
000380 eb cc 6c 3d 27 68 9e bd 44 16 b6 bc 91 d4 ad 3d
       0.057812613 -0.07734709 -0.022227414 0.084878094
000390 f8 4f bd 3d ea 34 e0 3d bb fc 94 bc 23 ac a8 bd
       0.092437685 0.109475926 -0.018186918 -0.082359575
0003a0 e1 d9 e6 3d d2 9d a9 bc 69 53 33 bd ff 47 f3 3c
       0.11272026 -0.020705137 -0.043780718 0.029697416
0003b0 35 31 98 bd f8 4c 9d 3d 35 51 96 3d 68 cb ac bd
       -0.074312605 0.07680696 0.07339708 -0.08437234
0003c0 16 cb b3 bd f3 34 e2 bb 77 54 49 3d 1f ed 45 bb
       -0.0877897 -0.0069032847 0.049152818 -0.003020115
0003d0 3b 09 66 bd d5 ea 33 3b 14 4b d5 bd b9 3c a0 bd
       -0.056161147 0.0027453203 -0.10414711 -0.07824082
0003e0 de a8 96 bd 96 18 bd 3d dd 49 ca 3d 7f 5d 17 bd
       -0.073564276 0.09233205 0.098773696 -0.0369544
0003f0 f6 74 a9 3b d4 a9 4b 3d 17 55 5d 3c 63 2c 63 bd
       0.0051714135 0.049722508 0.0135090565 -0.055462252

conv1.bias f4 [64]
000000 9e 8e 72 bd 07 5f d5 3c 41 78 9b bd 0a 38 2f bd
       -0.05921804 0.02604629 -0.07591296 -0.042778052
000010 44 ef a0 3d 3e d6 6b 3d 97 25 a0 3d 5b 6e eb bc
       0.07858136 0.057577364 0.0781967 -0.028739145
000020 a7 c7 d1 3d fa 08 a2 3d 8f 4c 72 3d 1d f0 46 3d
       0.10243159 0.079118684 0.059155043 0.048568834
000030 a2 e0 c2 bd 00 43 81 bd fd 22 d7 bb b6 f8 f7 3c
       -0.095155016 -0.06311607 -0.00656545 0.030269962
000040 52 fc f5 3d 6e a7 c9 3d 76 55 1a bd 41 97 8d 3d
       0.12011017 0.09846388 -0.03767916 0.06913615
000050 2f f8 2b 3d e1 a9 64 bd c6 1b e4 bd c5 7f 38 3d
       0.041984733 -0.05582607 -0.1113811 0.045043726
000060 d0 65 bd 3b b7 c8 ee 3c 18 40 ac 3d ec 89 19 bd
       0.0057799593 0.029148443 0.084106624 -0.03748505
000070 07 23 33 bd 95 4d bf 3c 67 69 30 bd 32 f4 85 bd
       -0.043734577 0.023352424 -0.04306927 -0.06540717
000080 06 e1 e4 bd 66 f8 bf bd 2f a8 0e bc ee 97 b6 3d
       -0.11175732 -0.0937355 -0.00870709 0.08915697
000090 57 6f 8f bd 75 33 fd 3c 7c a4 9f 3d 4c 3b 3d 3c
       -0.07003658 0.030908326 0.07795045 0.011549782
0000a0 8c 51 32 bb a2 97 bf 3d 75 09 d8 bd f8 d2 a8 3d
       -0.002720925 0.093550935 -0.10548679 0.08243364
0000b0 a6 c0 be 3d f7 2d b8 3d 4f 01 a9 3d c7 d1 f0 bb
       0.093140885 0.08993142 0.08252203 -0.007349226
0000c0 56 6a c8 bd 2e 96 8f bd 53 ac c8 bd 5b 5c 8b bd
       -0.09785907 -0.070110664 -0.09798493 -0.06804725
0000d0 35 c6 ca bd 37 9a a4 3d d9 a5 1e 3d c4 44 45 bd
       -0.09901086 0.08037227 0.038732383 -0.048161283
0000e0 9d 68 25 3b 9a 72 d0 3a eb 06 3f bc e3 42 93 3d
       0.0025239356 0.0015903295 -0.011659364 0.07190492
0000f0 1f b4 52 3d d5 25 aa bd dd 17 c3 3d d1 cd 33 bd
       0.051441308 -0.08307997 0.09526036 -0.043897454

conv2.weight f4 [32, 64, 1, 1]
000000 37 af 65 bd 61 4a f6 3d 15 29 a6 bd 2b a7 fd bc
       -0.0560753 0.120259054 -0.081133045 -0.030963501
000010 71 d9 10 3c 01 4b f2 bd 8c d5 bb 3d e6 6c aa 3d
       0.008840905 -0.11830712 0.0917159 0.08321552
000020 ac 6c f4 bd 5e 47 ac bc 08 8f b5 3c 28 f3 81 3d
       -0.1193479 -0.021030124 0.02216293 0.063452065
000030 74 0b 53 3d 49 2d 53 bc a7 e6 da 3d 91 35 07 bd
       0.051524594 -0.012889215 0.10688525 -0.03301007
000040 eb 13 7a 3b 0f f0 a3 bd 6b 50 93 bd d4 33 31 bd
       0.0038158845 -0.08004772 -0.07193073 -0.043262318
000050 c9 21 ea bd 3a ad aa bc 41 53 ce 3c 30 8e b0 bd
       -0.11432225 -0.020834554 0.025186183 -0.0862087
000060 94 f1 de bd 10 2a e1 3d 1d f6 65 bd be a4 bc bd
       -0.10885921 0.10994351 -0.056142915 -0.092111096
000070 b2 98 00 bd 0b ab 78 bd 5a 57 f4 bd 88 ab 88 bc
       -0.03139562 -0.060709994 -0.119307235 -0.016683355
000080 79 5e 75 bd 50 b1 28 bd b0 49 64 3d 85 88 bf 3b
       -0.05990455 -0.041184723 0.055734336 0.005845132
000090 ba d3 d5 3d 44 f5 01 be ce d2 df 3d c6 c2 8a 3d
       0.10440774 -0.12691218 0.1092888 0.06775431
0000a0 4f fc 0c bd 70 14 b1 3d 98 b4 ef 3d 48 52 48 3c
       -0.034420308 0.08646476 0.117043674 0.012226649
0000b0 4c 3e 0e 3d 81 f8 25 bd 85 04 18 bc 00 42 c4 bb
       0.03472738 -0.040520195 -0.009278421 -0.005989313
0000c0 2b 82 83 bd 58 04 b1 3c 42 7a 75 bd 2c a6 82 3d
       -0.06421312 0.021608517 -0.059931047 0.06379351
0000d0 c8 2f 9d 3c 58 64 c6 bd 12 55 de 3d e0 2a 19 3d
       0.019187823 -0.09687108 0.108560696 0.037394404
0000e0 3b 8f 58 3d d2 bf 04 be 15 2d bf 3d 3c 0d ff 3c
       0.05287097 -0.12963799 0.093347706 0.03113424
0000f0 d6 3c 54 bc c2 91 a7 bd f5 c1 5d 3c b9 56 43 3d
       -0.012953958 -0.08182098 0.0135350125 0.047690127
000100 20 95 21 3d 67 3e bd 3d 1e a1 e4 bd be 57 c7 bd
       0.039448857 0.09240418 -0.11163543 -0.09733532
000110 f7 c0 f9 3d 08 4a de 3d 10 bc 37 bc b2 61 9d 3d
       0.12195008 0.10853964 -0.011214271 0.076846495
000120 0a 06 b7 3d 1e 9b b9 3d 58 61 73 bd 7e 5f 27 bd
       0.08936699 0.090627894 -0.059419006 -0.040862553
000130 ba c7 85 bd 36 1a 0c bd ce d2 f2 3d 11 84 de 39
       -0.065322354 -0.034204684 0.11856614 0.00042441537
000140 d0 42 cc bd 7f e5 c2 3d 38 04 4f 3d cb 83 c1 3c
       -0.09973681 0.09516429 0.050541133 0.023622414
000150 a4 3d 86 bd f8 9d bb 3d a9 87 cf bd d0 39 7e 3d
       -0.06554726 0.091609895 -0.10133297 0.062066853
000160 33 82 3b bc b3 41 34 bd 5b 34 e3 bd 4e a2 8e 3c
       -0.011444616 -0.04400797 -0.110939704 0.017411377
000170 4c 33 71 bd 1d d1 48 bd 28 a5 90 3d f6 43 a4 bd
       -0.05888681 -0.04902755 0.07062751 -0.08020775
000180 98 ed f3 3d bb eb d3 3d 16 63 ba 3d 20 92 60 3c
       0.11910552 0.103476964 0.091009304 0.013706714
000190 a8 e8 c3 bd 69 8d e5 bc 13 3a 78 bd d8 08 8a bc
       -0.0956586 -0.028021531 -0.06060226 -0.01684992
0001a0 56 9a ee bd 20 f7 65 bd 9f 31 b0 bc 86 ee 1f 3a
       -0.11650531 -0.05614388 -0.021508036 0.00061009114
0001b0 2c 11 04 bd 35 6f ed 3c 38 89 8b bd b6 63 ae bd
       -0.03224294 0.028983692 -0.06813282 -0.08515112
0001c0 22 7c ba bd 16 cf ec 3d 70 f1 9b 3d 3a e8 e1 bd
       -0.09105708 0.11562936 0.0761441 -0.11030622
0001d0 90 6f d8 bd a0 c5 a2 bb b5 d9 86 bd e0 94 2d 3d
       -0.10568154 -0.0049674064 -0.06584493 0.042378306
0001e0 f9 17 30 bd 25 4f 6c 3c 01 2b d9 bc 8e cc bf bd
       -0.042991612 0.014423166 -0.026509764 -0.093651876
0001f0 0c e8 1b bc 27 4c ea 3d 21 03 cf 3d d3 e7 ac bd
       -0.0095157735 0.11440306 0.10108019 -0.084426545
000200 d8 8a 41 3d a9 b2 f3 3d 4a 74 ca 3c c4 42 35 bc
       0.047251552 0.11899311 0.024713654 -0.011063281
000210 d7 5a de 3d 91 a4 88 3c 99 5f be bc 13 18 27 3e
       0.1085717 0.016680034 -0.023238944 0.16317777
000220 21 1d 52 3d 21 4a ae bd ca e6 b9 3d 74 a1 07 3e
       0.05129731 -0.08510233 0.09077223 0.13245183
000230 b4 e4 cc 3d 51 d7 64 bd 42 48 0f bd 6d 65 bd 3d
       0.10004559 -0.055869404 -0.03498102 0.09247861
000240 8a a3 ad 3d c3 33 d2 bd 5c 78 df 3d ec 65 a5 3d
       0.08478458 -0.10263779 0.109116286 0.08076081
000250 e2 37 1d 3d e4 a3 cd bc b3 b7 2c bc 15 c9 9b 3d
       0.038383372 -0.025102563 -0.010541844 0.07606713
000260 9c a8 22 3d e8 27 d8 3d c8 0f 92 bd 77 38 31 bd
       0.03971158 0.105544865 -0.07131916 -0.04326674
000270 5f f4 69 bc 21 09 4d 3d fc 59 32 3d c4 d3 87 3d
       -0.014279454 0.050057534 0.043542847 0.06632188
000280 32 4b 72 bd bc ad 1b bc 07 76 47 3d 95 a7 5f bd
       -0.059153743 -0.009501871 0.048696544 -0.054603178
000290 c8 fc b6 3d 80 93 b7 3d 1d 7b 77 3d 94 09 92 3d
       0.08934933 0.0896368 0.060420144 0.07130733
0002a0 54 87 9a 3d 91 3d db bd a4 dd 15 bd ba d8 bb 3d
       0.07545343 -0.10705102 -0.036588326 0.09172197
0002b0 d5 f7 5b bd e8 68 b5 3c 50 13 37 bd c0 6f a2 bb
       -0.053703148 0.02214475 -0.044696152 -0.0049571693
0002c0 d4 9c 9e bc 60 00 13 bd a9 14 30 3d bc 1e eb 3d
       -0.01936189 -0.03588903 0.042988453 0.114804715
0002d0 40 9f 1c 3b 99 01 16 bd 85 96 d9 3d b4 a1 69 bd
       0.0023898631 -0.036622617 0.106244124 -0.057038978
0002e0 59 e5 27 3d 46 e1 73 3c 73 74 8f 3d b7 6c b3 3d
       0.040990207 0.014885252 0.07004633 0.0876097
0002f0 67 6a 2d 3d f6 1a b5 bb d7 0b 9c 3d ed 90 a8 3c
       0.0423378 -0.0055268956 0.07619446 0.020576918
000300 54 59 49 bc a8 da 13 3d 9f 40 4b bd 23 1a 42 3c
       -0.012289364 0.0360972 -0.049622174 0.011847052
000310 32 7c 96 bd a7 99 8d 3d a0 94 f7 3d a8 41 de 39
       -0.07347907 0.069140725 0.12088895 0.00042392057
000320 b8 28 e7 bd 74 4d cb 3d 03 a2 86 bd e5 79 dd 3d
       -0.11287063 0.099268824 -0.0657387 0.10814265
000330 24 6d b1 3d 07 79 29 bd a1 bf 45 3c 4b 9e 2c bd
       0.08663395 -0.041375186 0.012069614 -0.042143147
000340 84 86 ca 3d 16 a9 b9 bd 30 2e 92 3c 24 c0 5e bd
       0.09888938 -0.09065454 0.01784429 -0.05438246
000350 84 d4 ca 3d 13 90 93 3d 7b 56 e8 3d 64 b0 6b bd
       0.099038154 0.07205214 0.1134462 -0.057541266
000360 70 0b 6f 3d 2c 62 cf bd c7 9e a0 3d 3b 0f 27 bd
       0.058360517 -0.10126147 0.078427844 -0.04078601
000370 58 d4 2a 3d fa a4 7b 3d a4 8a a0 bd da d8 8f 3d
       0.041706413 0.06143663 -0.078389436 0.07023783
000380 5f 31 29 bd 37 d9 71 3d ae ce 2e bd a0 dd ba 3b
       -0.04130685 0.059045043 -0.042677574 0.0057026893
000390 10 31 50 3c 54 55 e0 3d 99 04 ef 3c ca ab c8 3c
       0.01270701 0.10953775 0.029176997 0.024495978
0003a0 75 2a bd bc 01 54 00 be fe da 5f bd ec d6 34 bd
       -0.023091534 -0.12532045 -0.054652207 -0.044150278
0003b0 f3 66 39 3d 07 f2 9a 3a be 6a 18 3d ce cc 84 bd
       0.045264196 0.0011821397 0.037211172 -0.06484376
0003c0 a0 55 fa bd e4 95 3b 3d ae 02 b1 3d 20 47 87 3d
       -0.12223363 0.045797244 0.08643089 0.06605363
0003d0 9e 41 d4 3d 1c c3 fa bd e6 28 2c 3d 70 48 cb 3d
       0.10364078 -0.122442454 0.04203119 0.09925926
0003e0 75 46 5c bd 66 62 a7 3d b8 15 c4 3d 49 e0 20 3d
       -0.05377813 0.08173065 0.09574455 0.039276395
0003f0 51 8a e5 bd b2 be 7b 3d cb d8 07 3e d5 50 7b bc
       -0.112080224 0.061461158 0.13266294 -0.015339096

conv2.bias f4 [32]
000000 6e fa 84 bd f2 89 34 bd c7 3a c5 3d b5 56 8d 3d
       -0.06493078 -0.044076867 0.096303515 0.06901304
000010 77 f2 bc 3c 52 89 da bd f3 4d 33 3d d2 fe c1 3d
       0.023064835 -0.10670723 0.04377551 0.09472431
000020 8a 35 b9 3d c0 b0 8c bd 7e 90 f0 bd fa e1 9c bd
       0.09043415 -0.0686965 -0.1174631 -0.07660289
000030 8b cd ee bd b3 61 d8 3d 2e 36 96 bd 6c ff 8a 3c
       -0.11660298 0.1056551 -0.07334553 0.016967498
000040 07 e7 c1 3d 2f 35 0d 3d dc 85 ed bd 37 cd 1f bb
       0.09467893 0.034474548 -0.11597797 -0.0024383792
000050 5b a0 d9 3d b9 93 59 bb 12 cd ad bc 79 38 e6 3d
       0.106262885 -0.0033199622 -0.02121595 0.1124124
000060 e6 e5 e2 bd f7 55 6c bd 15 72 36 3c 86 ad 10 3e
       -0.11079006 -0.05769917 0.011135598 0.14128694
000070 70 d6 c1 bb 8d 7b 98 bd e4 86 f2 bd 66 a3 eb bd
       -0.0059154555 -0.074454404 -0.118421346 -0.11505775

conv3.weight f4 [1, 32, 5, 5]
000000 90 8c 97 3c 22 2c a4 bc 94 10 99 3b 7d 24 40 3c
       0.018499643 -0.020040575 0.0046711657 0.0117274495
000010 94 fc 62 3c b9 68 0c bd c0 c0 84 3c cc 6b 38 bc
       0.013854165 -0.03427956 0.016205192 -0.0112561695
000020 73 14 4a bc ab a5 ce bb 91 e0 07 bd d2 86 a6 bb
       -0.012333977 -0.0063063703 -0.033173148 -0.00508199
000030 69 21 1e 3c 7b f2 0b bd b6 11 8a bc a7 d0 c9 bc
       0.00965152 -0.034166794 -0.016854148 -0.024635626
000040 b0 e9 b9 bc 6f 4e 9e bc a5 4f e1 3c fd c4 20 3c
       -0.022694439 -0.01932451 0.027503798 0.009812591
000050 ab f0 85 3c cb 4e ea bc 5d 6c 86 bc 0b cc e1 bc
       0.016350111 -0.028602025 -0.016409094 -0.027563116
000060 5c bf b2 3c 16 2e 04 bd 8b 80 f3 bc 46 ee 3d 3a
       0.021819763 -0.032270513 -0.02972438 0.00072452833
000070 b4 99 38 3c d4 a8 64 3c af 2b 57 bb 63 d2 e1 3b
       0.011267114 0.013956267 -0.0032832434 0.006891535
000080 00 cf 03 3c 00 2d 34 3c 0a c4 fe bb 9b 11 d7 3c
       0.008044958 0.010997057 -0.0077748345 0.026253512
000090 26 dd 88 3b ab 73 ac 3c af 30 49 3c 0d 35 92 bc
       0.0041767536 0.021051249 0.0122796735 -0.017847562
0000a0 c0 97 66 bc 10 6b 9a bc a1 d5 16 bb f8 9b b3 3b
       -0.014074266 -0.01884988 -0.0023015516 0.0054812394
0000b0 5d 7a 96 3a c8 3e 02 3d 83 e0 08 3d 2e 5c 2e 3c
       0.0011480559 0.031798154 0.033417236 0.010642095
0000c0 54 22 5b 3b 56 98 a0 bc c7 32 e9 3c a5 92 22 bc
       0.003343721 -0.01960389 0.028466595 -0.009922658
0000d0 47 2b aa bc d6 a4 c0 3c d8 dd d7 3c f6 5d c6 3c
       -0.02077259 0.0235161 0.0263509 0.024214726
0000e0 b5 1a 3f 3c b8 23 03 bc ee c5 f3 3c d9 4b 1f 3d
       0.011664082 -0.0080041215 0.029757466 0.038890693
0000f0 2d b0 d0 3c 2d db f6 3c a7 f0 86 bb 96 68 c3 3c
       0.025474632 0.030133808 -0.0041180435 0.023853581
000100 14 79 e4 bb 3f da bd ba 63 d1 b8 3c 10 f1 bb 3c
       -0.0069724414 -0.0014484598 0.02256078 0.022942096
000110 65 be ea 3c be fe 4c 3b ff 72 11 bb 73 4c 7e 3c
       0.02865524 0.0031279768 -0.0022193787 0.015521157
000120 5e 22 df 3c 3a 19 5c 3c 28 b1 a6 bc a4 54 0f 3d
       0.027238067 0.013433749 -0.020348147 0.03499283
000130 ed 25 98 3c 90 bf 81 3c 09 d6 9f bb 29 93 0b 3d
       0.018572772 0.015838414 -0.00487781 0.03407589
000140 7e 04 8d 3b 4f f9 34 3b 51 a4 a0 3c 3b e9 53 3a
       0.004303514 0.002761442 0.019609602 0.0008083765
000150 65 bf 0f 3c b2 60 9e 3b 22 b1 55 3c aa 43 cb 3b
       0.008773659 0.0048333043 0.01304272 0.0062031345
000160 94 75 94 bc 99 c1 da bb 51 04 0e 3d 15 07 dc 3c
       -0.018122472 -0.0066759107 0.034672085 0.026858846
000170 a1 55 66 3a 47 01 d0 3b c1 c0 a4 bc c0 d4 ee 3c
       0.00087865634 0.0063478085 -0.020111443 0.029154181
000180 63 1a fb bc 4f 06 b2 3c bc 80 ea 3c 03 81 2d 3c
       -0.03065223 0.021731524 0.028625838 0.010589841
000190 44 44 6f 3c 18 9b 0a bd 6d 89 5a bc 90 0d 9b bc
       0.014603678 -0.033839315 -0.013338429 -0.018927366
0001a0 04 1c 48 3c e4 c6 04 bd 47 3f c3 bc 5c 73 3f 3c
       0.012213711 -0.03241624 -0.023833884 0.011685219
0001b0 6a 00 c6 3b 95 29 14 bd 2b fe c6 3c 3c 13 a2 3c
       0.00604253 -0.03617247 0.024291119 0.019784562
0001c0 43 e1 85 3b f7 3d de b9 bf 03 00 bd a3 f4 15 bd
       0.004085691 -0.00042389307 -0.031253573 -0.036610257
0001d0 ea 8d ef bc c9 c3 e3 bc 64 eb d4 bc 39 43 b0 bc
       -0.029242475 -0.027803319 -0.02599115 -0.02151643
0001e0 a8 d0 00 3d dc c6 17 bd 7e 19 e6 3c 61 e5 e0 3c
       0.03144899 -0.03705488 0.028088327 0.027453126
0001f0 27 b7 12 3b 2a 81 e2 3a 7a 03 41 3c e6 49 85 3b
       0.0022387 0.0017280926 0.011780614 0.0040676473
000200 91 42 e1 bc c0 9d e9 bc 2a fb 08 3d 50 15 4c bc
       -0.027497562 -0.028517604 0.033442654 -0.012456253
000210 a0 b7 99 3c 12 93 57 3c 11 e3 91 bc 37 ba 46 bb
       0.018764317 0.013157623 -0.017808469 -0.0030323395
000220 5e 3d db bb 9b f9 07 3d 55 fe 52 3b 69 4d 39 3c
       -0.006690665 0.033197027 0.003219505 0.01130996
000230 5b e5 af bc a0 ef 93 bc 30 e8 d8 bc 65 1d 84 3c
       -0.02147167 -0.018058598 -0.026477903 0.016127298
000240 ca ea ec bc cf e6 8b 3c ab 33 91 3c 65 3c c3 3b
       -0.02892055 0.017077832 0.017724833 0.0059581273
000250 60 3f 35 bc 46 69 ab 3c c5 31 df bc 37 b8 c1 3c
       -0.011062473 0.020924222 -0.027245412 0.02364741
000260 e8 4e 95 3a 4c b0 ed bc 9f ad 33 3c bb d5 93 bc
       0.0011391314 -0.029014729 0.010966687 -0.01804625
000270 dc 52 e3 3c 81 ce ec bc 86 19 bc 3c c0 87 d3 3b
       0.027749471 -0.028907062 0.02296139 0.0064553916
000280 c8 9e 13 bd dd 8b 3f 3c 98 a7 42 bc 2e d4 42 3c
       -0.036040097 0.011691061 -0.011880778 0.011891408
000290 3b ec 2f 3b 82 a4 a3 bc c6 da eb 3b e9 da a2 bc
       0.0026843685 -0.019975904 0.0071977107 -0.019879775
0002a0 eb 62 ff bb 21 28 de ba 9e d2 81 3c d6 29 79 3b
       -0.0077937744 -0.0016949215 0.0158475 0.003801932
0002b0 f7 d3 0b bd 97 d3 5e 3c 0f b3 c5 bb a3 cc b1 bc
       -0.034137692 0.013600252 -0.0060333083 -0.021704024
0002c0 33 b5 09 3d c8 8e 28 3c c5 8d 8c 3c 88 ce b7 b9
       0.03362007 0.010287948 0.017157445 -0.00035058358
0002d0 59 c6 00 bd ff c3 c7 3c 85 49 44 3c b2 6c 6b bc
       -0.03143916 0.02438545 0.011980419 -0.014369177
0002e0 cf a6 fe 3c b1 e0 e9 bc aa ac df 3c c5 41 9e 3c
       0.0310854 -0.028549524 0.027304012 0.01931847
0002f0 08 52 cb 3c 08 45 49 3b ad c0 b0 bc 9d 89 b0 3b
       0.024819389 0.0030711312 -0.02157625 0.0053874985
000300 89 2d ac bc a9 d6 d1 bb 09 be 59 bc c4 76 d2 bc
       -0.021017807 -0.0064037633 -0.013289937 -0.025691397
000310 0e fa f5 3c 27 fd ef bc ea cf cf 3c 44 0c 24 bc
       0.030026462 -0.029295517 0.025367696 -0.01001269
000320 ed 1b c5 bc 4e bf 41 3c b9 ae 8b bc c1 b0 da 3c
       -0.024061168 0.011825396 -0.017051088 0.026695611
000330 2f b1 a2 3c 1a 7e f7 3c 51 3d 02 3a 76 88 0f bd
       0.019859878 0.030211497 0.00049682433 -0.03504225
000340 98 ad cf 3b 3f b3 04 bc 8e a7 3b 3c 3e 49 d6 3b
       0.0063378327 -0.008099376 0.011453522 0.006539493
000350 15 0f f8 bc ae 73 b3 3c e8 3a d1 bc 79 b2 02 bd
       -0.03028063 0.021905746 -0.025540784 -0.031908486
000360 d2 7a fd bb e5 ea 0c 3d 5a 31 bd bc 81 19 46 ba
       -0.0077355886 0.0344037 -0.023094822 -0.0007556901
000370 30 15 b5 bc 3a 66 a6 3c a7 d7 38 bc 8f 2a f0 bc
       -0.02210483 0.020312417 -0.011281884 -0.029317169
000380 fe e3 5e 3c 26 e7 d2 bc ca 97 e9 3c f9 50 8c 3c
       0.013604162 -0.025744986 0.028514761 0.017128455
000390 29 9d 74 3b d4 4e 5a 3c 41 70 a1 bc 4d 26 00 3d
       0.003732512 0.013324458 -0.019706847 0.031286526
0003a0 59 95 f0 3a 8d f4 df bc 93 48 e7 3b 14 cb d6 bc
       0.0018355056 -0.02733829 0.007058212 -0.026219882
0003b0 d6 c4 97 bb 4b 7e d1 bc cf cb 0d bd 3a af 1e 3c
       -0.004631619 -0.025572916 -0.034618195 0.009685332
0003c0 a0 c0 e9 bc 02 19 b7 3c 2a 14 e2 3c 1f e0 43 3c
       -0.028534234 0.022350792 0.027597506 0.01195529
0003d0 a0 ab 85 bb 8b 9d 21 bc bb 67 45 bc 47 63 e4 b8
       -0.004079297 -0.009864221 -0.012048657 -0.00010890379
0003e0 24 65 b5 3c f4 11 bf 3c 31 58 2e 3c b7 17 f8 3c
       0.022142954 0.02332399 0.010641144 0.030284746
0003f0 4c 65 02 bd ac 62 27 39 ae 99 00 3d f8 a2 bb bb
       -0.031834885 0.00015963119 0.03139656 -0.0057262145
