resutls_128/epoch_24.347.pth (torch, 34981 bytes, 5 tensors)

conv1.weight f4 [64, 1, 9, 9]
000000 f5 41 6b 3d e8 2d 47 bd 6a 6a a8 bc bb 10 5b 3d
       0.05743595 -0.048627764 -0.020558555 0.053482752
000010 f9 c9 d2 bd 6e f5 8a 3d ad 9b b7 bc 0b 4e 67 3d
       -0.102924295 0.06785093 -0.0224131 0.056470912
000020 38 94 77 3c b0 57 50 bc 6d 0e 03 3d 03 40 ef 3b
       0.015111022 -0.012716219 0.03199618 0.007301332
000030 68 6b 2f 3d e8 85 26 bd 4e 85 c0 bb eb 9f 0c bc
       0.04282704 -0.040655047 -0.005875266 -0.008583049
000040 c5 f3 8a 3c 0a 80 79 38 69 76 cb 3d fe 34 18 3d
       0.016961941 5.9485472e-05 0.09934694 0.037159912
000050 e4 ed 1b bd 6c a5 81 bd 8e 1b 6b bc 16 83 34 bd
       -0.038068667 -0.0633038 -0.014349831 -0.044070326
000060 8d 8b 05 bd ba 87 fb 3b 9c 91 8b 3d 80 82 81 3d
       -0.03260379 0.007676092 0.06814882 0.06323719
000070 cc b0 d7 bd d8 6f 95 3d 47 42 12 3d 4a 6d e2 3d
       -0.10531768 0.07296723 0.03570774 0.110560015
000080 cc d9 9f 3d 4f 8c c7 bd 63 0f d2 bd 69 09 51 bd
       0.07805213 -0.097435586 -0.10256841 -0.051034365
000090 4b 3d cf 3d e2 d7 6b bc c4 2a 57 3d 5c 9c 3c bd
       0.101191126 -0.014394732 0.05253102 -0.046047553
0000a0 22 bf eb 3d 61 9c 29 bd ac 1f b4 3d 09 d4 a8 3b
       0.11511065 -0.0414089 0.087951034 0.0051522297
0000b0 47 72 62 bd 38 4e 77 3d e3 22 62 bd 05 e7 18 3d
       -0.055284765 0.06037733 -0.05520905 0.037329692
0000c0 e1 cb db bc d3 d7 d3 bb b0 21 d0 bd 93 ea 47 bd
       -0.026830615 -0.0064649372 -0.101626754 -0.04880769
0000d0 97 52 82 3d 8b c4 c6 bc 04 82 e8 3d b1 56 bd 3d
       0.06363409 -0.02426364 0.113529235 0.09245051
0000e0 7d 08 7f ba bf 14 8e bd ad 3b 95 3d 7f 2d 20 3d
       -0.0009728743 -0.06937551 0.07286773 0.03910589
0000f0 28 ca 8b bd cd 6a 99 3d 5f 9b 8e 3d 8e 4e ce 3d
       -0.068256676 0.07491074 0.069632284 0.10073577
000100 41 2d 74 bd 6a c7 72 bc 5e 53 ee 3a f3 39 a8 3c
       -0.05961347 -0.014818052 0.0018182804 0.020535445
000110 24 28 a5 bd cb 1e 9c bd ee 12 7f 3d a2 5f ca bc
       -0.08064297 -0.07623061 0.062273912 -0.024703804
000120 d6 14 65 3d 8c 71 09 3c 72 d1 20 3d ba 62 e2 3c
       0.055928074 0.008388888 0.039262243 0.027634967
000130 89 b7 33 3d 1d 31 6d 3d 69 10 cf bd e1 80 69 3d
       0.043876205 0.057908166 -0.10110552 0.057007674
000140 db 91 9e bd 9d 65 ac bd 16 a6 ce 3b c8 4e a0 bc
       -0.077426635 -0.08417819 0.00630642 -0.019568816
000150 30 20 84 3d a6 d2 84 bd 4e 3d cb bd 28 17 a5 3d
       0.06451452 -0.064854905 -0.09923802 0.08061057
000160 ce c0 88 bc 5a 55 7d 3d b7 4d 10 3d 3d ab ab bd
       -0.016693499 0.061848976 0.035230365 -0.083822705
000170 7d 06 b1 3c 21 61 d4 3c 49 7d 99 bd 3d d3 59 bd
       0.02160954 0.02592522 -0.07494599 -0.05317997
000180 bf 11 1a 3d fb b9 a1 3c a0 ec 43 bd 44 09 0d bd
       0.03761458 0.019742003 -0.047833085 -0.034432665
000190 95 8d ce 3d 0c cb b0 bc 33 49 7c 3d 23 e5 41 3d
       0.100855984 -0.021581195 0.061593246 0.047337662
0001a0 30 9b 94 bd ad 6b c2 bd 6f dd d9 3d 68 47 a6 3b
       -0.07256162 -0.09493194 0.10637938 0.0050744303
0001b0 f8 42 9a 3d 49 b4 b5 3c ec 41 0e 3d 42 eb a7 3d
       0.075323045 0.022180693 0.034730837 0.08199169
0001c0 84 4b d6 3d 27 21 98 bd 91 c9 5e 3c e3 80 a9 3d
       0.10463622 -0.07428198 0.013597862 0.08276536
0001d0 82 b0 a3 3d 27 e5 8c 3d 7f 32 a5 bd 38 88 a4 bd
       0.079926506 0.06879645 -0.08066272 -0.08033794
0001e0 9b 34 8a bd db 76 65 3c 9d 21 e3 3d 89 af 8e bd
       -0.06748315 0.014005388 0.110903956 -0.069670744
0001f0 e4 fb 74 3d 6b 33 7b bd 99 bc d6 bd cd 53 c5 bc
       0.059810534 -0.061328333 -0.10485191 -0.02408781
000200 f2 e3 81 3d e4 29 d2 3d 7c 75 8d bd ce 44 c6 3c
       0.06342305 0.10261896 -0.06907174 0.02420273
000210 7f 11 c5 3d d8 c4 97 3d 18 bd 8d 3d 72 c7 9f 3d
       0.09622478 0.07410592 0.069208324 0.07801713
000220 16 fe 8d 3d 99 f7 e2 3c 44 81 9d bd 58 22 c0 bd
       0.06933229 0.027705954 -0.07690671 -0.093815506
000230 1f be 51 bd 0e 65 54 bc 06 79 8b bd c0 7b 24 3d
       -0.051206704 -0.012963546 -0.06810193 0.04015708
000240 a8 0c 07 3d c5 b1 d9 bc 2e b1 28 3d 1f 1a 0d 3d
       0.032971054 -0.026574025 0.041184597 0.03444874
000250 03 d9 88 3d 85 65 97 3d e0 c0 1c bd d7 0a dd 3d
       0.06682017 0.0739241 -0.038269877 0.10793083
000260 4e 31 65 bc c5 7c b5 bb 00 7c da bd 0c 4c 96 bd
       -0.013988806 -0.0055385553 -0.106681824 -0.073387235
000270 c1 ad 88 bd 2b b2 48 bd a5 18 9f 3d f5 52 19 bd
       -0.06673766 -0.04899804 0.077683724 -0.03743263
000280 ac 3f ac bd 16 85 28 3d a3 2a 19 3d cf 21 98 3d
       -0.08410582 0.041142546 0.037394177 0.074283235
000290 2d 25 5f bd 2c 95 e0 3c 11 3e 18 bd 34 77 b1 bc
       -0.054478813 0.02741488 -0.037168566 -0.021663286
0002a0 90 3a af bd d1 85 45 bd 08 88 02 bd 7a a9 4a 3d
       -0.08556092 -0.04822332 -0.03186801 0.04947803
0002b0 75 22 bb 3c df 5f fb 3c ad 81 ea 3d 8d 11 e5 3d
       0.022843579 0.030685363 0.11450515 0.11184988
0002c0 59 7f a2 3d cb 58 dd 3b 8f 0b 98 bd 36 66 b6 3d
       0.07934446 0.0067549697 -0.074240796 0.08906214
0002d0 8e 49 ce bc 3a 49 bc bb be fb bb bd ac 6c 90 bc
       -0.025181558 -0.005746034 -0.091788754 -0.017629944
0002e0 13 ee 89 bd 8b ef d9 3d ff c1 bc bd 61 c0 aa bd
       -0.06734862 0.10641392 -0.09216689 -0.083374746
0002f0 dc 48 65 ba 15 f1 68 bd 37 c6 32 3d e0 24 1c bd
       -0.00087465136 -0.05687054 0.043646064 -0.038121104
000300 dc 44 41 bd e9 78 38 3c 98 e7 ae 3d 06 c8 96 bd
       -0.04718481 0.011259296 0.08540267 -0.0736237
000310 f5 68 65 3d b1 5e 99 3d 07 df e5 3d 42 85 96 bd
       0.056008298 0.07488764 0.1122418 -0.07349636
000320 91 cc 02 3d 60 4e 9d bd ae 16 cd 3d fc 07 1b bd
       0.03193337 -0.076809645 0.100140914 -0.03784941
000330 c1 f8 92 3d 52 60 f3 3b 71 93 a0 bb 0d 43 52 b7
       0.07176352 0.0074272538 -0.004900389 -1.2532587e-05
000340 e3 c9 bd 3c ff 52 6b 3d 16 5d be 3c 0c af 20 3d
       0.023167556 0.057452198 0.023237746 0.039229438
000350 3b ec c1 bd e3 b5 af 3d 9b f1 ce 3d c8 d5 c3 3d
       -0.094688855 0.08579614 0.10104676 0.0956226
000360 66 a5 ae 3d 72 38 9c bd f3 70 15 bd a7 01 d3 3d
       0.08527641 -0.076279536 -0.03648467 0.103030495
000370 a6 19 a3 bd 35 86 d8 3d 6b a4 a9 bd c7 67 98 bd
       -0.079638764 0.10572473 -0.08283313 -0.07441669
000380 42 df 6c 3d d2 49 9e bd 3d c8 b5 bc ce d6 ad 3d
       0.057830103 -0.07728924 -0.022190208 0.08488236
000390 82 4e bd 3d 03 31 e0 3d 45 0f 95 bc fa a9 a8 bd
       0.0924349 0.10946848 -0.018195758 -0.082355455
0003a0 d6 e8 e6 3d b3 47 a9 bc ca fe 32 bd f1 c4 f3 3c
       0.11274879 -0.020664072 -0.043700017 0.029756995
0003b0 e3 21 98 bd d9 56 9d 3d 0a 56 96 3d 4d c6 ac bd
       -0.074283384 0.076825805 0.073406294 -0.0843626
0003c0 39 bc b3 bd 6a a7 e0 bb b0 91 49 3d c8 36 47 bb
       -0.08776135 -0.006855895 0.049211204 -0.0030397642
0003d0 8c 1b 66 bd 69 9a 32 3b e5 59 d5 bd 8a 4b a0 bd
       -0.056178614 0.002725268 -0.10417537 -0.07826908
0003e0 b8 b7 96 bd ba 09 bd 3d 01 3b ca 3d 11 7c 17 bd
       -0.0735926 0.09230371 0.09874535 -0.036983553
0003f0 01 d2 a8 3b f6 97 4b 3d 82 01 5d 3c 48 3f 63 bd
       0.0051519875 0.049705468 0.013489129 -0.05548027

conv1.bias f4 [64]
000000 8b 09 72 bd d8 a3 d5 3c 22 63 9b bd fd 57 2f bd
       -0.059091132 0.026079103 -0.075872675 -0.04280852
000010 02 fe a0 3d 75 a8 6b 3d 6a 34 a0 3d 4e 0d eb bc
       0.07860948 0.0575337 0.07822497 -0.028692868
000020 e1 b8 d1 3d c9 dc a1 3d b2 08 72 3d 06 65 47 3d
       0.10240341 0.079034396 0.059090324 0.048680328
000030 a2 e0 c2 bd 25 34 81 bd e9 e8 d6 bb a9 c0 f6 3c
       -0.095155016 -0.06308774 -0.006558527 0.030121164
000040 8b a5 f5 3d 94 b6 c9 3d ee c3 1b bd 81 aa 8d 3d
       0.119944654 0.09849277 -0.03802865 0.06917287
000050 c7 12 2c 3d 35 a8 64 bd 9f f8 e3 bd c0 81 38 3d
       0.042010095 -0.055824477 -0.11131405 0.045045614
000060 d6 ea c2 3b 85 17 ee 3c 4b 05 ac 3d 81 53 19 bd
       0.005948405 0.02906395 0.08399447 -0.03743315
000070 2b 14 33 bd 3d 75 be 3c 67 69 30 bd 32 f4 85 bd
       -0.043720406 0.023249263 -0.04306927 -0.06540717
000080 75 d3 e4 bd f8 fe bf bd ac c6 0e bc b2 a6 b6 3d
       -0.11173145 -0.09374803 -0.008714359 0.08918513
000090 57 6f 8f bd fe 23 fc 3c 1b 1b 9f 3d 09 57 3d 3c
       -0.07003658 0.030778881 0.07768842 0.011556395
0000a0 43 04 34 bb 5c 52 bf 3d 51 18 d8 bd 29 da a8 3d
       -0.002746836 0.09341881 -0.10551513 0.08244736
0000b0 a3 c0 be 3d 42 5c b8 3d fe 0c a9 3d c7 d1 f0 bb
       0.09314086 0.09001972 0.08254431 -0.007349226
0000c0 09 3f c8 bd 2e 96 8f bd eb b1 c8 bd 37 6b 8b bd
       -0.09777648 -0.070110664 -0.0979956 -0.06807559
0000d0 35 c6 ca bd 59 83 a4 3d 8a d6 1e 3d c4 44 45 bd
       -0.09901086 0.08032865 0.03877882 -0.048161283
0000e0 36 6f 21 3b 0d 0f e3 3a 96 4b 3d bc 89 5f 93 3d
       0.0024632937 0.0017323211 -0.011553666 0.07195956
0000f0 29 8b 52 3d 12 47 aa bd 69 27 c3 3d 39 db 33 bd
       0.051402245 -0.08314337 0.09529001 -0.04391024

conv2.weight f4 [32, 64, 1, 1]
000000 30 9c 65 bd 3d 59 f6 3d d8 28 a6 bd 2b a7 fd bc
       -0.056057155 0.120287396 -0.08113259 -0.030963501
000010 2f 2f 11 3c 21 3b f2 bd 8c d5 bb 3d 8a 93 aa 3d
       0.008861347 -0.11827684 0.0917159 0.08328922
000020 ac 6c f4 bd 82 38 ac bc 08 8f b5 3c 7a 15 82 3d
       -0.1193479 -0.021023039 0.02216293 0.063517526
000030 74 0b 53 3d 2a 0c 53 bc ae eb da 3d 76 16 07 bd
       0.051524594 -0.012881318 0.106894836 -0.032980405
000040 76 45 7b 3b 0f f0 a3 bd 5b 50 93 bd ad 06 31 bd
       0.0038340962 -0.08004772 -0.07193061 -0.043219257
000050 c9 21 ea bd 0a 92 aa bc 41 53 ce 3c 30 8e b0 bd
       -0.11432225 -0.02082159 0.025186183 -0.0862087
000060 b8 e2 de bd 5b 33 e1 3d 1d f6 65 bd be a4 bc bd
       -0.10883087 0.109961234 -0.056142915 -0.092111096
000070 b2 98 00 bd 43 9b 78 bd 5a 57 f4 bd 88 ab 88 bc
       -0.03139562 -0.060694944 -0.119307235 -0.016683355
000080 9d 4f 75 bd 1b ae 28 bd b0 49 64 3d 61 97 bf 3b
       -0.05989038 -0.041181665 0.055734336 0.005846903
000090 ba d3 d5 3d 38 f5 01 be ce d2 df 3d 85 cf 8a 3d
       0.10440774 -0.126912 0.1092888 0.067778625
0000a0 4f fc 0c bd 70 14 b1 3d 98 b4 ef 3d 24 61 48 3c
       -0.034420308 0.08646476 0.117043674 0.012230191
0000b0 4c 3e 0e 3d 80 e9 25 bd 85 04 18 bc 00 42 c4 bb
       0.03472738 -0.040505886 -0.009278421 -0.005989313
0000c0 2b 82 83 bd 58 04 b1 3c c5 66 75 bd 2c a6 82 3d
       -0.06421312 0.021608517 -0.05991246 0.06379351
0000d0 c8 2f 9d 3c 58 64 c6 bd 4d 5f de 3d e0 2a 19 3d
       0.019187823 -0.09687108 0.10858021 0.037394404
0000e0 f2 9f 58 3d d2 bf 04 be 9b 4d bf 3d 2b 6d ff 3c
       0.05288691 -0.12963799 0.09340974 0.031179985
0000f0 b1 c4 53 bc c2 91 a7 bd 23 61 5e 3c b9 56 43 3d
       -0.012925313 -0.08182098 0.013572964 0.047690127
000100 14 81 21 3d fc 2e bd 3d 6e bd e4 bd be 57 c7 bd
       0.03942974 0.09237477 -0.11168943 -0.09733532
000110 fc b0 f9 3d 3a 1e de 3d 10 bc 37 bc 0d 09 9d 3d
       0.1219196 0.10845609 -0.011214271 0.07667742
000120 0a 06 b7 3d 1e 9b b9 3d 58 61 73 bd da d5 27 bd
       0.08936699 0.090627894 -0.059419006 -0.04097543
000130 ba c7 85 bd cc 1d 0c bd 8e c2 f2 3d 42 f7 bb 39
       -0.065322354 -0.034208104 0.118535146 0.0003585164
000140 4a 39 cc bd a3 d6 c2 3d 56 b5 4e 3d 43 c1 c0 3c
       -0.099718645 0.09513595 0.050465904 0.023529654
000150 a4 3d 86 bd e1 9d bb 3d a9 87 cf bd d0 39 7e 3d
       -0.06554726 0.091609724 -0.10133297 0.062066853
000160 6a e9 3c bc 11 8b 34 bd 17 52 e3 bd 72 93 8e 3c
       -0.01153026 -0.044077937 -0.11099642 0.017404292
000170 4c 33 71 bd ac ca 48 bd 28 a5 90 3d f6 43 a4 bd
       -0.05888681 -0.049021408 0.07062751 -0.08020775
000180 0b ed f3 3d 05 ce d3 3d 16 63 ba 3d bf 23 60 3c
       0.11910447 0.103420295 0.091009304 0.0136803975
000190 a8 e8 c3 bd b8 98 e5 bc 9f 2b 78 bd 14 51 8a bc
       -0.0956586 -0.028026924 -0.060588475 -0.016884364
0001a0 56 9a ee bd 20 f7 65 bd 75 40 b0 bc df ce 19 3a
       -0.11650531 -0.05614388 -0.02151511 0.0005867313
0001b0 2c 11 04 bd c9 d7 ec 3c 38 89 8b bd b6 63 ae bd
       -0.03224294 0.028911488 -0.06813282 -0.08515112
0001c0 22 7c ba bd 16 cf ec 3d 9d e4 9b 3d 3a e8 e1 bd
       -0.09105708 0.11562936 0.07611964 -0.11030622
0001d0 90 6f d8 bd a0 c5 a2 bb 20 da 86 bd e0 94 2d 3d
       -0.10568154 -0.0049674064 -0.06584573 0.042378306
0001e0 78 25 30 bd 17 e1 6b 3c 53 d5 d9 bc 61 f9 bf bd
       -0.043004483 0.014396927 -0.026590979 -0.09373737
0001f0 e8 02 1d bc 6b 3d ea 3d 68 de ce 3d af f6 ac bd
       -0.009583212 0.11437496 0.101010144 -0.08445489
000200 55 bd 41 3d 8a 85 f3 3d 2e 5c c9 3c 78 dd 35 bc
       0.0472997 0.11890705 0.024580088 -0.011100166
000210 ab 31 de 3d 5e 3a 87 3c 86 50 be bc bc af 26 3e
       0.10849317 0.016507324 -0.023231756 0.16277975
000220 c3 28 52 3d 30 cf ad bd a2 f5 b9 3d a0 70 07 3e
       0.051308405 -0.084867835 0.09080054 0.13226557
000230 b4 e4 cc 3d 06 09 65 bd 77 4a 10 bd b8 76 bd 3d
       0.10004559 -0.05591681 -0.035227265 0.092511594
000240 b6 50 ae 3d 28 69 d2 bd e5 ea de 3d c8 f2 a4 3d
       0.08511488 -0.10273963 0.10884646 0.08054119
000250 96 0b 1d 3d 49 d6 cc bc 8c 8c 2c bc 15 c9 9b 3d
       0.038341127 -0.025004523 -0.010531556 0.07606713
000260 55 91 21 3d 6d 9b d7 3d 6b 7b 92 bd 53 47 31 bd
       0.03944524 0.10527692 -0.07152446 -0.04328091
000270 3b 03 6a bc 15 c0 4d 3d fc 59 32 3d c4 d3 87 3d
       -0.014282997 0.05023201 0.043542847 0.06632188
000280 2c 41 72 bd e3 c5 1d bc 03 76 47 3d 97 dc 5f bd
       -0.059144184 -0.009629699 0.04869653 -0.05465373
000290 c8 fc b6 3d a3 c6 b7 3d 98 90 78 3d 6f ab 91 3d
       0.08934933 0.08973434 0.06068477 0.071127765
0002a0 54 87 9a 3d b0 37 db bd 6a 15 16 bd c9 cd bb 3d
       0.07545343 -0.10703981 -0.036641516 0.0917011
0002b0 76 e5 5b bd 56 6c b4 3c c7 09 37 bd c0 6f a2 bb
       -0.053685628 0.022024315 -0.04468706 -0.0049571693
0002c0 39 ad 9e bc 60 00 13 bd 24 01 30 3d bc 1e eb 3d
       -0.019369708 -0.03588903 0.042969838 0.114804715
0002d0 40 9f 1c 3b 15 f8 15 bd 4e dd d9 3d b4 a1 69 bd
       0.0023898631 -0.036613543 0.10637914 -0.057038978
0002e0 c7 d7 28 3d 7b 4e 75 3c 67 7f 8f 3d 69 2f b3 3d
       0.041221406 0.0149723245 0.07006722 0.08749277
0002f0 99 aa 2c 3d 9e f2 b8 bb 3d e4 9b 3d e5 ea a7 3c
       0.042154882 -0.0056441566 0.07611892 0.020497749
000300 4d ce 48 bc d4 a7 13 3d 3f 78 4b bd f4 c5 41 3c
       -0.012256217 0.036048725 -0.049675222 0.011826981
000310 3c 8b 96 bd aa 5c 8d 3d a2 94 f7 3d 10 45 44 39
       -0.073507756 0.0690244 0.12088896 0.00018717744
000320 4f 28 e7 bd ec 9d cb 3d 30 94 86 bd 44 48 dd 3d
       -0.11286985 0.099422306 -0.06571233 0.10804799
000330 24 6d b1 3d b7 96 29 bd 76 95 43 3c 7d 62 2c bd
       0.08663395 -0.0414035 0.01193749 -0.042086113
000340 20 fd ca 3d de c9 b9 bd 32 b6 90 3c 08 5b 5f bd
       0.09911561 -0.09071706 0.017665002 -0.054530174
000350 b2 c5 ca 3d 0e aa 93 3d 83 56 e8 3d 63 b0 6b bd
       0.09900989 0.0721017 0.11344626 -0.057541262
000360 c4 5b 6e 3d 83 cc cf bd 74 64 a0 3d 16 1e 27 bd
       0.058192983 -0.101464294 0.0783166 -0.040800177
000370 58 d4 2a 3d cc 1d 7c 3d a4 8a a0 bd da d8 8f 3d
       0.041706413 0.061551854 -0.078389436 0.07023783
000380 df 44 29 bd c8 86 71 3d ae ce 2e bd 10 06 ba 3b
       -0.041325446 0.058966428 -0.042677574 0.0056769922
000390 10 31 50 3c 17 78 e0 3d e2 66 f0 3c d1 df c7 3c
       0.01270701 0.10960405 0.029345933 0.024398716
0003a0 75 2a bd bc 01 54 00 be 9d f8 5f bd 87 e6 34 bd
       -0.023091534 -0.12532045 -0.054680455 -0.04416516
0003b0 02 76 39 3d 6f 06 91 3a ef 75 18 3d ce cc 84 bd
       0.045278557 0.001106454 0.037221845 -0.06484376
0003c0 a2 55 fa bd e4 95 3b 3d b0 fc b0 3d 20 47 87 3d
       -0.122233644 0.045797244 0.08641946 0.06605363
0003d0 9e 41 d4 3d 13 c3 fa bd ea 7e 2c 3d 70 48 cb 3d
       0.10364078 -0.12244239 0.042113222 0.09925926
0003e0 48 b2 5b bd 35 8b a7 3d f9 1a c4 3d 79 95 20 3d
       -0.05363682 0.081808485 0.09575457 0.03920505
0003f0 22 c8 e5 bd b1 5c 7b 3d a3 d2 07 3e 2d 1b 7c bc
       -0.11219813 0.061367694 0.13263945 -0.015387339

conv2.bias f4 [32]
000000 ba d7 84 bd 3f 6a 35 bd 02 a2 c5 3d 19 cf 8d 3d
       -0.06486459 -0.044290777 0.09650041 0.06924266
000010 cd 12 ba 3c 52 89 da bd c5 10 33 3d 97 e7 c1 3d
       0.022714043 -0.10670723 0.043717165 0.094680004
000020 0a 34 b9 3d f4 ab 8c bd 7e 90 f0 bd 2d a5 9c bd
       0.09043129 -0.06868735 -0.1174631 -0.07648692
000030 0e b2 ee bd ba 0b d8 3d 9b 10 96 bd a1 ce 89 3c
       -0.11655055 0.10549112 -0.07327386 0.016822161
000040 8d f7 c1 3d 4f 5e 0d 3d 66 53 ed bd 37 cd 1f bb
       0.09471045 0.034513768 -0.115881726 -0.0024383792
000050 35 96 d9 3d eb 81 45 bb 47 e0 ac bc 8a ce e5 3d
       0.10624353 -0.0030137252 -0.021103038 0.11221035
000060 e6 e5 e2 bd 69 6f 6c bd 3f 95 37 3c 93 2a 10 3e
       -0.11079006 -0.057723437 0.011205017 0.14078741
000070 40 95 cd bb 8d 7b 98 bd e4 86 f2 bd 66 a3 eb bd
       -0.0062738955 -0.074454404 -0.118421346 -0.11505775

conv3.weight f4 [1, 32, 5, 5]
000000 90 8c 97 3c 22 2c a4 bc 94 10 99 3b 7d 24 40 3c
       0.018499643 -0.020040575 0.0046711657 0.0117274495
000010 94 fc 62 3c b9 68 0c bd c0 c0 84 3c cc 6b 38 bc
       0.013854165 -0.03427956 0.016205192 -0.0112561695
000020 73 14 4a bc 97 b3 ce bb 91 e0 07 bd d2 86 a6 bb
       -0.012333977 -0.00630803 -0.033173148 -0.00508199
000030 69 21 1e 3c 7b f2 0b bd b6 11 8a bc a7 d0 c9 bc
       0.00965152 -0.034166794 -0.016854148 -0.024635626
000040 b0 e9 b9 bc 6f 4e 9e bc a5 4f e1 3c 4b b6 20 3c
       -0.022694439 -0.01932451 0.027503798 0.009809087
000050 76 f0 85 3c 15 4f ea bc 43 6d 86 bc 36 d0 e1 bc
       0.016350012 -0.028602162 -0.016409522 -0.027565103
000060 e3 b4 b2 3c 8d 48 04 bd 75 b8 f3 bc b9 37 35 3a
       0.02181477 -0.032295752 -0.029751042 0.00069129054
000070 51 13 38 3c ed 42 64 3c 40 c4 58 bb 63 e6 e0 3b
       0.011235074 0.013931972 -0.0033075958 0.0068634017
000080 67 3c 03 3c 53 a2 33 3c fa 90 ff bb 35 d5 d6 3c
       0.0080100065 0.010963994 -0.007799265 0.026224712
000090 f8 cc 87 3b ca 21 ac 3c 85 96 48 3c 6e 6f 92 bc
       0.004144307 0.021012206 0.012242918 -0.0178754
0000a0 ab 1c 67 bc 99 b3 9a bc 3d 7d 19 bb 4f 5d b2 3b
       -0.014105956 -0.018884467 -0.0023420595 0.005443252
0000b0 b6 b3 92 3a fe 23 02 3d a9 c3 08 3d a3 df 2d 3c
       0.0011192474 0.031772606 0.03338972 0.010612401
0000c0 95 5d 59 3b 7f be a0 bc db 5d e9 3c ab 9e 22 bc
       0.0033167352 -0.019622086 0.028487137 -0.009925525
0000d0 de b0 aa bc cd b3 c0 3c cb 44 d8 3c 3d 3c c6 3c
       -0.02083629 0.023523236 0.02639999 0.024198646
0000e0 8b 75 3e 3c f0 c5 04 bc 58 8d f3 3c 91 5d 1f 3d
       0.011624704 -0.008103833 0.029730484 0.03890759
0000f0 87 fe cf 3c 60 f9 f5 3c 36 6c 8c bb db a5 c2 3c
       0.025389923 0.030026138 -0.0042853607 0.023760727
000100 40 0a e6 bb f7 8f c2 ba f7 59 b8 3c 0d 00 bb 3c
       -0.007020265 -0.001484393 0.022503836 0.022827173
000110 ba 69 ea 3c 98 3e 4d 3b 0a 0e 11 bb 3b 16 7e 3c
       0.028614867 0.0031317826 -0.0022133612 0.01550823
000120 b0 90 de 3c 47 2a 5c 3c d5 4f a6 bc f0 78 0f 3d
       0.027168602 0.013437814 -0.020301739 0.035027444
000130 e4 79 98 3c 07 e1 81 3c 11 2a 9e bb 8c dc 0b 3d
       0.01861281 0.015854372 -0.004826792 0.034145877
000140 ca 7c 8d 3b 97 49 36 3b eb 9c a0 3c dc 6a 5c 3a
       0.0043178545 0.002781486 0.019606074 0.0008408257
000150 1a 98 10 3c 99 ce 9d 3b a5 7e 55 3c 0d 13 ca 3b
       0.008825326 0.004815888 0.013030683 0.006166822
000160 94 76 94 bc b9 28 da bb 99 15 0e 3d e9 34 dc 3c
       -0.018122949 -0.0066576866 0.034688566 0.026880698
000170 7f 67 65 3a f1 fd d0 3b ea 5e a4 bc 29 1e ef 3c
       0.0008751079 0.0063779284 -0.02006479 0.029189186
000180 1d c6 fa bc 0b 22 b2 3c 55 dd ea 3c 6c 75 2e 3c
       -0.030612046 0.021744749 0.028669992 0.010648113
000190 86 f5 6f 3c 4b 62 0a bd eb 93 59 bc a2 69 9a bc
       0.01464594 -0.033785146 -0.013279895 -0.018849198
0001a0 52 84 49 3c 4b 98 04 bd 8d c4 c2 bc a0 8f 40 3c
       0.012299614 -0.0323718 -0.023775363 0.011752993
0001b0 69 ea c8 3b 47 c4 13 bd 7d 61 c7 3c 3c 91 a2 3c
       0.0061314595 -0.036075857 0.024338478 0.019844644
0001c0 61 2c 88 3b 24 1f ae b9 d7 38 ff bc 8c b9 15 bd
       0.004155681 -0.00033211068 -0.031155033 -0.036553904
0001d0 16 01 ef bc 18 25 e3 bc 62 22 d4 bc 59 6e af bc
       -0.029175323 -0.027727649 -0.025895301 -0.021414923
0001e0 2a 0d 01 3d 29 7d 17 bd e4 b6 e6 3c c6 a6 e1 3c
       0.031506695 -0.036984596 0.02816338 0.027545344
0001f0 45 03 19 3b 2a 81 e2 3a 7a 03 41 3c e6 49 85 3b
       0.0023347896 0.0017280926 0.011780614 0.0040676473
000200 91 42 e1 bc c0 9d e9 bc 2a fb 08 3d 50 15 4c bc
       -0.027497562 -0.028517604 0.033442654 -0.012456253
000210 a0 b7 99 3c 12 93 57 3c 11 e3 91 bc 37 ba 46 bb
       0.018764317 0.013157623 -0.017808469 -0.0030323395
000220 5e 3d db bb 9b f9 07 3d 55 fe 52 3b 69 4d 39 3c
       -0.006690665 0.033197027 0.003219505 0.01130996
000230 5b e5 af bc a0 ef 93 bc 30 e8 d8 bc 65 1d 84 3c
       -0.02147167 -0.018058598 -0.026477903 0.016127298
000240 ca ea ec bc cf e6 8b 3c ab 33 91 3c 65 3c c3 3b
       -0.02892055 0.017077832 0.017724833 0.0059581273
000250 60 3f 35 bc 46 69 ab 3c 8a 24 df bc 5d a9 c1 3c
       -0.011062473 0.020924222 -0.027239103 0.023640329
000260 c9 48 93 3a 94 a8 ed bc 96 e3 33 3c 1d c1 93 bc
       0.0011236902 -0.029011048 0.010979554 -0.01803642
000270 11 4a e3 3c 7b eb ec bc 81 22 bc 3c d8 f0 d3 3b
       0.027745279 -0.02892088 0.022965671 0.00646792
000280 e9 91 13 bd 23 79 3f 3c a4 e8 42 bc 20 da 42 3c
       -0.036027823 0.011686596 -0.011896286 0.011892825
000290 dc 86 30 3b fa 7b a3 bc 80 f7 eb 3b 70 ec a2 bc
       0.0026935851 -0.019956578 0.007201135 -0.019888133
0002a0 f8 22 ff bb a0 34 dc ba 09 f5 81 3c 46 27 79 3b
       -0.007786151 -0.0016800351 0.015863912 0.0038017794
0002b0 cb e1 0b bd cd e1 5e 3c 6d 58 c5 bb 2e 72 b1 bc
       -0.03415088 0.01360364 -0.006022504 -0.02166089
0002c0 d3 d3 09 3d db d4 28 3c f6 d3 8c 3c 5b 6b a1 b9
       0.033649277 0.010304655 0.017190915 -0.000307883
0002d0 d8 a0 00 bd 17 f5 c7 3c 66 6f 44 3c ab ff 6a bc
       -0.031403393 0.02440886 0.01198945 -0.014343183
0002e0 26 f1 fe 3c 19 b8 e9 bc 91 ba df 3c 47 30 9e 3c
       0.031120848 -0.028530167 0.027310641 0.01931013
0002f0 c4 63 cb 3c e0 75 4a 3b 91 85 b0 bc a5 07 b1 3b
       0.024827845 0.0030893013 -0.021548064 0.0054025226
000300 4b 2e ac bc 74 50 d1 bb 88 51 59 bc c9 34 d2 bc
       -0.021018168 -0.0063877646 -0.0132640675 -0.025659936
000310 ae 20 f6 3c a7 f7 ef bc f6 f7 cf 3c ff 91 23 bc
       0.03004488 -0.029292895 0.025386792 -0.009983539
000320 73 fc c4 bc 1e ea 41 3c b9 b2 8b bc 85 c7 da 3c
       -0.024046158 0.011835603 -0.017052995 0.026706466
000330 b4 d3 a2 3c 10 8c f7 3c 26 ea 02 3a 48 92 0f bd
       0.019876339 0.030218154 0.0004993997 -0.035051614
000340 d0 d1 cf 3b 34 8a 04 bc 70 75 3b 3c d0 c9 d5 3b
       0.0063421503 -0.008089591 0.0114415735 0.006524302
000350 3a 45 f8 bc 45 5a b3 3c db 48 d1 bc 42 b4 02 bd
       -0.030306447 0.02189363 -0.025547436 -0.03191019
000360 71 ae fd bb 21 da 0c 3d 89 36 bd bc a9 48 45 ba
       -0.0077417423 0.03438771 -0.023097293 -0.0007525781
000370 d3 fc b4 bc da 77 a6 3c cc e0 38 bc ae 12 f0 bc
       -0.022093212 0.020320822 -0.0112840645 -0.029305782
000380 1a 2c 5f 3c 13 e7 d2 bc 61 98 e9 3c 6a 52 8c 3c
       0.0136213545 -0.02574495 0.028515043 0.017129142
000390 c1 c7 74 3b ac 5c 5a 3c d9 6f a1 bc 4d 26 00 3d
       0.0037350508 0.013327759 -0.019706653 0.031286526
0003a0 f1 f6 f0 3a b9 f1 df bc e6 62 e7 3b 94 ca d6 bc
       0.0018384141 -0.027336942 0.00706135 -0.026219644
0003b0 30 ae 97 bb d7 7a d1 bc cf cb 0d bd 93 bd 1e 3c
       -0.004628919 -0.02557127 -0.034618195 0.009688753
0003c0 6f c0 e9 bc 48 1a b7 3c 61 16 e2 3c 56 ed 43 3c
       -0.028534142 0.022351399 0.027598562 0.011958441
0003d0 60 94 85 bb 03 9a 21 bc c1 5f 45 bc 8f fa df b8
       -0.0040765256 -0.009863379 -0.012046755 -0.00010680139
0003e0 58 65 b5 3c 5a 12 bf 3c 31 58 2e 3c b7 17 f8 3c
       0.022143051 0.02332418 0.010641144 0.030284746
0003f0 4c 65 02 bd ac 62 27 39 ae 99 00 3d f8 a2 bb bb
       -0.031834885 0.00015963119 0.03139656 -0.0057262145
