resutls_128/epoch_22.752.pth (torch, 34981 bytes, 5 tensors)

conv1.weight f4 [64, 1, 9, 9]
0.059870824 -0.046329394 -0.018633425 0.055173934 -0.10148187 0.06964959 -0.020100988 0.05910634
0.017908843 -0.01071539 0.033820163 0.008700995 0.04393828 -0.03982415 -0.004729068 -0.006899304
0.019009838 0.002320838 0.100492045 0.03807495 -0.037637405 -0.06320467 -0.014587697 -0.043996263
-0.031960674 0.0087390235 0.069485895 0.0639861 -0.10486877 0.07289543 0.0352347 0.10973067
0.07756111 -0.09732262 -0.10197985 -0.050119285 0.10142327 -0.014481736 0.051858548 -0.047140375
0.11365917 -0.042505853 0.08750485 0.00522615 -0.054834727 0.060841274 -0.05507472 0.036866773
-0.027713375 -0.0076821772 -0.10246591 -0.048960738 0.06402962 -0.023482364 0.11426851 0.092835605
-0.0011564991 -0.06994952 0.07198858 0.038648862 -0.06800821 0.07571177 0.07079791 0.101921685
-0.058745194 -0.014493184 0.0017936574 0.020264784 -0.080462925 -0.07533461 0.06369435 -0.022977969
0.05745919 0.009660388 0.040043138 0.028120298 0.04416155 0.058662184 -0.0996572 0.058931455
-0.075265914 -0.084157266 0.006409015 -0.01932377 0.06487423 -0.06462171 -0.09906445 0.0806377
-0.01666851 0.06216255 0.035351492 -0.0837137 0.021890286 0.02626977 -0.074692756 -0.053020366
0.0376631 0.01972114 -0.04758222 -0.034154717 0.1012217 -0.021134976 0.062088776 0.04769185
-0.072235264 -0.09481407 0.106382415 0.00539624 0.07561515 0.022458095 0.035142284 0.08243755
0.10494987 -0.07411667 0.013606038 0.08268129 0.08011889 0.06870321 -0.08075129 -0.080365986
-0.06749955 0.013826616 0.11064339 -0.07017974 0.059258197 -0.061599173 -0.104865484 -0.024021747
0.06360303 0.10279827 -0.06917533 0.023983914 0.095846176 0.07362897 0.06907966 0.07840543
0.06971909 0.028131181 -0.0764861 -0.09362922 -0.051191982 -0.013122051 -0.06827453 0.040300086
0.03366405 -0.02588765 0.041966785 0.035226274 0.06732496 0.074346974 -0.03802172 0.108172774
-0.013415974 -0.0046552946 -0.1057191 -0.07237042 -0.06572781 -0.048194036 0.0783432 -0.036885668
-0.083597675 0.042004034 0.03861017 0.07520654 -0.054018784 0.027639419 -0.03694721 -0.021467842
-0.08512157 -0.047436927 -0.030918108 0.05058236 0.023584768 0.030981176 0.11451371 0.11186055
0.07934141 0.007013818 -0.07362975 0.08996137 -0.02450707 -0.005470685 -0.09194986 -0.018092843
-0.06785408 0.10589753 -0.09235471 -0.0831604 -0.00044624918 -0.056610245 0.043475345 -0.038782712
-0.04811771 0.010314472 0.08443423 -0.07426123 0.05581262 0.07488579 0.11223937 -0.073958114
0.030995933 -0.07799309 0.09896869 -0.03902331 0.07089784 0.007012376 -0.005080733 4.585221e-05
0.0227483 0.056516916 0.022038473 0.038049843 -0.0958266 0.084963486 0.100628324 0.09546858
0.0856449 -0.07640273 -0.037130482 0.102109745 -0.08054985 0.10485074 -0.08343861 -0.074571334
0.057886038 -0.07650577 -0.02186929 0.08469644 0.09196057 0.10898207 -0.0186663 -0.08257018
0.1129462 -0.020251065 -0.042563517 0.0304785 -0.074043855 0.0767789 0.0733432 -0.08446128
-0.08763533 -0.0063427216 0.049937736 -0.0032575494 -0.056376215 0.0025023185 -0.104425214 -0.078517415
-0.073954836 0.091779366 0.09822102 -0.037511874 0.0049399254 0.049511883 0.01327108 -0.055678014
00000000: 1c3b 753d e4c3 3dbd 20a5 98bc 10fe 613d
00000010: bad5 cfbd 72a4 8e3d d4aa a4bc 7d19 723d
00000020: 91b5 923c 9a8f 2fbc 0387 0a3d 9e8e 0e3c
00000030: a0f8 333d a61e 23bd 4cf6 9abb 8f13 e2bb
00000040: 85ba 9b3c 3319 183b c6ce cd3d 7bf4 1b3d
00000050: ae29 1abd 7371 81bd 3c01 6fbc 6d35 34bd
00000060: 32e9 02bd 1f2e 0f3c 9f4e 8e3d 250b 833d
00000070: 70c5 d6bd 334a 953d 4352 103d 79ba e03d
00000080: 5cd8 9e3d 1551 c7bd d0da d0bd e149 4dbd
00000090: 01b7 cf3d ce44 6dbc a169 543d 4416 41bd
000000a0: 24c6 e83d 9e1a 2ebd be35 b33d 2040 ab3b
000000b0: 619a 60bd b334 793d 0896 61bd 9d01 173d
000000c0: 2907 e3bc c6ba fbbb a6d9 d1bd 0e8b 48bd
000000d0: f621 833d 165e c0bc 9c05 ea3d 9820 be3d
000000e0: ac95 97ba b241 8fbd c06e 933d 454e 1e3d
000000f0: e347 8bbd c60e 9b3d 7ffe 903d 51bc d03d
00000100: cd9e 70bd d274 6dbc 2819 eb3a 5502 a63c
00000110: bfc9 a4bd 0849 9abd 2f72 823d 4b3c bcbc
00000120: 545a 6b3d 9b46 1e3c 4604 243d 8a5c e63c
00000130: bee2 343d c247 703d 1319 ccbd 1c62 713d
00000140: 0425 9abd a55a acbd b702 d23b e24c 9ebc
00000150: c8dc 843d 6358 84bd 4de2 cabd 6125 a53d
00000160: 668c 88bc 289e 7e3d bacc 103d 1772 abbd
00000170: 4253 b33c b333 d73c 84f8 98bd e22b 59bd
00000180: 9f44 1a3d 3a8e a13c 93e5 42bd d1e5 0bbd
00000190: 534d cf3d 4223 adbc cd50 7e3d 8858 433d
000001a0: 15f0 93bd e12d c2bd 06df d93d f1d2 b03b
000001b0: 1edc 9a3d 0afa b73c 5bf1 0f3d 05d5 a83d
000001c0: f5ef d63d 7bca 97bd dceb 5e3c cf54 a93d
000001d0: 5f15 a43d 45b4 8c3d ef60 a5bd ec96 a4bd
000001e0: 343d 8abd 0889 623c 0099 e23d 65ba 8fbd
000001f0: b9b8 723d 6a4f 7cbd b7c3 d6bd 41c9 c4bc
00000200: 4e42 823d e687 d23d ccab 8dbd ea79 c43c
00000210: 004b c43d c9ca 963d a379 8d3d 0793 a03d
00000220: e2c8 8e3d 5d73 e63c bfa4 9cbd adc0 bfbd
00000230: afae 51bd dffd 56bc 84d3 8bbd b411 253d
00000240: 51e3 093d 5612 d4bc 5de5 2b3d 6d49 103d
00000250: abe1 893d 3a43 983d aabc 1bbd b089 dd3d
00000260: acce 5bbc 718b 98bb 4183 d8bd f136 94bd
00000270: 4d9c 86bd 1c67 45bd 6672 a03d 6d15 17bd
00000280: 4235 abbd 6c0c 2c3d b325 1e3d e305 9a3d
00000290: cd42 5dbd 106c e23c f555 17bd 54dd afbc
000002a0: 3854 aebd 394d 42bd f947 fdbc 732f 4f3d
000002b0: d834 c13c 3ccc fd3c 2a86 ea3d 2517 e53d
000002c0: c07d a23d 2bd4 e53b 32cb 96bd ab3d b83d
000002d0: 0dc3 c8bc 6f43 b3bb 3550 bcbd 7137 94bc
000002e0: 14f7 8abd cee0 d83d 7724 bdbd 0050 aabd
000002f0: 8df6 e9b9 25e0 67bd 3413 323d 9fda 1ebd
00000300: 1317 45bd 08fe 283c dbeb ac3d 4616 98bd
00000310: c69b 643d b95d 993d c1dd e53d 5a77 97bd
00000320: 2feb fd3c d7ba 9fbd 19b0 ca3d e8d6 1fbd
00000330: e332 913d 13c8 e53b 477c a6bb 7051 4038
00000340: a55a ba3c 487e 673d 078a b43c 27da 1b3d
00000350: bd40 c4bd 5601 ae3d 3916 ce3d 0885 c33d
00000360: 9866 af3d 0979 9cbd 2216 18bd ea1e d13d
00000370: 52f7 a4bd fcbb d63d dde1 aabd dbb8 98bd
00000380: e919 6d3d 0faf 9cbd 3a27 b3bc 5475 ad3d
00000390: d355 bc3d fe31 df3d 12ea 98bc 8e1a a9bd
000003a0: 5650 e73d 90e5 a5bc 1557 2ebd 0cae f93c
000003b0: 4ea4 97bd 423e 9d3d f634 963d 09fa acbd
000003c0: 277a b3bd 9bd6 cfbb 838b 4c3d 9c7c 55bb
000003d0: bfea 66bd f0fd 233b e3dc d5bd bdcd a0bd
000003e0: a275 97bd d2f6 bb3d 1a28 c93d 0da6 19bd
000003f0: 19df a13b f9cc 4a3d f26e 593c a10e 64bd

conv1.bias f4 [64]
-0.0543156 0.02716104 -0.07399367 -0.043187294 0.079242244 0.055893335 0.07931376 -0.023660742
0.1016296 0.07706593 0.05716138 0.055720672 -0.095155016 -0.062283903 -0.0038206081 0.025507823
0.11467286 0.09861605 -0.04587536 0.071208626 0.0424451 -0.055188145 -0.10955389 0.045255225
0.013858735 0.027181478 0.08016179 -0.03612137 -0.04344514 0.02154948 -0.04306927 -0.06540717
-0.11143211 -0.094149284 -0.008815572 0.08937213 -0.07003658 0.02703542 0.067580454 0.013540251
-0.0032472333 0.088245094 -0.10572441 0.08535432 0.09280753 0.0936121 0.08258228 -0.007349226
-0.095243216 -0.070110664 -0.09663675 -0.06860072 -0.09901086 0.07881475 0.04387356 -0.048161283
-0.0010732835 0.0069356915 -0.004292615 0.075096585 0.05052194 -0.08454181 0.09889189 -0.04394195
00000000: 097a 5ebd d480 de3c fe89 97bd 29e5 30bd
00000010: c249 a23d 69f0 643d 416f a23d 2cd4 c1bc
00000020: 2e23 d03d bed4 9d3d 0d22 6a3d 5c3b 643d
00000030: a2e0 c2bd 681d 7fbd 2b63 7abb c8f5 d03c
00000040: 9bd9 ea3d 36f7 c93d cde7 3bbd d4d5 913d
00000050: eada 2d3d f70c 62bd ca5d e0bd 8b5d 393d
00000060: bf0f 633c b1ab de3c dd2b a43d 00f4 13bd
00000070: 88f3 31bd 8988 b03c 6769 30bd 32f4 85bd
00000080: 8536 e4bd 57d1 c0bd 306f 10bc bc08 b73d
00000090: 576f 8fbd 6379 dd3c 9f67 8a3d eed7 5d3c
000000a0: 89cf 54bb d8b9 b43d 0a86 d8bd 3fce ae3d
000000b0: e011 be3d b3b7 bf3d e620 a93d c7d1 f0bb
000000c0: e00e c3bd 2e96 8fbd 7de9 c5bd 897e 8cbd
000000d0: 35c6 cabd a169 a13d c3b4 333d c444 45bd
000000e0: 6bad 8cba cc44 e33b 11a9 8cbb 3dcc 993d
000000f0: 18f0 4e3d 4224 adbd d587 ca3d 79fc 33bd

conv2.weight f4 [32, 64, 1, 1]
-0.05538788 0.12117267 -0.08060881 -0.030963501 0.009642808 -0.11707995 0.0917159 0.08577367
-0.1193479 -0.020884356 0.02216293 0.065665916 0.051524594 -0.01254479 0.107551135 -0.031912226
0.004444915 -0.080047525 -0.07190596 -0.041827973 -0.11432225 -0.0204383 0.025186183 -0.0862087
-0.10785592 0.1104714 -0.055962563 -0.092111096 -0.03139562 -0.060180847 -0.119307235 -0.016683355
-0.059490364 -0.040942404 0.055734336 0.0058888104 0.10440774 -0.12612198 0.10928886 0.06829919
-0.034420308 0.08646476 0.117043674 0.012295732 0.03472738 -0.03985395 -0.009278421 -0.005989313
-0.06421312 0.021608517 -0.05915633 0.06379351 0.019187823 -0.09687108 0.10911659 0.037394404
0.053427674 -0.12921637 0.095557034 0.032629803 -0.012032699 -0.08182098 0.015071467 0.047690127
0.038738277 0.091477 -0.11292982 -0.09733532 0.1211853 0.10665104 -0.011214271 0.07249263
0.08936699 0.09049791 -0.059419006 -0.04383573 -0.065322354 -0.034255233 0.11785452 -0.0013116963
-0.09969697 0.09461176 0.049474873 0.02150054 -0.06554726 0.091139086 -0.10142576 0.062066853
-0.013574218 -0.04521437 -0.11204914 0.017240303 -0.05888681 -0.049183965 0.07062751 -0.08020775
0.118732326 0.102198765 0.091009304 0.013186858 -0.0956586 -0.028391419 -0.06042058 -0.017458983
-0.11650531 -0.05614388 -0.021620631 0.0001978467 -0.03224294 0.027319172 -0.06813282 -0.08515112
-0.09105708 0.11562936 0.07524041 -0.11030622 -0.10568154 -0.0049674064 -0.06630634 0.042378306
-0.043657057 0.013376463 -0.029152926 -0.095744915 -0.010998427 0.11389426 0.099030636 -0.084979214
0.047081415 0.11684848 0.020124283 -0.011753074 0.107451655 0.0125621725 -0.022993311 0.15142126
0.05177 -0.07936769 0.09146844 0.12700404 0.10004559 -0.057032075 -0.04068614 0.091976196
0.09192943 -0.10390843 0.10524626 0.075855285 0.037609998 -0.024844127 -0.011000399 0.076077275
0.03311414 0.10061295 -0.07491329 -0.04367962 -0.014349252 0.05312383 0.043542847 0.06632188
-0.0603813 -0.013386109 0.0486844 -0.055431798 0.08934933 0.091014355 0.06596487 0.06780099
0.07545343 -0.10653772 -0.037621114 0.091994084 -0.052998967 0.02015799 -0.044002544 -0.0049571693
-0.019800862 -0.03588903 0.040198892 0.114804715 0.0023898631 -0.036318623 0.10867913 -0.057038978
0.044675294 0.01598223 0.067526236 0.084737904 0.03843743 -0.00780673 0.073905215 0.01896493
-0.012403218 0.03475863 -0.052288458 0.01143894 -0.07374227 0.066269115 0.120999284 -0.0075428975
-0.11253968 0.103459135 -0.065135874 0.10488737 0.08663395 -0.04210769 0.008617642 -0.04187695
0.104138866 -0.09130483 0.015002997 -0.057753526 0.098532215 0.07173622 0.11291403 -0.05750754
0.05376444 -0.1051982 0.076425895 -0.041139927 0.04170636 0.06348039 -0.078389436 0.07023783
-0.04274634 0.0562668 -0.042677574 0.005273911 0.01270701 0.11055896 0.033058956 0.022468718
-0.0230916 -0.1250958 -0.055218134 -0.043957718 0.045842107 4.7023605e-05 0.037836615 -0.06484376
-0.1226616 0.045797244 0.08429926 0.06605363 0.10364078 -0.12227773 0.04364045 0.09925926
-0.05149146 0.08279583 0.09378007 0.03744659 -0.11472271 0.059559442 0.13158986 -0.016443094
00000000: 67de 62bd 6029 f83d 3b16 a5bd 2ba7 fdbc
00000010: defc 1d3c 9dc7 efbd 8cd5 bb3d 1baa af3d
00000020: ac6c f4bd ab15 abbc 088f b53c da7b 863d
00000030: 740b 533d aa88 4dbc c543 dc3d 65b6 02bd
00000040: a6a6 913b f5ef a3bd 6f43 93bd cf53 2bbd
00000050: c921 eabd 396e a7bc 4153 ce3c 308e b0bd
00000060: 91e3 dcbd d43e e23d 0039 65bd bea4 bcbd
00000070: b298 00bd 3180 76bd 5a57 f4bd 88ab 88bc
00000080: 2bac 73bd 39b3 27bd b049 643d ecf6 c03b
00000090: bad3 d53d 1f26 01be d6d2 df3d 72e0 8b3d
000000a0: 4ffc 0cbd 7014 b13d 98b4 ef3d 0a74 493c
000000b0: 4c3e 0e3d e53d 23bd 8504 18bc 0042 c4bb
000000c0: 2b82 83bd 5804 b13c e84d 72bd 2ca6 823d
000000d0: c82f 9d3c 5864 c6bd 8578 df3d e02a 193d
000000e0: fad6 5a3d 4c51 04be 68b3 c33d d4a6 053d
000000f0: cc24 45bc c291 a7bd 50ee 763c b956 433d
00000100: 07ac 1e3d 4b58 bb3d c047 e7bd be57 c7bd
00000110: 0030 f83d dc6b da3d 10bc 37bc 0477 943d
00000120: 0a06 b73d f856 b93d 5861 73bd 188d 33bd
00000130: bac7 85bd 374f 0cbd b65d f13d 39ed abba
00000140: ed2d ccbd cfc3 c13d 2aa6 4a3d e721 b03c
00000150: a43d 86bd 21a7 ba3d 4fb8 cfbd d039 7e3d
00000160: 6666 5ebc b432 39bd 057a e5bd 893b 8d3c
00000170: 4c33 71bd 2075 49bd 28a5 903d f643 a4bd
00000180: ef29 f33d 964d d13d 1663 ba3d b10d 583c
00000190: a8e8 c3bd 1f95 e8bc 927b 77bd 2406 8fbc
000001a0: 569a eebd 20f7 65bd c01d b1bc 1275 4f39
000001b0: 2c11 04bd 75cc df3c 3889 8bbd b663 aebd
000001c0: 227c babd 16cf ec3d a517 9a3d 3ae8 e1bd
000001d0: 906f d8bd a0c5 a2bb 9ecb 87bd e094 2d3d
000001e0: bed1 32bd f428 5b3c 1ed2 eebc e915 c4bd
000001f0: bf32 34bc 6541 e93d 93d0 ca3d 9509 aebd
00000200: 71d8 403d 424e ef3d aedb a43c f78f 40bc
00000210: 9d0f dc3d 92d1 4d3c 785c bcbc 2d0e 1b3e
00000220: c80c 543d 878b a2bd ce53 bb3d 590d 023e
00000230: b4e4 cc3d 779a 69bd 83a6 26bd 045e bc3d
00000240: 7f45 bc3d f1cd d4bd 5a8b d73d 045a 9b3d
00000250: f10c 1a3d e985 cbbc 043b 34bc 67ce 9b3d
00000260: b1a2 073d 2a0e ce3d 246c 99bd 67e9 32bd
00000270: 2019 6bbc 6098 593d fc59 323d c4d3 873d
00000280: 6252 77bd 6951 5bbc 4b69 473d 740c 63bd
00000290: c8fc b63d bc65 ba3d 9718 873d 3fdb 8a3d
000002a0: 5487 9a3d 7330 dabd 9918 1abd 6567 bc3d
000002b0: 7215 59bd 5e22 a53c 033c 34bd c06f a2bb
000002c0: 6b35 a2bc 6000 13bd 98a7 243d bc1e eb3d
000002d0: 409f 1c3b d6c2 14bd 2a93 de3d b4a1 69bd
000002e0: 71fd 363d 2aed 823c 324b 8a3d 118b ad3d
000002f0: 9170 1d3d 99cf ffbb 9e5b 973d 575c 9b3c
00000300: de36 4bbc 115f 0e3d 6c2c 56bd 646a 3b3c
00000310: 3006 97bd 1ab8 873d 79ce f73d 692a f7bb
00000320: 347b e6bd 62e2 d33d f565 85bd 30cf d63d
00000330: 246d b13d 1d79 2cbd 0331 0d3c 2a87 2bbd
00000340: c246 d53d 07fe babd 21cf 753c f68e 6cbd
00000350: 42cb c93d 70ea 923d 793f e73d 078d 6bbd
00000360: 1a38 5c3d 2772 d7bd 2e85 9c3d 5782 28bd
00000370: 4ad4 2a3d 0202 823d a48a a0bd dad8 8f3d
00000380: c916 2fbd 0478 663d aece 2ebd c6d0 ac3b
00000390: 1031 503c bc6c e23d d468 073d 5110 b83c
000003a0: 982a bdbc 1d19 00be 692c 62bd 020d 34bd
000003b0: efc4 3b3d 363b 4538 91fa 1a3d cecc 84bd
000003c0: 0136 fbbd e495 3b3d 17a5 ac3d 2047 873d
000003d0: 9e41 d43d bf6c fabd 54c0 323d 7048 cb3d
000003e0: b6e8 52bd dc90 a93d c40f c03d 9861 193d
000003f0: bdf3 eabd 9af4 733d 7ebf 063e abb3 86bc

conv2.bias f4 [32]
-0.06255071 -0.04861295 0.11269361 0.08402616 0.0074876626 -0.10670723 0.03927688 0.09589863
0.08802863 -0.06861028 -0.1174631 -0.074164376 -0.11454447 0.0934757 -0.07196353 0.011675705
0.104418896 0.03894751 -0.11325195 -0.0024383792 0.11300476 0.009848097 -0.018059915 0.101874635
-0.11079006 -0.05805355 0.014840867 0.122671194 -0.02424191 -0.074454404 -0.118421346 -0.11505775
00000000: 961a 80bd 5f1e 47bd e8cb e63d e815 ac3d
00000010: 115b f53b 5289 dabd cbe0 203d 8066 c43d
00000020: 5b48 b43d 8c83 8cbd 7e90 f0bd 7ee3 97bd
00000030: 4b96 eabd 3070 bf3d 9d61 93bd 754b 3f3c
00000040: 93d9 d53d 6d87 1f3d a3f0 e7bd 37cd 1fbb
00000050: 0a6f e73d ea59 213c 63f2 93bc a6a3 d03d
00000060: e6e5 e2bd 8fc9 6dbd 1c27 733c 093b fb3d
00000070: f896 c6bc 8d7b 98bd e486 f2bd 66a3 ebbd

conv3.weight f4 [1, 32, 5, 5]
0.018499643 -0.020040575 0.004662425 0.011708231 0.013810523 -0.03427956 0.016205192 -0.011266838
-0.012367716 -0.0063647516 -0.033173148 -0.0051016025 0.009627868 -0.034166794 -0.016913304 -0.024659919
-0.022725752 -0.019372307 0.02743072 0.009714414 0.016259203 -0.028696664 -0.016514575 -0.027684668
0.021685785 -0.032923404 -0.030442879 -0.00013519816 0.010414136 0.013256561 -0.003956231 0.0061322385
0.0071452693 0.010118422 -0.00848347 0.025482763 0.0033226458 0.020060528 0.011318906 -0.018627973
-0.014912597 -0.019752234 -0.0033286458 0.004488892 0.00033884757 0.031118155 0.03270687 0.009829346
0.0025710561 -0.020198392 0.029145505 -0.009790932 -0.021893252 0.02380533 0.027478958 0.024012292
0.010916278 -0.00999328 0.029216837 0.039223444 0.023823362 0.02794624 -0.0075331484 0.021921204
-0.008008672 -0.0021832641 0.021327004 0.020514656 0.027711028 0.0030652203 -0.0021497658 0.015131035
0.025679354 0.01333986 -0.019593347 0.035936397 0.01957905 0.016326446 -0.0036796674 0.035675924
0.0047498136 0.0032744643 0.019613817 0.0015399995 0.009910139 0.004572727 0.012841014 0.005478043
-0.018124985 -0.0062855054 0.035037264 0.027277824 0.0007499911 0.0068971985 -0.019211842 0.029843394
-0.02991344 0.021890488 0.029407252 0.01167424 0.015608412 -0.032616775 -0.011965558 -0.017203549
0.014067898 -0.03133194 -0.022489943 0.013236256 0.007975233 -0.034117248 0.02539903 0.021164393
0.0056902915 0.0015746922 -0.029140344 -0.035357952 -0.02772743 -0.026090706 -0.023914509 -0.019346626
0.032795727 -0.03547863 0.029812649 0.029483126 0.0043265843 0.0017280926 0.011780614 0.0040676473
-0.027497562 -0.028517604 0.033442654 -0.012456253 0.018764317 0.013157623 -0.017808469 -0.0030323395
-0.006690665 0.033197027 0.003219505 0.01130996 -0.02147167 -0.018058598 -0.026477903 0.016127298
-0.02892055 0.017077832 0.017724833 0.0059581273 -0.011062473 0.020924222 -0.026879655 0.023735667
0.0010461117 -0.028737098 0.01142959 -0.017615648 0.027885424 -0.028978342 0.023237864 0.006901335
-0.035600554 0.011812142 -0.011994914 0.012104249 0.0030558475 -0.019357996 0.0074843196 -0.019845251
-0.0074491478 -0.0012017182 0.016417693 0.0040259776 -0.034177523 0.013870488 -0.0056125484 -0.020611007
0.03445693 0.010833851 0.018045805 0.00074538874 -0.030514462 0.025046667 0.012344036 -0.013656485
0.032013286 -0.027998716 0.02758915 0.01929659 0.025146239 0.0036144843 -0.020877134 0.0058156312
-0.020905701 -0.005952671 -0.012617193 -0.024930084 0.030513298 -0.029129274 0.025871076 -0.009280466
-0.023443777 0.012354449 -0.0167589 0.027249966 0.02052783 0.030646121 0.00086096843 -0.03490105
0.00674905 -0.007577712 0.01152747 0.00655818 -0.03047202 0.021996738 -0.02533864 -0.031661898
-0.0075397836 0.0343995 -0.022813465 -0.00036195046 -0.021553785 0.02080754 -0.010994627 -0.028750546
0.014287704 -0.025760056 0.02850563 0.017127395 0.0037577276 0.01335646 -0.019718215 0.031285644
0.0018693468 -0.027326237 0.007091789 -0.026230766 -0.0046046674 -0.025557445 -0.03461857 0.009720449
-0.028549045 0.022344066 0.027599167 0.01198326 -0.0040602465 -0.009885229 -0.012052807 -0.00010325695
0.022126472 0.02330511 0.010641144 0.030284746 -0.031834885 0.00015963119 0.03139656 -0.0057262145
00000000: 908c 973c 222c a4bc 41c7 983b e1d3 3f3c
00000010: 8845 623c b968 0cbd c0c0 843c 8b98 38bc
00000020: f6a1 4abc 688f d0bb 91e0 07bd 582b a7bb
00000030: 35be 1d3c 7bf2 0bbd c58d 8abc 9903 cabc
00000040: 5b2b babc acb2 9ebc 64b6 e03c 3529 1f3c
00000050: 0532 853c 4415 ebbc 9349 87bc f5ca e2bc
00000060: 63a6 b13c b1da 06bd 5863 f9bc fbc3 0db9
00000070: 0da0 2a3c 0c32 593c 45a3 81bb f2f0 c83b
00000080: dd22 ea3b bdc7 253c 41fe 0abc 3ac1 d03c
00000090: bfc0 593b fa55 a43c ef72 393c b199 98bc
000000a0: f753 74bc 70cf a1bc 6925 5abb 8e17 933b
000000b0: 5aa7 b139 80eb fe3c a4f7 053d 440b 213c
000000c0: 2a7f 283b 1977 a5bc 8ec2 ee3c 256a 20bc
000000d0: 7a59 b3bc 6503 c33c 8d1b e13c 6db5 c43c
000000e0: 30da 323c dbba 23bc 2658 ef3c c3a8 203d
000000f0: 3629 c33c 83ef e43c a1d8 f6bb 1994 b33c
00000100: ce36 03bc 1815 0fbb f8b5 ae3c 5a0e a83c
00000110: 3d02 e33c dde1 483b 16e3 0cbb 29e8 773c
00000120: 825d d23c 6e8f 5a3c 3a82 a0bc 0b32 133d
00000130: 3e64 a03c 0abf 853c 9326 71bb eb20 123d
00000140: 53a4 9b3b 6598 563b 28ad a03c cfd9 c93a
00000150: 235e 223c d0d6 953b 1e63 523c 2881 b33b
00000160: d97a 94bc a4f6 cdbb 3c83 0f3d be75 df3c
00000170: 0d9b 443a e501 e23b 2762 9dbc 227a f43c
00000180: 080d f5bc ae53 b33c 7ae7 f03c 5045 3f3c
00000190: 6dba 7f3c 2b99 05bd 300b 44bc 75ee 8cbc
000001a0: 0a7d 663c ec55 00bd d43c b8bc e2dc 583c
000001b0: 8daa 023c 87be 0bbd a011 d03c f360 ad3c
000001c0: a075 ba3b e765 ce3a bbb7 eebc 80d3 10bd
000001d0: a324 e3bc 2dbc d5bc 5ce8 c3bc d17c 9ebc
000001e0: d054 063d 0a52 11bd a839 f43c 9986 f13c
000001f0: 05c6 8d3b 2a81 e23a 7a03 413c e649 853b
00000200: 9142 e1bc c09d e9bc 2afb 083d 5015 4cbc
00000210: a0b7 993c 1293 573c 11e3 91bc 37ba 46bb
00000220: 5e3d dbbb 9bf9 073d 55fe 523b 694d 393c
00000230: 5be5 afbc a0ef 93bc 30e8 d8bc 651d 843c
00000240: caea ecbc cfe6 8b3c ab33 913c 653c c33b
00000250: 603f 35bc 4669 ab3c b932 dcbc 4d71 c23c
00000260: af1d 893a 106a ebbc 2d43 3b3c b14e 90bc
00000270: f96f e43c fd63 edbc 555d be3c 9824 e23b
00000280: e3d1 11bd b787 413c 5186 44bc e650 463c
00000290: 9d44 483b a994 9ebc 063f f53b 8292 a2bc
000002a0: fb17 f4bb f982 9dba 667e 863c 59ec 833b
000002b0: bbfd 0bbd 0b41 633c 78e9 b7bb 6ad8 a8bc
000002c0: b622 0d3d 7780 313c ccd4 933c 3166 433a
000002d0: 77f9 f9bc ab2e cd3c a43e 4a3c 73bf 5fbc
000002e0: 5d20 033d 905d e5bc a402 e23c e213 9e3c
000002f0: 7cff cd3c fce0 6c3b 8606 abbc 0d91 be3b
00000300: 6f42 abbc a00e c3bb 58b8 4ebc 2d3a ccbc
00000310: 06f7 f93c 84a0 eebc 94ef d33c 180d 18bc
00000320: 2a0d c0bc 516a 4a3c f649 89bc 523b df3c
00000330: fb29 a83c 930d fb3c 9db2 613a 67f4 0ebd
00000340: 2327 dd3b 754e f8bb b7dd 3c3c 00e6 d63b
00000350: 75a0 f9bc 8132 b43c fb92 cfbc e8af 01bd
00000360: 4a10 f7bb 7de6 0c3d 4ee3 babc 2bc4 bdb9
00000370: 9091 b0bc 9374 aa3c cf22 34bc 4486 ebbc
00000380: f916 6a3c c106 d3bc a484 e93c c04e 8c3c
00000390: 3544 763b 0ed5 5a3c 1888 a1bc 6025 003d
000003a0: df04 f53a 46db dfbc 3d62 e83b e7e1 d6bc
000003b0: c0e2 96bb d95d d1bc 34cc 0dbd 8542 1f3c
000003c0: b0df e9bc e70a b73c a617 e23c 6f55 443c
000003d0: d10b 85bb a8f5 21bc 2379 45bc a78b d8b8
000003e0: 9342 b53c 5cea be3c 3158 2e3c b717 f83c
000003f0: 4c65 02bd ac62 2739 ae99 003d f8a2 bbbb
