resutls_128/epoch_23.9.pth (torch, 34981 bytes, 5 tensors)

conv1.weight f4 [64, 1, 9, 9]
0.058611322 -0.04750571 -0.019555502 0.054384906 -0.10213832 0.06880826 -0.021227282 0.057804663
0.016512763 -0.011726573 0.032914814 0.008078646 0.043478724 -0.040128924 -0.005202306 -0.0076719155
0.01803914 0.0012275749 0.09996666 0.037683215 -0.03771352 -0.06308675 -0.014292325 -0.04386821
-0.03214989 0.008320996 0.06890577 0.063695535 -0.104996376 0.07311454 0.035671588 0.11035738
0.07801304 -0.097208425 -0.10212179 -0.050449878 0.10142086 -0.014302953 0.05240804 -0.04635769
0.114634536 -0.04171918 0.087929934 0.0053673936 -0.054904465 0.06071329 -0.055012904 0.03730524
-0.02704255 -0.00682921 -0.10181988 -0.048694216 0.0639973 -0.023729874 0.1140035 0.09276296
-0.0008608287 -0.069434084 0.07266423 0.039097976 -0.067952886 0.07546582 0.070354044 0.101426
-0.059067067 -0.014467915 0.002012863 0.020618457 -0.08035567 -0.07562405 0.063117914 -0.023724271
0.05677509 0.009126767 0.03982759 0.028069645 0.044220507 0.05846749 -0.10023939 0.058092624
-0.07623715 -0.084135376 0.0064038127 -0.019404499 0.0647512 -0.064658485 -0.099080205 0.08067364
-0.016619038 0.062053643 0.03533389 -0.08372776 0.021786893 0.026139466 -0.07474167 -0.053049494
0.037703093 0.019794863 -0.0476629 -0.034270175 0.10108094 -0.02133563 0.06186798 0.047559425
-0.07233487 -0.094813496 0.10641762 0.0052726795 0.07550712 0.022342762 0.03495925 0.08223376
0.104859896 -0.07413834 0.013658896 0.08276659 0.0800821 0.068796545 -0.08066229 -0.080317214
-0.06744478 0.013999284 0.110887505 -0.069839075 0.059634496 -0.061383076 -0.10483537 -0.024006631
0.06358346 0.102794364 -0.06906953 0.024175385 0.096150436 0.07395725 0.06920862 0.07825467
0.06957143 0.027950428 -0.07666549 -0.093628526 -0.051130895 -0.012966592 -0.06810357 0.040280085
0.033319112 -0.026224973 0.041581873 0.034855198 0.06708406 0.07416555 -0.038097747 0.10812634
-0.013679168 -0.005116942 -0.106212705 -0.072905086 -0.06625308 -0.048584092 0.07803747 -0.03713828
-0.0838563 0.04156917 0.03798505 0.074752554 -0.054235052 0.02753988 -0.03705834 -0.021556182
-0.08532096 -0.04782696 -0.03139203 0.050016258 0.023217507 0.030852834 0.1145126 0.11185122
0.07934581 0.0069138645 -0.07393377 0.08952969 -0.024834665 -0.0055809394 -0.09181253 -0.017819567
-0.06758527 0.10617875 -0.09219261 -0.083221294 -0.0006392932 -0.056710202 0.043610804 -0.03838638
-0.047588088 0.010833996 0.08496427 -0.07387319 0.05595864 0.07490542 0.1122579 -0.073684044
0.031533755 -0.07732803 0.09961246 -0.03837918 0.07140899 0.0072680814 -0.0049491012 6.6464716e-05
0.023027036 0.05706955 0.022719596 0.038704198 -0.09518595 0.08547919 0.10090232 0.0956109
0.085513435 -0.07627977 -0.036720388 0.102657765 -0.080025904 0.105370775 -0.08305847 -0.07442324
0.057920948 -0.07682592 -0.021959335 0.08487639 0.09227772 0.10928549 -0.01835157 -0.08236448
0.112939805 -0.020392645 -0.043095764 0.030171013 -0.07407395 0.076853186 0.073414385 -0.08435682
-0.08760737 -0.0065394207 0.04962455 -0.0031879398 -0.056306846 0.0025741588 -0.10439786 -0.07849089
-0.073833175 0.09206279 0.09850445 -0.037229035 0.0050059487 0.049578592 0.013339758 -0.055609513
00000000: 6d12 703d 5995 42bd dc32 a0bc b5c2 5e3d
00000010: e52d d1bd 58eb 8c3d d6e4 adbc 95c4 6c3d
00000020: c645 873c d020 40bc afd1 063d 4c5c 043c
00000030: bf16 323d 3a5e 24bd 1b78 aabb b164 fbbb
00000040: d2c6 933c 94e6 a03a 52bb cc3d b759 1a3d
00000050: 7e79 1abd a033 81bd 5b2a 6abc 27af 33bd
00000060: 9aaf 03bd c954 083c 781e 8d3d ce72 823d
00000070: 5708 d7bd 13bd 953d 5f1c 123d 0d03 e23d
00000080: 4dc5 9f3d 3615 c7bd 3b25 d1bd 88a4 4ebd
00000090: bdb5 cf3d ef56 6abc d0a9 563d 90e1 3dbd
000000a0: 83c5 ea3d bbe1 2abd 9c14 b43d f6e0 af3b
000000b0: 81e3 60bd 80ae 783d 3655 61bd 61cd 183d
000000c0: 5688 ddbc 91c7 dfbb f186 d0bd 9673 47bd
000000d0: 0411 833d 2765 c2bc ab7a e93d 82fa bd3d
000000e0: 3ca9 61ba 7533 8ebd fcd0 943d 3325 203d
000000f0: e22a 8bbd d38d 9a3d c815 903d 6fb8 cf3d
00000100: 4ff0 71bd d50a 6dbc 3dea 033b 0ae8 a83c
00000110: 8391 a4bd c8e0 9abd f743 813d 6759 c2bc
00000120: ff8c 683d 6f88 153c 4122 233d 50f2 e53c
00000130: 9020 353d 9b7b 6f3d 4f4a cdbd 88f2 6d3d
00000140: 3922 9cbd 2b4f acbd 13d7 d13b 2ff6 9ebc
00000150: 479c 843d ab6b 84bd 90ea cabd 3938 a53d
00000160: a624 88bc f62b 7e3d 45ba 103d 7679 abbd
00000170: 6d7a b23c 6f22 d63c 2912 99bd 6d4a 59bd
00000180: 8f6e 1a3d d628 a23c 2c3a 43bd e25e 0cbd
00000190: 8603 cf3d 0fc8 aebc 4769 7d3d accd 423d
000001a0: 4e24 94bd 942d c2bd 7bf1 d93d 71c6 ac3b
000001b0: 7aa3 9a3d 2b08 b73c 6e31 0f3d 2c6a a83d
000001c0: c9c0 d63d d8d5 97bd 90c9 5f3c 8881 a93d
000001d0: 1602 a43d 34e5 8c3d 4532 a5bd 5a7d a4bd
000001e0: 7d20 8abd 415d 653c fd18 e33d ca07 8fbd
000001f0: 4d43 743d d26c 7bbd edb3 d6bd 8ea9 c4bc
00000200: 0c38 823d da85 d23d 5374 8dbd 750b c63c
00000210: 85ea c43d e676 973d 40bd 8d3d fc43 a03d
00000220: 777b 8e3d 4cf8 e43c cc02 9dbd 50c0 bfbd
00000230: a16e 51bd d471 54bc e279 8bbd bbfc 243d
00000240: 9f79 083d c1d5 d6bc c151 2a3d 53c4 0e3d
00000250: 5e63 893d 1ce4 973d 620c 1cbd 5871 dd3d
00000260: 971e 60bc 05ac a7bb 0c86 d9bd 434f 95bd
00000270: b2af 87bd 1d00 47bd 1cd2 9f3d 4f1e 18bd
00000280: dabc abbd 6f44 2a3d 3696 1b3d de17 993d
00000290: 9325 5ebd 509b e13c 7cca 17bd 9796 b0bc
000002a0: c1bc aebd 34e6 43bd ee94 00bd d9dd 4c3d
000002b0: a432 be3c 15bf fc3c 9585 ea3d 4112 e53d
000002c0: 0e80 a23d b38d e23b 976a 97bd 585b b73d
000002d0: 1172 cbbc 50e0 b6bb 3508 bcbd 57fa 91bc
000002e0: 256a 8abd 3f74 d93d 7bcf bcbd ed6f aabd
000002f0: 3e96 27ba f548 68bd 3ea1 323d 093b 1dbd
00000300: baeb 42bd 1381 313c bf01 ae3d d44a 97bd
00000310: e334 653d 0368 993d 78e7 e53d a9e7 96bd
00000320: 8a29 013d 285e 9ebd 9e01 cc3d 7d33 1dbd
00000330: e03e 923d 1629 ee3b 122c a2bb f962 8b38
00000340: 32a3 bc3c c3c1 693d 721e ba3c 4b88 1e3d
00000350: daf0 c2bd b70f af3d e0a5 ce3d a6cf c33d
00000360: ab21 af3d 9138 9cbd 1e68 16bd 3c3e d23d
00000370: 9fe4 a3bd a2cc d73d 8f1a aabd 366b 98bd
00000380: 843e 6d3d e856 9dbd 10e4 b3bc acd3 ad3d
00000390: 1afc bc3d 12d1 df3d 0856 96bc b5ae a8bd
000003a0: fc4c e73d 7a0e a7bc 2f85 30bd 3329 f73c
000003b0: 15b4 97bd 3465 9d3d 485a 963d 45c3 acbd
000003c0: 7e6b b3bd a348 d6bb 1d43 4b3d c1ec 50bb
000003d0: 02a2 66bd 38b3 283b 8cce d5bd d5bf a0bd
000003e0: d935 97bd 6b8b bc3d b3bc c93d 797d 18bd
000003f0: f108 a43b ec12 4b3d 008f 5a3c cdc6 63bd

conv1.bias f4 [64]
-0.05758267 0.026423292 -0.075373046 -0.043051183 0.078840606 0.057043716 0.07853943 -0.027667418
0.1021562 0.07828359 0.058430023 0.050324112 -0.095155016 -0.062837325 -0.0060709305 0.028524242
0.11814093 0.098735094 -0.042270247 0.06969336 0.042229597 -0.055726267 -0.110590175 0.045077283
0.008137369 0.02827597 0.08271941 -0.036923427 -0.04359942 0.022351254 -0.04306927 -0.06540717
-0.111559406 -0.09396146 -0.008771906 0.0893733 -0.07003658 0.029438142 0.074568406 0.01204149
-0.002975482 0.091902085 -0.10571838 0.082957685 0.09311351 0.09106707 0.082667224 -0.007349226
-0.09689667 -0.070110664 -0.097836256 -0.0683165 -0.09901086 0.07985592 0.03979066 -0.048161283
0.0015706122 0.0033161007 -0.009847896 0.07270197 0.05107005 -0.08375494 0.09596723 -0.04394207
00000000: cedb 6bbd a975 d83c 2f5d 9abd 7056 30bd
00000010: 2f77 a13d aca6 693d 48d9 a03d c8a6 e2bc
00000020: 4537 d13d 2653 a03d 5254 6f3d a820 4e3d
00000030: a2e0 c2bd dbb0 80bd a8ee c6bb acab e93c
00000040: dff3 f13d a035 ca3d 9123 2dbd 64bb 8e3d
00000050: f1f8 2c3d 3a41 64bd 1a7d e2bd f5a2 383d
00000060: 9952 053c 02a3 e73c cb68 a93d 053d 17bd
00000070: 4e95 32bd fa19 b73c 6769 30bd 32f4 85bd
00000080: 4279 e4bd de6e c0bd 0ab8 0fbc 5909 b73d
00000090: 576f 8fbd 4228 f13c 52b7 983d ab49 453c
000000a0: 4e00 43bb 2937 bc3d e182 d8bd b8e5 a93d
000000b0: 4cb2 be3d 5f81 ba3d 6f4d a93d c7d1 f0bb
000000c0: c371 c6bd 2e96 8fbd 605e c8bd 85e9 8bbd
000000d0: 35c6 cabd 808b a33d 88fb 223d c444 45bd
000000e0: 00dd cd3a f052 593b 1259 21bc c5e4 943d
000000f0: d42e 513d b687 abbd 788a c43d 9afc 33bd

conv2.weight f4 [32, 64, 1, 1]
-0.055822946 0.12057913 -0.08096759 -0.030963501 0.009114908 -0.11786264 0.0917159 0.08413309
-0.1193479 -0.020962272 0.02216293 0.06427116 0.051524594 -0.0127756875 0.1071128 -0.032618172
0.0040441607 -0.08004772 -0.071911775 -0.042735897 -0.11432225 -0.020688726 0.025186183 -0.0862087
-0.10851658 0.11018798 -0.05611514 -0.092111096 -0.03139562 -0.060500324 -0.119307235 -0.016683355
-0.059754718 -0.041084945 0.055734336 0.005861974 0.10440774 -0.12668742 0.10928883 0.06801571
-0.034420308 0.08646476 0.117043674 0.012260305 0.03472738 -0.04030124 -0.009278421 -0.005989313
-0.06421312 0.021608517 -0.059665814 0.06379351 0.019187823 -0.09687108 0.10881109 0.037394404
0.053091913 -0.12963362 0.094148785 0.031688932 -0.012609169 -0.08182098 0.01404909 0.047690127
0.039210312 0.09204849 -0.11217265 -0.09733532 0.12161528 0.10771197 -0.011214271 0.07503379
0.08936699 0.09062705 -0.059419006 -0.04208045 -0.065322354 -0.03423881 0.11824196 -0.00029005448
-0.09965841 0.09489504 0.049909715 0.022681983 -0.06554726 0.09152463 -0.10133297 0.062066853
-0.012350336 -0.044662997 -0.11148009 0.017343804 -0.05888681 -0.04901856 0.07062751 -0.08020775
0.11901463 0.102927856 0.091009304 0.013453013 -0.0956586 -0.028125132 -0.06047872 -0.017174192
-0.11650531 -0.05614388 -0.021574618 0.00039998934 -0.03224294 0.028252482 -0.06813282 -0.08515112
-0.09105708 0.11562936 0.07586054 -0.11030622 -0.10568154 -0.0049674064 -0.06593154 0.042378306
-0.043181337 0.014083151 -0.027474722 -0.09454147 -0.010194343 0.11413713 0.10028299 -0.08469579
0.04760055 0.118089184 0.023136472 -0.011404888 0.10782753 0.014877232 -0.023157025 0.15872559
0.05143501 -0.082659386 0.091044225 0.13036266 0.10004559 -0.056372125 -0.037512105 0.09258764
0.08798494 -0.10354479 0.10683193 0.0785357 0.03798258 -0.024414988 -0.010487819 0.07606713
0.03692471 0.1029561 -0.073274 -0.04340926 -0.01431311 0.05165676 0.043542847 0.06632188
-0.059263267 -0.01095731 0.048695292 -0.05507771 0.08934933 0.09045515 0.06298906 0.06955544
0.07545343 -0.10687534 -0.037090052 0.09163994 -0.053487103 0.02104841 -0.04454239 -0.0049571693
-0.019488053 -0.03588903 0.042446837 0.114804715 0.0023898631 -0.03651584 0.10751153 -0.057038978
0.04309037 0.015676951 0.0698001 0.086362794 0.040503725 -0.006656207 0.07531063 0.019807534
-0.012028543 0.03556932 -0.050366174 0.011654326 -0.07375736 0.0679141 0.120892555 -0.0023590245
-0.11281749 0.10094869 -0.06547568 0.10701619 0.08663395 -0.04167087 0.0106374575 -0.041736294
0.10114386 -0.09120648 0.016263988 -0.055886842 0.09877067 0.07234903 0.11341707 -0.057540692
0.05653469 -0.10326867 0.07733555 -0.040920667 0.041706413 0.06250364 -0.078389436 0.07023783
-0.04162303 0.058088835 -0.042677574 0.0054506166 0.01270701 0.11011444 0.030880144 0.023518747
-0.023091534 -0.1253192 -0.054922204 -0.04423007 0.045435343 0.0005122372 0.03736149 -0.06484376
-0.1223452 0.045797244 0.08605587 0.06605363 0.10364078 -0.122431606 0.042837612 0.09925926
-0.052466627 0.08245248 0.09554997 0.038505632 -0.11328783 0.060543627 0.13232504 -0.015833886
00000000: 9aa6 64bd 31f2 f63d 56d2 a5bd 2ba7 fdbc
00000010: b256 153c f861 f1bd 8cd5 bb3d f84d ac3d
00000020: ac6c f4bd 12b9 abbc 088f b53c 99a0 833d
00000030: 740b 533d 1e51 51bc f55d db3d a29a 05bd
00000040: e184 843b 0ff0 a3bd 7b46 93bd d60b 2fbd
00000050: c921 eabd 677b a9bc 4153 ce3c 308e b0bd
00000060: f13d debd 3caa e13d fdd8 65bd bea4 bcbd
00000070: b298 00bd 30cf 77bd 5a57 f4bd 88ab 88bc
00000080: 5dc1 74bd b048 28bd b049 643d cd15 c03b
00000090: bad3 d53d 59ba 01be d2d2 df3d d24b 8b3d
000000a0: 4ffc 0cbd 7014 b13d 98b4 ef3d 72df 483c
000000b0: 4c3e 0e3d ea12 25bd 8504 18bc 0042 c4bb
000000c0: 2b82 83bd 5804 b13c 2464 74bd 2ca6 823d
000000d0: c82f 9d3c 5864 c6bd 59d8 de3d e02a 193d
000000e0: e876 593d adbe 04be 14d1 c03d 41cc 013d
000000f0: b096 4ebc c291 a7bd 282e 663c b956 433d
00000100: fe9a 203d eb83 bc3d c6ba e5bd be57 c7bd
00000110: 6f11 f93d 1898 dc3d 10bc 37bc 51ab 993d
00000120: 0a06 b73d ad9a b93d 5861 73bd 8d5c 2cbd
00000130: bac7 85bd ff3d 0cbd d728 f23d 7412 98b9
00000140: b519 ccbd 5558 c23d 216e 4c3d 91cf b93c
00000150: a43d 86bd 4471 bb3d a987 cfbd d039 7e3d
00000160: 1059 4abc 8cf0 36bd ac4f e4bd 9814 8e3c
00000170: 4c33 71bd b0c7 48bd 28a5 903d f643 a4bd
00000180: f1bd f33d d7cb d23d 1663 ba3d 076a 5c3c
00000190: a8e8 c3bd ad66 e6bc 89b8 77bd e4b0 8cbc
000001a0: 569a eebd 20f7 65bd 41bd b0bc a9b5 d139
000001b0: 2c11 04bd c071 e73c 3889 8bbd b663 aebd
000001c0: 227c babd 16cf ec3d c55c 9b3d 3ae8 e1bd
000001d0: 906f d8bd a0c5 a2bb 1e07 87bd e094 2d3d
000001e0: eade 30bd 04bd 663c ab12 e1bc f59e c1bd
000001f0: 2c06 27bc bac0 e93d 2b61 cd3d fd74 adbd
00000200: cbf8 423d bed8 f13d b388 bd3c 91db 3abc
00000210: aed4 dc3d a2bf 733c cdb3 bdbc f688 223e
00000220: 84ad 523d 5349 a9bd 6575 ba3d ca7d 053e
00000230: b4e4 cc3d 75e6 66bd 4ba6 19bd 979e bd3d
00000240: 7331 b43d 4a0f d4bd b3ca da3d 53d7 a03d
00000250: 9f93 1b3d f101 c8bc 1ad5 2bbc 15c9 9b3d
00000260: 5d3e 173d a6da d23d ae10 96bd e9cd 31bd
00000270: 8981 6abc 0a96 533d fc59 323d c4d3 873d
00000280: 0abe 72bd 4a86 33bc b774 473d 2a99 61bd
00000290: c8fc b63d 8d40 b93d 6900 813d 1573 8e3d
000002a0: 5487 9a3d 75e1 dabd bdeb 17bd b9ad bb3d
000002b0: 4b15 5bbd b76d ac3c 1572 36bd c06f a2bb
000002c0: 69a5 9fbc 6000 13bd bcdc 2d3d bc1e eb3d
000002d0: 409f 1c3b a291 15bd 012f dc3d b4a1 69bd
000002e0: 877f 303d f36c 803c 5bf3 8e3d fade b03d
000002f0: 3ce7 253d 501c dabb 763c 9a3d 6943 a23c
00000300: 5e13 45bc 23b1 113d c34c 4ebd c9f1 3e3c
00000310: 190e 97bd 8c16 8b3d 8496 f73d dd99 1abb
00000320: db0c e7bd 30be ce3d 1d18 86bd 4e2b db3d
00000330: 246d b13d 13af 2abd bb48 2e3c adf3 2abd
00000340: 8324 cf3d 77ca babd 0e3c 853c 9ae9 64bd
00000350: 4748 ca3d ba2b 943d 3547 e83d caaf 6bbd
00000360: eb90 673d 867e d3bd 1a62 9e3d 6e9c 27bd
00000370: 58d4 2a3d e901 803d a48a a0bd dad8 8f3d
00000380: e97c 2abd 8fee 6d3d aece 2ebd 169b b23b
00000390: 1031 503c ae83 e13d 5bf8 fc3c 63aa c03c
000003a0: 752a bdbc ad53 00be 1bf6 60bd 972a 35bd
000003b0: 691a 3a3d a847 063a 5d08 193d cecc 84bd
000003c0: 1f90 fabd e495 3b3d 0f3e b03d 2047 873d
000003d0: 9e41 d43d 6cbd fabd 7e76 2f3d 7048 cb3d
000003e0: 3fe7 56bd d9dc a83d b4af c33d 15b8 1d3d
000003f0: 7303 e8bd 98fc 773d 3780 073e 11b6 81bc

conv2.bias f4 [32]
-0.064080395 -0.04617434 0.099938646 0.072641216 0.018375129 -0.10670723 0.042718396 0.09454175
0.09005859 -0.068633 -0.1174631 -0.07545627 -0.11587477 0.10283563 -0.07242952 0.015231178
0.096253276 0.035351884 -0.11492772 -0.0024383792 0.10708471 0.0007133612 -0.019987656 0.10947761
-0.11079006 -0.057893217 0.012144668 0.13521053 -0.011215769 -0.074454404 -0.118421346 -0.11505775
00000000: 953c 83bd 4e21 3dbd a2ac cc3d ebc4 943d
00000010: 7087 963c 5289 dabd 7cf9 2e3d 1b9f c13d
00000020: a370 b83d 758f 8cbd 7e90 f0bd d188 9abd
00000030: c04f edbd 7d9b d23d ee55 94bd 318c 793c
00000040: 7020 c53d 23cd 103d 395f ebbd 37cd 1fbb
00000050: 3a4f db3d dc00 3b3a 27bd a3bc cc35 e03d
00000060: e6e5 e2bd 7021 6dbd 6efa 463c a174 0a3e
00000070: 58c2 37bc 8d7b 98bd e486 f2bd 66a3 ebbd

conv3.weight f4 [1, 32, 5, 5]
0.018499643 -0.020040575 0.0046711657 0.011727449 0.01384588 -0.03427956 0.016205192 -0.0112561695
-0.012335382 -0.006324741 -0.033173148 -0.005084025 0.009651507 -0.034166794 -0.016855149 -0.024635626
-0.022694446 -0.019324655 0.02749757 0.009778514 0.016328521 -0.028626671 -0.016443867 -0.02761382
0.021757146 -0.032531045 -0.030005582 0.00037559064 0.010925855 0.013689315 -0.0035430219 0.0065916292
0.007677546 0.010644225 -0.008045065 0.02594836 0.0038328164 0.02064149 0.011888597 -0.018151267
-0.014409783 -0.019214818 -0.0027267542 0.0050767534 0.000832009 0.03153375 0.03314424 0.010319863
0.00304458 -0.019817498 0.028713483 -0.009921112 -0.021366902 0.0236003 0.026837515 0.024072886
0.011277309 -0.00898169 0.02947739 0.039030384 0.024651784 0.029070053 -0.0057660746 0.02291945
-0.0074754995 -0.0018174741 0.02196912 0.02178277 0.028210314 0.0031066276 -0.0021939653 0.015343295
0.026505271 0.013406383 -0.019968485 0.035377163 0.018997798 0.016021986 -0.0043563335 0.034783017
0.004471634 0.002972118 0.019583678 0.001128996 0.00928204 0.0046788934 0.012927469 0.0058447705
-0.018136295 -0.0065073054 0.03483123 0.027055385 0.0008209898 0.006613655 -0.019683793 0.029478848
-0.030291192 0.021823186 0.029014422 0.01111735 0.015030805 -0.033304777 -0.012746208 -0.018153517
0.013057732 -0.031955376 -0.023247289 0.012362864 0.0069167465 -0.03523122 0.02476366 0.020384258
0.0047856965 0.00047855714 -0.030289339 -0.036069326 -0.028576454 -0.027050678 -0.025050778 -0.02052491
0.032025445 -0.036370557 0.02883971 0.028363476 0.0031830184 0.0017280926 0.011780614 0.0040676473
-0.027497562 -0.028517604 0.033442654 -0.012456253 0.018764317 0.013157623 -0.017808469 -0.0030323395
-0.006690665 0.033197027 0.003219505 0.01130996 -0.02147167 -0.018058598 -0.026477903 0.016127298
-0.02892055 0.017077832 0.017724833 0.0059581273 -0.011062473 0.020924222 -0.027148986 0.023612978
0.0010214739 -0.028949931 0.01112036 -0.017916208 0.027741043 -0.029011186 0.023028681 0.0066036494
-0.03590232 0.011678061 -0.012002921 0.0119303735 0.0027989347 -0.019755417 0.0072623086 -0.019932507
-0.007693799 -0.0015243544 0.016042173 0.0038335943 -0.03423208 0.013661216 -0.005900694 -0.021253701
0.033946235 0.010479025 0.017510366 9.610579e-05 -0.031058645 0.0246369 0.012090629 -0.014094331
0.0314609 -0.028343637 0.027383748 0.019252194 0.024917249 0.0032667133 -0.021292442 0.005543023
-0.021012792 -0.0062392494 -0.013025507 -0.02537467 0.030212624 -0.029262666 0.025559686 -0.009718211
-0.023875823 0.011965912 -0.017025884 0.026845023 0.020063726 0.03031202 0.0005609715 -0.03508629
0.0064213662 -0.007963058 0.011377695 0.0064345696 -0.030487847 0.02183258 -0.025561009 -0.031899296
-0.0077542397 0.034287497 -0.023075307 -0.0006824561 -0.02195214 0.020435784 -0.011259675 -0.029162308
0.013814902 -0.02574487 0.028516585 0.01713468 0.0037570219 0.013355731 -0.019705849 0.031286526
0.001863811 -0.027323889 0.007087911 -0.026218565 -0.0046056923 -0.025555808 -0.034618195 0.009717595
-0.028533902 0.022354778 0.027606633 0.011984861 -0.0040545664 -0.009860561 -0.012034613 -9.0516405e-05
0.022143254 0.023324575 0.010641144 0.030284746 -0.031834885 0.00015963119 0.03139656 -0.0057262145
00000000: 908c 973c 222c a4bc 9410 993b 7c24 403c
00000010: d4d9 623c b968 0cbd c0c0 843c cc6b 38bc
00000020: 581a 4abc c63f cfbb 91e0 07bd e597 a6bb
00000030: 5b21 1e3c 7bf2 0bbd cf13 8abc a7d0 c9bc
00000040: b4e9 b9bc bd4e 9ebc 9542 e13c 0f36 203c
00000050: 64c3 853c 7b82 eabc 4ab5 86bc 6136 e2bc
00000060: 0b3c b23c 463f 05bd 44ce f5bc ecea c439
00000070: 5b02 333c 2649 603c 0b32 68bb 98fe d73b
00000080: ec93 fb3b 1e65 2e3c 73cf 03bc a891 d43c
00000090: fd2f 7b3b 5818 a93c 64c8 423c f7b1 94bc
000000a0: 0317 6cbc 6568 9dbc 58b3 32bb e55a a63b
000000b0: 2e1b 5a3a 8929 013d 41c2 073d a514 293c
000000c0: 9487 473b 4e58 a2bc 8a38 eb3c 298c 22bc
000000d0: a409 afbc 6b55 c13c 59da db3c 8034 c53c
000000e0: 76c4 383c f027 13bc 917a f13c 53de 1f3d
000000f0: 8af2 c93c 5224 ee3c 57f1 bcbb 92c1 bb3c
00000100: 09f5 f4bb 5038 eeba 95f8 b33c c871 b23c
00000110: 5119 e73c 9098 4b3b a1c8 0fbb 7262 7b3c
00000120: 9521 d93c 72a6 5b3c f394 a3bc a5e7 103d
00000130: 45a1 9b3c 8a40 833c 93bf 8ebb a378 0e3d
00000140: c986 923b dec7 423b f36d a03c d2fa 933a
00000150: b313 183c 6751 993b bccd 533c 7d85 bf3b
00000160: 9192 94bc 3c3b d5bb 31ab 0e3d 41a3 dd3c
00000170: b137 573a 5cb7 d83b e83f a1bc a07d f13c
00000180: 3c25 f8bc 8ac6 b23c a7af ed3c 8c25 363c
00000190: c443 763c 976a 08bd 79d5 50bc afb6 94bc
000001a0: 19f0 553c a4e3 02bd 1971 bebc 9c8d 4a3c
000001b0: e0a5 e23b 9d4e 10bd 29dd ca3c e3fc a63c
000001c0: 55d1 9c3b dae6 fa39 5921 f8bc 6ebd 13bd
000001d0: 2b19 eabc 6299 ddbc 4a37 cdbc db23 a8bc
000001e0: 1d2d 033d 4bf9 14bd 4141 ec3c 855a e83c
000001f0: 309a 503b 2a81 e23a 7a03 413c e649 853b
00000200: 9142 e1bc c09d e9bc 2afb 083d 5015 4cbc
00000210: a0b7 993c 1293 573c 11e3 91bc 37ba 46bb
00000220: 5e3d dbbb 9bf9 073d 55fe 523b 694d 393c
00000230: 5be5 afbc a0ef 93bc 30e8 d8bc 651d 843c
00000240: caea ecbc cfe6 8b3c ab33 913c 653c c33b
00000250: 603f 35bc 4669 ab3c 8d67 debc 0170 c13c
00000260: fae2 853a 6828 edbc 2c32 363c 03c5 92bc
00000270: 2f41 e33c dea8 edbc a5a6 bc3c 6d63 d83b
00000280: 500e 13bd 5755 3f3c e6a7 44bc 9d77 433c
00000290: 556e 373b 1dd6 a1bc a9f8 ed3b 7f49 a3bc
000002a0: 441c fcbb d9cc c7ba e06a 833c 0a3d 7b3b
000002b0: f036 0cbd 4bd3 5f3c 9c5a c1bb 3e1c aebc
000002c0: 350b 0b3d 37b0 2b3c e671 8f3c 678c c938
000002d0: b36e febc 53d3 c93c c617 463c e9eb 66bc
000002e0: 25dd 003d ea30 e8bc e253 e03c c7b6 9d3c
000002f0: 421f cc3c 5b16 563b 7d6d aebc 3fa2 b53b
00000300: 0523 acbc 9e72 ccbb f068 55bc 8ade cfbc
00000310: 7780 f73c 42b8 efbc 8c62 d13c 2239 1fbc
00000320: 3b97 c3bc ac0c 443c de79 8bbc 18ea db3c
00000330: af5c a43c ea50 f83c 290e 133a a4b6 0fbd
00000340: 536a d23b 7c77 02bc 8369 3a3c 15d9 d23b
00000350: a6c1 f9bc 3dda b23c 5265 d1bc d6a8 02bd
00000360: 4717 febb 0c71 0c3d 6d08 bdbc dbe6 32ba
00000370: f9d4 b3bc f268 a73c 807a 38bc cbe5 eebc
00000380: e657 623c e8e6 d2bc 9d9b e93c 075e 8c3c
00000390: 5e38 763b ffd1 5a3c 296e a1bc 4d26 003d
000003a0: 1f4b f43a 59d6 dfbc b541 e83b 51c8 d6bc
000003b0: 59eb 96bb 6a5a d1bc cfcb 0dbd 8c36 1f3c
000003c0: eebf e9bc 5e21 b73c 4e27 e23c 275c 443c
000003d0: 2bdc 84bb 318e 21bc d32c 45bc a0d3 bdb8
000003e0: c565 b53c 2e13 bf3c 3158 2e3c b717 f83c
000003f0: 4c65 02bd ac62 2739 ae99 003d f8a2 bbbb
