resutls_128/epoch_24.049.pth (torch, 34981 bytes, 5 tensors)

conv1.weight f4 [64, 1, 9, 9]
0.058251552 -0.047848366 -0.0198512 0.05412063 -0.10236536 0.068528 -0.021574147 0.05741493
0.01610235 -0.012029439 0.032634668 0.007852227 0.04329102 -0.04027825 -0.005394871 -0.0079350965
0.01772771 0.00088849524 0.09977576 0.037524994 -0.03781003 -0.06314192 -0.014298071 -0.04391658
-0.032273002 0.008142205 0.068691745 0.063558854 -0.1050913 0.07308811 0.03569653 0.110430315
0.07803985 -0.09726247 -0.102238886 -0.050608106 0.10135433 -0.014326976 0.052459612 -0.046248954
0.11479116 -0.041609377 0.08795219 0.005321891 -0.05499981 0.060616005 -0.05506673 0.03732878
-0.026961915 -0.006702556 -0.101744756 -0.048709586 0.06391162 -0.023869943 0.11386687 0.092678815
-0.00087471073 -0.069394216 0.072744034 0.03912182 -0.06802255 0.07532288 0.07015739 0.10122797
-0.059219614 -0.014550372 0.001977903 0.020617364 -0.080419786 -0.07577809 0.062894225 -0.02399223
0.056532383 0.008918294 0.039682105 0.027964095 0.04414263 0.058325887 -0.10046917 0.057795048
-0.07656839 -0.08414833 0.006375904 -0.019452112 0.06468258 -0.06471031 -0.09911985 0.080660805
-0.01663774 0.0619958 0.03530315 -0.083756864 0.02173462 0.02607756 -0.074797444 -0.05308605
0.03768046 0.019782178 -0.047711156 -0.034319952 0.10101452 -0.021408774 0.061787624 0.047495957
-0.072399594 -0.09484236 0.106409565 0.0052154665 0.07544938 0.022293478 0.034891002 0.08216255
0.104796164 -0.07417636 0.013643472 0.082766354 0.08003854 0.06879657 -0.080662355 -0.08032198
-0.067451544 0.01400621 0.11089845 -0.06977765 0.05969413 -0.061360966 -0.104840465 -0.02402965
0.063539766 0.10275046 -0.06906961 0.024188468 0.096187316 0.074014075 0.06920869 0.0781846
0.069501214 0.027879437 -0.07673636 -0.09367287 -0.051146705 -0.01296031 -0.06810237 0.04024664
0.03321341 -0.026330324 0.04146312 0.03473574 0.0670092 0.074094675 -0.038145494 0.10807135
-0.0137700755 -0.0052464637 -0.1063538 -0.07304713 -0.06639551 -0.04870627 0.07793276 -0.037224464
-0.083929084 0.04144171 0.037815634 0.0746186 -0.054300494 0.027508898 -0.037086878 -0.021581667
-0.08539044 -0.047936857 -0.031526677 0.04986385 0.023114625 0.030811181 0.11451168 0.111851096
0.079345986 0.0068752375 -0.07401189 0.08939724 -0.024929509 -0.005620756 -0.09179566 -0.017756123
-0.06751495 0.1062494 -0.09217394 -0.083247334 -0.0007005473 -0.056748573 0.04363189 -0.03829804
-0.047460355 0.01096595 0.08509989 -0.07379487 0.05598386 0.074904636 0.11225691 -0.07361834
0.031661417 -0.07716588 0.09977662 -0.03821526 0.071529865 0.0073237848 -0.004925828 5.4813376e-05
0.023081278 0.05719483 0.022883309 0.038867794 -0.095032275 0.08559274 0.10096478 0.09562102
0.085446954 -0.07627695 -0.036637604 0.102785856 -0.07989749 0.105493926 -0.082986064 -0.07441704
0.057907574 -0.07695108 -0.022010759 0.08488399 0.092344806 0.10935387 -0.018290635 -0.08235406
0.11290683 -0.020456932 -0.043258753 0.03006627 -0.074117094 0.07685344 0.073415674 -0.084353775
-0.08762153 -0.006615964 0.049518976 -0.003148622 -0.05627124 0.0026142492 -0.10434061 -0.07843408
-0.07376257 0.09213365 0.0985753 -0.037157077 0.0050445753 0.04961415 0.013379259 -0.05557389
00000000: 2e99 6e3d a6fc 43bd fc9e a2bc 98ad 5d3d
00000010: eea4 d1bd 6858 8c3d 44bc b0bc eb2b 6b3d
00000020: 13e9 833c 2017 45bc eeab 053d a1a6 003c
00000030: ed51 313d cefa 24bd 75c7 b0bb 3502 02bc
00000040: b439 913c e8e9 683a 3c57 cc3d cfb3 193d
00000050: b1de 1abd 8d50 81bd 7542 6abc dfe1 33bd
00000060: b230 04bd e266 053c 42ae 8c3d 252b 823d
00000070: 1c3a d7bd 38af 953d 8636 123d 4a29 e23d
00000080: 5bd3 9f3d 8c31 c7bd 9f62 d1bd 724a 4fbd
00000090: dc92 cf3d b1bb 6abc e4df 563d 8b6f 3dbd
000000a0: a117 eb3d 986e 2abd 4720 b43d 4263 ae3b
000000b0: 7b47 61bd 7d48 783d a78d 61bd 10e6 183d
000000c0: 3cdf dcbc 1da1 dbbb 8e5f d0bd b483 47bd
000000d0: 18e4 823d e68a c3bc 0933 e93d 64ce bd3d
000000e0: d84c 65ba 8e1e 8ebd d3fa 943d 343e 203d
000000f0: 684f 8bbd e242 9a3d adae 8f3d 9c50 cf3d
00000100: 4490 72bd af64 6ebc b59f 013b bfe5 a83c
00000110: 21b3 a4bd 8b31 9bbd b0ce 803d 5a8b c4bc
00000120: 808e 673d 091e 123c b489 223d f514 e53c
00000130: e7ce 343d 20e7 6e3d c8c2 cdbd 80ba 6c3d
00000140: e3cf 9cbd f655 acbd f6ec d03b 095a 9fbc
00000150: 4d78 843d d786 84bd 59ff cabd 7e31 a53d
00000160: df4b 88bc 4fef 7d3d 099a 103d b888 abbd
00000170: cd0c b23c 9ba0 d53c 672f 99bd c270 59bd
00000180: d356 1a3d 3c0e a23c c66c 43bd 1493 0cbd
00000190: b3e0 ce3d 7461 afbc 0515 7d3d 1f8b 423d
000001a0: 3d46 94bd b63c c2bd 42ed d93d 81e6 aa3b
000001b0: 3485 9a3d d0a0 b63c dee9 0e3d d744 a83d
000001c0: 5f9f d63d c7e9 97bd df88 5f3c 6881 a93d
000001d0: 3feb a33d 37e5 8c3d 4e32 a5bd da7f a4bd
000001e0: 0924 8abd 4d7a 653c ba1e e33d 96e7 8ebd
000001f0: d581 743d a355 7bbd 99b6 d6bd d4d9 c4bc
00000200: 2321 823d d56e d23d 5e74 8dbd e526 c63c
00000210: dbfd c43d b194 973d 49bd 8d3d 3f1f a03d
00000220: a756 8e3d 6b63 e43c f427 9dbd 90d7 bfbd
00000230: 357f 51bd 7b57 54bc 4179 8bbd a9d9 243d
00000240: c90a 083d b1b2 d7bc 3cd5 293d 1047 0e3d
00000250: 1f3c 893d f3be 973d 733e 1cbd 8354 dd3d
00000260: e29b 61bc 87ea abbb 05d0 d9bd bc99 95bd
00000270: 5ffa 87bd 3a80 47bd 369b 9f3d ae78 18bd
00000280: 03e3 abbd c8be 293d 91e4 1a3d a3d1 983d
00000290: 326a 5ebd 575a e13c 69e8 17bd 09cc b0bc
000002a0: 2fe1 aebd 7059 44bd 1e22 01bd 093e 4c3d
000002b0: e25a bd3c bb67 fc3c 1a85 ea3d 3012 e53d
000002c0: 2680 a23d ac49 e13b 8c93 97bd e615 b73d
000002d0: f838 ccbc 522e b8bb 5dff bbbd 4a75 91bc
000002e0: 4745 8abd 4999 d93d b1c5 bcbd 947d aabd
000002f0: efa4 37ba 3171 68bd 5ab7 323d 68de 1cbd
00000300: ca65 42bd 87aa 333c da48 ae3d c421 97bd
00000310: 554f 653d 9a67 993d f3e6 e53d 36c5 96bd
00000320: 67af 013d 2509 9ebd af57 cc3d 9b87 1cbd
00000330: 407e 923d 5cfc ef3b d768 a1bb 6ae7 6538
00000340: f314 bd3c 2045 6a3d c775 bb3c d633 1f3d
00000350: 48a0 c2bd 3f4b af3d 9fc6 ce3d f4d4 c33d
00000360: d0fe ae3d 1737 9cbd 5011 16bd 6481 d23d
00000370: 4ca1 a3bd 330d d83d 99f4 a9bd f667 98bd
00000380: 7e30 6d3d 8798 9dbd e84f b4bc a8d7 ad3d
00000390: 461f bd3d ecf4 df3d 3ed6 95bc 3fa9 a8bd
000003a0: b23b e73d 4c95 a7bc 1730 31bd 8a4d f63c
000003b0: b4ca 97bd 5665 9d3d f55a 963d acc1 acbd
000003c0: eb72 b3bd bbca d8bb 69d4 4a3d 1d59 4ebb
000003d0: ac7c 66bd d353 2b3b 88b0 d5bd 0ca2 a0bd
000003e0: d510 97bd 91b0 bc3d d9e1 c93d 0532 18bd
000003f0: f74c a53b 3538 4b3d ae34 5b3c 73a1 63bd

conv1.bias f4 [64]
-0.058104847 0.026308758 -0.07554926 -0.04298174 0.07877578 0.057211224 0.07842482 -0.02809736
0.102233335 0.07851717 0.058647737 0.04969164 -0.095155016 -0.06291674 -0.0063008773 0.02905925
0.11875208 0.09866682 -0.041053087 0.06949884 0.042163443 -0.055773135 -0.1108252 0.045065425
0.0073385076 0.028552344 0.08316249 -0.03708908 -0.043635253 0.022616373 -0.04306927 -0.06540717
-0.111593805 -0.0938909 -0.008756617 0.089343846 -0.07003658 0.029881058 0.07567922 0.011813528
-0.0029066561 0.09244047 -0.10568191 0.08271944 0.093135044 0.090696886 0.08264216 -0.007349226
-0.09719665 -0.070110664 -0.097929046 -0.06824564 -0.09901086 0.08001813 0.039360635 -0.048161283
0.0019066758 0.0027768363 -0.01051932 0.07241834 0.051168416 -0.08356179 0.09567905 -0.043941982
00000000: 59ff 6dbd 7785 d73c 92b9 9abd 9f0d 30bd
00000010: 3255 a13d 5156 6a3d 319d a03d 6f2c e6bc
00000020: b65f d13d 9ccd a03d 9c38 703d 7689 4b3d
00000030: a2e0 c2bd 7eda 80bd 9777 cebb aa0d ee3c
00000040: 4a34 f33d d411 ca3d 4827 28bd 6855 8e3d
00000050: 93b3 2c3d 5f72 64bd 53f8 e2bd 8696 383d
00000060: dd77 f03b 9be6 e93c 1851 aa3d b8ea 17bd
00000070: e1ba 32bd f945 b93c 6769 30bd 32f4 85bd
00000080: 4b8b e4bd df49 c0bd ea77 0fbc e8f9 b63d
00000090: 576f 8fbd 1fc9 f43c b5fd 9a3d 878d 413c
000000a0: 997d 3ebb 6e51 bd3d c26f d8bd cf68 a93d
000000b0: 96bd be3d 4abf b93d 4b40 a93d c7d1 f0bb
000000c0: 0a0f c7bd 2e96 8fbd 068f c8bd 5fc4 8bbd
000000d0: 35c6 cabd 8ce0 a33d 9e38 213d c444 45bd
000000e0: 6ce9 f93a 95fb 353b 3a59 2cbc 1150 943d
000000f0: f995 513d 7222 abbd 61f3 c33d 82fc 33bd

conv2.weight f4 [32, 64, 1, 1]
-0.055904243 0.12046585 -0.081038356 -0.030963501 0.0090204775 -0.1180084 0.0917159 0.08383095
-0.1193479 -0.020980394 0.02216293 0.06400737 0.051524594 -0.0128159495 0.107041694 -0.032750122
0.0039684745 -0.08004772 -0.071920745 -0.042907733 -0.11432225 -0.02073514 0.025186183 -0.0862087
-0.10864349 0.11011713 -0.05614028 -0.092111096 -0.03139562 -0.06057009 -0.119307235 -0.016683355
-0.059802923 -0.041120254 0.055734336 0.0058575314 0.10440774 -0.12681782 0.1092888 0.067944854
-0.034420308 0.08646476 0.117043674 0.012251448 0.03472738 -0.040378597 -0.009278421 -0.005989313
-0.06421312 0.021608517 -0.059755363 0.06379351 0.019187823 -0.09687108 0.10874023 0.037394404
0.053021643 -0.12963796 0.093885966 0.031509988 -0.01272012 -0.08182098 0.013870063 0.047690127
0.039284453 0.09216696 -0.11202749 -0.09733532 0.12171545 0.107941136 -0.011214271 0.075557984
0.08936699 0.09062774 -0.059419006 -0.041725922 -0.065322354 -0.034229584 0.118334666 -8.198145e-05
-0.09966235 0.0949659 0.050051793 0.022943296 -0.06554726 0.091581374 -0.10133297 0.062066853
-0.012090776 -0.044494417 -0.111337416 0.017361764 -0.05888681 -0.049012568 0.07062751 -0.08020775
0.11906077 0.10307742 0.091009304 0.013520454 -0.0956586 -0.028085902 -0.060508844 -0.017089954
-0.11650531 -0.05614388 -0.021557368 0.00045298683 -0.03224294 0.028455669 -0.06813282 -0.08515112
-0.09105708 0.11562936 0.075949356 -0.11030622 -0.10568154 -0.0049674064 -0.06588102 0.042378306
-0.04311306 0.014194552 -0.027175723 -0.0942841 -0.010007339 0.11420673 0.10052104 -0.08462494
0.04753816 0.11834843 0.023625309 -0.011316779 0.1080213 0.01538874 -0.0231823 0.16005732
0.05139006 -0.083352484 0.090971254 0.13098937 0.10004559 -0.056228273 -0.03680189 0.09260722
0.08712549 -0.10332479 0.10734525 0.07915253 0.03808736 -0.024536684 -0.010489683 0.07606713
0.037719153 0.103640854 -0.072761185 -0.04336661 -0.014304253 0.051249873 0.043542847 0.06632188
-0.059186805 -0.0105191 0.04869609 -0.054955676 0.08934933 0.090263404 0.062301926 0.07002532
0.07545343 -0.10693643 -0.03695813 0.09163952 -0.053557154 0.021325583 -0.044600885 -0.0049571693
-0.01944405 -0.03588903 0.04267708 0.114804715 0.0023898631 -0.036548447 0.10718279 -0.057038978
0.04256262 0.0154812895 0.06997329 0.08672238 0.04100801 -0.0063567725 0.075582765 0.020014072
-0.012081142 0.03572503 -0.050111912 0.011705626 -0.07368434 0.068265244 0.12088994 -0.0014969348
-0.112846866 0.10045489 -0.06554634 0.10736788 0.08663395 -0.041581556 0.011055481 -0.041810274
0.100522146 -0.09107496 0.016635336 -0.05546757 0.09884058 0.07231382 0.11343448 -0.05754112
0.057071492 -0.102727264 0.077629134 -0.040885203 0.041706413 0.06222997 -0.078389436 0.07023783
-0.04150564 0.05838932 -0.042677574 0.0055174776 0.01270701 0.10997256 0.03041003 0.02378752
-0.023091534 -0.1253203 -0.054850668 -0.044225685 0.0453789 0.0006765747 0.037307754 -0.06484376
-0.12227836 0.045797244 0.086219996 0.06605363 0.10364078 -0.12243871 0.042620026 0.09925926
-0.05280215 0.08226991 0.09567428 0.03873032 -0.11295031 0.06079087 0.13244082 -0.015695153
00000000: d9fb 64bd cdb6 f63d 70f7 a5bd 2ba7 fdbc
00000010: a0ca 133c 63ae f1bd 8cd5 bb3d 90af ab3d
00000020: ac6c f4bd 13df abbc 088f b53c 4c16 833d
00000030: 740b 533d fdf9 51bc ad38 db3d fe24 06bd
00000040: fa09 823b 0ff0 a3bd 2f4b 93bd 05c0 2fbd
00000050: c921 eabd bedc a9bc 4153 ce3c 308e b0bd
00000060: 7a80 debd 1785 e13d 5af3 65bd bea4 bcbd
00000070: b298 00bd 5818 78bd 5a57 f4bd 88ab 88bc
00000080: e9f3 74bd b66d 28bd b049 643d 89f0 bf3b
00000090: bad3 d53d 88dc 01be ced2 df3d ac26 8b3d
000000a0: 4ffc 0cbd 7014 b13d 98b4 ef3d 4cba 483c
000000b0: 4c3e 0e3d 0764 25bd 8504 18bc 0042 c4bb
000000c0: 2b82 83bd 5804 b13c 0ac2 74bd 2ca6 823d
000000d0: c82f 9d3c 5864 c6bd 33b3 de3d e02a 193d
000000e0: 392d 593d d0bf 04be 4947 c03d 9e10 013d
000000f0: 0d68 50bc c291 a7bd 433f 633c b956 433d
00000100: bce8 203d 08c2 bc3d ab6e e5bd be57 c7bd
00000110: f345 f93d 3e10 dd3d 10bc 37bc 25be 9a3d
00000120: 0a06 b73d 099b b93d 5861 73bd cde8 2abd
00000130: bac7 85bd 5234 0cbd 7259 f23d 75ed abb8
00000140: c61b ccbd 7b7d c23d 1c03 4d3d 94f3 bb3c
00000150: a43d 86bd 048f bb3d a987 cfbd d039 7e3d
00000160: 6418 46bc c73f 36bd df04 e4bd 423a 8e3c
00000170: 4c33 71bd 67c1 48bd 28a5 903d f643 a4bd
00000180: 22d6 f33d 411a d33d 1663 ba3d e584 5d3c
00000190: a8e8 c3bd 6814 e6bc 1fd8 77bd 3b00 8cbc
000001a0: 569a eebd 20f7 65bd 1499 b0bc dd7e ed39
000001b0: 2c11 04bd dd1b e93c 3889 8bbd b663 aebd
000001c0: 227c babd 16cf ec3d 568b 9b3d 3ae8 e1bd
000001d0: 906f d8bd a0c5 a2bb a1ec 86bd e094 2d3d
000001e0: 5297 30bd 4490 683c 9f9f debc 0618 c1bd
000001f0: d2f5 23bc 38e5 e93d fadd cd3d d74f adbd
00000200: 60b7 423d a960 f23d dd89 c13c 036a 39bc
00000210: 453a dd3d 0e21 7c3c cfe8 bdbc 11e6 233e
00000220: 627e 523d b5b4 aabd 234f ba3d 1422 063e
00000230: b4e4 cc3d 9e4f 66bd 94bd 16bd dba8 bd3d
00000240: d96e b23d f39b d3bd d4d7 db3d b91a a23d
00000250: 7e01 1c3d 2801 c9bc ebdc 2bbc 15c9 9b3d
00000260: 667f 1a3d a841 d43d d103 95bd 30a1 31bd
00000270: 635c 6abc 63eb 513d fc59 323d c4d3 873d
00000280: dd6d 72bd 4e58 2cbc 8d75 473d 3419 61bd
00000290: c8fc b63d 05dc b83d 4e30 7f3d 6f69 8f3d
000002a0: 5487 9a3d 7d01 dbbd 6861 17bd 80ad bb3d
000002b0: bf5e 5bbd fdb2 ae3c 6baf 36bd c06f a2bb
000002c0: 2149 9fbc 6000 13bd 29ce 2e3d bc1e eb3d
000002d0: 409f 1c3b d3b3 15bd a782 db3d b4a1 69bd
000002e0: 2456 2e3d 3ca5 7d3c 284e 8f3d 819b b13d
000002f0: 04f8 273d 794c d0bb 23cb 9a3d 8df4 a33c
00000300: fbef 45bc 6954 123d 2642 4dbd f4c8 3f3c
00000310: d1e7 96bd a6ce 8b3d 2595 f73d cc34 c4ba
00000320: 421c e7bd 4bbb cd3d 293d 86bd b1e3 db3d
00000330: 246d b13d 6c51 2abd 0c22 353c 4041 2bbd
00000340: 8ede cd3d 8285 babd d446 883c f631 63bd
00000350: ee6c ca3d 4519 943d 5650 e83d 3db0 6bbd
00000360: ccc3 693d ac62 d2bd 06fc 9e3d 3e77 27bd
00000370: 58d4 2a3d dae4 7e3d a48a a0bd dad8 8f3d
00000380: d101 2abd a429 6f3d aece 2ebd f5cb b43b
00000390: 1031 503c 4b39 e13d 751e f93c 0cde c23c
000003a0: 752a bdbc f753 00be 18ab 60bd fe25 35bd
000003b0: 3adf 393d 295c 313a 04d0 183d cecc 84bd
000003c0: 146d fabd e495 3b3d 1c94 b03d 2047 873d
000003d0: 9e41 d43d 25c1 fabd 5692 2e3d 7048 cb3d
000003e0: 1147 58bd 207d a83d e0f0 c33d afa3 1e3d
000003f0: 7e52 e7bd d9ff 783d 919e 073e 1f93 80bc

conv2.bias f4 [32]
-0.06435996 -0.045603637 0.09855307 0.071328916 0.01992514 -0.10670723 0.043119192 0.09452818
0.090242006 -0.068644695 -0.1174631 -0.07576872 -0.116114564 0.10388406 -0.07271737 0.015771246
0.095529445 0.034999035 -0.115235314 -0.0024383792 0.10662648 -0.00063684414 -0.020355843 0.11049703
-0.11079006 -0.05784865 0.011798139 0.13712747 -0.009386411 -0.074454404 -0.118421346 -0.11505775
00000000: 28cf 83bd e1ca 3abd 31d6 c93d e514 923d
00000010: 0c3a a33c 5289 dabd c09d 303d fe97 c13d
00000020: cdd0 b83d 9795 8cbd 7e90 f0bd a12c 9bbd
00000030: 79cd edbd 2bc1 d43d d8ec 94bd b332 813c
00000040: f1a4 c33d 265b 0f3d 7e00 ecbd 37cd 1fbb
00000050: fc5e da3d e3f1 26ba 4cc1 a6bc 444c e23d
00000060: e6e5 e2bd b5f2 6cbd fb4c 413c 256b 0c3e
00000070: 76c9 19bc 8d7b 98bd e486 f2bd 66a3 ebbd

conv3.weight f4 [1, 32, 5, 5]
0.018499643 -0.020040575 0.0046711657 0.0117274495 0.013852467 -0.03427956 0.016205192 -0.0112561695
-0.012333997 -0.006318717 -0.033173148 -0.005082059 0.00965152 -0.034166794 -0.01685415 -0.024635626
-0.022694439 -0.01932451 0.027503407 0.009787841 0.01634164 -0.028612422 -0.016427323 -0.027596187
0.021774856 -0.03246002 -0.029924955 0.00047466907 0.011023716 0.013767555 -0.0034682192 0.0066777593
0.007781912 0.010745602 -0.007965518 0.026035944 0.0039311666 0.020757502 0.012000542 -0.018062329
-0.014313843 -0.019110367 -0.0026060662 0.0051927017 0.000924497 0.031606402 0.033219635 0.01041338
0.0031326544 -0.019752173 0.028635837 -0.009928971 -0.021213964 0.023573518 0.02670416 0.024106828
0.011380942 -0.008718769 0.029555595 0.03899746 0.024871398 0.029358177 -0.005320448 0.023176083
-0.0073329452 -0.0017151876 0.022135055 0.02210186 0.028340288 0.0031244138 -0.0021945299 0.01540135
0.026713202 0.013427468 -0.020055406 0.035263106 0.01887571 0.0159662 -0.0045020585 0.03458705
0.0044199284 0.0029118743 0.019588495 0.0010416987 0.009144141 0.00471679 0.012957778 0.005941988
-0.018130602 -0.0065507162 0.034788925 0.027005922 0.00084144535 0.0065482166 -0.019792937 0.029394843
-0.030381758 0.021806587 0.028919138 0.010984379 0.014913153 -0.033446696 -0.012909588 -0.018363612
0.012830032 -0.03208645 -0.023407098 0.012177396 0.0066807256 -0.03548276 0.02463469 0.020221116
0.004594202 0.00023492103 -0.030548729 -0.03621336 -0.028757311 -0.027255988 -0.025304424 -0.020791396
0.031864304 -0.03655597 0.02863357 0.028116627 0.0029277443 0.0017280926 0.011780614 0.0040676473
-0.027497562 -0.028517604 0.033442654 -0.012456253 0.018764317 0.013157623 -0.017808469 -0.0030323395
-0.006690665 0.033197027 0.003219505 0.01130996 -0.02147167 -0.018058598 -0.026477903 0.016127298
-0.02892055 0.017077832 0.017724833 0.0059581273 -0.011062473 0.020924222 -0.027183145 0.023614174
0.0010454647 -0.02897385 0.011072476 -0.017958852 0.027735842 -0.028990328 0.023004675 0.0065577403
-0.03594404 0.011674452 -0.011976834 0.011914078 0.0027623815 -0.019822054 0.0072377115 -0.019925132
-0.007726646 -0.001576141 0.0159819 0.0038173755 -0.03421558 0.01363831 -0.0059427475 -0.0213818
0.033847902 0.010421331 0.017409302 -3.0870204e-05 -0.031164415 0.024564171 0.012056085 -0.014173027
0.031354856 -0.028402869 0.027358763 0.019266773 0.024887566 0.0032100622 -0.021371437 0.0054991725
-0.021015953 -0.006285305 -0.013099285 -0.025461579 0.030161263 -0.029272953 0.025507018 -0.009799663
-0.023935195 0.011918003 -0.017043326 0.026794143 0.019998316 0.030275833 0.0005340098 -0.035084862
0.0063886284 -0.008009899 0.011387952 0.00645215 -0.030443229 0.021841126 -0.025566638 -0.031909913
-0.007759507 0.03430827 -0.023091372 -0.0007128225 -0.022003038 0.020392282 -0.011276461 -0.029214785
0.013747514 -0.025744885 0.028516093 0.017132662 0.0037502607 0.013347415 -0.01970607 0.031286526
0.0018559567 -0.027328832 0.007079964 -0.026218873 -0.0046128035 -0.025561519 -0.034618195 0.0097090565
-0.028533952 0.022353722 0.02760384 0.011976882 -0.0040608984 -0.00986103 -0.0120378565 -9.523901e-05
0.02214321 0.02332453 0.010641144 0.030284746 -0.031834885 0.00015963119 0.03139656 -0.0057262145
00000000: 908c 973c 222c a4bc 9410 993b 7d24 403c
00000010: 75f5 623c b968 0cbd c0c0 843c cc6b 38bc
00000020: 8814 4abc 3d0d cfbb 91e0 07bd 6787 a6bb
00000030: 6921 1e3c 7bf2 0bbd b711 8abc a7d0 c9bc
00000040: b0e9 b9bc 6f4e 9ebc d34e e13c 2e5d 203c
00000050: e7de 853c 9964 eabc 9892 86bc 6611 e2bc
00000060: 2f61 b23c ccf4 04bd 2e25 f5bc 01dd f839
00000070: d19c 343c 5091 613c 104b 63bb 1bd1 da3b
00000080: 69ff fe3b 520e 303c ce81 02bc 5549 d53c
00000090: 04d1 803b a30b aa3c ec9d 443c 73f7 93bc
000000a0: 9c84 6abc 588d 9cbc 89ca 2abb 8a27 aa3b
000000b0: f259 723a b775 013d 5011 083d e29c 2a3c
000000c0: 384d 4d3b 4fcf a1bc b495 ea3c 1fad 22bc
000000d0: e8c8 adbc 401d c13c afc2 da3c af7b c53c
000000e0: 2177 3a3c 2bd9 0ebc 931e f23c cdbb 1f3d
000000f0: 1abf cb3c 8f80 f03c 2757 aebb c5db bd3c
00000100: 3449 f0bb 25d0 e0ba 9354 b53c f60e b53c
00000110: e429 e83c f7c2 4c3b 1ad2 0fbb f255 7c3c
00000120: a5d5 da3c e2fe 5b3c 3c4b a4bc 0c70 103d
00000130: 3ca1 9a3c 8ccb 823c 0186 93bb 27ab 0d3d
00000140: 0cd5 903b 25d5 3e3b 0d78 a03c 9c89 883a
00000150: 4fd1 153c 4d8f 9a3b dc4c 543c 02b5 c23b
00000160: a186 94bc 64a7 d6bb d57e 0e3d 863b dd3c
00000170: 7194 5c3a 6c92 d63b cc24 a2bc 74cd f03c
00000180: 2ae3 f8bc baa3 b23c d4e7 ec3c d3f7 333c
00000190: 4c56 743c 67ff 08bd bd82 53bc 496f 96bc
000001a0: 0e35 523c 156d 03bd 3ec0 bfbc b383 473c
000001b0: fde9 da3b 5f56 11bd b0ce c93c c1a6 a53c
000001c0: f68a 963b 2255 7639 5441 fabc 7654 14bd
000001d0: 7494 ebbc f347 dfbc 394b cfbc b852 aabc
000001e0: 2584 023d b6bb 15bd f390 ea3c d754 e63c
000001f0: 66df 3f3b 2a81 e23a 7a03 413c e649 853b
00000200: 9142 e1bc c09d e9bc 2afb 083d 5015 4cbc
00000210: a0b7 993c 1293 573c 11e3 91bc 37ba 46bb
00000220: 5e3d dbbb 9bf9 073d 55fe 523b 694d 393c
00000230: 5be5 afbc a0ef 93bc 30e8 d8bc 651d 843c
00000240: caea ecbc cfe6 8b3c ab33 913c 653c c33b
00000250: 603f 35bc 4669 ab3c 30af debc 8372 c13c
00000260: f907 893a 915a edbc 5569 353c 711e 93bc
00000270: 4736 e33c 207d edbc 4d74 bc3c 50e2 d63b
00000280: 0f3a 13bd 3346 3f3c 7c3a 44bc 4433 433c
00000290: 1209 353b dc61 a2bc 532a ed3b 083a a3bc
000002a0: ce2f fdbb 8496 ceba 79ec 823c ef2c 7a3b
000002b0: a325 0cbd 3873 5f3c 61bb c2bb e228 afbc
000002c0: 19a4 0a3d 3bbe 2a3c f49d 8e3c a17a 01b8
000002d0: 844c ffbc cd3a c93c e386 453c fc35 68bc
000002e0: f36d 003d 22ad e8bc 7c1f e03c 5ad5 9d3c
000002f0: 02e1 cb3c e85f 523b 2713 afbc 6732 b43b
00000300: a629 acbc f6f4 cdbb 629e 56bc cd94 d0bc
00000310: c114 f73c d5cd efbc 18f4 d03c c48e 20bc
00000320: be13 c4bc ba43 433c 729e 8bbc 647f db3c
00000330: 82d3 a33c 0605 f83c cbfc 0b3a 25b5 0fbd
00000340: b357 d13b f43b 03bc 8894 3a3c 8f6c d33b
00000350: 1464 f9bc 29ec b23c 2071 d1bc f8b3 02bd
00000360: 7643 febb d486 0c3d 1e2a bdbc b5dc 3aba
00000370: b73f b4bc b70d a73c e8c0 38bc d853 efbc
00000380: 413d 613c f0e6 d2bc 959a e93c cc59 8c3c
00000390: efc6 753b 1eaf 5a3c a06e a1bc 4d26 003d
000003a0: 9343 f33a b7e0 dfbc 0bff e73b f6c8 d6bc
000003b0: 0027 97bb 6466 d1bc cfcb 0dbd bc12 1f3c
000003c0: 09c0 e9bc 271f b73c 7321 e23c af3a 443c
000003d0: 4911 85bb 2890 21bc 6e3a 45bc 0ebb c7b8
000003e0: ad65 b53c 1613 bf3c 3158 2e3c b717 f83c
000003f0: 4c65 02bd ac62 2739 ae99 003d f8a2 bbbb
