resutls_128/epoch_22.101.pth (torch, 34981 bytes, 5 tensors)

conv1.weight f4 [64, 1, 9, 9]
000000 8a 0d 76 3d af 0a 3d bd 85 c5 97 bc ab 4a 62 3d
       0.060071506 -0.046152767 -0.018526802 0.05524699
000010 bd bf cf bd 1e cb 8e 3d 70 72 a3 bc 68 e5 72 3d
       -0.10143993 0.06972335 -0.019952029 0.05930081
000020 c1 87 94 3c 67 5d 2d bc 49 f4 0a 3d 60 01 0f 3c
       0.018131139 -0.010581351 0.033924375 0.008728355
000030 f4 ea 33 3d bf 52 23 bd e6 9a 9b bb a9 2a e0 bb
       0.04392524 -0.039873835 -0.00474869 -0.006841023
000040 97 a0 9c 3c 57 8d 21 3b ba d4 cd 3d 3c da 1b 3d
       0.019119544 0.0024650896 0.1005034 0.03804992
000050 71 9c 1a bd d4 c3 81 bd d1 42 72 bc 3e e6 34 bd
       -0.03774685 -0.063361794 -0.014786438 -0.04416489
000060 68 43 03 bd ba bc 0e 3c f2 56 8e 3d d0 f1 82 3d
       -0.032046705 0.008711988 0.06950177 0.06393778
000070 ef f4 d6 bd 44 ea 94 3d 66 5a 0f 3d 69 27 e0 3d
       -0.10495936 0.07271245 0.03499832 0.10945017
000080 33 56 9e 3d 01 a5 c7 bd 37 0c d1 bd 4b 78 4d bd
       0.07731285 -0.09748269 -0.10207408 -0.05016355
000090 08 78 cf 3d 17 02 70 bc 40 54 53 3d 6b 66 42 bd
       0.10130316 -0.014648936 0.05159402 -0.047460955
0000a0 de 06 e8 3d 48 73 2f bd 67 ba b2 3d 44 e6 a5 3b
       0.11329435 -0.04283455 0.0872696 0.00506285
0000b0 8e 0b 61 bd 3e d8 78 3d f8 25 62 bd 54 0a 16 3d
       -0.05494266 0.0607531 -0.05521199 0.036630943
0000c0 67 69 e5 bc d6 4f 03 bc d9 72 d2 bd e7 56 49 bd
       -0.028004361 -0.00801464 -0.10275812 -0.049155142
0000d0 8a e3 82 3d a7 e2 c0 bc 77 e9 e9 3d 01 eb bd 3d
       0.06391056 -0.023545576 0.11421483 0.09273339
0000e0 d6 9c b1 ba 17 c5 8f bd 40 d8 92 3d d6 50 1d 3d
       -0.0013550769 -0.07020014 0.07170153 0.03840717
0000f0 bc 91 8b bd 2c ec 9a 3d 71 f7 90 3d 70 be d0 3d
       -0.06814906 0.075645775 0.07078446 0.10192573
000100 ac c9 70 bd 9a 9c 6f bc 93 cf d3 3a 57 4e a4 3c
       -0.05878608 -0.014624739 0.0016159884 0.020056887
000110 c5 1c a5 bd c9 66 9a bd c7 79 82 3d 09 bf bb bc
       -0.08062128 -0.07539136 0.063708834 -0.022918241
000120 00 90 6b 3d fc 78 1e 3c ed b8 23 3d 61 73 e5 3c
       0.057510376 0.0096724 0.03997128 0.028009119
000130 68 54 34 3d ea ee 6f 3d d1 11 cc bd 7f b4 71 3d
       0.04402581 0.058577456 -0.09964336 0.059010025
000140 6c e8 99 bd 62 7f ac bd ab d7 cf 3b 10 b5 9e bc
       -0.07515034 -0.08422734 0.0063428483 -0.019373447
000150 e2 c4 84 3d ce 7a 84 bd 3d 02 cb bd d8 fd a4 3d
       0.06482865 -0.06468736 -0.09912536 0.08056229
000160 1c 39 89 bc ea 70 7e 3d 0e 8a 10 3d 87 91 ab bd
       -0.016750865 0.062119402 0.03528791 -0.083773665
000170 f2 f6 b2 3c ed dc d6 3c 27 1a 99 bd 19 6d 59 bd
       0.021846268 0.026228392 -0.07475691 -0.05308256
000180 e2 ef 19 3d 08 d2 a0 3c 3d 1b 43 bd f8 06 0c bd
       0.037582286 0.0196314 -0.0476334 -0.034186333
000190 77 3e cf 3d 82 3f ad bc 23 43 7e 3d 82 2f 43 3d
       0.10119336 -0.021148447 0.062075745 0.04765273
0001a0 03 05 94 bd 5a 4e c2 bd c8 b8 d9 3d b4 ab af 3b
       -0.072275184 -0.094876006 0.10630947 0.005361045
0001b0 e0 cb 9a 3d 1f be b7 3c 00 e1 0f 3d 76 cb a8 3d
       0.07558417 0.022429524 0.035126686 0.08241932
0001c0 c0 d6 d6 3d 2e e6 97 bd dd a7 5d 3c 73 26 a9 3d
       0.10490179 -0.0741695 0.013528791 0.08259287
0001d0 07 fb a3 3d 83 85 8c 3d 2d 8f a5 bd ac bf a4 bd
       0.08006864 0.06861403 -0.08083949 -0.08044371
0001e0 80 69 8a bd 12 92 60 3c dc 55 e2 3d f0 0a 90 bd
       -0.06758404 0.013706701 0.110515326 -0.07033336
0001f0 09 0d 72 3d f8 cf 7c bd 24 e7 d6 bd 0c 58 c5 bc
       0.059094463 -0.061721772 -0.10493305 -0.024089836
000200 4a 23 82 3d ce 63 d2 3d 46 e4 8d bd 40 82 c3 3c
       0.06354387 0.102729425 -0.06928305 0.023865819
000210 a5 ff c3 3d e6 7b 96 3d 01 43 8d 3d 57 86 a0 3d
       0.09570245 0.073478505 0.068975456 0.07838123
000220 8a bb 8e 3d 2f 4e e6 3c 2e b3 9c bd 14 e4 bf bd
       0.06969364 0.028113453 -0.07651363 -0.09369674
000230 92 01 52 bd e4 af 58 bc 6e 0b 8c bd 92 d5 24 3d
       -0.05127103 -0.013225529 -0.068381175 0.04024274
000240 0d ff 09 3d 45 de d3 bc f9 07 2c 3d 0d 63 10 3d
       0.0336905 -0.025862822 0.04199979 0.035250712
000250 f6 da 89 3d b7 37 98 3d b4 eb 1b bd 73 71 dd 3d
       0.067312166 0.07432502 -0.03806658 0.10812654
000260 a6 bc 5b bc f5 96 96 bb f3 64 d8 bd 1a 14 94 bd
       -0.0134116765 -0.004595632 -0.105661295 -0.072303966
000270 6d 7c 86 bd aa 47 45 bd 95 7f a0 3d 20 11 17 bd
       -0.06566701 -0.048164047 0.07836834 -0.036881566
000280 e5 34 ab bd a1 42 2c 3d f2 92 1e 3d f2 23 9a 3d
       -0.08359698 0.04205573 0.038714357 0.07526387
000290 47 3e 5d bd c9 46 e2 3c 18 5e 17 bd fc ec af bc
       -0.05401447 0.027621644 -0.03695497 -0.021475308
0002a0 b0 51 ae bd 01 11 42 bd ac a6 fc bc f6 90 4f 3d
       -0.085116744 -0.047379497 -0.030841194 0.050675355
0002b0 a5 8f c1 3c 82 b0 fd 3c 6e 72 ea 3d 85 08 e5 3d
       0.023628065 0.030967955 0.11447607 0.111832656
0002c0 b8 6f a2 3d b1 73 e5 3b 46 b3 96 bd 24 62 b8 3d
       0.07931465 0.007002317 -0.073584124 0.09003094
0002d0 ad 78 c8 bc 4c de b3 bb 01 79 bc bd 91 0f 95 bc
       -0.024471605 -0.0054891463 -0.09202767 -0.0181959
0002e0 84 28 8b bd a1 b0 d8 3d d7 4a bd bd 66 56 aa bd
       -0.06794837 0.10580564 -0.0924279 -0.083172604
0002f0 84 3d e2 b9 58 f5 67 bd 1d c1 31 3d 23 6d 1f bd
       -0.00043151912 -0.056630462 0.043397058 -0.03892244
000300 0a c4 45 bd 0d 76 26 3c f9 9c ac 3d 2f 5a 98 bd
       -0.04828266 0.010159981 0.08428378 -0.07439076
000310 73 56 64 3d 24 4a 99 3d e3 c5 e5 3d 5f af 97 bd
       0.055746507 0.07484844 0.112193845 -0.07406496
000320 2d 87 fc 3c 95 20 a0 bd 2c 51 ca 3d 90 8d 20 bd
       0.030826176 -0.078187145 0.098787636 -0.039197505
000330 0b e3 90 3d 5f e2 e2 3b f8 6e a8 bb 1c 4e d0 b6
       0.07074555 0.006923958 -0.0051401816 -6.207976e-06
000340 7a 68 b9 3c 9d c1 66 3d 97 de b2 3c a3 13 1b 3d
       0.022632826 0.056336988 0.021834655 0.037860524
000350 d5 9f c4 bd 4a ad ad 3d d7 e2 cd 3d ab 60 c3 3d
       -0.09600798 0.08480318 0.10053032 0.09539922
000360 5b 58 af 3d 8f a8 9c bd d4 b8 18 bd 7e c0 d0 3d
       0.08561774 -0.076493375 -0.03728564 0.10192965
000370 96 4e a5 bd 35 68 d6 3d 8c 2b ab bd 25 e3 98 bd
       -0.0807163 0.10469095 -0.08357915 -0.074651994
000380 3a e3 6c 3d d9 a4 9c bd b1 7e b3 bc ca 3d ad 3d
       0.057833888 -0.0764863 -0.021910997 0.08459051
000390 7f 10 bc 3d a7 f2 de 3d 03 e2 99 bc 58 50 a9 bd
       0.09182834 0.10886126 -0.018784529 -0.082672775
0003a0 50 39 e7 3d bc 06 a6 bc 9e 10 2e bd f9 c4 f9 3c
       0.11290228 -0.020266883 -0.042496316 0.030489432
0003b0 92 be 97 bd 8b 15 9d 3d 63 10 96 3d 7f 1f ad bd
       -0.07409395 0.076701246 0.07327344 -0.08453273
0003c0 fc 98 b3 bd a0 ea cf bb bf a5 4c 3d 1c 16 55 bb
       -0.08769414 -0.006345108 0.049962755 -0.00325144
0003d0 e7 e9 66 bd 0a 5d 24 3b e3 dc d5 bd bd cd a0 bd
       -0.05637541 0.002507987 -0.104425214 -0.078517415
0003e0 a2 75 97 bd ac d1 bb 3d f4 02 c9 3d 2d eb 19 bd
       -0.073954836 0.09170851 0.098150164 -0.037577797
0003f0 26 1b a2 3b 3b ce 4a 3d f1 8a 59 3c 84 0d 64 bd
       0.004947084 0.049513083 0.013277755 -0.055676952

conv1.bias f4 [64]
000000 06 f1 58 bd f3 27 e1 3c 01 4a 96 bd 3a e3 30 bd
       -0.052964233 0.02748487 -0.07338334 -0.04318545
000010 4e c2 a2 3d d8 9c 62 3d 80 1e a3 3d 6d b4 b1 bc
       0.07947217 0.05532536 0.07964802 -0.021692479
000020 1a b6 cf 3d d7 0a 9d 3d 47 35 68 3d 83 05 6f 3d
       0.10142155 0.07668083 0.056691434 0.058354866
000030 a2 e0 c2 bd a6 33 7e bd 2c 0e 30 bb 06 71 c7 3c
       -0.095155016 -0.062060975 -0.0026863916 0.024345886
000040 43 4d e8 3d e3 6f c9 3d 6b 9c 3e bd 11 2a 93 3d
       0.113428615 0.09835794 -0.04653589 0.07185758
000050 da 03 2e 3d 0b d0 60 bd e9 ce df bd d0 d2 39 3d
       0.042484142 -0.054885905 -0.10928137 0.045367062
000060 8a 65 86 3c 37 6a dd 3c 4f 5b a2 3d 46 0e 13 bd
       0.01640584 0.027028186 0.07927572 -0.035902284
000070 e9 c6 31 bd ed 22 b0 3c 67 69 30 bd 32 f4 85 bd
       -0.043402586 0.021501029 -0.04306927 -0.06540717
000080 3f ea e3 bd 6f bf c0 bd d7 9e 10 bc 7f ea b6 3d
       -0.11128663 -0.09411513 -0.008826933 0.08931445
000090 57 6f 8f bd e4 4f d6 3c 13 ba 84 3d 3f a6 66 3c
       -0.07003658 0.026161142 0.06480803 0.014077722
0000a0 b8 dd 58 bb ab 8f b1 3d 0a 86 d8 bd 61 67 b1 3d
       -0.003309114 0.086699806 -0.10572441 0.08662296
0000b0 dc ba bd 3d 68 e8 c1 3d 99 f2 a8 3d c7 d1 f0 bb
       0.09264156 0.09468156 0.08249397 -0.007349226
0000c0 d1 ef c1 bd 2e 96 8f bd 9b 79 c4 bd ad a4 8c bd
       -0.094695695 -0.070110664 -0.09593507 -0.06867347
0000d0 35 c6 ca bd 9f 88 a0 3d 8c 3b 3c 3d c4 44 45 bd
       -0.09901086 0.078385584 0.045955226 -0.048161283
0000e0 f1 eb 15 bb 65 79 0c 3c 82 2d d3 ba 6f 2c 9c 3d
       -0.0022876228 0.008573865 -0.0016111585 0.076256625
0000f0 45 0b 4e 3d b7 7d ad bd 0a f1 cd 3d 77 fc 33 bd
       0.050303716 -0.08471244 0.1005574 -0.04394194

conv2.weight f4 [32, 64, 1, 1]
000000 df 5a 62 bd 7a 89 f8 3d 02 d2 a4 bd 2b a7 fd bc
       -0.055262443 0.121355966 -0.08047868 -0.030963501
000010 f8 ac 20 3c 16 4f ef bd 8c d5 bb 3d f2 b1 b0 3d
       0.009806864 -0.11685006 0.0917159 0.086276904
000020 ac 6c f4 bd 49 ed aa bc 08 8f b5 3c f4 59 87 3d
       -0.1193479 -0.0208651 0.02216293 0.06608954
000030 74 0b 53 3d 5a 53 4c bc d3 8d dc 3d 4d db 01 bd
       0.051524594 -0.012471044 0.10769238 -0.031703282
000040 ac 84 95 3b 4d ee a3 bd 6f 43 93 bd 26 37 2a bd
       0.004562935 -0.08004437 -0.07190596 -0.0415565
000050 c9 21 ea bd 8c cc a6 bc 41 53 ce 3c 30 8e b0 bd
       -0.11432225 -0.020361207 0.025186183 -0.0862087
000060 23 76 dc bd fa 63 e2 3d 99 fa 64 bd be a4 bc bd
       -0.1076472 0.11054225 -0.05590305 -0.092111096
000070 b2 98 00 bd 85 20 76 bd 5a 57 f4 bd 88 ab 88 bc
       -0.03139562 -0.060089607 -0.119307235 -0.016683355
000080 9b 61 73 bd 19 87 27 bd b0 49 64 3d 82 40 c1 3b
       -0.059419256 -0.040900324 0.055734336 0.0058975825
000090 ba d3 d5 3d f9 00 01 be d6 d2 df 3d 9a 05 8c 3d
       0.10440774 -0.12598027 0.10928886 0.06837006
0000a0 4f fc 0c bd 70 14 b1 3d 98 b4 ef 3d 30 99 49 3c
       -0.034420308 0.08646476 0.117043674 0.012304589
0000b0 4c 3e 0e 3d 4d ad 22 bd 85 04 18 bc 00 42 c4 bb
       0.03472738 -0.039716054 -0.009278421 -0.005989313
0000c0 2b 82 83 bd 58 04 b1 3c 06 a4 71 bd 2c a6 82 3d
       -0.06421312 0.021608517 -0.058994316 0.06379351
0000d0 c8 2f 9d 3c 58 64 c6 bd 5b ac df 3d e0 2a 19 3d
       0.019187823 -0.09687108 0.10921546 0.037394404
0000e0 13 42 5b 3d 3d 2c 04 be 8e 92 c4 3d b4 cd 06 3d
       0.05352981 -0.129075 0.095982656 0.032911018
0000f0 a3 5f 42 bc c2 91 a7 bd 42 30 7c 3c b9 56 43 3d
       -0.011863622 -0.08182098 0.015392365 0.047690127
000100 38 e9 1d 3d f3 fb ba 3d 61 c7 e7 bd be 57 c7 bd
       0.038552493 0.09130087 -0.113173254 -0.09733532
000110 8c f8 f7 3d c1 cd d9 3d 10 bc 37 bc 52 dc 92 3d
       0.121079534 0.106349476 -0.011214271 0.07170929
000120 0a 06 b7 3d 4e 32 b9 3d 58 61 73 bd c6 d4 35 bd
       0.08936699 0.09042798 -0.059419006 -0.04439237
000130 ba c7 85 bd 5c 4f 0c bd 9f 2c f1 3d 1e 9e d5 ba
       -0.065322354 -0.03425537 0.11776089 -0.0016297733
000140 db 49 cc bd 1a a0 c1 3d e0 53 4a 3d 91 55 ad 3c
       -0.09975024 0.09454365 0.049396396 0.021158965
000150 a4 3d 86 bd 55 50 ba 3d 61 dd cf bd d0 39 7e 3d
       -0.06554726 0.09097353 -0.101496466 0.062066853
000160 16 5b 64 bc 3b a1 39 bd 9e c3 e5 bd 87 f5 8c 3c
       -0.013937732 -0.045319777 -0.11218952 0.01720692
000170 4c 33 71 bd 28 cc 49 bd 28 a5 90 3d f6 43 a4 bd
       -0.05888681 -0.049266964 0.07062751 -0.08020775
000180 7b f2 f2 3d 56 df d0 3d 16 63 ba 3d 1f 06 57 3c
       0.11862656 0.10198848 0.091009304 0.013124018
000190 a8 e8 c3 bd b9 6a e9 bc 51 78 77 bd 43 63 8f bc
       -0.0956586 -0.028493272 -0.060417477 -0.017503386
0001a0 56 9a ee bd 20 f7 65 bd a2 1e b1 bc 63 9d 1b 39
       -0.11650531 -0.05614388 -0.021621052 0.00014840583
0001b0 2c 11 04 bd 27 87 dd 3c 38 89 8b bd b6 63 ae bd
       -0.03224294 0.027041985 -0.06813282 -0.08515112
0001c0 23 7c ba bd 16 cf ec 3d bf 9a 99 3d 3a e8 e1 bd
       -0.091057085 0.11562936 0.075002186 -0.11030622
0001d0 90 6f d8 bd a0 c5 a2 bb f3 20 88 bd e0 94 2d 3d
       -0.10568154 -0.0049674064 -0.066469096 0.042378306
0001e0 de 9f 33 bd 8c ad 56 3c 14 a6 f3 bc 9f d1 c4 bd
       -0.043853633 0.0131029 -0.029742278 -0.096102946
0001f0 a7 b1 37 bc ca 32 e9 3d 04 f6 c9 3d ba 2e ae bd
       -0.011211789 0.1138664 0.09861377 -0.08505006
000200 4a 7e 3e 3d 35 71 ee 3d f8 56 9a 3c f4 01 42 bc
       0.046507157 0.11642686 0.018840298 -0.011841286
000210 88 55 dc 3d 5c 5d 42 3c 39 c9 bb bc 53 30 18 3e
       0.10758501 0.011863079 -0.022923099 0.14862184
000220 55 af 54 3d af 77 a0 bd 75 a7 bb 3d 9b bb 00 3e
       0.051925022 -0.07835328 0.09162799 0.12571566
000230 b4 e4 cc 3d 97 64 6a bd a8 5d 2a bd d0 7a bb 3d
       0.10004559 -0.057224836 -0.041593224 0.09154284
000240 3c c8 be 3d fa 68 d4 bd 8e e6 d6 3d 64 c0 99 3d
       0.093155354 -0.10371585 0.104931936 0.07507399
000250 a3 c8 19 3d cc 4d d0 bc 05 91 3b bc 84 d8 9b 3d
       0.037544858 -0.025427721 -0.01144815 0.076096565
000260 16 83 02 3d 93 1f cd 3d 88 c7 99 bd 35 41 33 bd
       0.031863295 0.10015788 -0.07508761 -0.04376336
000270 f0 45 6b bc fa b5 5a 3d fc 59 32 3d c4 d3 87 3d
       -0.014359936 0.053396203 0.043542847 0.06632188
000280 ed 29 7a bd 75 97 6a bc 4a 65 47 3d de 19 63 bd
       -0.06107514 -0.014318337 0.04868058 -0.05544459
000290 c8 fc b6 3d 3b 7c ba 3d 0c e4 88 3d 95 2c 8a 3d
       0.08934933 0.09105726 0.066841215 0.067467846
0002a0 54 87 9a 3d 96 e8 d9 bd 32 a6 1a bd ae f4 bc 3d
       0.07545343 -0.10640065 -0.037756152 0.092263564
0002b0 25 30 58 bd c0 df a3 3c 5b 17 33 bd c0 6f a2 bb
       -0.05278029 0.020004153 -0.043723445 -0.0049571693
0002c0 30 48 a3 bc 60 00 13 bd 23 8d 1f 3d bc 1e eb 3d
       -0.019931883 -0.03588903 0.038952958 0.114804715
0002d0 40 9f 1c 3b a0 6c 14 bd 0c ee de 3d b4 a1 69 bd
       0.0023898631 -0.036236405 0.108852476 -0.057038978
0002e0 8d 46 37 3d cd d5 80 3c 3a 64 87 3d 97 85 ac 3d
       0.044745017 0.015726948 0.066109136 0.08423918
0002f0 e7 50 1b 3d 86 4e 04 bc 6f 3b 96 3d a8 a0 99 3c
       0.03791895 -0.008075362 0.07335555 0.018753365
000300 22 c3 52 bc e3 1c 0d 3d 66 0f 5a bd 43 77 3a 3c
       -0.012863906 0.034451377 -0.05323734 0.011380973
000310 2e a3 96 bd 4f a5 86 3d 0d ef f7 3d ee 2d 1f bc
       -0.07355343 0.06574499 0.12106142 -0.00971554
000320 5b 37 e6 bd 24 92 d5 3d a7 1e 85 bd dd e6 d4 3d
       -0.11241027 0.10428265 -0.06499987 0.10395596
000330 24 6d b1 3d e2 08 2d bd 00 ed 02 3c 1a ae 2c bd
       0.08663395 -0.0422448 0.0079910755 -0.042158224
000340 a1 46 d7 3d 29 8c ba bd 8e 37 71 3c a8 e3 6e bd
       0.10511518 -0.09108765 0.014722718 -0.05832258
000350 3f bd c9 3d 8c c2 91 3d 28 71 e6 3d 89 72 6b bd
       0.09850549 0.07117185 0.112520516 -0.057482276
000360 4a 31 58 3d 67 40 d8 bd be 6b 9c 3d f2 cd 28 bd
       0.05278138 -0.10559159 0.07637738 -0.04121203
000370 8d d3 2a 3d 67 57 82 3d a4 8a a0 bd da d8 8f 3d
       0.041705657 0.06364327 -0.078389436 0.07023783
000380 3f ac 31 bd 65 61 63 3d ae ce 2e bd 32 51 ad 3b
       -0.043377157 0.055512805 -0.042677574 0.0052892203
000390 10 31 50 3c 52 80 e2 3d 54 3c 0a 3d 23 5e b6 3c
       0.01270701 0.110596314 0.03374894 0.022261685
0003a0 b6 2a bd bc 71 ee ff bd cd 7f 62 bd 78 24 33 bd
       -0.023091655 -0.12496651 -0.05529766 -0.04373595
0003b0 ff 87 3c 3d 48 0a 10 b7 9f fa 1b 3d ce cc 84 bd
       0.046028133 -8.585463e-06 0.038080808 -0.06484376
0003c0 cc 7d fb bd e4 95 3b 3d 16 88 aa 3d 20 47 87 3d
       -0.12279853 0.045797244 0.083267376 0.06605363
0003d0 9e 41 d4 3d 05 47 fa bd 6a 33 33 3d 70 48 cb 3d
       0.10364078 -0.12220577 0.043750204 0.09925926
0003e0 79 fb 52 bd ae 28 a9 3d 22 aa bd 3d 73 f0 17 3d
       -0.051509354 0.08259712 0.09260966 0.037094545
0003f0 96 b9 eb bd 40 fa 72 3d f0 5f 06 3e f3 0a 88 bc
       -0.11510007 0.05932069 0.13122535 -0.016606783

conv2.bias f4 [32]
000000 05 44 7e bd 31 d3 49 bd 33 31 f4 3d 10 e3 b7 3d
       -0.062076587 -0.049273673 0.119234465 0.089788556
000010 32 c8 40 3b 52 89 da bd ff 12 1a 3d 8a 8a c6 3d
       0.00294162 -0.10670723 0.037615772 0.09694393
000020 2d 35 b2 3d 41 84 8c bd 7e 90 f0 bd d5 35 97 bd
       0.08701549 -0.06861163 -0.1174631 -0.073833145
000030 d6 a9 e9 bd 9b 9d b5 3d d6 6b 94 bd fa 2b 27 3c
       -0.11409347 0.088679515 -0.072471306 0.010203356
000040 10 1b df 3d c3 74 27 3d 7a b3 e6 bd 37 cd 1f bb
       0.10893834 0.040882837 -0.11264701 -0.0024383792
000050 6e 64 ee 3d 46 7a 60 3c 47 01 8f bc ba eb c9 3d
       0.11640249 0.013701027 -0.017456664 0.098594144
000060 e6 e5 e2 bd cf f2 6d bd 1d f4 83 3c 20 ba ef 3d
       -0.11079006 -0.05809289 0.016107613 0.117054224
000070 5a 27 f9 bc 8d 7b 98 bd e4 86 f2 bd 66 a3 eb bd
       -0.030414272 -0.074454404 -0.118421346 -0.11505775

conv3.weight f4 [1, 32, 5, 5]
000000 90 8c 97 3c 22 2c a4 bc 20 a2 98 3b d7 ae 3f 3c
       0.018499643 -0.020040575 0.0046579987 0.0116994
000010 75 1c 62 3c b9 68 0c bd c0 c0 84 3c 95 bc 38 bc
       0.01380073 -0.03427956 0.016205192 -0.01127543
000020 1e c7 4a bc 31 ff d0 bb 91 e0 07 bd cc 59 a7 bb
       -0.012376575 -0.0063780774 -0.033173148 -0.00510714
000030 11 99 1d 3c 7b f2 0b bd ea b2 8a bc 4e 26 ca bc
       0.009619013 -0.034166794 -0.016931016 -0.024676468
000040 8b 4f ba bc b9 d7 9e bc 3e 91 e0 3c ed d6 1e 3c
       -0.022743007 -0.019389974 0.027413007 0.009694797
000050 e0 0c 85 3c 6a 3a eb bc b9 6e 87 bc 1d f0 e2 bc
       0.01624149 -0.028714377 -0.016532289 -0.027702386
000060 ee 7d b1 3c a0 7e 07 bd 59 bf fa bc cd 28 a7 b9
       0.021666493 -0.033079743 -0.03060882 -0.0003188312
000070 20 97 27 3c 7f 7a 56 3c 04 e2 86 bb 54 56 c3 3b
       0.010228902 0.013090729 -0.0041162986 0.005961219
000080 31 f6 e3 3b 75 b2 22 3c 5b b9 0d bc f0 56 cf 3c
       0.0069568385 0.009930243 -0.008650149 0.02531001
000090 9a be 4d 3b 88 b2 a2 3c 44 32 36 3c e7 09 9a bc
       0.0031394125 0.019860521 0.011120383 -0.01880355
0000a0 fb 50 77 bc 4c 5e a3 bc 39 9d 67 bb ee 6e 8c 3b
       -0.015094991 -0.019942425 -0.0035341515 0.004285685
0000b0 2e d5 26 39 eb 9b fd 3c 92 4b 05 3d 0e 26 1e 3c
       0.0001591041 0.030958137 0.032542773 0.009652628
0000c0 89 1f 1d 3b 93 b2 a6 bc ae db ef 3c 60 7d 1f bc
       0.0023975095 -0.020348823 0.029279556 -0.009734482
0000d0 8a 39 b4 bc b6 ab c3 3c e5 b1 e2 3c 94 c0 c4 3c
       -0.022000093 0.02388559 0.027672717 0.02401761
0000e0 38 ad 31 3c 14 8e 27 bc 87 01 ef 3c d1 f8 20 3d
       0.010844521 -0.010226745 0.029175533 0.03929979
0000f0 9e a1 c1 3c 65 c9 e2 3c 3b 57 02 bc 93 ba b1 3c
       0.023636635 0.027683923 -0.007955368 0.02169541
000100 77 f1 04 bc ee b6 13 bb f1 8c ad 3c e2 9e a5 3c
       -0.00811421 -0.0022539455 0.02118537 0.020217363
000110 4e 2e e2 3c 15 05 4a 3b d6 b6 0a bb a9 5d 77 3c
       0.02760997 0.0030825783 -0.0021166108 0.015098014
000120 f0 d7 d0 3c fc b0 5a 3c 9f 81 9f bc ee e0 13 3d
       0.025493592 0.01334786 -0.019470988 0.03610318
000130 22 cd a1 3c 5d 96 86 3c b1 0d 64 bb 45 30 13 3d
       0.019751135 0.01642912 -0.00347982 0.035934705
000140 6b a0 9e 3b 28 f2 5c 3b d2 e8 a0 3c 7f 9a da 3a
       0.0048409007 0.0033713672 0.019642267 0.0016678124
000150 3d 6d 25 3c 95 8d 95 3b 74 51 52 3c 64 0d b1 3b
       0.010096845 0.004563997 0.012836803 0.0054032076
000160 62 49 94 bc 26 52 cb bb d4 ca 0f 3d 84 0c e0 3c
       -0.018101398 -0.006204861 0.03510554 0.027349718
000170 b8 f3 43 3a 68 f3 e4 3b b9 39 9c bc c7 5b f5 3c
       0.00074749766 0.006987024 -0.019070493 0.02995099
000180 81 26 f4 bc c5 94 b3 3c df da f1 3c 15 ea 41 3c
       -0.029803516 0.021921525 0.029523311 0.011835595
000190 67 6e 81 3c fb b1 04 bd 58 02 40 bc 61 9e 8a bc
       0.015799714 -0.032396298 -0.011719309 -0.016921224
0001a0 38 4d 6b 3c 14 01 ff bc 49 49 b6 bc 44 4b 5d 3c
       0.014361672 -0.031128444 -0.022251742 0.013506714
0001b0 94 c0 07 3c fb 6d 0a bd d4 ca d1 3c 09 67 af 3c
       0.00828566 -0.03379629 0.025609411 0.021411436
0001c0 18 af c3 3b 5e bd f8 3a 8d fd eb bc 7c e2 0f bd
       0.0059718005 0.0018977334 -0.028807426 -0.0351281
0001d0 10 fa e0 bc 7e 50 d3 bc 31 2d c1 bc 5b b2 9b bc
       -0.02746299 -0.025795218 -0.02358112 -0.019005945
0001e0 7a 56 07 3d ac 2f 10 bd a0 b1 f6 3c a7 3e f4 3c
       0.033041455 -0.035201713 0.030113995 0.029815031
0001f0 3b be 98 3b 2a 81 e2 3a 7a 03 41 3c e6 49 85 3b
       0.004661349 0.0017280926 0.011780614 0.0040676473
000200 91 42 e1 bc c0 9d e9 bc 2a fb 08 3d 50 15 4c bc
       -0.027497562 -0.028517604 0.033442654 -0.012456253
000210 a0 b7 99 3c 12 93 57 3c 11 e3 91 bc 37 ba 46 bb
       0.018764317 0.013157623 -0.017808469 -0.0030323395
000220 5e 3d db bb 9b f9 07 3d 55 fe 52 3b 69 4d 39 3c
       -0.006690665 0.033197027 0.003219505 0.01130996
000230 5b e5 af bc a0 ef 93 bc 30 e8 d8 bc 65 1d 84 3c
       -0.02147167 -0.018058598 -0.026477903 0.016127298
000240 ca ea ec bc cf e6 8b 3c ab 33 91 3c 65 3c c3 3b
       -0.02892055 0.017077832 0.017724833 0.0059581273
000250 60 3f 35 bc 46 69 ab 3c c6 21 db bc 89 32 c3 3c
       -0.011062473 0.020924222 -0.026749503 0.023827808
000260 8e c3 91 3a e7 82 ea bc 7d 71 3d 3c 93 2e 8f bc
       0.0011120902 -0.028626872 0.011562702 -0.017478263
000270 09 3b e5 3c 71 d7 ec bc 63 40 bf 3c 30 62 e6 3b
       0.027982252 -0.028911324 0.023346132 0.007030748
000280 c7 42 11 bd e4 0e 43 3c 0d 8b 43 bc aa ee 47 3c
       -0.035464074 0.011905406 -0.011935008 0.012202898
000290 c3 0b 50 3b 2d 43 9d bc 51 09 f9 3b f9 e9 a1 bc
       0.0031745292 -0.019197071 0.0075999876 -0.019764887
0002a0 11 42 f0 bb 02 ae 8b ba 98 c6 87 3c 47 81 87 3b
       -0.0073320945 -0.0010656717 0.016574189 0.004135284
0002b0 e4 b0 0b bd 89 0c 65 3c 43 b1 b3 bb 63 1c a7 bc
       -0.034104243 0.013980039 -0.0054837777 -0.020399278
0002c0 c8 df 0d 3d ac d2 33 3c 54 61 95 3c 05 2f 7d 3a
       0.034637243 0.010975521 0.018234886 0.00096581905
0002d0 a0 72 f8 bc b8 72 ce 3c 4c 25 4c 3c 71 0d 5d bc
       -0.030328095 0.025201187 0.012460064 -0.013491974
0002e0 5f ee 03 3d 5b 42 e4 bc 9f d8 e2 3c ea 96 9e 3c
       0.03220975 -0.027863672 0.027691184 0.01935907
0002f0 58 e8 ce 3c 2c 4b 76 3b db ca a9 bc 34 64 c2 3b
       0.025257275 0.0037581427 -0.020726612 0.0059323553
000300 0e a3 aa bc f0 03 bf bb 3e 27 4c bc 7b f0 ca bc
       -0.020829704 -0.005829327 -0.012460528 -0.024772873
000310 f4 f8 fa 3c f6 f4 ed bc cc fd d4 3c f2 5f 15 bc
       0.030636288 -0.02904747 0.025999926 -0.009117113
000320 11 69 be bc b1 87 4d 3c 05 fa 87 bc 7c d5 e0 3c
       -0.023243459 0.012544558 -0.01659871 0.027445547
000330 30 e3 a9 3c 5f 7c fc 3c 12 c4 86 3a 76 62 0e bd
       0.020738214 0.030821024 0.0010281822 -0.03476187
000340 1a e8 e2 3b 3e 14 f2 bb e4 fd 3e 3c 02 f6 da 3b
       0.0069246413 -0.007387667 0.011657212 0.0066821584
000350 9b d3 f8 bc af 4e b5 3c 07 58 ce bc 80 11 01 bd
       -0.030374339 0.022132246 -0.02518846 -0.03151083
000360 dd 45 f2 bb 55 65 0d 3d f1 94 b9 bc 24 f9 44 b9
       -0.0073935823 0.034520466 -0.022654029 -0.00018784829
000370 37 ff ae bc 8f fa ab 3c a2 84 31 bc 7b e8 e9 bc
       -0.02136193 0.0209935 -0.010834845 -0.028553238
000380 44 92 6d 3c 6e 40 d3 bc ce 4f e9 3c 06 1d 8c 3c
       0.0145002045 -0.025787558 0.028480437 0.017103683
000390 f6 b8 74 3b 2b 70 5a 3c c5 be a1 bc db 08 00 3d
       0.003734169 0.013332407 -0.019744286 0.031258445
0003a0 97 16 f2 3a 86 0a e0 bc 94 a0 e7 3b 98 18 d7 bc
       0.0018469867 -0.027348768 0.007068703 -0.026256844
0003b0 e9 aa 97 bb 34 8d d1 bc 9c e6 0d bd 5e de 1e 3c
       -0.0046285284 -0.025580026 -0.034643754 0.009696571
0003c0 d4 19 ea bc b4 d5 b6 3c d8 e4 e1 3c 9a ec 43 3c
       -0.028576769 0.022318698 0.027574942 0.011958266
0003d0 07 e9 85 bb 1c 7b 22 bc e7 f4 45 bc bf 09 0a b9
       -0.004086617 -0.009917047 -0.012082315 -0.00013164336
0003e0 61 06 b5 3c dc aa be 3c 31 58 2e 3c b7 17 f8 3c
       0.022097768 0.023274831 0.010641144 0.030284746
0003f0 4c 65 02 bd ac 62 27 39 ae 99 00 3d f8 a2 bb bb
       -0.031834885 0.00015963119 0.03139656 -0.0057262145
