resutls_128/epoch_11.315.pth (torch, 34981 bytes, 5 tensors)

conv1.weight f4 [64, 1, 9, 9]
0	0x3d6ef365	0.058337588
1	0xbd446b35	-0.047953803
2	0xbca785e4	-0.020449586
3	0x3d5a17a9	0.05324522
4	0xbdd3fc3a	-0.10350843
5	0x3d8ab549	0.06772859
6	0xbcb26067	-0.021774484
7	0x3d6bf3ce	0.057605557
8	0x3c87572d	0.01652106
9	0xbc4cd7c7	-0.012502617
10	0x3d02c16e	0.03192275
11	0x3bd7e8d5	0.006589035
12	0x3d2ac4e0	0.04169166
13	0xbd2ccbc9	-0.042186532
14	0xbbe508db	-0.006989581
15	0xbc11d770	-0.008901462
16	0x3c8ce83b	0.01720058
17	0x3a29bcc5	0.0006474967
18	0x3dc93874	0.09825221
19	0x3d123c9f	0.035702344
20	0xbd24dc87	-0.040249374
21	0xbd871d7d	-0.06597421
22	0xbc8f434a	-0.01748814
23	0xbd3faa39	-0.046793196
24	0xbd0d3d50	-0.0344823
25	0x3bd2eb11	0.0064367135
26	0x3d89ed9d	0.06734774
27	0x3d7c02b6	0.061526023
28	0xbddc1e8c	-0.10748014
29	0x3d8f66fe	0.07002066
30	0x3d03d480	0.032185078
31	0x3dda3348	0.10654312
32	0x3d988bce	0.07448541
33	0xbdcd02db	-0.1001031
34	0xbdd60dae	-0.10451828
35	0xbd56ec05	-0.05247118
36	0x3dca29b4	0.098712355
37	0xbc8e34c2	-0.017359141
38	0x3d477dcf	0.048703965
39	0xbd4ec179	-0.05047748
40	0x3de1a897	0.11018484
41	0xbd3bd0db	-0.045853477
42	0x3dacff29	0.084471054
43	0x3b20cdae	0.0024536657
44	0xbd6b204e	-0.057403855
45	0x3d6e9def	0.058256086
46	0xbd6ce197	-0.057832327
47	0x3d0a91e8	0.033830553
48	0xbcfd5c16	-0.030927699
49	0xbc349638	-0.011022143
50	0xbdd866cf	-0.10566484
51	0xbd544d8b	-0.051831763
52	0x3d7b9c24	0.061428204
53	0xbcd4020a	-0.025879879
54	0x3de4ff54	0.111815125
55	0x3db8c17b	0.090212785
56	0xbb84bbb7	-0.0040506977
57	0xbd9585b7	-0.07300895
58	0x3d8cf1ee	0.06882082
59	0x3d11f9bb	0.035638552
60	0xbd90c1f5	-0.07068244
61	0x3d9620df	0.073304884
62	0x3d8c74e0	0.0685823
63	0x3dcc255e	0.09968065
64	0xbd7a715a	-0.061143257
65	0xbc8c71ed	-0.017144168
66	0xba838a38	-0.0010035699
67	0x3c8e5f79	0.01737951
68	0xbdaa592a	-0.08317788
69	0xbd9f2814	-0.07771316
70	0x3d7c30dc	0.061570033
71	0xbccc46bb	-0.02493607
72	0x3d62f081	0.055405144
73	0x3bf4be1a	0.007468951
74	0x3d1a1896	0.037621103
75	0x3cd17f6d	0.025573457
76	0x3d2a28f9	0.04154298
77	0x3d66441b	0.056217294
78	0xbdd06fd1	-0.10177577
79	0x3d69a804	0.057044998
80	0xbd9db97b	-0.07701393
81	0xbdad6433	-0.08466377
82	0x3bc20316	0.005920778
83	0xbca2053c	-0.019777887
84	0x3d83eab2	0.06441249
85	0xbd85833c	-0.065191716
86	0xbdcc0420	-0.09961724
87	0x3da3e3dc	0.08002445
88	0xbc8dd318	-0.017312571
89	0x3d7c90a8	0.061661392
90	0x3d0ed9cd	0.03487568
91	0xbdac6255	-0.08417193
92	0x3cafd0a9	0.021461802
93	0x3cd390f6	0.025825959
94	0xbd9a1f82	-0.07525541
95	0xbd5b73c2	-0.053577192
96	0x3d17ae1a	0.03703127
97	0x3c9c0ef9	0.019050108
98	0xbd4511ac	-0.048112556
99	0xbd0d4d0f	-0.034497317
100	0x3dcea1bb	0.100894414
101	0xbcaf9bc9	-0.021436589
102	0x3d7cfa4d	0.061762143
103	0x3d4176f0	0.04723257
104	0xbd94e391	-0.07269967
105	0xbdc34ebe	-0.09536503
106	0x3dd8a594	0.105784565
107	0x3ba1c159	0.004936379
108	0x3d9a309a	0.07528801
109	0x3cb5658d	0.02214315
110	0x3d0eb918	0.034844488
111	0x3da824b0	0.082101226
112	0x3dd5f1ef	0.10446536
113	0xbd98d297	-0.07462042
114	0x3c551c9a	0.013007307
115	0x3da802a8	0.08203632
116	0x3da30df4	0.07961646
117	0x3d8b9427	0.06815367
118	0xbda67df5	-0.08129493
119	0xbda5b03a	-0.08090253
120	0xbd8b7300	-0.06809044
121	0x3c561a5d	0.013067809
122	0x3de0fa5b	0.109852515
123	0xbd918cb1	-0.07106913
124	0x3d6eeb38	0.05832979
125	0xbd7f7ac4	-0.062372938
126	0xbdd7bde4	-0.10534266
127	0xbcc8b20a	-0.024498958
128	0x3d81485f	0.06312632
129	0x3dd16c5b	0.10225745
130	0xbd8f25ef	-0.06989657
131	0x3cbe3eb8	0.023223266
132	0x3dc289ca	0.094989374
133	0x3d94fcd0	0.07274783
134	0x3d8c0657	0.06837147
135	0x3d9feac4	0.0780845
136	0x3d8e1f71	0.06939591
137	0x3ce3cad5	0.027806679
138	0xbd9d70f0	-0.07687557
139	0xbdc0eb54	-0.09419885
140	0xbd542ea0	-0.051802278
141	0xbc627700	-0.013822317
142	0xbd8d489f	-0.06898617
143	0x3d22ea8e	0.03977447
144	0x3d09467c	0.033514485
145	0xbcd55463	-0.026041215
146	0x3d2b44f8	0.04181382
147	0x3d0f6d25	0.035016198
148	0x3d891bcb	0.06694754
149	0x3d976dfd	0.073940255
150	0xbd1dbc99	-0.03850994
151	0x3ddc8725	0.10767964
152	0xbc60c99e	-0.013719944
153	0xbb997105	-0.0046826624
154	0xbdd89310	-0.10574925
155	0xbd9443ed	-0.07239518
156	0xbd86c018	-0.06579608
157	0xbd4645df	-0.048406478
158	0x3d9ffc66	0.07811813
159	0xbd184d59	-0.03718314
160	0xbdabd506	-0.0839024
161	0x3d2b8d19	0.041882608
162	0x3d16e461	0.036838893
163	0x3d960286	0.073247
164	0xbd66366c	-0.056204244
165	0x3ccff2ed	0.02538439
166	0xbd2065ad	-0.039159466
167	0xbcc1f69c	-0.023677163
168	0xbdb2b9a5	-0.08726815
169	0xbd4a3b43	-0.049372923
170	0xbd06395d	-0.03276955
171	0x3d47d398	0.048785776
172	0x3cb0d70d	0.02158692
173	0x3ceb7cb7	0.028745992
174	0x3de5ca09	0.11220176
175	0x3de0708d	0.10958967
176	0x3d9dda75	0.07707683
177	0x3b9e0c28	0.0048232265
178	0xbd9ad019	-0.07559223
179	0x3db46d3b	0.088098966
180	0xbcd922c8	-0.026505843
181	0xbbfbdaf4	-0.0076860134
182	0xbdc15bd7	-0.09441345
183	0xbca90fcf	-0.020637421
184	0xbd901822	-0.07035853
185	0x3dd3c52f	0.10340344
186	0xbdc213b5	-0.09476415
187	0xbdaec03f	-0.08532762
188	0xbb23dc66	-0.0025003194
189	0xbd70ce2b	-0.058790367
190	0x3d2832ef	0.0410642
191	0xbd29c79a	-0.04145012
192	0xbd505988	-0.050866634
193	0x3bf9603a	0.007610348
194	0x3da76a82	0.08174612
195	0xbd9d65ed	-0.076854564
196	0x3d5b0322	0.053469785
197	0x3d94d118	0.07266444
198	0x3de13e99	0.10998268
199	0xbd9c95d8	-0.07645768
200	0x3ce74c21	0.028234543
201	0xbda58bad	-0.08083282
202	0x3dc4fb77	0.096182756
203	0xbd2b2549	-0.041783605
204	0x3d8bbf2b	0.06823572
205	0x3b96d69a	0.004603219
206	0xbbf16c70	-0.007367663
207	0xbb138f82	-0.0022515957
208	0x3ca57b5a	0.02020042
209	0x3d5bf61e	0.053701513
210	0x3c9cd627	0.019145085
211	0x3d103e70	0.035215795
212	0xbdc9ff1e	-0.09863113
213	0x3da87558	0.082255065
214	0x3dc90c79	0.09816832
215	0x3dbebb24	0.09313038
216	0x3daadb2e	0.083425865
217	0xbda18847	-0.07887321
218	0xbd234d89	-0.039868865
219	0x3dcb58b4	0.09929028
220	0xbdaa9fa2	-0.08331229
221	0x3dd12119	0.10211391
222	0xbdb04dce	-0.0860859
223	0xbd9da624	-0.076977044
224	0x3d63be60	0.055601478
225	0xbda0e0cf	-0.07855379
226	0xbcc5ea91	-0.024159702
227	0x3da838fa	0.082139924
228	0x3db6ec73	0.08931818
229	0x3dd9e1da	0.10638781
230	0xbcae0dc7	-0.021246804
231	0xbdae39e6	-0.08507137
232	0x3de2ac8b	0.11068066
233	0xbcb77d45	-0.0223986
234	0xbd36139a	-0.044452287
235	0x3ce85ecd	0.028365517
236	0xbd9c7df9	-0.07641215
237	0x3d983655	0.07432238
238	0x3d9140b6	0.07092421
239	0xbdb1eec1	-0.08688117
240	0xbdb84be4	-0.0899885
241	0xbc0abfbf	-0.008468567
242	0x3d444dcc	0.047925755
243	0xbb52344c	-0.0032074628
244	0xbd66bbc4	-0.05633141
245	0x3b272cc9	0.0025508872
246	0xbdd5dd52	-0.10442604
247	0xbda0ce24	-0.07851818
248	0xbd97764f	-0.073956124
249	0x3dbb6d4c	0.09151706
250	0x3dc89e98	0.09795874
251	0xbd1a87d8	-0.037727207
252	0x3ba3a412	0.004993924
253	0x3d4b0338	0.049563617
254	0x3c5a4b60	0.013323635
255	0xbd63dae6	-0.05562868

conv1.bias f4 [64]
0	0xbd5269c6	-0.051370405
1	0x3ceff42d	0.029291237
2	0xbd967d5f	-0.073481314
3	0xbd30955a	-0.043111183
4	0x3da34166	0.07971458
5	0x3d57bac8	0.052668363
6	0x3da5f357	0.08103054
7	0xbc897779	-0.016780602
8	0x3dce2ea4	0.1006749
9	0x3d9c147c	0.076210946
10	0x3d6207a2	0.05518306
11	0x3d861127	0.0654624
12	0xbdc2e0a2	-0.095155016
13	0xbd77722d	-0.06041162
14	0x3ad37fc9	0.0016136105
15	0x3c9f0dab	0.019415697
16	0x3ddd979a	0.10819931
17	0x3dc67c58	0.096916854
18	0xbd44b044	-0.048019662
19	0x3d94b9df	0.072620146
20	0x3d2e3ae2	0.042536624
21	0xbd5e4b8a	-0.05427126
22	0xbde0d440	-0.109779835
23	0x3d3c4d3c	0.045972094
24	0x3cac6d2d	0.021048153
25	0x3cdbe8b7	0.026844366
26	0x3d9eabf9	0.07747645
27	0xbd10a183	-0.03531028
28	0xbd315775	-0.043296296
29	0x3ca7a410	0.020463973
30	0xbd306967	-0.04306927
31	0xbd85f432	-0.06540717
32	0xbde3712a	-0.11105569
33	0xbdbedc13	-0.093193196
34	0xbc112be1	-0.008860559
35	0x3db644c7	0.08899837
36	0xbd8f6f57	-0.07003658
37	0x3cb57afd	0.022153372
38	0x3d64b372	0.055835195
39	0x3c8a9f00	0.01692152
40	0xbb629c3b	-0.0034577984
41	0x3da56cb9	0.08077378
42	0xbdd88e52	-0.105740204
43	0x3dbdfeb7	0.092770986
44	0x3dbc3e5e	0.09191583
45	0x3dc82969	0.09773523
46	0x3da8dbb7	0.08245032
47	0xbbf0d1c7	-0.007349226
48	0xbdbac756	-0.091200516
49	0xbd8f962e	-0.070110664
50	0xbdc0b533	-0.09409561
51	0xbd8d1689	-0.06889064
52	0xbdcac635	-0.09901086
53	0x3d9d16f4	0.076703936
54	0x3d4fea98	0.050760835
55	0xbd4544c4	-0.048161283
56	0xbb9aa117	-0.0047189104
57	0x3c561a3d	0.013067779
58	0x3ba0f53e	0.0049120476
59	0x3da11bd9	0.0786664
60	0x3d44a942	0.04801298
61	0xbdae5463	-0.08512189
62	0x3dd798ce	0.10527192
63	0xbd340332	-0.04394836

conv2.weight f4 [32, 64, 1, 1]
0	0xbd5cc2d1	-0.05389673
1	0x3dfb9d28	0.122858346
2	0xbda1db99	-0.07903213
3	0xbcfda72b	-0.030963501
4	0x3c2cc2c6	0.0105444845
5	0xbdeb81da	-0.114993766
6	0x3dbbd58c	0.0917159
7	0x3dbb1b1c	0.0913603
8	0xbdf46cac	-0.1193479
9	0xbca5fc81	-0.020262005
10	0x3cb58f08	0.02216293
11	0x3d8f9b3e	0.07012032
12	0x3d530b74	0.051524594
13	0xbc449556	-0.011998495
14	0x3dde77dc	0.10862705
15	0xbcf32aae	-0.029683437
16	0x3bb2075d	0.0054330067
17	0xbda3afb8	-0.079925
18	0xbd933d79	-0.07189459
19	0xbd208c83	-0.039196502
20	0xbdea21c9	-0.11432225
21	0xbc9ab8e8	-0.018886998
22	0x3cd20f8a	0.025642175
23	0xbdb08e30	-0.0862087
24	0xbdd8c0fa	-0.10583682
25	0x3de2cf43	0.11074688
26	0xbd62b7dc	-0.055351123
27	0xbdbca462	-0.09211041
28	0xbd0098b2	-0.03139562
29	0xbd73050d	-0.05933099
30	0xbdf4575a	-0.119307235
31	0xbc88ab88	-0.016683355
32	0xbd6f2847	-0.05838802
33	0xbd23e6c2	-0.04001499
34	0x3d6449b0	0.055734336
35	0x3bc21837	0.005923297
36	0x3dd5d3ba	0.10440774
37	0xbe002fe3	-0.12518267
38	0x3ddfd4f3	0.10929289
39	0x3d8c73ca	0.068580225
40	0xbd0cfc4f	-0.034420308
41	0x3db11470	0.08646476
42	0x3defb498	0.117043674
43	0x3c4a8195	0.012359996
44	0x3d0e3e4c	0.03472738
45	0xbd1b4ed6	-0.03791698
46	0xbc180172	-0.009277688
47	0xbbc44200	-0.005989313
48	0xbd833253	-0.06406083
49	0x3cb10458	0.021608517
50	0xbd68073d	-0.056647528
51	0x3d82a62c	0.06379351
52	0x3c9d2fc8	0.019187823
53	0xbdc66458	-0.09687108
54	0x3de26c53	0.110558175
55	0x3d192ae0	0.037394404
56	0x3d634cb3	0.055493068
57	0xbe01fc72	-0.12693956
58	0x3dce833b	0.10083624
59	0x3d102751	0.035193745
60	0xbc322b7d	-0.010874626
61	0xbda78e99	-0.08181495
62	0x3c9c0e25	0.019049713
63	0x3d4356b9	0.047690127
64	0x3d1b24bd	0.037876833
65	0x3db9c579	0.09070868
66	0xbde9686f	-0.11396872
67	0xbdc757be	-0.09733532
68	0x3df77982	0.12083723
69	0x3dd806d4	0.10548177
70	0xbc37bc10	-0.011214271
71	0x3d8db3a6	0.06919031
72	0x3db7060a	0.08936699
73	0x3db89b34	0.09013978
74	0xbd736158	-0.059419006
75	0xbd3d6289	-0.04623655
76	0xbd85c7ba	-0.065322354
77	0xbd0c507b	-0.03425644
78	0x3df0ad31	0.11751784
79	0xbb2b860e	-0.0026172432
80	0xbdccb0bf	-0.09994649
81	0x3dc18ba3	0.09450462
82	0x3d499816	0.049217306
83	0x3ca4fd8b	0.02014043
84	0xbd863da4	-0.06554726
85	0x3db8f315	0.09030739
86	0xbdd067cf	-0.1017605
87	0x3d7e39d0	0.062066853
88	0xbc76b7fe	-0.015058516
89	0xbd3a70b4	-0.04551764
90	0xbde68095	-0.11254994
91	0x3c8c431b	0.017121842
92	0xbd71334c	-0.05888681
93	0xbd4b131e	-0.04957878
94	0x3d90a528	0.07062751
95	0xbda443f6	-0.08020775
96	0x3df218be	0.118211254
97	0x3dcf8622	0.10133006
98	0x3dba6316	0.091009304
99	0x3c548c38	0.012972884
100	0xbdc3e8a8	-0.0956586
101	0xbcebf858	-0.028804943
102	0xbd776cc3	-0.060406458
103	0xbc8ff699	-0.017573642
104	0xbdee9a56	-0.11650531
105	0xbd65f720	-0.05614388
106	0xbcb120ee	-0.021622147
107	0x3707755b	8.073951e-06
108	0xbd04112c	-0.03224294
109	0x3cd626a8	0.02614148
110	0xbd8b8938	-0.06813282
111	0xbdae63b6	-0.08515112
112	0xbdba87f6	-0.09107964
113	0x3deccf16	0.11562936
114	0x3d97ab04	0.074056655
115	0xbde1e83a	-0.11030622
116	0xbdd86f90	-0.10568154
117	0xbba2c5a0	-0.0049674064
118	0xbd896039	-0.06707806
119	0x3d2d94e0	0.042378306
120	0xbd36ebb5	-0.04465838
121	0x3c44c47f	0.012009739
122	0xbd0263fc	-0.031833634
123	0xbdc7112c	-0.09720072
124	0xbc40a744	-0.011758629
125	0x3de92ec7	0.11385875
126	0x3dc6f08b	0.09713849
127	0xbdae9211	-0.08523954
128	0x3d1e9799	0.038718794
129	0x3de2c86e	0.11073385
130	0x3c10eec3	0.008845988
131	0xbc461c8d	-0.012091768
132	0x3ddc139d	0.107459284
133	0x3b8c4d8f	0.0042817066
134	0xbcb95993	-0.02262572
135	0x3dfa679b	0.122267924
136	0x3d5767a0	0.05258906
137	0xbd9f7159	-0.07785291
138	0x3dbcdced	0.09221826
139	0x3dddcbad	0.10829864
140	0x3dcce4b4	0.10004559
141	0xbd706a3a	-0.058695056
142	0xbd3e0541	-0.04639173
143	0x3daa3542	0.08310939
144	0x3dc1221e	0.094303355
145	0xbdd1abed	-0.1023787
146	0x3dd559f6	0.10417549
147	0x3d863b8d	0.06554327
148	0x3d196ece	0.037459187
149	0xbd0b5c71	-0.034023706
150	0xbc807c6f	-0.015684335
151	0x3d9c1996	0.07622068
152	0x3cb40e02	0.021979336
153	0x3dcb2196	0.099185154
154	0xbd9c7fab	-0.07641538
155	0xbd347ae2	-0.044062503
156	0xbc6be9cf	-0.014399006
157	0x3d51e038	0.051239222
158	0x3d3259fc	0.043542847
159	0x3d87d3c4	0.06632188
160	0xbd8ac6cc	-0.06776199
161	0xbcaa3018	-0.020774886
162	0x3d475453	0.048664402
163	0xbd6221f9	-0.05520818
164	0x3db6fcc8	0.08934933
165	0x3db5ca73	0.08876505
166	0x3d8e3230	0.06943166
167	0x3d88a94f	0.06672918
168	0x3d9a8754	0.07545343
169	0xbdd8d96d	-0.10588346
170	0xbd1c3a1a	-0.038141347
171	0x3dc00810	0.09376538
172	0xbd546e84	-0.05186321
173	0x3c598110	0.0132754
174	0xbd2e02ed	-0.04248326
175	0xbba26fc0	-0.0049571693
176	0xbcaa507e	-0.020790335
177	0xbd130060	-0.03588903
178	0x3cd15442	0.025552873
179	0x3deb1ebc	0.114804715
180	0x3b1c9f40	0.0023898631
181	0xbd130e9f	-0.035902616
182	0x3dd4bfde	0.10388158
183	0xbd69a1b4	-0.057038978
184	0x3d1588cb	0.03650741
185	0x3bb63206	0.0055601625
186	0x3d31f01f	0.043441888
187	0x3d9b7a3f	0.07591676
188	0x3d0c3b1e	0.034236066
189	0xbc1048d9	-0.008806431
190	0x3d724b12	0.059153624
191	0x3c94c933	0.018162346
192	0xbca21fac	-0.019790493
193	0x3cf05a57	0.029339952
194	0xbd7d59c0	-0.06185317
195	0x3c37a18d	0.01120795
196	0xbd96ae9d	-0.073575236
197	0x3d71b05d	0.059006084
198	0x3df877da	0.12132235
199	0xbd07c7c5	-0.0331495
200	0xbde50a83	-0.111836456
201	0x3dd6081e	0.10450767
202	0xbd8412de	-0.06448911
203	0x3db52353	0.08844628
204	0x3db16d24	0.08663395
205	0xbd323f1b	-0.043517213
206	0x3b8437be	0.0040349653
207	0xbd4b935a	-0.049701072
208	0x3dd896ea	0.105756596
209	0xbdb7dfb9	-0.089782186
210	0x3c64f48c	0.01397432
211	0xbd88be7f	-0.06676959
212	0x3dc9bcf6	0.098504946
213	0x3d814f5c	0.06313965
214	0x3ddeab1d	0.10872481
215	0xbd6afa99	-0.057367895
216	0x3d341dbe	0.043973677
217	0xbdda1600	-0.106487274
218	0x3d9a461d	0.07532904
219	0xbd29e1cc	-0.041475102
220	0x3d2ab4ab	0.041676205
221	0x3d7b67e5	0.06137838
222	0xbda08aa4	-0.078389436
223	0x3d8fd8da	0.07023783
224	0xbd4aa118	-0.049470037
225	0x3d4bde16	0.049772345
226	0xbd2ed419	-0.04268274
227	0x3bb5fb82	0.0055536637
228	0x3c503110	0.01270701
229	0x3dde28de	0.108476385
230	0x3d130b5e	0.035899512
231	0x3cb2793b	0.021786323
232	0xbcbd3379	-0.023095833
233	0xbdff0107	-0.12451368
234	0xbd63856b	-0.05554716
235	0xbd2dde37	-0.04244825
236	0x3d3fd16f	0.04683059
237	0xbbc53b02	-0.006018997
238	0x3d207d4f	0.039182004
239	0xbd84ccce	-0.06484376
240	0xbdfd2ecd	-0.12362442
241	0x3d3b95e4	0.045797244
242	0x3d91c5d8	0.07117814
243	0x3d874720	0.06605363
244	0x3dd4419e	0.10364078
245	0xbdf9aea5	-0.12191514
246	0x3d1fd697	0.03902301
247	0x3dcb4870	0.09925926
248	0xbd72fb3f	-0.05932164
249	0x3d960b1c	0.07326338
250	0x3d936a11	0.07197965
251	0x3cf2aba7	0.029622866
252	0xbdf24dda	-0.11831255
253	0x3d703dd1	0.058652703
254	0x3df266f5	0.11836044
255	0xbc8c1994	-0.01710204

conv2.bias f4 [32]
0	0xbd6b1088	-0.057388812
1	0xbd526592	-0.051366396
2	0x3e060a08	0.13089764
3	0x3dcbabc6	0.099448726
4	0xbc16ab5b	-0.009196128
5	0xbdda8952	-0.10670723
6	0x3d0d5422	0.034504063
7	0x3dca1e00	0.09869003
8	0x3db0609d	0.086121775
9	0xbd8c0e87	-0.06838708
10	0xbdf0907e	-0.1174631
11	0xbd93fd34	-0.07226029
12	0xbde29d2a	-0.11065133
13	0x3d8bf018	0.068329036
14	0xbd9a2b51	-0.07527793
15	0x3c293ad6	0.010328969
16	0x3dee4e50	0.11636031
17	0x3d32935e	0.04359757
18	0xbdda8de0	-0.10671592
19	0xbb1fccd4	-0.0024383562
20	0x3df90dca	0.12160833
21	0x3cb103d8	0.021608278
22	0xbc7ddf50	-0.015495136
23	0x3dc034b8	0.09385055
24	0xbde2e5e6	-0.11079006
25	0xbd6e8602	-0.05823327
26	0x3c989850	0.018627316
27	0x3dc24faf	0.09487855
28	0xbd3f6630	-0.046728313
29	0xbd987b8d	-0.074454404
30	0xbdf286e4	-0.118421346
31	0xbdeba366	-0.11505775

conv3.weight f4 [1, 32, 5, 5]
0	0x3c975b9b	0.018476298
1	0xbca45ebc	-0.020064704
2	0x3b977151	0.0046216627
3	0x3c3eef95	0.0116538005
4	0x3c612799	0.013742351
5	0xbd0c808a	-0.034302272
6	0x3c848650	0.016177326
7	0xbc39790b	-0.011320363
8	0xbc4b9290	-0.01242508
9	0xbbd319dc	-0.0064422917
10	0xbd07f98e	-0.03319698
11	0xbba8cea7	-0.005151588
12	0x3c1cd577	0.009572378
13	0xbd0c1237	-0.03419706
14	0xbc8b43de	-0.017000135
15	0xbccab2dc	-0.02474349
16	0xbcbadd0f	-0.022810487
17	0xbc9f6669	-0.019458013
18	0x3cdffe35	0.027342895
19	0x3c1d6e96	0.009608885
20	0x3c84808c	0.016174577
21	0xbcebc7ac	-0.028781734
22	0xbc87fd99	-0.016600417
23	0xbce3862e	-0.027773943
24	0x3cb0c148	0.021576539
25	0xbd0c419c	-0.034242257
26	0xbd024379	-0.03180263
27	0xbaccd564	-0.001562756
28	0x3c132159	0.008980119
29	0x3c42e956	0.011896452
30	0xbbad3421	-0.0052857553
31	0x3b9be94c	0.0047580358
32	0x3bbaeb75	0.005704338
33	0x3c0e2e2c	0.008678
34	0xbc214134	-0.009842206
35	0x3cc585db	0.024111679
36	0x3afa3504	0.0019089286
37	0x3c983acc	0.018582724
38	0x3c2152fb	0.009846444
39	0xbca3f2df	-0.02001327
40	0xbc85a41c	-0.016313605
41	0xbcad8db2	-0.02118573
42	0xbb9df32c	-0.004820248
43	0x3b45008a	0.0030060136
44	0xba8a3d72	-0.0010546877
45	0x3cf4338d	0.029809738
46	0x3d008858	0.031380028
47	0x3c0a8662	0.008454891
48	0x3a9e71e6	0.0012088388
49	0xbcafe75c	-0.021472625
50	0x3cd01807	0.025402082
51	0xbc627c72	-0.013823615
52	0xbcd92d64	-0.026510902
53	0x3ca2f44e	0.019891884
54	0x3cc4b624	0.024012633
55	0x3ca230d8	0.019798681
56	0x3bd23f8a	0.006416266
57	0xbc76f03e	-0.015071927
58	0x3ccba88e	0.024860647
59	0x3d10b529	0.035329018
60	0x3c9b1bc7	0.018934144
61	0x3cba9546	0.022776257
62	0xbc597fbd	-0.013275084
63	0x3c8a9663	0.016917413
64	0xbc4d79d0	-0.012541249
65	0xbbd8f194	-0.006620595
66	0x3c88326f	0.016625611
67	0x3c79f62e	0.015256448
68	0x3cbdf98d	0.023190284
69	0xba81f4e2	-0.00099149
70	0xbbca251e	-0.0061689755
71	0x3c32028a	0.010864863
72	0x3caaef4c	0.020866059
73	0x3c17a135	0.009254743
74	0xbcbe4bbf	-0.023229478
75	0x3d0a60af	0.03378361
76	0x3c8eee39	0.017447578
77	0x3c648c0a	0.013949404
78	0xbbba27b4	-0.0056810025
79	0x3d0aec26	0.033916615
80	0x3b16da52	0.0023018313
81	0x3a5ec7f8	0.00084984256
82	0x3c8ad49c	0.016947083
83	0xba42ee3a	-0.0007436011
84	0x3c00ebb1	0.007868693
85	0x3ae5eba5	0.0017541541
86	0x3c24806d	0.010040385
87	0x3b1f034e	0.0024263444
88	0xbcaa5fb8	-0.020797595
89	0xbc0eea44	-0.008722845
90	0x3d052767	0.03250828
91	0x3ccad9cd	0.024762059
92	0xbb05225f	-0.0020314676
93	0x3b9287a7	0.0044717374
94	0xbcaf7e5c	-0.021422558
95	0x3ce1109b	0.027473738
96	0xbd043355	-0.032275517
97	0x3c9da7be	0.019245025
98	0x3cddeb78	0.02708982
99	0x3c1c71b4	0.009548593
100	0x3c855ffc	0.01628112
101	0xbd026c67	-0.03184166
102	0xbc35bf60	-0.011092991
103	0xbc84db8f	-0.016217975
104	0x3c774004	0.015090946
105	0xbcfac8c8	-0.030613318
106	0xbcb15b49	-0.021649973
107	0x3c6895fc	0.014195915
108	0x3c1476ad	0.009061498
109	0xbd07271a	-0.032996275
110	0x3cd64110	0.026154071
111	0x3cb49c25	0.022047112
112	0x3bdb8e5e	0.006700321
113	0x3b320fa5	0.002716997
114	0xbce517e6	-0.027965497
115	0xbd0d7377	-0.034533944
116	0xbcdb6812	-0.026783023
117	0xbccd0dd4	-0.025031008
118	0xbcba3edb	-0.02273505
119	0xbc94a1c0	-0.018143535
120	0x3d09f081	0.033676628
121	0xbd0d4553	-0.03448994
122	0x3cfd1251	0.030892523
123	0x3cfb24c6	0.030657183
124	0x3bb4855e	0.0055090627
125	0x3ae2812a	0.0017280926
126	0x3c41037a	0.011780614
127	0x3b8549e6	0.0040676473
128	0xbce14291	-0.027497562
129	0xbce99dc0	-0.028517604
130	0x3d08fb2a	0.033442654
131	0xbc4c1550	-0.012456253
132	0x3c99b7a0	0.018764317
133	0x3c579312	0.013157623
134	0xbc91e311	-0.017808469
135	0xbb46ba37	-0.0030323395
136	0xbbdb3d5e	-0.006690665
137	0x3d07f99b	0.033197027
138	0x3b52fe55	0.003219505
139	0x3c394d69	0.01130996
140	0xbcafe55b	-0.02147167
141	0xbc93efa0	-0.018058598
142	0xbcd8e830	-0.026477903
143	0x3c841d65	0.016127298
144	0xbceceaca	-0.02892055
145	0x3c8be6cf	0.017077832
146	0x3c9133ab	0.017724833
147	0x3bc33c65	0.0059581273
148	0xbc353f60	-0.011062473
149	0x3cab6946	0.020924222
150	0xbcd7c6be	-0.026339885
151	0x3cc5aed6	0.02413122
152	0x3aaef8be	0.0013349277
153	0xbce7da5a	-0.02830236
154	0x3c439e5d	0.011939612
155	0xbc8bab61	-0.017049493
156	0x3ce7d05e	0.0282976
157	0xbceafed5	-0.028685967
158	0x3cc1de33	0.023665523
159	0x3bf26d47	0.007398281
160	0xbd0f81ae	-0.03503578
161	0x3c4816ca	0.012212465
162	0xbc4022c6	-0.011727041
163	0x3c4cc7b8	0.012498789
164	0x3b666e6c	0.0035161031
165	0xbc993b47	-0.018705023
166	0x3c02832a	0.007965842
167	0xbc9fc530	-0.019503206
168	0xbbe4f435	-0.0069871196
169	0xba317f4d	-0.00067709835
170	0x3c8bb5cc	0.017054461
171	0x3b92f6a0	0.0044849664
172	0xbd0ab0a2	-0.033859856
173	0x3c6a6727	0.01430682
174	0xbba787b6	-0.0051126136
175	0xbcaa9a1d	-0.02082544
176	0x3d0bce7c	0.034132466
177	0x3c29e645	0.010369842
178	0x3c9188a8	0.017765358
179	0x3a1b3299	0.00059203204
180	0xbcfc853f	-0.030825255
181	0x3cc9b91a	0.024624396
182	0x3c410eaa	0.011783281
183	0xbc65db97	-0.014029405
184	0x3d02214c	0.031770036
185	0xbce97f4a	-0.028503079
186	0x3cdcef1a	0.026969481
187	0x3c97d660	0.01853484
188	0x3cc94da8	0.024573162
189	0x3b4ffc52	0.0031736088
190	0xbcaeb487	-0.021326317
191	0x3babfb8a	0.0052484917
192	0xbcb1192e	-0.021618452
193	0xbbd45fbc	-0.006481139
194	0xbc552b1b	-0.013010765
195	0xbccfae25	-0.025351593
196	0x3cf58933	0.029972648
197	0xbcf44339	-0.02981721
198	0x3ccfccf7	0.02536629
199	0xbc1e087c	-0.0096455775
200	0xbcbb1c7e	-0.022840735
201	0x3c53bb0f	0.012923016
202	0xbc85826c	-0.016297542
203	0x3ce424c2	0.027849559
204	0x3cad9075	0.021187047
205	0x3cff2e7c	0.031150095
206	0x3aaf85fd	0.0013391372
207	0xbd0d688f	-0.034523543
208	0x3bee3125	0.007269042
209	0xbbe558a8	-0.006999094
210	0x3c425030	0.0118599385
211	0x3be12f6e	0.006872109
212	0xbcf7d3ab	-0.030252298
213	0x3cb734d9	0.022364067
214	0xbccc14c6	-0.02491225
215	0xbcfffe52	-0.031249199
216	0xbbea0c87	-0.0071426067
217	0x3d0e287f	0.03470659
218	0xbcb72686	-0.022357237
219	0x3920c23b	0.00015331146
220	0xbcabf03b	-0.020988574
221	0x3caeecdf	0.021353183
222	0xbc2cbbda	-0.010542834
223	0xbce6a197	-0.028153224
224	0x3c74e05c	0.01494607
225	0xbcd5e4e7	-0.026110126
226	0x3ce6b669	0.028163152
227	0x3c898c1a	0.016790438
228	0x3b6037ad	0.0034212873
229	0x3c554b31	0.013018415
230	0xbca45b5e	-0.020063099
231	0x3cfd812f	0.030945389
232	0x3ac97d4c	0.0015372424
233	0xbce29447	-0.027658595
234	0x3bdd6937	0.0067569274
235	0xbcd9b46b	-0.026575288
236	0xbba1eb13	-0.004941353
237	0xbcd4165f	-0.025889574
238	0xbd0f2b87	-0.03495362
239	0x3c19baa1	0.009382875
240	0xbcecbee2	-0.028899614
241	0x3cb43c70	0.022001475
242	0x3cdf51a0	0.027260602
243	0x3c3ebdd9	0.011641943
244	0xbb9066d2	-0.0044067884
245	0xbc27eccb	-0.010249327
246	0xbc4b5145	-0.012409513
247	0xb9ef59fa	-0.0004565267
248	0x3cb25859	0.021770643
249	0x3cbbf45f	0.022943674
250	0x3c2e5831	0.010641144
251	0x3cf817b7	0.030284746
252	0xbd02654c	-0.031834885
253	0x392762ac	0.00015963119
254	0x3d0099ae	0.03139656
255	0xbbbba2f8	-0.0057262145
