resutls/epoch_26.979.pth (torch, 231589 bytes, 5 tensors)

conv1.weight f4 [64, 1, 9, 9]
00000000: 2df6 6a3d 26db 47bd a79f aabc 4398 573d
00000010: 05c5 d5bd 1e7c 873d 6195 bbbc b973 683d
00000020: 41b7 853c 9fce 60bc 2503 fd3c ac37 bc3b
00000030: b95b 263d 272a 31bd 5ea6 0ebc b449 2dbc
00000040: 0e4a 843c 334c 65b6 5fd7 c73d 8dd6 103d
00000050: ce11 25bd 5592 87bd 4383 8cbc 86d1 43bd
00000060: 7708 12bd f239 c73b d110 893d 13ee 7a3d
00000070: d988 dcbd 3567 8f3d ddf3 063d d27d da3d
00000080: 3ace 963d f243 cfbd 2774 d7bd 1608 58bd
00000090: b6f3 c83d 8ffd 8abc d244 4a3d 0571 4bbd
000000a0: 6f93 e13d 8480 40bd f3f7 a93d a88e ba3a
000000b0: 8b9f 6dbd d803 6c3d 5010 6dbd 9b43 0c3d
000000c0: 2fe0 f8bc a04c 32bc 8e86 dbbd ca7e 5cbd
000000d0: 82f6 753d fb65 dbbc d11d e33d 2e68 b73d
000000e0: 0c9c 63bb 2353 96bd d3ea 8b3d 5aea 0a3d
000000f0: 7689 94bd ea73 933d 24b1 8a3d 66db c93d
00000100: a7f2 79bd 6601 89bc 0038 3bba 3f39 8c3c
00000110: 0bef adbd 95f6 a2bd a0bf 763d 8aef d3bc
00000120: d1f7 5b3d 8439 dc3b 10ac 183d 2865 ce3c
00000130: e65d 253d 12e5 5c3d 212a d5bd 6f9f 623d
00000140: 6f5b a0bd 2f37 b3bd 1d46 813b 0806 afbc
00000150: e594 803d 2417 86bd 8b50 ccbd 24bf a23d
00000160: 53d3 95bc 11cb 743d bd53 063d 0b69 b1bd
00000170: 8c5d a53c d8d5 ce3c 8bec 99bd c518 58bd
00000180: feeb 173d 74f8 943c 8b66 4cbd 560d 15bd
00000190: bbf5 c93d 77ca b8bc a544 7b3d 577b 453d
000001a0: 2b0a 94bd bf68 c3bd e947 d73d 85f2 503b
000001b0: 73ef 963d a76f b03c cd81 0e3d a060 a83d
000001c0: e590 d93d 5ae7 94bd 8eac 703c 1167 a93d
000001d0: a13c a23d b378 893d b448 a8bd 878e a5bd
000001e0: 8c66 89bd e3b9 853c 454e e73d 922a 8cbd
000001f0: 5a4f 763d 0779 7dbd 637f d6bd cc65 bbbc
00000200: 455d 853d b11d d83d ca95 83bd 603e f33c
00000210: ec7d cd3d 1229 9d3d a654 913d 2fd9 9e3d
00000220: a0c4 8d3d 6fa6 ef3c e4c5 98bd 9ae3 b6bd
00000230: 28e5 3cbd f06e 0ebc acb6 86bd aaf8 2b3d
00000240: ce16 023d 621c e0bc 01ef 283d 0169 133d
00000250: d483 8e3d ab37 9e3d 2bee 11bd cc8e de3d
00000260: 4a75 5bbc 7e07 f5bb 4d50 dfbd 48e4 99bd
00000270: deef 89bd dd75 42bd 7b7c a13d a94a 15bd
00000280: 1b6b adbd 2f26 273d bf24 133d dbf2 933d
00000290: 7d8e 68bd 911c d73c e493 17bd db30 c5bc
000002a0: ab25 b8bd 8608 53bd 9f53 11bd 3112 483d
000002b0: 3081 b63c 0aed f23c 1307 ea3d 15e2 e73d
000002c0: 7a12 9f3d 907f 673b e394 9dbd a7b2 b03d
000002d0: 9f6d d6bc 70db d8bb 5d43 bfbd c519 8cbc
000002e0: 20f0 85bd 7b92 d63d bb52 c4bd d5dd b0bd
000002f0: f4b9 93bb a199 71bd 3204 2b3d 9734 24bd
00000300: 8661 41bd d9c9 533c 28df a93d f296 a0bd
00000310: 694a 543d 7b20 903d ae7f de3d 9019 9ebd
00000320: 5790 eb3c facd a0bd 6665 ce3d 80aa 27bd
00000330: ba7b 863d fe3e d73a c7ad 3bbc f414 88bb
00000340: 514c 9d3c 3cfc 5a3d 1529 af3c 087c 203d
00000350: 2c82 cabd c304 a33d bf9a c33d 9f7a b73d
00000360: acd4 a63d 0b81 a4bd 2841 25bd 8ced cd3d
00000370: e79f a3bd d61f d03d 7140 b6bd 1f7d a3bd
00000380: 0ecc 543d 2a70 a5bd a060 d1bc edd2 a53d
00000390: 72ca b83d ba82 e03d 825e acbc ea3e b4bd
000003a0: 37ae dc3d 63d4 d1bc b8c9 42bd e82b d33c
000003b0: dad5 a0bd 2809 973d 3f89 933d ab78 b5bd
000003c0: 33ba bfbd d93c 3cbc 4b76 353d 6d24 26bb
000003d0: cda6 65bd a534 483b 678c d5bd 5f6c a0bd
000003e0: 99f9 97bd 6814 b93d 0c5e c63d a083 1fbd
000003f0: 7160 be3b faa3 4c3d 51d4 633c 1465 62bd
0.057363678 -0.04879298 -0.020828081 0.052635442 -0.10437969 0.0661547 -0.022898378 0.056750987
0.016322734 -0.013721137 0.030885288 0.0057439413 0.040614817 -0.04325309 -0.008706657 -0.010576654
0.016148593 -3.4168013e-06 0.09757876 0.03536086 -0.040300183 -0.066197075 -0.017152434 -0.04780724
-0.035652604 0.0060799057 0.066926606 0.0612622 -0.10768289 0.07002107 0.03294741 0.106685296
0.07363553 -0.101203814 -0.10520201 -0.052742086 0.09812109 -0.01696661 0.04938204 -0.04966833
0.11014449 -0.046997562 0.08299246 0.0014233189 -0.05801348 0.057620853 -0.057876885 0.03424416
-0.030380337 -0.010882527 -0.10719024 -0.053831853 0.06004954 -0.026782027 0.110896714 0.089554176
-0.0034730462 -0.07340076 0.068318985 0.0339149 -0.07252781 0.07199843 0.06772068 0.098563
-0.061022427 -0.0167243 -0.00071418285 0.01711714 -0.084928595 -0.07957188 0.06024134 -0.025871057
0.053703133 0.0067207236 0.037273467 0.02519472 0.04037275 0.053929396 -0.10408426 0.05532783
-0.078299396 -0.0875076 0.0039451257 -0.02136518 0.062783994 -0.065473825 -0.099763 0.079466134
-0.018289244 0.05976397 0.032794703 -0.086626135 0.020186208 0.025248453 -0.0751582 -0.052757997
0.037090294 0.018184878 -0.04990248 -0.03638967 0.098613225 -0.02255748 0.06134476 0.04821333
-0.07228502 -0.09541463 0.10511763 0.0031882834 0.0736989 0.021537615 0.034791756 0.08221555
0.106233396 -0.07270689 0.014689578 0.082716115 0.0792172 0.06712475 -0.08216992 -0.080838256
-0.067090124 0.01632399 0.112942256 -0.06844057 0.06013427 -0.061883 -0.10473516 -0.022875689
0.065119304 0.10552538 -0.06425054 0.029692829 0.10033783 0.07673849 0.070962235 0.07756268
0.06922269 0.029254166 -0.0745962 -0.0893013 -0.046116978 -0.008693442 -0.06577811 0.04198519
0.03176003 -0.027357284 0.041243557 0.03598881 0.06958738 0.077254616 -0.035627525 0.1086708
-0.013394663 -0.0074777 -0.10903988 -0.07514244 -0.06735204 -0.047475684 0.07885071 -0.036448155
-0.08467694 0.0408079 0.035923716 0.072240554 -0.056776512 0.026258739 -0.037006274 -0.024071148
-0.089915596 -0.0515218 -0.035480138 0.048845474 0.022278398 0.029654045 0.114271306 0.113224186
0.07767196 0.0035323836 -0.076944135 0.08627825 -0.026175318 -0.006617956 -0.093390204 -0.017102132
-0.06539941 0.10477158 -0.09586092 -0.08636061 -0.0045082513 -0.058984403 0.041752048 -0.040089216
-0.047212146 0.012926542 0.08294517 -0.078412905 0.051828776 0.07037445 0.10864197 -0.077197194
0.02875535 -0.07851787 0.10077934 -0.040934086 0.06566568 0.0016421971 -0.011455006 -0.0041528884
0.01920143 0.053463206 0.021381894 0.039180785 -0.098881096 0.079598926 0.09551 0.08958935
0.08146033 -0.080324255 -0.04034534 0.10055074 -0.07989483 0.10162322 -0.0889901 -0.07982849
0.051952414 -0.08078034 -0.02555877 0.080968715 0.090229884 0.10962434 -0.021041159 -0.088010624
0.10775416 -0.02561397 -0.047555655 0.025777772 -0.07853289 0.07374793 0.07203912 -0.08860906
-0.093616866 -0.011489117 0.044302266 -0.0025351301 -0.056067277 0.0030548957 -0.1042717 -0.0783317
-0.07420654 0.09037095 0.09685907 -0.038943887 0.0058098366 0.049961068 0.013905601 -0.055272177

conv1.bias f4 [64]
00000000: 0d80 58bd 9182 c23c 41d2 8fbd 8cd2 2cbd
00000010: adbc a33d 8869 2d3d 42e5 a63d 9e3f b3bc
00000020: 6bbb d13d baad 9d3d fc2e 833d a54e 5d3d
00000030: 7bae c2bd 3143 5fbd f0bb d63b 81fa 123d
00000040: 7bcd f53d 4626 c03d 0769 46bd bf2b 6e3d
00000050: 253c 313d 27a7 5dbd 346c dbbd 1fcd 403d
00000060: bcf6 5e3c 1a11 103d 5145 9b3d afb4 09bd
00000070: d809 2fbd 39a1 073d 6769 30bd 45ac 85bd
00000080: f341 d2bd 6866 b6bd 7483 2abc d64f c33d
00000090: 576f 8fbd a706 d43c c699 823d 826a ad3c
000000a0: ccaa 42bb 2c74 ae3d cafd d3bd f957 c53d
000000b0: 12aa bb3d 6cd5 c43d dd90 ac3d 00ec f0bb
000000c0: 770e abbd 2e96 8fbd bad7 adbd 0c2a 88bd
000000d0: 35c6 cabd b697 973d 23b4 313d c444 45bd
000000e0: ea8f 3d3c cf43 773c d281 7c3b 6f03 923d
000000f0: 60b0 353d feeb b3bd e5b0 d73d 3c35 3bbd
-0.052856494 0.0237439 -0.070225246 -0.04219298 0.079949714 0.04233697 0.08149196 -0.021880921
0.10240825 0.07699151 0.06405446 0.05403008 -0.09505936 -0.054507438 0.0065531656 0.03588343
0.12002083 0.093823 -0.048440006 0.05814719 0.04327025 -0.054114487 -0.107139975 0.04707062
0.013608631 0.03517256 0.075815804 -0.03361958 -0.042733997 0.03311274 -0.04306927 -0.065269984
-0.10266485 -0.08906251 -0.010407317 0.09536712 -0.07003658 0.025882078 0.06376986 0.021168951
-0.0029703854 0.08518252 -0.10351141 0.0963592 0.09163298 0.096110195 0.08426068 -0.007352352
-0.08352368 -0.070110664 -0.08488412 -0.06648645 -0.09901086 0.074019834 0.043384682 -0.048161283
0.011569956 0.01509185 0.0038529527 0.07129561 0.044357657 -0.08785246 0.10531787 -0.045705065

conv2.weight f4 [32, 64, 5, 5]
00000000: 2c7b f4bb d803 e13c 8739 4abc 4273 3dbb
00000010: f8bd 2e3b b883 a4bc 4325 a33c 388d b13c
00000020: 8fc2 b1bc 6c48 96bb f5c3 003c d38d 903c
00000030: 9b6e 5c3c d2d8 743a 94d2 b53c 53dd 68bb
00000040: a365 1b3b d5cd 69bc 2b1b 4ebc a1da 08bc
00000050: 9c40 adbc bace 0dbb 9179 ec3b 3fb3 78bc
00000060: 4bbe b1bc f180 cf3c 9ccb 22bc 348e 98bc
00000070: b1aa d9bb 4d5d 50bc d17e 99bc 05af f1b9
00000080: 567f 1ebc d006 d3bb 51cf 3b3c 356f be3b
00000090: 25ec bc3c 3340 c5bc 369c b43c 1a82 503c
000000a0: 6552 feba 89ac a03c f00e c63c 2084 233b
000000b0: b86c b93b b45c 62bb a2d7 69ba 45b0 f7ba
000000c0: fd92 64bc fd84 003b 6df7 2dbc 1b64 403c
000000d0: 77ad 7e3b 3421 8fbc 646e c13c a7cf 1d3c
000000e0: 1414 543c 3c61 b7bc e97b d33c 4253 363c
000000f0: 9539 88b9 ed1e 81bc 085e d83b 979f 553c
00000100: ce10 273c a8e1 9d3c 58c5 bbbc 1502 9abc
00000110: 1471 d43c 4f72 b23c cf3a 9bba 1ccd 5f3c
00000120: 7809 943c a000 993c 6300 4dbc 0f43 17bc
00000130: 6f39 53bc 72d3 c2bb a73d c83c ad40 2439
00000140: cfc9 a2bc 3327 9d3c 6c48 333c e335 b23b
00000150: c650 48bc c989 963c 7feb a2bc 88b6 603c
00000160: 2c0f afba 16ca 00bc 745d b6bc a3de 803b
00000170: 0a36 2abc 04cf 04bc 4403 7c3c aab0 80bc
00000180: 7f0e c63c e7ed b23c 7f46 a53c 4ee3 833b
00000190: 17dc a9bc 9604 06bc 951d 65bc c91a a6bb
000001a0: b8c8 c7bc 50c2 4bbc 10ac d1bb c472 b5ba
000001b0: 36ab f9bb 7365 8c3b b8a4 50bc 94dc 8bbc
000001c0: 276c 8ebc 79c7 c43c fd29 7e3c 3112 aabc
000001d0: ba34 aabc 8594 eb38 0bad 48bc 220a 1a3c
000001e0: 9334 1bbc d786 893a 2402 ecbb b8dc a3bc
000001f0: b579 40bb b927 e13c 44e3 c23c 2faf 4dbc
00000200: 3ca1 353c d5a8 b53c 1f5c fb3b 423c 7b3b
00000210: b59d e63c daac cd3b 3627 15bb 1169 e83c
00000220: 6110 853c 0dc2 18bc 01a0 c53c 33f1 b73c
00000230: 50a7 ca3c ce98 ddbb e3d7 71bb d101 ac3c
00000240: a89f a43c 573b 8dbc 77ca c33c 0f07 813c
00000250: 65de 233c b8c7 01bc 2e84 69bb fef3 753c
00000260: a809 783b ebde a03c 885b 80bc 7220 14bc
00000270: 3b21 50bb 9237 223c 1cdf 0a3c 025a 553c
00000280: a5b8 66bc 2187 9abb cdb2 1b3c 6ecb 38bc
00000290: 1dd0 903c 31e4 8e3c ed3b 5f3c 49d7 563c
000002a0: 6897 733c a30b afbc b9af 00bc 9201 983c
000002b0: 0592 2dbc c30c ed3a fa67 0fbc 9cb3 143c
000002c0: 0631 d03a 1ea1 54ba ec09 1b3c b81a cd3c
000002d0: 7c15 203c 99b6 ffba f266 da3c 6e34 ccbb
000002e0: c404 093c 2b8a 373c c79e 683c aa52 bb3c
000002f0: 5a39 5f3c c52c b93a e159 953c 7957 e93b
00000300: 14d2 7839 21e6 093c 77ea 5ebc e892 0a3c
00000310: 50e9 50bc aed1 623c 688a cb3c a027 3ebc
00000320: ea71 bbbc b28a a63c 0024 55bc 22c5 853c
00000330: 0c9d 8a3c 2364 19bc 8a59 133a 49c8 27bc
00000340: b47b aa3c 3cf4 95bc 2ffa 1a3b 71b6 62bc
00000350: a107 a53c 020c 4a3c ccf0 ae3c e3b9 42bc
00000360: 1935 0a3c a4e7 adbc ad8b 713c 131f 0ebc
00000370: aeb6 013c 2f17 443c befd 80bc 9ba7 613c
00000380: 7800 2fbc 6c11 2e3c 02d2 d5bb 190f 693b
00000390: 74a9 873b bbdf a53c 98d5 fe3b 138a c43b
000003a0: 1164 31bb ed3a c6bc 5d12 5fbc 60ab ebbb
000003b0: d6f5 3a3c 8c79 1239 13bc 053c 8376 84bc
000003c0: e1b9 c2bc 7cd4 303c a71d 733c a0f2 4f3c
000003d0: f8d5 853c 01fe babc b154 193c 0e92 af3c
000003e0: 560c 57bc 0cd2 1f3c 9eac 4d3c c17a 9e3b
000003f0: d7d8 c6bc a6c8 373c 64a4 b43c 4710 80bb
-0.0074609723 0.027467653 -0.012342817 -0.002890781 0.0026663523 -0.02008234 0.019915229 0.021673784
-0.021699218 -0.00458627 0.00785922 0.017645752 0.013454105 0.000934017 0.022195138 -0.003553231
0.0023711703 -0.014270266 -0.01257972 -0.008352906 -0.021148972 -0.0021638111 0.0072166403 -0.015179454
-0.021697184 0.025330039 -0.00993624 -0.018622495 -0.0066426625 -0.012717557 -0.018737229 -0.00046097502
-0.009673914 -0.006440021 0.011463002 0.0058115968 0.023061821 -0.024078464 0.022047143 0.012726331
-0.0019403218 0.019613521 0.024177045 0.0024950579 0.0056587122 -0.0034540119 -0.00089203764 -0.0018897137
-0.01395106 0.0019610517 -0.010618073 0.011742617 0.0038860717 -0.017471887 0.023612209 0.009632028
0.01294424 -0.022385232 0.02581592 0.011128249 -0.00025982843 -0.015761817 0.0066030063 0.013038537
0.010196878 0.01927264 -0.02292125 -0.01879982 0.025932826 0.021783022 -0.0011843088 0.013659742
0.018070921 0.018677056 -0.012512299 -0.009232297 -0.012892111 -0.0059456164 0.02444346 0.00015664352
-0.01987162 0.01918373 0.01094256 0.0054385527 -0.012226289 0.018376248 -0.019887684 0.013715394
-0.0013355962 -0.007860681 -0.022261359 0.0039327904 -0.0103888605 -0.008105997 0.015381638 -0.01570924
0.024176834 0.021841956 0.020175217 0.0040248996 -0.02073483 -0.008179804 -0.013984104 -0.005069111
-0.024387702 -0.012436464 -0.0063986853 -0.0013843407 -0.007619287 0.0042845546 -0.0127345845 -0.017072953
-0.017385555 0.024020897 0.0155129405 -0.020760627 -0.020777095 0.00011233337 -0.012248288 0.00940183
-0.009472984 0.0010492456 -0.0072024036 -0.020002708 -0.0029369418 0.027484762 0.02379001 -0.012553974
0.011085805 0.022175232 0.007670894 0.0038335477 0.028151372 0.006276709 -0.0022758967 0.028370412
0.016243162 -0.009323609 0.024124147 0.02245388 0.024737984 -0.0067626005 -0.003690236 0.02099696
0.020095661 -0.01724021 0.023900254 0.015750436 0.010001753 -0.007921152 -0.0035631764 0.015011786
0.0037847552 0.019637546 -0.015668646 -0.009040939 -0.0031758088 0.009900944 0.008476045 0.013021948
-0.014082109 -0.0047158157 0.009503079 -0.01127897 0.017677361 0.017442795 0.013625127 0.013112851
0.014867641 -0.021367854 -0.007854396 0.018555436 -0.010593896 0.0018085468 -0.008752817 0.009076025
0.0015883751 -0.00081111665 0.009462815 0.025037155 0.009770747 -0.0019509374 0.026660416 -0.006231836
0.008362953 0.011202375 0.014198012 0.022866566 0.0136245135 0.0014127722 0.018231334 0.0071210233
0.00023729383 0.008416683 -0.013605705 0.008457877 -0.012750939 0.013843937 0.02484627 -0.011606127
-0.022881467 0.020329807 -0.013009071 0.016329352 0.016920589 -0.009362253 0.00056209473 -0.010240623
0.02081094 -0.018304937 0.0023647656 -0.013837443 0.02014524 0.012331964 0.021355055 -0.011885139
0.008435511 -0.021228619 0.014742774 -0.008674401 0.007917089 0.011968418 -0.015745994 0.01377287
-0.010681264 0.010624271 -0.006525279 0.0035561977 0.0041400734 0.020248285 0.007776927 0.005997905
-0.00270677 -0.02419802 -0.013615218 -0.0071920604 0.011411151 0.00013968925 0.008162516 -0.016169792
-0.023770275 0.010792848 0.014838613 0.012692124 0.01633738 -0.022826197 0.009358571 0.021431949
-0.0131255 0.009754669 0.012553362 0.0048364107 -0.02427332 0.011217272 0.022051044 -0.0039081904

conv2.bias f4 [32]
00000000: c2fd 59bc 75dc b1bc f19a afbc f910 a93c
00000010: feb4 2bbc 8a1b ce3b a89f 643c f068 623c
00000020: 41ac 933c 9d01 99bb ea7e 9939 e053 9d3c
00000030: a138 813a 388c 41bc c7fd 9eba 0843 6a3c
00000040: 1d91 a63c 11d1 273b 3570 8fbb 01c3 babc
00000050: b68d 35bc ee4b b63b 41ef 5e3b be8d a93c
00000060: 7178 ca3b 0bbf 203c bded 843c 9859 4b3c
00000070: 2167 92bb f0c4 8f3c 8151 c43c 2c99 e33b
-0.0133051295 -0.021711567 -0.021436187 0.020637976 -0.010480164 0.006289904 0.013954081 0.013818964
0.018026473 -0.004669382 0.00029276992 0.019205034 0.0009858796 -0.011813216 -0.0012130075 0.014298208
0.020332867 0.002560679 -0.00437739 -0.022798063 -0.01108115 0.0055632507 0.0034017118 0.02069747
0.0061789085 0.009811173 0.016226644 0.0124114975 -0.0044678603 0.017549962 0.023964645 0.0069457497

conv3.weight f4 [1, 32, 5, 5]
00000000: 168c 82bc 87ce 123d 34db e73c 1d08 92bc
00000010: 101c f43c 2424 793c f176 ff3c 6d22 14bb
00000020: 45e4 dcbc e5a0 44bc f7e9 f03c 1942 e1bb
00000030: 184c d33c 38d4 663c fbc4 01bc e38b 5f3c
00000040: 2abc dc3c abb8 dc3c 62b9 debc fd5a b2bc
00000050: 672e 053c dcbc ddbc 3d96 f7bc 4ce2 353c
00000060: 873e e6bb a5a5 17bc 2fbd 543c 6c72 0dbd
00000070: c4ab ba3a 694a 87bc 7919 fbbc 2c85 263c
00000080: 2667 933b b038 8ebc d915 043c db30 ccbc
00000090: 6ff8 093d 7199 3d3c e657 c0bb aed1 3ebc
000000a0: 2d36 053d d8a2 07bd 1af3 fdbb b3f8 9e3c
000000b0: b3e5 3d3c a2ad 713c 12b9 b2bc 2c36 053d
000000c0: 8d11 e93b 35c4 e2bc 160e e03c d9c8 063d
000000d0: 3f27 263d 407e 1d3c 9315 a9bc 471d 303c
000000e0: 3030 edbc e304 69bc 4684 0fbc 6e04 e9bb
000000f0: ce38 0abc c9c7 1c3b b5ee 3c3c a97b c73c
00000100: af79 4c3b 1140 e43c 6fed 743c 226b 153d
00000110: 6432 7b3c 47af 9b3c aea6 bc3c 81d1 8dbb
00000120: 67fa 2cba 8b34 01bd 702d 3bbb f34d c2bc
00000130: 3307 e4ba ec61 cc3c 9dba 073d 775f acbc
00000140: 1ec2 0ebb 1964 003b 56a0 de3c ddbf 27bc
00000150: 385f 55bb 6d7f 2e38 2567 6b3c 17a7 9c3c
00000160: e409 1a3d 642b 093d 8ee4 0a3c 3810 09bd
00000170: 8c65 073d de87 483c e16b 8c3c 4bad 0bbd
00000180: 4b18 dd3c 5027 bd3a d0c2 febc 2398 b43c
00000190: b8fe e0bc 933b a9bc b294 973c d800 623c
000001a0: dc79 833b 232d 013d 3a5f 4dbb a2a4 363c
000001b0: f331 a13c b583 d43c 2dcc e2bc 8782 5e3c
000001c0: 08e2 023d 0837 a83b ca7f 9e3b b181 66bc
000001d0: 6c25 143d f357 043d d10f 723a 06ba a93c
000001e0: 3185 083d eab5 053d b611 933c 51ed ac3a
000001f0: cc41 603b e072 f1bb c508 c2bc cc58 f33c
00000200: 3f73 82bc 589c fb3b 2eb4 85bc a1b2 f03a
00000210: 7f77 653c afda f73c 55ee 1a3a f4b7 a8bc
00000220: 521e ba3b 806a aabc 34ed 4b3c f521 ef3c
00000230: 8c9f f73c 077e 11bd 8ed8 b93c 4684 07bc
00000240: db1c dd3c 538d b83c 285a e2bc 6cbf 92bb
00000250: f8e4 fbbb 8430 edbc 881c c73c b9ef fd3c
00000260: 8fc1 edbc 1467 a6bb 2f94 4bbc ef3d 083c
00000270: a18a 35bc 7c28 1a3d 0aae 283c 1102 00bd
00000280: 451c 163c 52e9 00bc ac2c 92bc 4e56 163d
00000290: bde0 b03c fd84 083b 3de3 4eba 87b5 0a3a
000002a0: e6ad dfbb 9c37 083c 927c 453c 9db7 c03c
000002b0: 988c 82bc 1f93 953c 9490 bebc 1ccb 943c
000002c0: feb4 fd3c 39be d0bc 8af3 83bc da1a a63c
000002d0: c8a0 853b cb7c ae3c c306 fa3c 068c cebc
000002e0: c15e ae3c 0dc0 553c 2f80 393b d523 4cbc
000002f0: c331 143b d1da 16bc 3a35 b63c 2395 8ebc
00000300: 15cd a6bc efa5 59bb 8c33 00bd 452e 3fbb
00000310: 6cb5 d3bc fd43 04bd cdf3 32b9 d2d9 90bc
00000320: 7bd2 2cbb 7c83 b9bc 1231 843b 6ccf 6b3c
00000330: 0e35 a1bc 789f 06bc 8d2d 07bd 35bc 05bd
00000340: 1bc4 83bc 6efd 713c 6790 8f3c 54fd b1bc
00000350: 4e32 883c 18a0 8dbc f54e 063d df46 08bc
00000360: c0b2 eebb aa27 cabc 132c ec3c a671 c23c
00000370: 1b20 88bb 8631 9d3c 5df4 b63c 62b7 833c
00000380: 427a 93bc 83f4 4b3c 7bee 803c d2b2 2b3c
00000390: 0b2a c9ba e89c cebc 7751 133d 5b36 64bb
000003a0: 5510 98bc af27 33bb fbf9 b43c eaa5 6abc
000003b0: 105e 60b9 ac78 613a 0576 1dbb 710b cb3c
000003c0: 28c4 25bc ecf7 a13c 1302 e23c 26d7 003d
000003d0: ef92 123d 43ca a13b 5c39 ac3c c489 1abc
000003e0: 3eda d7bc 113b e7bc 2bb6 88bc 9311 3dbb
000003f0: c12f bf3c e106 733c 98ae f03c 03b3 cfbc
-0.015935939 0.03584149 0.028302766 -0.017826134 0.029798537 0.0152063705 0.031184645 -0.0022603527
-0.026964316 -0.012001251 0.029408438 -0.0068743345 0.02579312 0.014088683 -0.007920499 0.013644191
0.026945192 0.026943525 -0.027188007 -0.021771902 0.008128739 -0.027067594 -0.030223006 0.011101317
-0.007026497 -0.009255801 0.012984558 -0.03453295 0.0014241864 -0.016514974 -0.030651795 0.010163587
0.0044983802 -0.017361015 0.0080618495 -0.02492564 0.03368419 0.011572228 -0.0058698533 -0.011646671
0.03252237 -0.033114284 -0.007749927 0.019405698 0.011590409 0.01475087 -0.021816764 0.032522365
0.007112688 -0.02768145 0.027350467 0.032906387 0.04056477 0.00961262 -0.02064017 0.010749168
-0.028953642 -0.0142223565 -0.008759564 -0.0071111238 -0.008436395 0.0023922792 0.011531522 0.024350958
0.0031200459 0.02786258 0.014949187 0.036479123 0.015331838 0.019004477 0.023028698 -0.0043279533
-0.0006598592 -0.03154425 -0.0028561018 -0.02371881 -0.0017397165 0.024949037 0.033136953 -0.021041615
-0.0021783183 0.0019590913 0.027176064 -0.010238615 -0.0032557976 4.1603507e-05 0.014367853 0.019122643
0.03760709 0.033488646 0.008477343 -0.033462733 0.033055827 0.0122394245 0.017141284 -0.034100812
0.026989123 0.0014431272 -0.031098753 0.0220452 -0.02746521 -0.02065829 0.01850352 0.0137941465
0.0040123295 0.031537186 -0.0031337277 0.01114765 0.019677138 0.025941709 -0.02768525 0.013580925
0.03195384 0.0051335134 0.004837011 -0.014069007 0.0361685 0.032310437 0.0009233924 0.020718586
0.033330146 0.03264419 0.017952781 0.0013193284 0.0034218905 -0.0073684305 -0.023685822 0.029705428
-0.015924094 0.0076785497 -0.016321268 0.0018363782 0.014005541 0.030255644 0.0005910148 -0.020595528
0.005679884 -0.020802736 0.01244669 0.029190997 0.030227445 -0.03552058 0.02268627 -0.008271283
0.026991298 0.022528326 -0.02763088 -0.0044783857 -0.0076872073 -0.028953798 0.024305597 0.030998098
-0.02902296 -0.005078206 -0.012425466 0.008315547 -0.011080415 0.037636265 0.0102954 -0.03125197
0.009162013 -0.007868128 -0.017843567 0.0367034 0.021591539 0.002083122 -0.00078921375 0.0005291332
-0.00682615 0.00831404 0.012053626 0.023525054 -0.015936181 0.01825863 -0.0232623 0.018163256
0.030970093 -0.02548133 -0.01610734 0.020276476 0.0040780045 0.02129974 0.030520802 -0.025213253
0.021285417 0.013046277 0.0028305163 -0.012459715 0.0022612668 -0.009207443 0.022242177 -0.017405098
-0.020361463 -0.0033210476 -0.03129916 -0.0029171866 -0.025843345 -0.0322914 -0.00017066226 -0.01768199
-0.0026370573 -0.022645704 0.00403417 0.014392715 -0.019678619 -0.008216731 -0.033002425 -0.03265019
-0.016084721 0.014769895 0.017524911 -0.021727242 0.01662555 -0.017288253 0.032790143 -0.008317678
-0.0072844923 -0.024677116 0.02882961 0.023735832 -0.004154218 0.019188654 0.022333318 0.016078655
-0.018002633 0.012448433 0.015738716 0.010479646 -0.0015347613 -0.025221303 0.035966363 -0.0034822437
-0.018562475 -0.0027336886 0.022091856 -0.014321784 -0.00021397346 0.00086010504 -0.0024026644 0.02478573
-0.010117568 0.019771539 0.02758888 0.03145518 0.035784658 0.0049374416 0.021023445 -0.00943226
-0.026349183 -0.028226407 -0.016688427 -0.0028849586 0.0233382 0.014833183 0.029380128 -0.025353914
