resutls/epoch_27.005.pth (torch, 231589 bytes, 5 tensors)

conv1.weight f4 [64, 1, 9, 9]
0.057367608 -0.048785705 -0.020792864 0.05264501 -0.10437969 0.0661547 -0.022863133 0.056757513
0.016345963 -0.013707718 0.030905532 0.005772032 0.040619943 -0.04324941 -0.008680942 -0.010546173
0.016182458 2.6747402e-05 0.09757876 0.035364892 -0.04029128 -0.06619707 -0.017118216 -0.047802232
-0.03564658 0.006116004 0.066926606 0.061263762 -0.107682884 0.0700211 0.03297414 0.10668532
0.07363553 -0.101203814 -0.10520201 -0.052732762 0.0981211 -0.016923593 0.049422536 -0.049620684
0.11014452 -0.04699236 0.08299246 0.0014495795 -0.058003902 0.057625238 -0.0578603 0.034276653
-0.030328402 -0.010849382 -0.10719024 -0.05383354 0.060049206 -0.026768737 0.11089672 0.08955432
-0.0034168805 -0.07340072 0.068318985 0.03391249 -0.072527856 0.071998425 0.06772068 0.098563015
-0.060984977 -0.01665923 -0.0006622321 0.017139241 -0.084928595 -0.07957188 0.060239248 -0.025876807
0.053705066 0.0067677475 0.037328783 0.025255036 0.04038322 0.053929675 -0.10408426 0.0553273
-0.078299396 -0.087506875 0.0040063895 -0.021309711 0.062787324 -0.0654711 -0.099759296 0.07946743
-0.018272888 0.059771787 0.03283221 -0.08661987 0.02025055 0.025312321 -0.0751549 -0.052711945
0.0371135 0.01818933 -0.049900174 -0.036323197 0.09863243 -0.022480428 0.061413914 0.04826377
-0.072281756 -0.095413975 0.10511766 0.003192636 0.073703274 0.021615395 0.034849126 0.08221809
0.10623502 -0.072705306 0.014710888 0.08271608 0.079217166 0.067125395 -0.08216879 -0.08083798
-0.067089945 0.016338607 0.11294292 -0.06844023 0.06013201 -0.06188723 -0.10473437 -0.022829691
0.065120056 0.10552676 -0.06424568 0.029766355 0.1003517 0.07674084 0.07096292 0.07756361
0.06922509 0.029295297 -0.074592225 -0.08928655 -0.04600692 -0.0085905045 -0.06576701 0.042028353
0.031804483 -0.027294151 0.041286506 0.036054935 0.06960668 0.07730548 -0.035515517 0.108679965
-0.013341346 -0.0074162297 -0.10903383 -0.07514044 -0.06734747 -0.04741202 0.07886438 -0.0363783
-0.084675506 0.04084018 0.035949375 0.07224256 -0.056766674 0.026269207 -0.036986772 -0.02404495
-0.08991542 -0.051509913 -0.035473436 0.04886426 0.0223141 0.029673032 0.11427223 0.11322911
0.07767357 0.0035461304 -0.07694411 0.08627799 -0.0261473 -0.00657808 -0.09338871 -0.017052826
-0.06537733 0.10477716 -0.09586067 -0.08636064 -0.0045342804 -0.058966734 0.041785747 -0.040053263
-0.047144935 0.0130270235 0.0829559 -0.0784127 0.051823314 0.07037187 0.10864235 -0.077195264
0.028797617 -0.078499645 0.10084248 -0.04087288 0.06566574 0.0016192886 -0.011506007 -0.0041670357
0.019205451 0.05347393 0.021433951 0.039268173 -0.09887713 0.079598896 0.09550949 0.08958482
0.08146027 -0.08032383 -0.040325113 0.10056087 -0.07985065 0.10163364 -0.08898976 -0.07982851
0.051943943 -0.080780365 -0.025541836 0.08096946 0.09023918 0.10967604 -0.020956488 -0.088008255
0.10775451 -0.025599161 -0.047564704 0.025772251 -0.0785329 0.07374876 0.07205203 -0.08860059
-0.09361524 -0.0114565855 0.044316746 -0.0025215466 -0.05606757 0.0030641363 -0.1042717 -0.0783317
-0.07420654 0.09037095 0.09685907 -0.03894392 0.005824424 0.049960658 0.013911822 -0.055272423
00000000: 4cfa 6a3d 85d3 47bd cc55 aabc 4ba2 573d
00000010: 05c5 d5bd 1e7c 873d 774b bbbc 917a 683d
00000020: f8e7 853c 5696 60bc 992d fd3c 5023 bd3b
00000030: 1961 263d 4b26 31bd 823a 0ebc dbc9 2cbc
00000040: 1391 843c 9c5f e037 5fd7 c73d c7da 103d
00000050: 7808 25bd 5492 87bd 803b 8cbc 46cc 43bd
00000060: 2602 12bd c368 c83b d110 893d b6ef 7a3d
00000070: d888 dcbd 3967 8f3d e40f 073d d57d da3d
00000080: 3ace 963d f243 cfbd 2774 d7bd 4ffe 57bd
00000090: b7f3 c83d 59a3 8abc 496f 4a3d 0f3f 4bbd
000000a0: 7393 e13d 107b 40bd f3f7 a93d d1ff bd3a
000000b0: 8095 6dbd 7108 6c3d ecfe 6cbd ad65 0c3d
000000c0: 4573 f8bc 9bc1 31bc 8e86 dbbd 8f80 5cbd
000000d0: 28f6 753d 1c4a dbbc d21d e33d 4168 b73d
000000e0: beed 5fbb 1e53 96bd d3ea 8b3d d3e7 0a3d
000000f0: 7c89 94bd e973 933d 24b1 8a3d 68db c93d
00000100: 62cb 79bd f078 88bc a599 2dba 9867 8c3c
00000110: 0bef adbd 95f6 a2bd 6ebd 763d 99fb d3bc
00000120: d8f9 5b3d fbc3 dd3b 11e6 183d a6e3 ce3c
00000130: e068 253d 5de5 5c3d 212a d5bd e19e 623d
00000140: 6f5b a0bd ce36 b3bd 0848 833b b491 aebc
00000150: a496 803d b615 86bd 9a4e ccbd d2bf a23d
00000160: 06b1 95bc 43d3 743d 117b 063d c265 b1bd
00000170: 7be4 a53c c95b cf3c d0ea 99bd 7be8 57bd
00000180: 5304 183d ca01 953c 2064 4cbd a2c7 14bd
00000190: cdff c93d e028 b8bc 288d 7b3d 3bb0 453d
000001a0: 7508 94bd 6768 c3bd ed47 d73d 8b3b 513b
000001b0: bef1 963d c512 b13c f5bd 0e3d f561 a83d
000001c0: bf91 d93d 85e6 94bd f005 713c 0c67 a93d
000001d0: 9c3c a23d 0a79 893d 1c48 a8bd 628e a5bd
000001e0: 7466 89bd 8bd8 853c 9e4e e73d 642a 8cbd
000001f0: fc4c 763d 777d 7dbd f97e d6bd 5505 bbbc
00000200: aa5d 853d 6a1e d83d 3d93 83bd 92d8 f33c
00000210: 3185 cd3d 4d2a 9d3d 0255 913d acd9 9e3d
00000220: e2c5 8d3d b1fc ef3c cfc3 98bd dedb b6bd
00000230: c171 3cbd 30bf 0cbc dbb0 86bd ec25 2c3d
00000240: 6b45 023d fc97 dfbc 0a1c 293d 57ae 133d
00000250: f28d 8e3d 5652 9e3d b878 11bd 9a93 de3d
00000260: a995 5abc d803 f3bb 214d dfbd 3be3 99bd
00000270: 78ed 89bd 1b33 42bd a683 a13d 6a01 15bd
00000280: 5a6a adbd 0848 273d a73f 133d e8f3 933d
00000290: 2c84 68bd 8532 d73c 717f 17bd eaf9 c4bc
000002a0: 9325 b8bd 0ffc 52bd 984c 11bd e425 483d
000002b0: 0fcc b63c dc14 f33c 8f07 ea3d aae4 e73d
000002c0: 5213 9f3d 3266 683b e094 9dbd 84b2 b03d
000002d0: dd32 d6bc ef8c d7bb 9442 bfbd 5eb2 8bbc
000002e0: 8de4 85bd 6895 d63d 9952 c4bd d9dd b0bd
000002f0: 4d94 94bb 1a87 71bd 8827 2b3d e40e 24bd
00000300: 0c1b 41bd 4c6f 553c c8e4 a93d d696 a0bd
00000310: af44 543d 211f 903d e17f de3d 8d18 9ebd
00000320: fbe8 eb3c 6cc4 a0bd 8186 ce3d 526a 27bd
00000330: c27b 863d 4f3e d43a b183 3cbc a18b 88bb
00000340: c054 9d3c 7b07 5b3d 4196 af3c aad7 203d
00000350: 1880 cabd bf04 a33d 7b9a c33d 3f78 b73d
00000360: a4d4 a63d d280 a4bd f22b 25bd dbf2 cd3d
00000370: bd88 a3bd 4c25 d03d 4340 b6bd 217d a3bd
00000380: 2cc3 543d 2d70 a5bd 1d3d d1bc 51d3 a53d
00000390: 52cf b83d d59d e03d f1ac abbc ac3d b4bd
000003a0: 66ae dc3d 55b5 d1bc 35d3 42bd 5420 d33c
000003b0: dbd5 a0bd 9709 973d 0490 933d 3a74 b5bd
000003c0: 59b9 bfbd 67b4 3bbc 7a85 353d 8840 25bb
000003d0: 1ca7 65bd adcf 483b 678c d5bd 5f6c a0bd
000003e0: 99f9 97bd 6814 b93d 0c5e c63d a983 1fbd
000003f0: cfda be3b 8ca3 4c3d 69ee 633c 5665 62bd

conv1.bias f4 [64]
-0.052811854 0.023907475 -0.07022933 -0.04218894 0.08000881 0.04232839 0.08149151 -0.021867266
0.10240825 0.07686177 0.0640537 0.05401286 -0.09505936 -0.05440768 0.0066568214 0.03592963
0.11977498 0.09381047 -0.048446633 0.05811304 0.043420024 -0.053987984 -0.10705753 0.047070198
0.014006717 0.035476767 0.07581284 -0.033686027 -0.042734325 0.033198144 -0.04306927 -0.065269984
-0.102528505 -0.08913883 -0.01052791 0.09538323 -0.07003658 0.025525479 0.06361213 0.021230968
-0.00297297 0.08514602 -0.10351121 0.09652526 0.091632985 0.09611297 0.084269084 -0.0073523503
-0.08339521 -0.070110664 -0.084634475 -0.06648645 -0.09901086 0.074019864 0.043395866 -0.048161283
0.011815732 0.015094524 0.0040013045 0.0714093 0.044346627 -0.08785247 0.105340876 -0.0458591
00000000: 3e51 58bd 9cd9 c33c 65d4 8fbd 4fce 2cbd
00000010: a9db a33d 8960 2d3d 05e5 a63d fb22 b3bc
00000020: 6bbb d13d b469 9d3d 962e 833d 973c 5d3d
00000030: 7bae c2bd 96da 5ebd 7721 da3b f32a 133d
00000040: 964c f53d b41f c03d fa6f 46bd f007 6e3d
00000050: 32d9 313d 8122 5dbd fa40 dbbd aecc 403d
00000060: 6e7c 653c 1650 113d c343 9b3d 5cfa 09bd
00000070: 300a 2fbd c7fa 073d 6769 30bd 45ac 85bd
00000080: 77fa d1bd 6b8e b6bd 417d 2cbc 4858 c33d
00000090: 576f 8fbd cf1a d13c 1447 823d 91ec ad3c
000000a0: 29d6 42bb 0961 ae3d affd d3bd 09af c53d
000000b0: 13aa bb3d e0d6 c43d 4595 ac3d fceb f0bb
000000c0: 1ccb aabd 2e96 8fbd d754 adbd 0c2a 88bd
000000d0: 35c6 cabd ba97 973d ddbf 313d c444 45bd
000000e0: c696 413c 064f 773c 601d 833b 0a3f 923d
000000f0: cfa4 353d ffeb b3bd f5bc d73d c0d6 3bbd

conv2.weight f4 [32, 64, 5, 5]
-0.0074346107 0.0274837 -0.012322882 -0.002889785 0.0026338988 -0.020032072 0.019940596 0.021686599
-0.021709137 -0.0046352013 0.0079280725 0.017693778 0.013482456 0.0009328945 0.02215724 -0.0034913737
0.0024137213 -0.014242346 -0.012580411 -0.00839174 -0.021082874 -0.0021094726 0.007264998 -0.015156742
-0.02171094 0.02532738 -0.009916211 -0.018611621 -0.0066408906 -0.012730801 -0.018705275 -0.00040587407
-0.009627967 -0.0064147767 0.01145918 0.005832645 0.02309813 -0.024062559 0.02203183 0.012669448
-0.0019123643 0.019652022 0.02418622 0.0024628188 0.0055792443 -0.0034260522 -0.0008531578 -0.0018840021
-0.013984569 0.001888002 -0.010657112 0.01169063 0.0038346234 -0.017504243 0.0236065 0.0096256975
0.012919088 -0.022395073 0.025830995 0.011176862 -0.00025774803 -0.015774991 0.006588986 0.013048136
0.010238361 0.019308094 -0.022914335 -0.018802011 0.02592636 0.02179385 -0.0011249202 0.013692435
0.018069463 0.018639553 -0.012538655 -0.009232297 -0.012892111 -0.0059388797 0.02444346 0.000159376
-0.01987162 0.01918373 0.010943809 0.0054510464 -0.012224642 0.018376248 -0.019887684 0.013717341
-0.0013199553 -0.007852979 -0.022261359 0.0039335033 -0.010374848 -0.008077537 0.0153993415 -0.01570924
0.024176834 0.021842418 0.020186469 0.0040438245 -0.020695731 -0.008153377 -0.013982588 -0.0050730347
-0.024376975 -0.012402026 -0.0063787173 -0.001385305 -0.0076298644 0.004282733 -0.012694206 -0.017055104
-0.017382922 0.024014631 0.015495764 -0.020722931 -0.020760972 0.00011494977 -0.012256259 0.009388246
-0.009453606 0.0010591913 -0.007211279 -0.020004252 -0.0029344813 0.02748347 0.023781663 -0.012547657
0.0111158015 0.022198917 0.0076995892 0.0038725438 0.028217286 0.0063607567 -0.002220489 0.028371198
0.016269669 -0.00925632 0.024208926 0.022501217 0.024725044 -0.006752008 -0.0036390105 0.021070916
0.02014675 -0.01726235 0.023882432 0.015757235 0.010031567 -0.007901312 -0.0035666507 0.015011771
0.0037816595 0.019637546 -0.015668646 -0.009040953 -0.0031788219 0.009900942 0.008476043 0.013021948
-0.014082114 -0.00471657 0.009503079 -0.011278971 0.017677361 0.017442795 0.013625126 0.013112851
0.014867641 -0.021367854 -0.0078543965 0.018555436 -0.010593896 0.00180606 -0.008752822 0.009062578
0.0015764644 -0.0008228063 0.0094580585 0.025036855 0.009771099 -0.0019530138 0.026670838 -0.006203071
0.008386799 0.011212965 0.01420947 0.022903005 0.013675619 0.0014446652 0.01822221 0.0071108015
0.0002387709 0.008422366 -0.013624057 0.008460214 -0.012750682 0.013834772 0.024821047 -0.011661291
-0.022881469 0.020329807 -0.01300864 0.016329352 0.016920589 -0.009363528 0.0005688 -0.010214486
0.020810947 -0.018304937 0.0023631158 -0.013817047 0.020170275 0.01235699 0.021355055 -0.011885186
0.008444299 -0.0212268 0.014749399 -0.008674397 0.007917072 0.011969885 -0.015745962 0.013772977
-0.010681282 0.010619435 -0.0065141665 0.0035642367 0.0041405507 0.020237477 0.007777596 0.006016164
-0.0026960666 -0.024209239 -0.013652083 -0.007156848 0.011453402 0.00016040773 0.008140322 -0.016237382
-0.023715878 0.010843578 0.014857541 0.01265356 0.016237192 -0.022776792 0.009396325 0.02143337
-0.013185009 0.009634492 0.012553295 0.0048342356 -0.02427332 0.011217164 0.022051044 -0.0039104917
00000000: 099e f3bb 7f25 e13c eae5 49bc 8c62 3dbb
00000010: 7d9d 2c3b 4d1a a4bc 765a a33c 18a8 b13c
00000020: 5cd7 b1bc e3e2 97bb bfe4 013c 8bf2 903c
00000030: 85e5 5c3c 7d8d 743a 1a83 b53c 88cf 64bb
00000040: 862f 1e3b bb58 69bc 111e 4ebc 827d 09bc
00000050: feb5 acbc 143f 0abb 380f ee3b fc53 78bc
00000060: 24db b1bc 5e7b cf3c 9a77 22bc 6677 98bc
00000070: d49b d9bb d994 50bc ce3b 99bc 7fcb d4b9
00000080: 9fbe 1dbc 0c33 d2bb 49bf 3b3c c61f bf3b
00000090: 4a38 bd3c d81e c5bc 197c b43c 8493 4f3c
000000a0: 4ca8 faba 47fd a03c 2e22 c63c 3e67 213b
000000b0: 18d2 b63b 9e87 60bb 73a6 5fba 9ff0 f6ba
000000c0: 891f 65bc d676 f73a 2b9b 2ebc 0e8a 3f3c
000000d0: 4e4e 7b3b 0f65 8fbc 6b62 c13c 1ab5 1d3c
000000e0: 95aa 533c df75 b7bc 869b d33c 281f 373c
000000f0: 5b22 87b9 8e3a 81bc 6ce8 d73b d9c7 553c
00000100: ccbe 273c 022c 9e3c d8b6 bbbc ad06 9abc
00000110: 8563 d43c 0489 b23c 0f72 93ba 3c56 603c
00000120: 6906 943c fab1 983c ee6e 4dbc 0f43 17bc
00000130: 6f39 53bc ef9a c2bb a73d c83c 2b1e 2739
00000140: cfc9 a2bc 3327 9d3c a94d 333c b19e b23b
00000150: dd49 48bc c989 963c 7feb a2bc b3be 603c
00000160: 5a02 adba c8a9 00bc 745d b6bc 9ee4 803b
00000170: 44fb 29bc a557 04bc 854d 7c3c aab0 80bc
00000180: 7f0e c63c dfee b23c 185e a53c 0f82 843b
00000190: 188a a9bc be95 05bc 3a17 65bc b33b a6bb
000001a0: 39b2 c7bc de31 4bbc 8f04 d1bb 1f93 b5ba
000001b0: f103 fabb 2b56 8c3b 5cfb 4fbc 25b7 8bbc
000001c0: a166 8ebc 55ba c43c f2e1 7d3c 23c3 a9bc
000001d0: ea12 aabc 3011 f138 7ace 48bc 28d1 193c
000001e0: 4ce3 1abc 90d4 8a3a 984c ecbb f5df a3bc
000001f0: 6d50 40bb 0425 e13c c3d1 c23c b094 4dbc
00000200: 0d1f 363c 81da b53c d64c fc3b 81ca 7d3b
00000210: f027 e73c e56d d03b a085 11bb b76a e83c
00000220: f847 853c d2a7 17bc cc51 c63c 7954 b83c
00000230: 2d8c ca3c f33f ddbb 777c 6ebb ea9c ac3c
00000240: cc0a a53c c669 8dbc 17a5 c33c 5115 813c
00000250: 715b 243c 8174 01bc 78be 69bb eef3 753c
00000260: b8d5 773b ebde a03c 885b 80bc 8120 14bc
00000270: c853 50bb 9037 223c 1adf 0a3c 025a 553c
00000280: abb8 66bc 758d 9abb cdb2 1b3c 6fcb 38bc
00000290: 1dd0 903c 31e4 8e3c ec3b 5f3c 49d7 563c
000002a0: 6897 733c a30b afbc baaf 00bc 9201 983c
000002b0: 0592 2dbc 51b9 ec3a ff67 0fbc 357b 143c
000002c0: 5ea1 ce3a 99b1 57ba f9f5 1a3c 171a cd3c
000002d0: f616 203c 45fc ffba cd7c da3c 2243 cbbb
000002e0: c968 093c 95b6 373c d6ce 683c 159f bb3c
000002f0: b40f 603c ec5a bd3a bf46 953c ba01 e93b
00000300: 935e 7a39 f7fd 093c 7037 5fbc b69c 0a3c
00000310: 3de8 50bc 3dab 623c 8255 cb3c 000f 3fbc
00000320: eb71 bbbc b28a a63c 3122 55bc 22c5 853c
00000330: 0c9d 8a3c 7c69 19bc 861b 153a a95a 27bc
00000340: b87b aa3c 3cf4 95bc 81de 1a3b e560 62bc
00000350: 223c a53c f974 4a3c ccf0 ae3c 15ba 42bc
00000360: f559 0a3c d3e3 adbc 77a7 713c 0f1f 0ebc
00000370: 9bb6 013c 561d 443c adfd 80bc 0da8 613c
00000380: 8b00 2fbc 24fd 2d3c ca74 d5bb f895 693b
00000390: 75ad 873b 11c9 a53c 34db fe3b 3e23 c53b
000003a0: 7eb0 30bb 7452 c6bc fdac 5fbc fe83 eabb
000003b0: 0da7 3b3c 1f33 2839 fc5e 053c 4204 85bc
000003c0: cd47 c2bc 43a9 313c 0b6d 733c e150 4f3c
000003d0: dc03 853c 6596 babc 0bf3 193c 0995 af3c
000003e0: f005 58bc fdd9 1d3c 56ac 4d3c 8268 9e3b
000003f0: d7d8 c6bc 32c8 373c 64a4 b43c 9523 80bb

conv2.bias f4 [32]
-0.013365289 -0.02171401 -0.02151438 0.020684607 -0.010771778 0.0063655144 0.013850878 0.013785979
0.018039485 -0.004683897 0.00016387305 0.01943293 0.0010667141 -0.01176531 -0.0012272118 0.01420096
0.0203162 0.0025319778 -0.0044266293 -0.02284126 -0.011042588 0.0054767807 0.0035093639 0.020882653
0.006174076 0.009809548 0.01613861 0.012307585 -0.0044620745 0.017626045 0.023983302 0.0068427254
00000000: 16fa 5abc 94e1 b1bc ed3e b0bc c472 a93c
00000010: 1d7c 30bc ce95 d03b cbee 623c 96de 613c
00000020: 8bc7 933c 607b 99bb 56d5 2b39 cf31 9f3c
00000030: fcd0 8b3a 49c3 40bc 65da a0ba 25ab 683c
00000040: 296e a63c 8aef 253b 420d 91bb 981d bbbc
00000050: f9eb 34bc 9176 b33b 5bfd 653b 1912 ab3c
00000060: e74f ca3b 3ab8 203c 1e35 843c c1a5 493c
00000070: 9836 92bb 7f64 903c a178 c43c f138 e03b

conv3.weight f4 [1, 32, 5, 5]
-0.015964292 0.03584089 0.02832858 -0.017839523 0.029771157 0.015199213 0.031210542 -0.002207749
-0.02696518 -0.01202738 0.029427987 -0.0068229833 0.025864236 0.014090018 -0.007951745 0.013632383
0.02695225 0.026958559 -0.027233517 -0.021837084 0.008089457 -0.02710058 -0.030257322 0.011020638
-0.0071056928 -0.009255801 0.012984558 -0.03453295 0.0014242226 -0.016514974 -0.030651795 0.010163587
0.0044983802 -0.017361015 0.0080618495 -0.02492564 0.03368419 0.011572228 -0.0058698533 -0.011646671
0.03252237 -0.033114284 -0.007749927 0.019405698 0.011590409 0.01475087 -0.021816764 0.032522365
0.007112688 -0.02768145 0.027345266 0.032913484 0.04058649 0.009602906 -0.020682942 0.010761581
-0.028917234 -0.014163259 -0.008745918 -0.0071447534 -0.008408075 0.0024519833 0.01161948 0.024384473
0.0030959388 0.027881049 0.01499722 0.036554787 0.015356862 0.018978339 0.023026807 -0.0043080496
-0.0006153568 -0.03153818 -0.0028794073 -0.023751829 -0.0017571074 0.024963198 0.033136662 -0.02104569
-0.002190046 0.0019680029 0.02722493 -0.010206961 -0.0032325848 3.2498385e-05 0.014384082 0.019187702
0.037642006 0.033509374 0.008455546 -0.03346059 0.0330885 0.012269432 0.01716144 -0.03414424
0.026960714 0.0014523927 -0.031093247 0.022050427 -0.027484292 -0.020661999 0.0185426 0.013812623
0.004016011 0.03153107 -0.003116212 0.011217839 0.01972027 0.025955228 -0.027691098 0.01361743
0.032055795 0.0051858597 0.004840161 -0.014063467 0.03619954 0.03239903 0.0009525176 0.02069012
0.033329707 0.032659143 0.018006291 0.0013105139 0.0033586114 -0.007392669 -0.023709293 0.029697135
-0.015926935 0.0076848604 -0.016334761 0.0018253735 0.014017347 0.030266304 0.00060570077 -0.020601375
0.0056800516 -0.02077963 0.012473776 0.029209428 0.030210208 -0.035521194 0.02268531 -0.008274145
0.026987057 0.022506637 -0.027671073 -0.0045152563 -0.007727421 -0.029001167 0.024306186 0.030997114
-0.02900869 -0.005068554 -0.012440627 0.008327139 -0.011071438 0.037642263 0.010312794 -0.031252343
0.009174527 -0.007859071 -0.017815616 0.036706086 0.021585058 0.0020851765 -0.00079317635 0.0005397997
-0.006820785 0.008298874 0.012053366 0.023518566 -0.01593274 0.018260278 -0.023272963 0.018163254
0.030970087 -0.02548133 -0.01610734 0.020276476 0.0040769656 0.021299738 0.030520802 -0.025213253
0.021285417 0.013049137 0.0028245456 -0.012461682 0.0022509012 -0.009215952 0.022242213 -0.017405098
-0.020361463 -0.003334672 -0.03129916 -0.0029094338 -0.025843345 -0.0322914 -0.0001881703 -0.01768211
-0.0026370573 -0.022645704 0.00403417 0.014392715 -0.019678619 -0.008216731 -0.033002425 -0.03265019
-0.016084721 0.014769895 0.017524911 -0.021727242 0.01662555 -0.017288253 0.032790143 -0.008317678
-0.0072844923 -0.024677116 0.02882961 0.023735832 -0.004154218 0.019188654 0.022333318 0.016078655
-0.018002633 0.012448433 0.015738716 0.010479646 -0.0015270958 -0.025221303 0.035966363 -0.003472251
-0.018562475 -0.0027164458 0.022091856 -0.014320638 -0.0002028244 0.00087859685 -0.0023834282 0.024785744
-0.010117592 0.019771539 0.02758888 0.03145518 0.035784658 0.0049199015 0.021023445 -0.009434597
-0.026349183 -0.028226407 -0.016703047 -0.0029004142 0.023337148 0.014842016 0.029389959 -0.025375659
00000000: 8cc7 82bc e6cd 123d 5711 e83c 3124 92bc
00000010: a4e2 f33c 1f06 793c 40ad ff3c e2af 10bb
00000020: 15e6 dcbc 7d0e 45bc f612 f13c 5593 dfbb
00000030: 3ce1 d33c d2d9 663c 0948 02bc 5c5a 5f3c
00000040: f7ca dc3c 32d8 dc3c d318 dfbc afe3 b2bc
00000050: a489 043c 0902 debc 34de f7bc e88f 343c
00000060: dfd6 e8bb a5a5 17bc 2fbd 543c 6c72 0dbd
00000070: fbac ba3a 694a 87bc 7919 fbbc 2c85 263c
00000080: 2667 933b b038 8ebc d915 043c db30 ccbc
00000090: 6ff8 093d 7199 3d3c e657 c0bb aed1 3ebc
000000a0: 2d36 053d d8a2 07bd 1af3 fdbb b3f8 9e3c
000000b0: b3e5 3d3c a2ad 713c 12b9 b2bc 2c36 053d
000000c0: 8d11 e93b 35c4 e2bc 2e03 e03c 4ad0 063d
000000d0: 053e 263d 8255 1d3c 466f a9bc 5851 303c
000000e0: d6e3 ecbc 040d 68bc 0a4b 0fbc 891e eabb
000000f0: 06c2 09bc 74b1 203b a25f 3e3c f2c1 c73c
00000100: 3ce5 4a3b cc66 e43c e6b6 753c 79ba 153d
00000110: 599b 7b3c 7678 9b3c b7a2 bc3c 8a2a 8dbb
00000120: e54f 21ba 2e2e 01bd 70b4 3cbb 3293 c2bc
00000130: be4e e6ba 9f7f cc3c 4fba 073d 0368 acbc
00000140: e086 0fbb 9cf9 003b d106 df3c 193b 27bc
00000150: c6d9 53bb e04e 0838 36ab 6b3c 872f 9d3c
00000160: 812e 1a3d 2041 093d 2189 0a3c f90d 09bd
00000170: cf87 073d ba05 493c 2696 8c3c d5da 0bbd
00000180: b7dc dc3c 365e be3a 44b7 febc 19a3 b43c
00000190: bd26 e1bc 5a43 a9bc a7e6 973c 574e 623c
000001a0: be98 833b b926 013d 5d39 4cbb 07cb 373c
000001b0: 678c a13c 0fa0 d43c 71d8 e2bc a41b 5f3c
000001c0: f04c 033d 25ee a93b 379a 9e3b 756a 66bc
000001d0: f845 143d d8b4 043d 60b2 793a 547e a93c
000001e0: bb84 083d 98c5 053d ee81 933c 8dc5 ab3a
000001f0: 261c 5c3b 343e f2bb fe39 c2bc 6847 f33c
00000200: 3479 82bc 48d1 fb3b 7ad0 85bc 5f41 ef3a
00000210: 04a9 653c 0af1 f73c e4c7 1e3a 37c4 a8bc
00000220: ba1f ba3b 0b3a aabc cf5e 4c3c 9c48 ef3c
00000230: 667b f73c ac7e 11bd 8bd6 b93c 4890 07bc
00000240: f613 dd3c d75f b83c 72ae e2bc b7f4 93bb
00000250: 4e36 fdbb db93 edbc c41d c73c a9ed fd3c
00000260: a2a3 edbc 1d16 a6bb c6d3 4bbc 8d6e 083c
00000270: fa64 35bc c62e 1a3d fef6 283c 7502 00bd
00000280: c150 163c 55c3 00bc 0ef2 91bc 1f59 163d
00000290: 26d3 b03c 75a7 083b 2aed 4fba 5881 0d3a
000002a0: e480 dfbb 00f8 073c 7b7b 453c 02aa c03c
000002b0: 6185 82bc 9496 953c f1a6 bebc 1bcb 943c
000002c0: fbb4 fd3c 39be d0bc 8af3 83bc da1a a63c
000002d0: 1198 853b ca7c ae3c c306 fa3c 068c cebc
000002e0: c15e ae3c 0ccc 553c 031c 393b 152c 4cbc
000002f0: db83 133b 81fe 16bc 4d35 b63c 2395 8ebc
00000300: 15cd a6bc 838a 5abb 8c33 00bd 33ac 3ebb
00000310: 6cb5 d3bc fd43 04bd 954f 45b9 13da 90bc
00000320: 7bd2 2cbb 7c83 b9bc 1231 843b 6ccf 6b3c
00000330: 0e35 a1bc 789f 06bc 8d2d 07bd 35bc 05bd
00000340: 1bc4 83bc 6efd 713c 6790 8f3c 54fd b1bc
00000350: 4e32 883c 18a0 8dbc f54e 063d df46 08bc
00000360: c0b2 eebb aa27 cabc 132c ec3c a671 c23c
00000370: 1b20 88bb 8631 9d3c 5df4 b63c 62b7 833c
00000380: 427a 93bc 83f4 4b3c 7bee 803c d2b2 2b3c
00000390: d528 c8ba e89c cebc 7751 133d b48e 63bb
000003a0: 5510 98bc 6606 32bb fbf9 b43c 1ca1 6abc
000003b0: 43ad 54b9 a351 663a 4a33 1cbb 790b cb3c
000003c0: 42c4 25bc ecf7 a13c 1302 e23c 26d7 003d
000003d0: ef92 123d 2037 a13b 5c39 ac3c 9193 1abc
000003e0: 3eda d7bc 113b e7bc d4d4 88bc e014 3ebb
000003f0: 8c2d bf3c ed2b 733c 36c3 f03c 9de0 cfbc
