resutls/epoch_26.966.pth (torch, 231589 bytes, 5 tensors)

conv1.weight f4 [64, 1, 9, 9]
000000 23 f4 6a 3d fd de 47 bd 6b c4 aa bc 21 93 57 3d
       0.057361733 -0.048796643 -0.020845613 0.052630547
000010 05 c5 d5 bd 1e 7c 87 3d 12 ba bb bc 28 70 68 3d
       -0.10437969 0.0661547 -0.022915874 0.056747586
000020 76 9e 85 3c 24 ea 60 bc 69 ee fc 3c 26 c4 bb 3b
       0.016310912 -0.0137276985 0.030875402 0.00573017
000030 f9 58 26 3d 1e 2c 31 bd cc d9 0e bc ae 87 2d bc
       0.040612195 -0.043254964 -0.008718919 -0.010591431
000040 ef 26 84 3c da 9b 9a b7 5e d7 c7 3d 65 d4 10 3d
       0.016131846 -1.8430805e-05 0.09757875 0.035358805
000050 8d 16 25 bd 55 92 87 bd 35 a6 8c bc 05 d4 43 bd
       -0.04030471 -0.066197075 -0.017169097 -0.04780962
000060 6c 0b 12 bd 46 a5 c6 3b d1 10 89 3d 2e ed 7a 3d
       -0.035655424 0.0060621826 0.066926606 0.06126135
000070 da 88 dc bd 32 67 8f 3d 29 e6 06 3d d2 7d da 3d
       -0.1076829 0.07002105 0.03293434 0.106685296
000080 3a ce 96 3d f2 43 cf bd 27 74 d7 bd b9 0c 58 bd
       0.07363553 -0.101203814 -0.10520201 -0.05274651
000090 b5 f3 c8 3d 93 2a 8b bc 4c 30 4a 3d 0e 89 4b bd
       0.098121084 -0.016988074 0.049362466 -0.049691252
0000a0 6f 93 e1 3d f7 82 40 bd f3 f7 a9 3d ff f6 b8 3a
       0.11014449 -0.046999898 0.08299246 0.0014111697
0000b0 18 a4 6d bd 46 01 6c 3d 81 19 6d bd 89 32 0c 3d
       -0.05801782 0.057618402 -0.05788565 0.03422788
0000c0 af 16 f9 bc a1 90 32 bc 8e 86 db bd 9e 7d 5c bd
       -0.030406324 -0.01089874 -0.10719024 -0.053830735
0000d0 be f6 75 3d 7f 72 db bc d0 1d e3 3d 22 68 b7 3d
       0.060049765 -0.026787994 0.11089671 0.08955409
0000e0 78 78 65 bb 25 53 96 bd d3 ea 8b 3d c8 eb 0a 3d
       -0.0035014432 -0.07340077 0.068318985 0.033916265
0000f0 75 89 94 bd ea 73 93 3d 24 b1 8a 3d 65 db c9 3d
       -0.0725278 0.07199843 0.06772068 0.09856299
000100 9e 06 7a bd 01 46 89 bc b5 0e 42 ba 82 22 8c 3c
       -0.061041467 -0.016757013 -0.0007402704 0.017106298
000110 0b ef ad bd 95 f6 a2 bd db c0 76 3d 73 e9 d3 bc
       -0.084928595 -0.07957188 0.060242515 -0.025868153
000120 b4 f6 5b 3d 89 72 db 3b f7 8e 18 3d ca 25 ce 3c
       0.05370207 0.0066970033 0.037245717 0.025164504
000130 50 58 25 3d f3 e4 5c 3d 21 2a d5 bd be 9f 62 3d
       0.040367424 0.05392928 -0.10408426 0.055328123
000140 6f 5b a0 bd 70 37 b3 bd 81 35 80 3b f7 42 af bc
       -0.078299396 -0.08750808 0.003912628 -0.021394236
000150 f1 93 80 3d fd 17 86 bd aa 51 cc bd cf be a2 3d
       0.062782176 -0.06547544 -0.09976514 0.0794655
000160 03 e5 95 bc c4 c6 74 3d 3f 3e 06 3d 02 6b b1 bd
       -0.018297678 0.05975987 0.032774206 -0.08662988
000170 09 18 a5 3c a5 90 ce 3c 8b ed 99 bd 19 32 58 bd
       0.020153062 0.025215456 -0.07516011 -0.05278215
000180 61 df 17 3d 6e f3 94 3c c3 67 4c bd e7 31 15 bd
       0.037078265 0.018182483 -0.049903642 -0.036424544
000190 0a f0 c9 3d e3 1c b9 bc c2 1e 7b 3d 5b 5f 45 3d
       0.09860237 -0.022596782 0.06130863 0.04818664
0001a0 19 0b 94 bd e5 68 c3 bd e9 47 d7 3d e8 d0 50 3b
       -0.07228679 -0.095414914 0.10511763 0.00318628
0001b0 24 ee 96 3d dc 1b b0 3c aa 62 0e 3d d7 5f a8 3d
       0.073696405 0.02149766 0.034762062 0.08221405
0001c0 53 90 d9 3d e4 e7 94 bd b6 7d 70 3c 12 67 a9 3d
       0.10623231 -0.07270792 0.014678409 0.08271612
0001d0 a2 3c a2 3d 89 78 89 3d 0c 49 a8 bd 9d 8e a5 bd
       0.07921721 0.067124434 -0.082170576 -0.08083842
0001e0 9a 66 89 bd b0 a7 85 3c 01 4e e7 3d aa 2a 8c bd
       -0.06709023 0.016315311 0.11294175 -0.06844075
0001f0 6c 50 76 3d b2 76 7d bd ab 7f d6 bd 75 99 bb bc
       0.06013529 -0.061880775 -0.104735695 -0.022900322
000200 fd 5c 85 3d 30 1d d8 3d 71 97 83 bd cd ed f2 3c
       0.06511877 0.10552442 -0.064253695 0.029654408
000210 d1 79 cd 3d 4f 28 9d 3d 6f 54 91 3d d8 d8 9e 3d
       0.10033 0.07673704 0.070961826 0.077562034
000220 d7 c3 8d 3d ad 78 ef 3c 29 c7 98 bd 43 e8 b6 bd
       0.06922119 0.029232347 -0.07459862 -0.08931019
000230 14 21 3d bd d9 4b 0f bc c6 b9 86 bd b2 e1 2b 3d
       -0.046174124 -0.008746111 -0.06578402 0.041963287
000240 8b fe 01 3d 24 61 e0 bc 41 d7 28 3d 95 43 13 3d
       0.03173689 -0.02739007 0.041220907 0.035953123
000250 c3 7d 8e 3d de 28 9e 3d 77 2a 12 bd 22 8c de 3d
       0.06957581 0.077226385 -0.03568503 0.10866572
000260 27 e7 5b bc c5 10 f6 bb 2a 52 df bd e7 e4 99 bd
       -0.01342181 -0.0075093233 -0.109043434 -0.07514363
000270 5d f1 89 bd 2e 9a 42 bd 1e 78 a1 3d 70 71 15 bd
       -0.067354895 -0.04751032 0.07884239 -0.036485136
000280 96 6b ad bd 40 14 27 3d 8b 17 13 3d 65 f2 93 3d
       -0.08467786 0.040790796 0.035911124 0.072239675
000290 e9 93 68 bd a9 10 d7 3c de 9e 17 bd 51 4d c5 bc
       -0.056781683 0.026253061 -0.037016742 -0.024084719
0002a0 b4 25 b8 bd 38 0f 53 bd 4f 57 11 bd 63 08 48 3d
       -0.08991566 -0.051528186 -0.035483655 0.048836123
0002b0 42 5b b6 3c 3e d8 f2 3c d8 06 ea 3d 8e e0 e7 3d
       0.022260312 0.029644128 0.114270866 0.11322127
0002c0 06 12 9f 3d 81 0a 67 3b e3 94 9d bd b9 b2 b0 3d
       0.077671096 0.0035254064 -0.076944135 0.08627839
0002d0 96 8a d6 bc 61 86 d9 bb bf 43 bf bd 3a 4f 8c bc
       -0.02618913 -0.0066383337 -0.093390934 -0.017127622
0002e0 a3 f6 85 bd be 90 d6 3d c6 52 c4 bd d4 dd b0 bd
       -0.06541183 0.10476826 -0.095861 -0.0863606
0002f0 bd 4b 93 bb 79 a2 71 bd 56 f2 2a 3d be 47 24 bd
       -0.0044951127 -0.058992837 0.041735016 -0.04010748
000300 c1 85 41 bd 30 f1 52 3c 00 dc a9 3d fa 96 a0 bd
       -0.0472467 0.012874886 0.08293915 -0.078412965
000310 41 4d 54 3d 2a 21 90 3d 97 7f de 3d 16 1a 9e bd
       0.051831488 0.070375755 0.108641796 -0.07719819
000320 e2 62 eb 3c 37 d3 a0 bd e8 53 ce 3d cd ca 27 bd
       0.028733674 -0.07852786 0.100745976 -0.04096489
000330 b4 7b 86 3d ec c9 d8 3a 93 3f 3b bc 4f d6 87 bb
       0.06566563 0.001653967 -0.0114287315 -0.0041454206
000340 05 48 9d 3c 83 f6 5a 3d 34 f1 ae 3c c9 4c 20 3d
       0.01919938 0.05345775 0.021355249 0.039135728
000350 78 83 ca bd bf 04 a3 3d da 9a c3 3d d4 7b b7 3d
       -0.09888357 0.079598896 0.0955102 0.08959165
000360 b4 d4 a6 3d 32 81 a4 bd 02 4c 25 bd 81 ea cd 3d
       0.08146039 -0.080324546 -0.04035569 0.10054494
000370 7d ac a3 bd 9b 1c d0 3d 89 40 b6 bd 1f 7d a3 bd
       -0.07991884 0.10161706 -0.08899028 -0.07982849
000380 77 d0 54 3d 28 70 a5 bd 86 73 d1 bc a9 d2 a5 3d
       0.05195662 -0.08078033 -0.025567781 0.08096821
000390 9f c7 b8 3d d4 73 e0 3d 27 b9 ac bc bd 3f b4 bd
       0.0902245 0.109595925 -0.021084381 -0.088012196
0003a0 1a ae dc 3d b6 e4 d1 bc e6 c4 42 bd c9 30 d3 3c
       0.10775395 -0.025621753 -0.04755106 0.025780099
0003b0 da d5 a0 bd da 08 97 3d 49 85 93 3d 53 7b b5 bd
       -0.07853289 0.07374735 0.072031565 -0.08861413
0003c0 b1 ba bf bd 4f 84 3c bc f2 6d 35 3d f8 a0 26 bb
       -0.093617804 -0.011506154 0.044294305 -0.0025425535
0003d0 b4 a6 65 bd f5 dd 47 3b 67 8c d5 bd 5f 6c a0 bd
       -0.056067184 0.0030497287 -0.1042717 -0.0783317
0003e0 99 f9 97 bd 68 14 b9 3d 0c 5e c6 3d 99 83 1f bd
       -0.07420654 0.09037095 0.09685907 -0.03894386
0003f0 17 1e be 3b 1c a4 4c 3d c4 c4 63 3c 05 65 62 bd
       0.005801927 0.049961194 0.013901893 -0.05527212

conv1.bias f4 [64]
000000 36 96 58 bd 6d d4 c1 3c f8 d1 8f bd 0d d5 2c bd
       -0.052877627 0.023660863 -0.0702247 -0.04219537
000010 47 aa a3 3d 77 6b 2d 3d 66 e5 a6 3d ca 56 b3 bc
       0.07991462 0.042338815 0.08149223 -0.02189197
000020 6b bb d1 3d 86 d1 9d 3d 16 2e 83 3d 3b 56 5d 3d
       0.10240825 0.07705979 0.064052746 0.054037314
000030 7b ae c2 bd c2 7a 5f bd 9c cf d4 3b 9e df 12 3d
       -0.09505936 -0.05456043 0.0064944755 0.03585779
000040 79 0f f6 3d ae 27 c0 3d 88 64 46 bd 92 39 6e 3d
       0.1201467 0.09382568 -0.048435718 0.058160372
000050 d9 ed 30 3d 51 eb 5d bd 32 7f db bd 6d cd 40 3d
       0.04319558 -0.054179493 -0.1071762 0.04707091
000060 43 a0 5b 3c 9b 68 0f 3d 3e 43 9b 3d 5a 8e 09 bd
       0.013404909 0.03501187 0.07581185 -0.033583023
000070 7e 09 2f bd 7a 74 07 3d 67 69 30 bd 45 ac 85 bd
       -0.04273366 0.033070065 -0.04306927 -0.065269984
000080 ba 68 d2 bd b6 53 b6 bd c1 7f 29 bc 26 4b c3 3d
       -0.10273881 -0.08902685 -0.0103454 0.09535818
000090 57 6f 8f bd 5f 7b d5 3c 35 c4 82 3d 9a 22 ad 3c
       -0.07003658 0.026059804 0.0638508 0.021134663
0000a0 fa 9a 42 bb b8 7c ae 3d d5 fd d3 bd 8a 2a c5 3d
       -0.0029694424 0.08519882 -0.10351149 0.09627254
0000b0 12 aa bb 3d 3c d4 c4 3d 59 8e ac 3d 01 ec f0 bb
       0.09163298 0.09610793 0.08425588 -0.0073523526
0000c0 24 33 ab bd 2e 96 8f bd 6f 19 ae bd 0c 2a 88 bd
       -0.08359364 -0.070110664 -0.08500945 -0.06648645
0000d0 35 c6 ca bd b3 97 97 3d 03 af 31 3d c4 44 45 bd
       -0.09901086 0.07401981 0.043379795 -0.048161283
0000e0 76 82 3b 3c 72 36 77 3c 12 83 77 3b 4f e4 91 3d
       0.0114446785 0.015088664 0.0037767333 0.071236245
0000f0 ca b1 35 3d fe eb b3 bd 75 aa d7 3d 26 e1 3a bd
       0.044359006 -0.08785246 0.10530559 -0.045624875

conv2.weight f4 [32, 64, 5, 5]
000000 40 ef f4 bb 4f f2 e0 3c b4 62 4a bc fc 71 3d bb
       -0.00747481 0.027459292 -0.012352634 -0.0028907051
000010 d8 e1 2f 3b 09 b9 a4 bc 03 0b a3 3c b8 80 b1 3c
       0.0026837494 -0.020107763 0.019902712 0.021667823
000020 3b b6 b1 bc 34 6f 95 bb e9 31 00 3c b0 5b 90 3c
       -0.02169334 -0.0045603756 0.0078243995 0.017621845
000030 41 34 5c 3c f9 2d 75 3a 1a fd b5 3c 25 e4 6a bb
       0.013440193 0.0009352859 0.022215415 -0.003584155
000040 64 07 1a 3b f1 05 6a bc 64 15 4e bc 62 83 08 bc
       0.002350294 -0.014283643 -0.012578342 -0.008332105
000050 bd 85 ad bc fa 91 0f bb 87 b2 eb 3b 6f df 78 bc
       -0.021181935 -0.0021907077 0.007192913 -0.0151899895
000060 79 ad b1 bc 1f 83 cf 3c c6 f5 22 bc ac 98 98 bc
       -0.021689164 0.025331078 -0.009946292 -0.018627487
000070 03 ac d9 bb 4c 3d 50 bc 37 a2 99 bc 29 32 00 ba
       -0.00664282 -0.012709927 -0.018754108 -0.0004890287
000080 95 df 1e bc f9 6c d3 bb 0c db 3b 3c de 11 be 3b
       -0.009696861 -0.0064521995 0.011465799 0.00580047
000090 86 c5 bc 3c 8d 50 c5 bc d8 ad b4 3c 00 fe 50 3c
       0.023043405 -0.024086261 0.022055551 0.012755871
0000a0 25 22 00 bb 1f 83 a0 3c 5d 05 c6 3c bf 9b 24 3b
       -0.0019551602 0.019593773 0.02417248 0.0025117246
0000b0 f1 c1 ba 3b 93 56 63 bb f0 11 6f ba f2 09 f8 ba
       0.005699389 -0.0034689053 -0.00091197994 -0.0018923862
0000c0 7a 4a 64 bc 71 f8 02 3b df a3 2d bc 33 d2 40 3c
       -0.013933772 0.0019984508 -0.010598152 0.011768865
0000d0 d7 2f 80 3b b6 fe 8e bc e2 74 c1 3c 9c dc 1d 3c
       0.003911953 -0.01745544 0.023615304 0.009635117
0000e0 be 47 54 3c 72 57 b7 bc 02 6c d3 3c 06 ed 35 3c
       0.012956558 -0.022380564 0.025808338 0.011103874
0000f0 03 d3 88 b9 b4 11 81 bc 3a 97 d8 3b 9c 8b 55 3c
       -0.00026097157 -0.015755512 0.0066098245 0.013033774
000100 00 bb 26 3c 6f bc 9d 3c 85 cc bb bc 06 00 9a bc
       0.01017642 0.019254891 -0.022924671 -0.01879884
000110 5a 78 d4 3c fc 67 b2 3c b5 1b 9f ba c0 88 5f 3c
       0.025936294 0.0217781 -0.0012138995 0.013643444
000120 0f 0b 94 3c a9 29 99 3c f2 c5 4c bc 0f 43 17 bc
       0.01807168 0.018696623 -0.012498366 -0.009232297
000130 6f 39 53 bc ca f2 c2 bb a7 3d c8 3c 18 d6 22 39
       -0.012892111 -0.005949353 0.02444346 0.0001552928
000140 cf c9 a2 bc 33 27 9d 3c 0a 45 33 3c 8a 00 b2 3b
       -0.01987162 0.01918373 0.010941753 0.005432193
000150 4a 54 48 bc c9 89 96 3c 7f eb a2 bc 40 b1 60 3c
       -0.012227127 0.018376248 -0.019887684 0.013714135
000160 50 1a b0 ba b9 da 00 bc 74 5d b6 bc ce da 80 3b
       -0.0013435576 -0.007864648 -0.022261359 0.0039323336
000170 4e 56 2a bc 59 0b 05 bc 9d dd 7b 3c aa b0 80 bc
       -0.010396553 -0.008120381 0.015372661 -0.01570924
000180 7f 0e c6 3c 3a ed b2 3c d3 39 a5 3c f7 93 83 3b
       0.024176834 0.021841634 0.020169174 0.0040154415
000190 b1 04 aa bc 37 3b 06 bc 65 1f 65 bc 82 08 a6 bb
       -0.02075419 -0.008192829 -0.013984536 -0.005066932
0001a0 f3 d3 c7 bc 0e 09 4c bc c9 fd d1 bb d5 55 b5 ba
       -0.024393057 -0.012453331 -0.0064084274 -0.0013834784
0001b0 e8 7b f9 bb ea 6e 8c 3b 5e f9 50 bc 25 ef 8b bc
       -0.0076136477 0.004285683 -0.012754766 -0.017081806
0001c0 87 6e 8e bc 1f ce c4 3c 78 4e 7e 3c c7 39 aa bc
       -0.017386688 0.024024067 0.015521638 -0.020779504
0001d0 f4 45 aa bc e3 e7 e8 38 d1 9b 48 bc 94 27 1a 3c
       -0.02078531 0.00011105814 -0.012244181 0.00940885
0001e0 6e 5c 1b bc c3 e4 88 3a 55 d9 eb bb 91 da a3 bc
       -0.009482486 0.0010444153 -0.007197539 -0.020001682
0001f0 d9 81 40 bb 7c 27 e1 3c 60 eb c2 3c 17 bd 4d bc
       -0.002937427 0.027484648 0.023793876 -0.01255729
000200 96 60 35 3c 92 8f b5 3c 66 dd fa 3b 56 ef 79 3b
       0.011070391 0.022163186 0.0076557873 0.003813704
000210 fe 57 e6 3c e7 46 cc 3b 07 ff 16 bb c7 66 e8 3c
       0.02811813 0.006234038 -0.0023040192 0.02836932
000220 4f f4 84 3c 94 4f 19 bc fa 45 c5 3c b4 bf b7 3c
       0.016229777 -0.009357352 0.024081219 0.022430278
000230 9e b3 ca 3c 61 c7 dd bb c9 88 73 bb 0a b3 ab 3c
       0.024743851 -0.0067681526 -0.0037160388 0.020959396
000240 b2 69 a4 3c 72 25 8d bc f7 dc c3 3c 5a 00 81 3c
       0.02006993 -0.01722977 0.023909075 0.015747238
000250 09 9f 23 3c 1a f1 01 bc a2 66 69 bb 0a f4 75 3c
       0.009986647 -0.007931018 -0.0035614152 0.015011797
000260 01 24 78 3b eb de a0 3c 88 5b 80 bc 68 20 14 bc
       0.0037863257 0.019637546 -0.015668646 -0.009040929
000270 96 07 50 bb 98 37 22 3c 23 df 0a 3c 05 5a 55 3c
       -0.0031742803 0.00990095 0.0084760515 0.013021951
000280 9c b8 66 bc b8 83 9a bb d1 b2 1b 3c 6a cb 38 bc
       -0.0140821 -0.004715409 0.009503082 -0.011278966
000290 1d d0 90 3c 31 e4 8e 3c f0 3b 5f 3c 4a d7 56 3c
       0.017677361 0.017442795 0.01362513 0.013112852
0002a0 6a 97 73 3c a3 0b af bc b6 af 00 bc 92 01 98 3c
       0.014867643 -0.021367854 -0.007854393 0.018555436
0002b0 05 92 2d bc 6d 37 ed 3a f4 67 0f bc 6e cf 14 3c
       -0.010593896 0.0018098183 -0.008752812 0.009082658
0002c0 c3 15 d1 3a ed cb 52 ba 34 19 1b 3c d7 1d cd 3c
       0.001595192 -0.00080412516 0.009466458 0.025038643
0002d0 48 16 20 3c c8 73 ff ba 49 5e da 3c 4b a3 cc bb
       0.009770937 -0.0019489462 0.026656287 -0.006245052
0002e0 cf d7 08 3c 6b 73 37 3c 8c 88 68 3c 55 2d bb 3c
       0.008352234 0.011196951 0.014192712 0.022848764
0002f0 a9 d0 5e 3c 8c 36 b7 3a 6f 63 95 3c 2c 86 e9 3b
       0.013599553 0.0013978048 0.01823589 0.0071265902
000300 48 be 78 39 70 de 09 3c a8 bd 5e bc a6 8b 0a 3c
       0.00023722008 0.00841485 -0.013595022 0.008456146
000310 88 e9 50 bc d1 e6 62 3c 90 a6 cb 3c 77 ad 3d bc
       -0.012750991 0.013848976 0.024859697 -0.011577002
000320 ea 71 bb bc b2 8a a6 3c dc 24 55 bc 22 c5 85 3c
       -0.022881467 0.020329807 -0.013009276 0.016329352
000330 0c 9d 8a 3c 1f 61 19 bc 64 79 12 3a a2 ff 27 bc
       0.016920589 -0.009361534 0.00055875466 -0.010253819
000340 b3 7b aa 3c 3c f4 95 bc 6e 09 1b 3b 73 e1 62 bc
       0.020810938 -0.018304937 0.0023656744 -0.013847697
000350 b9 ec a4 3c de d6 49 3c cc f0 ae 3c b9 b9 42 bc
       0.02013241 0.012319295 0.021355055 -0.0118851
000360 bd 22 0a 3c a3 e9 ad bc 14 7d 71 3c 19 1f 0e bc
       0.008431134 -0.02122957 0.014739294 -0.008674406
000370 bb b6 01 3c 17 14 44 3c c4 fd 80 bc 5d a7 61 3c
       0.0079171015 0.01196768 -0.015746005 0.013772813
000380 6a 00 2f bc 49 18 2e 3c 27 06 d6 bb 60 cb 68 3b
       -0.010681251 0.010625907 -0.006531495 0.0035521612
000390 ac aa 87 3b 9f ec a5 3c e5 cd fe 3b 95 3a c4 3b
       0.0041402187 0.020254431 0.0077760094 0.005988429
0003a0 16 b7 31 bb 7f 2d c6 bc 7d bf 5e bc 85 42 ec bb
       -0.0027117184 -0.024191616 -0.013595459 -0.007210078
0003b0 62 9c 3a 3c a9 45 08 39 8b ef 05 3c 1d 2c 84 bc
       0.011389824 0.00012995921 0.008174787 -0.016134316
0003c0 72 f3 c2 bc 27 6a 30 3c 2a f9 72 3c 73 49 50 3c
       -0.023797724 0.010767496 0.014829913 0.012712824
0003d0 3e 43 86 3c f0 32 bb bc c2 04 19 3c c2 91 af 3c
       0.016389485 -0.022851437 0.009339513 0.021431807
0003e0 0e 8a 56 bc c2 d5 20 3c d3 ac 4d 3c 56 85 9e 3b
       -0.013094438 0.009816589 0.012553412 0.004837672
0003f0 d7 d8 c6 bc f2 c8 37 3c 64 a4 b4 3c 77 05 80 bb
       -0.02427332 0.011217343 0.022051044 -0.0039069015

conv2.bias f4 [32]
000000 60 82 59 bc f8 d8 b1 bc 8b 48 af bc 6a da a8 3c
       -0.013275713 -0.021709904 -0.021396896 0.02061196
000010 7f 74 29 bc cd ca cc 3b 10 7b 65 3c 5c b3 62 3c
       -0.010342716 0.0062497617 0.014006391 0.013836708
000020 73 9e 93 3c a0 c8 98 bb 35 96 ba 39 fd 5a 9c 3c
       0.01801989 -0.0046625882 0.00035588598 0.019086355
000030 89 4e 77 3a bc f6 41 bc da 0f 9e ba e4 18 6b 3c
       0.0009434005 -0.011838611 -0.0012059167 0.014349196
000040 ea a2 a6 3c d4 a8 28 3b 6a b2 8e bb 7e 93 ba bc
       0.020341355 0.0025735395 -0.0043547647 -0.022775408
000050 7c e1 35 bc 0e b4 b7 3b 12 53 5b 3b 46 c5 a8 3c
       -0.011101123 0.005606181 0.0033466262 0.02060188
000060 d3 7c ca 3b 8e c0 20 3c 2f 4b 85 3c b7 39 4c 3c
       0.006179431 0.009811534 0.016271202 0.012464932
000070 c4 7e 92 bb 86 71 8f 3c 99 3b c4 3c e0 51 e5 3b
       -0.004470678 0.017510187 0.0239542 0.0069982857

conv3.weight f4 [1, 32, 5, 5]
000000 5b 70 82 bc 72 ce 12 3d 94 be e7 3c 14 f9 91 bc
       -0.015922716 0.035841413 0.028289117 -0.017818965
000010 a5 39 f4 3c be 31 79 3c 71 5b ff 3c 1e df 15 bb
       0.029812643 0.015209613 0.031171532 -0.0022868584
000020 3a e1 dc bc f5 66 44 bc 16 d5 f0 3c ae 18 e2 bb
       -0.026962865 -0.0119874375 0.029398482 -0.0068999147
000030 9d 01 d3 3c 6b d5 66 3c 73 80 01 bc 49 a6 5f 3c
       0.025757605 0.014088969 -0.00790416 0.013650485
000040 38 b6 dc 3c 9c a9 dc 3c b9 86 de bc 44 14 b2 bc
       0.026942357 0.026936345 -0.02716385 -0.021738179
000050 53 82 05 3c e2 98 dd bc 76 71 f7 bc 5d 91 36 3c
       0.0081487475 -0.02705044 -0.03020547 0.011143056
000060 f5 e8 e4 bb a5 a5 17 bc 2f bd 54 3c 6c 72 0d bd
       -0.0069857785 -0.009255801 0.012984558 -0.03453295
000070 c8 aa ba 3a 69 4a 87 bc 79 19 fb bc 2c 85 26 3c
       0.0014241571 -0.016514974 -0.030651795 0.010163587
000080 26 67 93 3b b0 38 8e bc d9 15 04 3c db 30 cc bc
       0.0044983802 -0.017361015 0.0080618495 -0.02492564
000090 6f f8 09 3d 71 99 3d 3c e6 57 c0 bb ae d1 3e bc
       0.03368419 0.011572228 -0.0058698533 -0.011646671
0000a0 2d 36 05 3d d8 a2 07 bd 1a f3 fd bb b3 f8 9e 3c
       0.03252237 -0.033114284 -0.007749927 0.019405698
0000b0 b3 e5 3d 3c a2 ad 71 3c 12 b9 b2 bc 2c 36 05 3d
       0.011590409 0.01475087 -0.021816764 0.032522365
0000c0 8d 11 e9 3b 35 c4 e2 bc 02 13 e0 3c f5 c4 06 3d
       0.007112688 -0.02768145 0.027352814 0.032902677
0000d0 97 1b 26 3d ea 92 1d 3c ff e7 a8 bc de 01 30 3c
       0.040553655 0.009617547 -0.020618437 0.010742633
0000e0 4c 57 ed bc 45 84 69 bc e8 a0 0f bc 40 75 e8 bb
       -0.02897229 -0.014252727 -0.00876639 -0.0070940554
0000f0 15 76 0a bc 64 c8 1a 3b a0 32 3c 3c 60 58 c7 3c
       -0.0084510045 0.0023617977 0.011486679 0.024334133
000100 70 45 4d 3b d1 2b e4 3c 86 86 74 3c 5c 42 15 3d
       0.0031321906 0.027852925 0.014924651 0.03644024
000110 0c fd 7a 3c 4d ca 9b 3c ca a8 bc 3c ee 26 8e bb
       0.01531912 0.019017363 0.023029704 -0.004338137
000120 ac ed 32 ba be 37 01 bd 0b 67 3a bb f1 29 c2 bc
       -0.0006825577 -0.0315473 -0.0028442766 -0.02370164
000130 d3 e2 e2 ba 83 52 cc 3c 84 ba 07 3d 9b 5b ac bc
       -0.001731003 0.024941688 0.03313686 -0.021039775
000140 d3 59 0e bb 28 14 00 3b 5b 6b de 3c fc 03 28 bc
       -0.002172102 0.0019543264 0.0271508 -0.010254856
000150 09 26 56 bb e4 73 42 38 89 43 6b 3c 64 61 9c 3c
       -0.003267648 4.6361136e-05 0.014359363 0.019089408
000160 52 f7 19 3d 0e 20 09 3d 33 15 0b 3c 5d 11 09 bd
       0.03758938 0.033477835 0.008488941 -0.033463825
000170 58 54 07 3d bc 48 48 3c 10 57 8c 3c f5 95 0b bd
       0.03303942 0.0122243725 0.017131358 -0.034078557
000180 92 35 dd 3c d4 79 bc 3a 6e c9 fe bc d8 91 b4 3c
       0.027003083 0.0014379569 -0.031101909 0.0220422
000190 d3 e9 e0 bc 17 37 a9 bc 10 6a 97 3c 5a d9 61 3c
       -0.027455246 -0.020656152 0.018483192 0.013784731
0001a0 96 69 83 3b 54 30 01 3d 48 f6 4d bb c8 0c 36 3c
       0.0040103896 0.03154023 -0.0031427313 0.011111446
0001b0 26 04 a1 3c 8e 75 d4 3c 79 c5 e2 bc df 35 5e 3c
       0.019655298 0.02593496 -0.027682053 0.013562649
0001c0 52 ab 02 3d 91 5a a7 3b 9f 73 9e 3b df 8b 66 bc
       0.031901665 0.005107232 0.0048355605 -0.014071434
0001d0 98 15 14 3d fb 28 04 3d 14 54 6e 3a e9 d8 a9 3c
       0.036153406 0.032265645 0.0009091508 0.020733314
0001e0 87 85 08 3d 43 ae 05 3d d2 d8 92 3c 61 91 ad 3a
       0.033330467 0.032636892 0.017925654 0.0013242179
0001f0 a7 5d 62 3b 99 0d f1 bb 17 f0 c1 bc 5d 61 f3 3c
       0.0034540684 -0.0073563573 -0.023674054 0.029709512
000200 53 70 82 bc 00 81 fb 3b cf a6 85 bc 6d 6a f1 3a
       -0.015922701 0.00767529 -0.016314892 0.0018418558
000210 d4 5d 65 3c 79 cf f7 3c 40 f6 18 3a 3f b2 a8 bc
       0.013999421 0.030250298 0.0005835034 -0.020592807
000220 c2 1e ba 3b 83 82 aa bc e2 b4 4b 3c f6 0e ef 3c
       0.005679936 -0.020814186 0.012433263 0.029181939
000230 00 b2 f7 3c ae 7d 11 bd 01 da b9 3c 17 7c 07 bc
       0.030236244 -0.035520248 0.02268696 -0.008269331
000240 51 22 dd 3c 52 a4 b8 3c 38 2f e2 bc 04 25 92 bb
       0.026993902 0.022539292 -0.027610406 -0.004459979
000250 71 3a fb bb f5 fd ec bc 22 1c c7 3c 01 f1 fd 3c
       -0.007666879 -0.02892969 0.024305407 0.030998709
000260 99 d0 ed bc 64 8f a6 bb 30 73 4b bc 46 25 08 3c
       -0.029030131 -0.0050830115 -0.0124176 0.008309668
000270 d3 9c 35 bc e9 24 1a 3d 73 89 28 3c e7 01 00 bd
       -0.011084753 0.037632857 0.010286677 -0.031251814
000280 ea 00 16 3c 3a fc 00 bc 87 4a 92 bc ba 54 16 3d
       0.009155491 -0.0078726355 -0.017857803 0.036701895
000290 c1 e7 b0 3c 82 77 08 3b 65 39 4e ba 5a 61 09 3a
       0.021594884 0.0020823185 -0.0007866829 0.0005240642
0002a0 9b c0 df bb 59 5a 08 3c f3 7d 45 3c 7a bf c0 3c
       -0.0068283803 0.008322322 0.012053954 0.023528803
0002b0 2d 90 82 bc ab 91 95 3c 4a 84 be bc 1f cb 94 3c
       -0.015937889 0.018257936 -0.02325644 0.018163262
0002c0 fe b4 fd 3c 39 be d0 bc 8a f3 83 bc da 1a a6 3c
       0.030970093 -0.02548133 -0.01610734 0.020276476
0002d0 d2 a4 85 3b cb 7c ae 3c c3 06 fa 3c 06 8c ce bc
       0.004078486 0.02129974 0.030520802 -0.025213253
0002e0 c1 5e ae 3c 85 b9 55 3c 87 b4 39 3b 5b 1f 4c bc
       0.021285417 0.01304472 0.0028336362 -0.012458648
0002f0 6d 89 14 3b d6 c4 16 bc 34 35 b6 3c 23 95 8e bc
       0.002266492 -0.009202203 0.022242166 -0.017405098
000300 15 cd a6 bc 23 33 59 bb 8c 33 00 bd 2e 73 3f bb
       -0.020361463 -0.0033142052 -0.03129916 -0.002921294
000310 6c b5 d3 bc fd 43 04 bd 14 b0 29 b9 95 d9 90 bc
       -0.025843345 -0.0322914 -0.0001618269 -0.017681876
000320 7b d2 2c bb 7c 83 b9 bc 12 31 84 3b 6c cf 6b 3c
       -0.0026370573 -0.022645704 0.00403417 0.014392715
000330 0e 35 a1 bc 78 9f 06 bc 8d 2d 07 bd 35 bc 05 bd
       -0.019678619 -0.008216731 -0.033002425 -0.03265019
000340 1b c4 83 bc 6e fd 71 3c 67 90 8f 3c 54 fd b1 bc
       -0.016084721 0.014769895 0.017524911 -0.021727242
000350 4e 32 88 3c 18 a0 8d bc f5 4e 06 3d df 46 08 bc
       0.01662555 -0.017288253 0.032790143 -0.008317678
000360 c0 b2 ee bb aa 27 ca bc 13 2c ec 3c a6 71 c2 3c
       -0.0072844923 -0.024677116 0.02882961 0.023735832
000370 1b 20 88 bb 86 31 9d 3c 5d f4 b6 3c 62 b7 83 3c
       -0.004154218 0.019188654 0.022333318 0.016078655
000380 42 7a 93 bc 83 f4 4b 3c 7b ee 80 3c d2 b2 2b 3c
       -0.018002633 0.012448433 0.015738716 0.010479646
000390 cc a6 c9 ba e8 9c ce bc 77 51 13 3d 6b 8b 64 bb
       -0.0015384792 -0.025221303 0.035966363 -0.0034873139
0003a0 55 10 98 bc d1 b8 33 bb fb f9 b4 3c 64 a8 6a bc
       -0.018562475 -0.0027423392 0.022091856 -0.014322374
0003b0 38 4b 66 b9 b9 08 5f 3a af 17 1e bb 6d 0b cb 3c
       -0.0002196253 0.00085080747 -0.0024123003 0.024785722
0003c0 19 c4 25 bc ec f7 a1 3c 13 02 e2 3c 26 d7 00 3d
       -0.010117554 0.019771539 0.02758888 0.03145518
0003d0 ef 92 12 3d 0a 14 a2 3b 5c 39 ac 3c 80 83 1a bc
       0.035784658 0.0049462365 0.021023445 -0.009430766
0003e0 3e da d7 bc 11 3b e7 bc f8 a5 88 bc 44 8c 3c bb
       -0.026349183 -0.028226407 -0.016680703 -0.0028770128
0003f0 f1 30 bf 3c 64 f3 72 3c cd a3 f0 3c ca 9b cf bc
       0.023338767 0.014828537 0.029374981 -0.02534284
