resutls/epoch_31.045.pth (torch, 231589 bytes, 5 tensors)

conv1.weight f4 [64, 1, 9, 9]
000000 27 70 19 3d c7 4b 17 bd a7 87 4f bc 18 b7 93 3d
       0.037460472 -0.0369375 -0.012666619 0.07212657
000010 a8 59 d4 bd 6e 6d 39 3d cf 97 19 bd fb c9 dd 3d
       -0.10368663 0.045270376 -0.03749829 0.1082954
000020 3d 32 8f 3d 50 ec 3c bd 98 70 72 3c e9 f2 26 bc
       0.06992004 -0.046123803 0.014797352 -0.01018975
000030 71 3e 34 3d b8 eb 48 bd d8 56 f3 bc 35 86 0c bd
       0.04400486 -0.049052924 -0.029704496 -0.034307677
000040 2b 46 4f 3d e0 17 6a 3c 62 0c 85 3d 06 77 22 3c
       0.050604027 0.014287919 0.064965025 0.009916073
000050 1e c6 6e bd 6e 4e 7c bd 93 e8 e6 3a 5d 79 50 bd
       -0.058294408 -0.061598234 0.001761692 -0.05089699
000060 25 15 7e bd 11 1f 9e 3c 96 b8 ac 3c 1e b0 d7 3c
       -0.062031884 0.019301923 0.021084111 0.026329096
000070 ca ef 0c be 22 64 47 3d 55 58 01 3d 2c 25 20 3e
       -0.13763347 0.04867948 0.03157838 0.1563918
000080 83 a2 88 3d 3e bc 14 be c6 fa d6 bd c1 d0 27 be
       0.06671622 -0.14524934 -0.1049705 -0.16388227
000090 c1 d1 80 3d 65 92 3a bd ab c9 d5 3c 99 44 4e bd
       0.062900074 -0.04554977 0.02609714 -0.05035839
0000a0 f9 57 47 3e 7e 14 81 bd e7 0d fa 3c 4b 86 51 bb
       0.19467153 -0.06302737 0.030524207 -0.0031970914
0000b0 50 96 4c be 74 90 10 3d ef 87 8f bd 54 b6 9d 3c
       -0.19979215 0.03529401 -0.07008349 0.01925198
0000c0 de fb b6 bc 4b 7e ad 3d cb 2f fb bd 83 c3 c2 bd
       -0.022336897 0.08471354 -0.12264975 -0.09509947
0000d0 5d 2b a3 3d 31 b1 31 be b3 b0 9d 3d 7d ec 96 3d
       0.07967255 -0.1735275 0.07699718 0.07369325
0000e0 95 96 7c bc 27 2c 43 bd e7 4b 23 3e 6f 9b aa 3c
       -0.015416761 -0.04764953 0.15946923 0.02082607
0000f0 2d 2d df bd 96 cc f4 3d ec 30 a2 bc 63 28 22 3d
       -0.108972885 0.11953084 -0.019798718 0.039589297
000100 e3 98 cc bd 50 71 2a bd d9 46 a0 3c 8f 04 7a 3d
       -0.09990098 -0.04161197 0.019565033 0.061039504
000110 57 36 e4 bd 9c 1b f1 bd 2e 5c e8 3d c3 8c c0 bd
       -0.11143177 -0.11772844 0.11345707 -0.09401848
000120 25 eb a8 bc a1 0d 36 bd e0 62 6b 3c 97 a1 6f 3d
       -0.020619938 -0.04444659 0.014366835 0.058503713
000130 e2 a4 90 3d 4f bd 75 3d 94 d1 0f be 46 e5 bc 3d
       0.07062699 0.059994992 -0.14044791 0.09223418
000140 7c 04 e2 bd 17 6a a0 bd 88 5b 2d 3c d3 34 e4 bb
       -0.110360116 -0.07832735 0.010580905 -0.006964305
000150 59 4b a3 3d 97 78 86 bd 99 f9 d3 bd 59 1a bb 3d
       0.07973356 -0.065659694 -0.10350341 0.09135885
000160 5c e1 1a 3c 2f e2 92 3d 5b f0 1a 3d 64 f0 b0 bd
       0.009453144 0.07172047 0.037826877 -0.08639601
000170 16 ce 95 3c 37 e9 9f 3c 31 f4 c6 bd c3 b8 9f bd
       0.018286746 0.019520385 -0.097145446 -0.077989124
000180 42 5e c0 3c d4 d5 e5 3c 2f 8a 43 bd 1a a4 01 bd
       0.023482446 0.028056063 -0.047739204 -0.03165064
000190 8b e3 c7 3d 56 fc c1 bc 83 17 79 3d 49 32 fb 3c
       0.09760197 -0.023679893 0.06081344 0.030663626
0001a0 4a 65 cf bd 80 f8 f4 bd bc ac e7 3d 93 59 46 3c
       -0.10126741 -0.1196146 0.11312243 0.012106317
0001b0 d6 f8 a0 3d 67 45 c7 3c 27 5a 41 3d 5e 77 d4 3d
       0.07859962 0.024325086 0.047205117 0.1037433
0001c0 5a a2 e4 3d 99 f7 ae bd b2 d2 e2 ba f8 a7 bf 3d
       0.111637786 -0.08543319 -0.0017305224 0.09358209
0001d0 4a d9 c3 3d c0 fa 6d 3d de cd c1 bd cc 05 bd bd
       0.09562929 0.058100462 -0.09463094 -0.09229621
0001e0 48 b2 99 bd c1 7e f7 3a 3c da c5 3d 44 e3 a9 bd
       -0.075047076 0.001888238 0.096607655 -0.082953006
0001f0 d5 0a 74 3d c9 18 76 bd e1 4d 00 be c1 62 20 bd
       0.059580643 -0.06008223 -0.12529708 -0.03915668
000200 ff 5c 67 3d 57 ed ca 3d ec 38 98 bd 2a f8 b7 3c
       0.056485172 0.0990855 -0.07432732 0.022457201
000210 a4 bf bf 3d 2d 6f 8e 3d 87 3f 89 3d d6 b9 92 3d
       0.093627244 0.06954799 0.0670157 0.07164352
000220 a2 ae 8c 3d b3 ac f7 3c 79 b5 a4 bd cb bb d7 bd
       0.06869246 0.030233717 -0.08042426 -0.105338655
000230 2c 62 65 bd a1 94 6e bc a4 2c 96 bd a8 f0 46 3d
       -0.056001827 -0.014561803 -0.07332733 0.04856935
000240 99 72 f3 3c a1 08 ca bc b1 56 4e 3d 6f 22 35 3d
       0.02971773 -0.024662318 0.050375644 0.04422229
000250 07 88 87 3d f2 ef 94 3d 8f 0f 46 bd 1a 33 b0 3d
       0.06617742 0.072723284 -0.04835468 0.08603497
000260 44 e5 ad bb 8b 1d 5c 3c 7a a4 e4 bd 62 94 b8 bd
       -0.0053068716 0.013434778 -0.11164184 -0.09012677
000270 2d b5 93 bd 80 eb 33 bd f8 58 c7 3d d3 a2 0f bd
       -0.07212291 -0.043925762 0.09733766 -0.03506739
000280 02 0b d5 bd 0d 9c 89 3d ba c9 74 3c 83 f4 71 3d
       -0.1040249 0.067192174 0.0149406735 0.059071075
000290 86 d2 74 bd 21 80 1a 3d f7 63 b5 bb e0 47 f9 bc
       -0.059771083 0.03771985 -0.0055355984 -0.03042978
0002a0 ea 8f 02 be f2 1f 71 bd ea c6 56 bc 35 21 ef 3c
       -0.12750211 -0.058868356 -0.013108948 0.029190639
0002b0 04 8d 1a 3c 70 74 ed 3c b3 5c 07 3e 0c 30 16 3e
       0.009433035 0.028986186 0.13218956 0.14666766
0002c0 19 14 92 3d 57 f7 0b bd ba 6a bd bd a8 32 c1 3d
       0.071327396 -0.03417143 -0.09248872 0.0943349
0002d0 3b 4e 3a bd d9 4b a3 bc fa 16 c9 bd 33 89 76 bc
       -0.045484763 -0.019933628 -0.098188356 -0.015047359
0002e0 64 c1 46 bd 8d 58 ae 3d e3 5a 16 be f3 29 f1 bd
       -0.048524275 0.085129835 -0.14683108 -0.11775579
0002f0 26 fb 92 bc 51 02 ad bd 56 43 bf 3c b3 ab 52 bd
       -0.017942023 -0.084477074 0.023347538 -0.051433276
000300 68 0b 4f bd 18 1e ce 3c dd 7f 83 3d 7e b4 eb bd
       -0.050547987 0.025160834 0.06420872 -0.115090355
000310 b9 21 ca 3c ef 9f 5f 3d 81 f7 b2 3d 68 f9 be bd
       0.024674283 0.054595884 0.08738614 -0.09324914
000320 4e 55 bc 3c 52 68 93 bd 5a af e1 3d c4 e1 8d bd
       0.022989895 -0.07197632 0.11019774 -0.06927827
000330 90 4f 5c 3d 27 c3 eb bb c6 e3 44 bc 95 0b 3c 3b
       0.053786814 -0.007194895 -0.012017196 0.0028693427
000340 d3 29 f6 3c 3c 4b 9c 3d b8 66 71 3d 3a 08 5d 3d
       0.03004924 0.07631537 0.05893585 0.053962924
000350 6e 50 eb bd a7 8a a7 3d 93 38 d2 3d 77 ab d9 3d
       -0.1148995 0.08180743 0.10264697 0.106284074
000360 4c 44 b8 3d 4d 59 96 bd 69 03 e5 bc e7 8d 03 3e
       0.089974016 -0.073412515 -0.027955728 0.128471
000370 29 a5 b7 bd 54 e5 93 3d 89 79 e5 bd bd 90 d8 bd
       -0.08967049 0.07221475 -0.112048216 -0.10574482
000380 9c 5a 0e 3d 9d 29 a3 bd 14 5f d9 bc 39 f3 a2 3d
       0.03475438 -0.079669215 -0.026534595 0.07956547
000390 84 20 ce 3d ed 03 c0 3d e4 a7 d9 bc 0d 0a e0 bd
       0.100647956 0.09375749 -0.026569314 -0.10939417
0003a0 2a 83 ac 3d a3 35 28 bd 1d 25 b1 bd e8 48 46 bc
       0.08423455 -0.041066777 -0.08649657 -0.012102343
0003b0 30 d8 df bd ec d9 87 3d ae be 87 3d dd 03 9f bd
       -0.10929906 0.06633362 0.06628166 -0.07764409
0003c0 3c bf 23 be 66 66 48 bd 61 58 2e 3d 57 38 9b bc
       -0.15990919 -0.04892578 0.042564753 -0.018947763
0003d0 4e f4 8a bd 37 b1 b0 3b dd af d9 bd 02 ca c6 bd
       -0.06784879 0.0053922194 -0.106292464 -0.09706499
0003e0 cc 0d d3 bd 2f 3a 90 3d 8a 8e a0 3d 8e e4 97 bd
       -0.10305366 0.07042348 0.07839687 -0.0741664
0003f0 f3 30 5b 3c 9c 8a 5e 3d d6 3d 85 3c d4 0d 1f bd
       0.01337837 0.054331407 0.016264837 -0.038831547

conv1.bias f4 [64]
000000 87 f5 24 3c b4 f0 d4 3b cc 31 9f bd 00 9d c6 bc
       0.010068304 0.0064984206 -0.0777317 -0.024244785
000010 f5 a1 24 3d 0b ee f9 3c 97 32 f7 bc 86 93 c5 bc
       0.040193517 0.030509016 -0.03017549 -0.024118196
000020 b2 e9 36 3d 78 d4 8b 3d 8e 73 b0 3d ee b1 14 3d
       0.044656463 0.068276346 0.0861579 0.0363025
000030 93 79 35 bd c7 00 6a bd 2e 40 dd 3b 34 f7 99 3b
       -0.044305395 -0.057129648 0.0067520356 0.0046986584
000040 24 b9 24 3e a4 6f 78 3d a4 a1 f6 ba 40 a0 64 3d
       0.1608625 0.060653344 -0.0018816483 0.05581689
000050 71 9a 00 3d 26 89 d6 bc 27 1c d0 bd 2c 43 a3 3d
       0.031397287 -0.026188444 -0.1016162 0.079717964
000060 7b cf 23 bc 38 07 04 3c 17 59 42 3d 23 35 e4 bb
       -0.009998198 0.008058362 0.047448244 -0.006964342
000070 2e fb ce bc d4 c9 1f bb e1 04 85 3c 6e 9c 1b 3b
       -0.025266256 -0.0024381774 0.016237678 0.0023744362
000080 7b ae c4 bd ba fa 07 be a3 35 17 3c ef 62 b2 3d
       -0.09603592 -0.13279238 0.009229097 0.08710276
000090 30 95 26 bb e7 61 20 3c e5 1e 64 3d d0 b2 55 3b
       -0.0025418513 0.009788967 0.055693526 0.0032607801
0000a0 51 2f 75 bc a1 be 7c 3d 19 72 80 bd 83 e4 a1 3c
       -0.014964894 0.061705235 -0.062717624 0.019762283
0000b0 9c e3 fc 3d 17 b7 d1 3d 67 c5 c7 3d 10 58 13 3c
       0.123481005 0.1024 0.097544484 0.008993164
0000c0 a7 22 01 bc f3 0b 27 3c dd d9 c8 bd c0 46 2e bd
       -0.007881797 0.01019572 -0.09807179 -0.04254794
0000d0 4b 37 d8 bd c9 37 cb 3c f4 1b 35 3d 0a ab 99 3c
       -0.10557421 0.024806874 0.04421611 0.018758316
0000e0 63 15 4d bb 48 9a 77 3a e2 37 37 bc e2 c1 54 3d
       -0.0031293265 0.0009445292 -0.011182757 0.051942714
0000f0 e5 4c b8 3c 5f 91 84 3b 91 92 e0 3d 5f 2a d8 3b
       0.022497604 0.00404565 0.10965455 0.006596848

conv2.weight f4 [32, 64, 5, 5]
000000 a2 c9 42 bd 1a c4 0f 3b b2 71 45 bd df a7 89 bd
       -0.047555573 0.0021936954 -0.04820413 -0.06721472
000010 f0 d7 28 3d 7b bc 46 bd c7 c1 d7 3a 0e 17 41 bc
       0.04122156 -0.048519593 0.0016460948 -0.011785282
000020 17 3f ab bd f7 f0 cf 3c 6b ea 96 bc 53 00 85 bc
       -0.08361643 0.025383456 -0.018422326 -0.016235506
000030 b8 dd 10 bc a0 ab ae bc a8 79 55 3d 6e 40 6f 3c
       -0.008841924 -0.021322072 0.052117974 0.014602764
000040 ab 55 fc bc 99 39 b1 bc 82 c8 5d 3b fc 9a 9d 3c
       -0.030802568 -0.02163391 0.0033841436 0.019238941
000050 72 38 50 3a f6 c0 17 bd 93 a6 69 3c 85 97 f6 3c
       0.00079429813 -0.037049256 0.014260906 0.030101547
000060 b1 b8 b9 bb ba 9a 5c 3c 4b 27 74 bc 10 a7 6d bb
       -0.005667769 0.013464624 -0.014901946 -0.0036262907
000070 12 49 15 3c 88 4b 6c bc cd ec 22 bc ba f6 1f ba
       0.00911166 -0.014422305 -0.009944153 -0.0006102134
000080 a7 22 4c bc 67 8f 11 3c c9 81 01 3d bf 6f 36 3c
       -0.012459434 0.008884287 0.031617913 0.011135041
000090 df 6b b0 3c 64 9d 1b bd 8b 9c 96 3c aa 8c c6 3a
       0.021535812 -0.037991896 0.018385192 0.0015148122
0000a0 27 c4 53 3c 3a 2d a0 3c ff e0 4d 3c 8a cc 39 b9
       0.012925184 0.019552816 0.01256585 -0.00017719172
0000b0 14 da cd bc 56 12 50 bc 6b 06 25 3c 99 a5 23 3d
       -0.025128402 -0.012699684 0.010072331 0.039952848
0000c0 68 14 97 3d 09 c9 83 3c 5a 0f d6 3d 6a f2 07 3d
       0.07376939 0.016087072 0.10452147 0.03319017
0000d0 36 06 1b 3d 7b 05 26 3c 9f 91 72 3d 82 f8 69 3d
       0.03784772 0.010133143 0.059220906 0.05712176
0000e0 85 ed 0e 3d 52 e0 6f 3b 62 35 4a 3d e0 38 02 3d
       0.034894485 0.0036602211 0.049367316 0.03179252
0000f0 9b 93 82 3d 8e 13 e3 bb ce df d8 bb 39 bd 56 3b
       0.0637581 -0.0069298213 -0.0066184765 0.0032766594
000100 48 a2 0a 3c 3d f6 3e 3d 45 4d b5 bc 76 c4 39 bd
       0.008461542 0.04662155 -0.022131572 -0.045353375
000110 93 4b 00 3d 23 06 b6 3c 44 55 5d bd d5 0d 80 3c
       0.031322073 0.022219723 -0.054036394 0.015631596
000120 59 6c 84 3c cc 78 e6 3c 96 83 96 bc 8d 6e 1a bc
       0.016164945 0.028133772 -0.018373292 -0.009425771
000130 f9 0b 4e 3a 1d a8 0c 3d 47 48 a2 3d b9 88 de 3c
       0.00078600604 0.034340013 0.07923942 0.027164804
000140 6e 0b e3 3c 45 0e e1 3c 57 86 97 3b 80 fa 91 3b
       0.027715411 0.027472625 0.004624169 0.0044549108
000150 67 28 d6 bb 02 be e2 3d fe f6 91 3b 48 df 37 bc
       -0.006535578 0.11071397 0.0044544926 -0.011222668
000160 44 d0 f4 bc 9a 8d 6c bc 49 95 76 3d 87 cd 11 3d
       -0.029884465 -0.014438057 0.060200963 0.035596397
000170 e9 e6 de bc c9 a4 27 bd 43 a1 2a bd 4d b7 62 bd
       -0.027209716 -0.040928636 -0.041657697 -0.05535059
000180 ac 3c 23 bd 90 39 c0 bc a5 23 2b 3d d2 11 3c 3d
       -0.039852783 -0.023464948 0.04178204 0.045915432
000190 84 4d 8a bc d9 9f dc b9 ed 78 bf 3a cd 61 11 3c
       -0.016882665 -0.00042080766 0.0014608182 0.008873415
0001a0 58 cf 92 bc c8 40 3b bb fb 82 9e 3c a4 1d 8f bb
       -0.017921135 -0.0028572548 0.019349566 -0.004367547
0001b0 8e f3 2d bc 90 44 7d 3c 53 c9 f1 3b fd 52 66 bc
       -0.01061715 0.015458241 0.007378736 -0.014057872
0001c0 ba 58 61 bd 72 4c d2 3c c6 2e 9b 3d 82 20 b5 bc
       -0.055016257 0.025671218 0.07577281 -0.022110227
0001d0 6a 8f 2c bd a2 2f 86 3c 62 e9 17 3d 14 ef d0 3d
       -0.042128958 0.016380135 0.037087806 0.102018505
0001e0 d9 25 3c 3d 78 49 79 3c f3 76 b4 3c 4e 20 37 bc
       0.04593453 0.01521527 0.022029376 -0.011177136
0001f0 de cd 60 3d 82 2a e8 b9 79 64 be 3c 95 68 0a bd
       0.05488383 -0.0004428216 0.023241268 -0.033791143
000200 8c 09 f7 bc 73 b3 78 3c 32 a0 ae bc f4 b1 9a bc
       -0.03015592 0.015179503 -0.021316621 -0.018883683
000210 e0 e4 02 3b db 14 4e bc 92 e2 9c 3c 53 15 8f 3c
       0.0019972846 -0.0125782145 0.019151006 0.017466223
000220 d4 eb 97 ba be b0 41 bc 9f 19 bb 3c 86 ae 2d 3d
       -0.0011590668 -0.011821924 0.022839366 0.042402767
000230 57 24 1e 3d ce 46 1c bc dc 1f d9 3b eb 64 a4 3b
       0.038608875 -0.0095383655 0.0066261124 0.005016913
000240 0f 93 9e 3b 19 9d f5 bb bf f2 00 3d c1 41 75 3c
       0.004839308 -0.007495534 0.0314815 0.01496929
000250 ed a0 8c bc 03 57 87 bc 78 12 05 bd eb 77 ac 3d
       -0.01716658 -0.016520983 -0.032488316 0.0842131
000260 12 23 8e bc 6a e3 b3 3d a0 f7 30 3d ce 8f 85 bd
       -0.017350707 0.0878361 0.043204904 -0.06521569
000270 b7 0b 69 bd d2 f3 3d bd 9d 17 5d bd 70 ae eb bc
       -0.056895938 -0.046375103 -0.053977598 -0.028769702
000280 c9 fd 31 3d b0 5d 3e 3d 3e 4a 1c bd 5a 19 7b bd
       0.04345492 0.046476066 -0.03815674 -0.061303474
000290 be 08 0b 3b c8 25 b4 bd e3 e3 c9 3c 46 34 ce bc
       0.0021214928 -0.08796269 0.024644798 -0.02517141
0002a0 76 ed 84 3d ef b8 82 bc 94 05 8e bd b1 be fc 3c
       0.064906046 -0.015957324 -0.06934658 0.030852647
0002b0 f8 59 ee bc 3d 17 46 3d 03 48 97 3c 2b cb 4e 3c
       -0.029095635 0.048362006 0.018466955 0.012621681
0002c0 56 fe 6b ba c3 f7 f8 ba 88 8a 1b 3c bc 0f 02 3d
       -0.00090024376 -0.0018994737 0.009493478 0.031753287
0002d0 c3 55 1d 3c 62 39 fc bb 5e 83 d4 3c c4 d8 26 bb
       0.009602967 -0.0076972703 0.025941547 -0.0025458792
0002e0 73 ef aa 3c 60 bb cd 3b 25 db e2 3b 49 1a 98 3c
       0.020866131 0.0062784404 0.0069230967 0.018567221
0002f0 b4 de 2f 3c 98 02 fa 3b cb f7 73 3c e8 68 0b 3c
       0.010734249 0.0076297037 0.014890621 0.008508898
000300 cf ce ba b9 fd 09 da 3b d8 45 a6 bb be e9 c4 3b
       -0.0003563077 0.0066540227 -0.005074244 0.0060093096
000310 e9 ec 16 bc 72 0b a2 3c 08 e3 2a 3d 65 cd 96 3c
       -0.009211757 0.019780848 0.04172042 0.018408487
000320 8a 91 3c 3c 1b 24 04 3d d2 f3 18 bb ae b2 c0 3d
       0.011509309 0.032260995 -0.0023338688 0.094090804
000330 27 d1 cb bd 9e 2e f9 3d d3 0a a2 3d 7b 4f a5 bd
       -0.09952002 0.12167095 0.07912221 -0.080718
000340 76 19 2a 3c 35 75 78 bd f0 bf b1 3d 72 0a 1b 3b
       0.010382047 -0.060658652 0.08679187 0.002365735
000350 77 cc a1 bd 96 6b 23 bd 31 49 0c bb 06 98 a2 3c
       -0.07900327 -0.039897524 -0.002140593 0.019847881
000360 09 7c 1f bd b9 dd b1 bd 39 4e a6 bc b5 30 3e bc
       -0.03893665 -0.08684868 -0.020300971 -0.011608292
000370 8c 60 7c 3e 9f 62 bf 3d dc cb 4d bd e5 e5 96 bd
       0.24646205 0.09344982 -0.050243244 -0.07368068
000380 80 94 d1 bd a8 7c 9e bd 10 0c d1 bd 1a 82 82 bc
       -0.10233402 -0.0773862 -0.10207379 -0.015931178
000390 ad ae 91 bd 1d d3 9c 3d cc d8 4c bd 8e ba b1 ba
       -0.07113395 0.07657454 -0.05001144 -0.0013559626
0003a0 23 88 35 3d be da 2f bd 5f f5 9b 3d 68 6c 60 ba
       0.044319283 -0.04293322 0.0761516 -0.00085610757
0003b0 2e c8 04 3d 02 0c 07 3d fa b3 0a 3d 2a 43 27 3d
       0.03241747 0.032970436 0.033863045 0.040835537
0003c0 41 61 85 3c 08 1f 98 3c a8 50 07 3c 66 ed f5 bc
       0.016281726 0.018569484 0.008258976 -0.030020427
0003d0 6f 32 76 bc ee e2 49 bd 5f b1 a0 bc 96 da 0b 3d
       -0.015026673 -0.049288683 -0.019615827 0.034144007
0003e0 24 23 91 3c a9 34 ed 3c 28 c9 eb bd c7 4c 6a 3d
       0.017716952 0.028955774 -0.11512977 0.057202127
0003f0 6c b7 05 3d 1c 78 ca 3d 3b 33 4a 3e 65 90 73 bd
       0.032645628 0.0988619 0.19746105 -0.059463877

conv2.bias f4 [32]
000000 d4 5a 69 bc a1 4c e1 bc 8b b7 1e bd 13 bc 48 bd
       -0.0142428465 -0.02750236 -0.03874926 -0.049007487
000010 0d 19 0e bd f3 95 98 37 ef 65 a3 3b 31 c4 fd 3b
       -0.03469186 1.8189638e-05 0.0049865167 0.007744335
000020 83 4d 93 3b 01 12 5e bc 07 bb a4 bc 35 e8 1b 3b
       0.004495324 -0.013554097 -0.020108713 0.002378953
000030 61 b0 13 bc 34 08 a2 bc 5a 09 d4 bb 6d a4 63 3c
       -0.00901422 -0.019779302 -0.0064708414 0.013894183
000040 08 88 53 3c 12 b8 87 3b 95 bc 0c bb 6e d6 13 bd
       0.01291085 0.004141816 -0.0021474708 -0.036093168
000050 85 5d 3a 3c 4f fd 6e 3c 73 95 f8 b9 f6 d9 a9 3b
       0.011374836 0.014586761 -0.00047413594 0.0051834537
000060 16 d1 a1 3c 7a 8b 2b 3b c8 14 20 3c 53 32 ba 3a
       0.01975302 0.0026175664 0.00977058 0.0014205672
000070 87 f3 29 bc 3d 3f e0 3a cc c5 b7 3c bc b6 47 ba
       -0.010373003 0.001710869 0.022433184 -0.0007618477

conv3.weight f4 [1, 32, 5, 5]
000000 f9 11 f9 bc ed 3d fa 3c f1 9e 8d 3c f1 d3 12 bd
       -0.030404078 0.030547107 0.017287703 -0.035846654
000010 bb a6 65 3c fd c8 59 3b ef 5e 24 3d a4 73 54 3c
       0.014016802 0.003323137 0.0401296 0.012967024
000020 b7 c5 04 bd 71 fc c5 bc 4b be 8e 3c 6f e9 06 3c
       -0.032415118 -0.024168225 0.017424723 0.008234366
000030 b3 70 86 3d ae 68 54 3b c8 40 e3 bc 89 54 0e 3c
       0.065644644 0.0032411027 -0.027740851 0.008687147
000040 6e 8c 11 3d ae 24 56 3d c6 ed 42 bd 70 3d 2c bd
       0.035534315 0.052281074 -0.04759004 -0.04205078
000050 ae 3a 70 bc 68 0d 8c bd d4 53 b2 bd 70 c8 11 bc
       -0.014662428 -0.068384945 -0.08707395 -0.008897886
000060 a3 8d aa bb 0c 29 56 bb 16 f2 9c 3c cd 92 ea bc
       -0.0052048727 -0.0032678274 0.019158404 -0.028634453
000070 0e bf e8 3b 52 0e 2d bc b9 17 ca bc 3a d5 85 3c
       0.0071028536 -0.010562496 -0.024669515 0.016337026
000080 1e 50 2a 3c 34 65 3e bc 6c aa 65 3c f5 39 9b bc
       0.010395078 -0.011620808 0.0140176825 -0.018948535
000090 42 fa 22 3d 00 10 8f 3c 8a 98 3c b9 b4 5a ba bb
       0.039789446 0.017463684 -0.00017985902 -0.005687082
0000a0 07 c3 1d 3d 6b 21 dd bc 41 1c f0 ba 0d 3d ce 3c
       0.03851607 -0.026993474 -0.0018318967 0.025175596
0000b0 38 18 8f 3c 48 ed a9 3c 68 a2 80 bc c7 70 1d 3d
       0.017467603 0.020743027 -0.015702441 0.03843763
0000c0 3a c8 52 3c 48 82 b2 bc ec 9c 5d 3c ca 05 2b 3d
       0.012865121 -0.021790639 0.013526183 0.041753568
0000d0 6b 78 87 3d 66 78 a6 3c 61 ae 11 bd 46 1c 9b 3b
       0.06614765 0.020321082 -0.03556669 0.004733595
0000e0 40 7f 4a bd 66 d5 36 bd 22 f5 b6 bc 89 8e a1 bc
       -0.04943776 -0.044637106 -0.022333685 -0.019721286
0000f0 67 4c 38 bc 7c cb d3 bc 2e ff c8 3b c7 5e bd 3c
       -0.0112486845 -0.025853865 0.0061339354 0.023116482
000100 ee 8f a3 bc 29 ec 82 3c 2d a2 a7 3c a5 c3 d6 3d
       -0.019966092 0.01598175 0.020463074 0.10486535
000110 af 1e 09 3d f7 ec 2a 3c 67 a3 68 bb 48 fe 1d bd
       0.033476528 0.010432473 -0.0035497786 -0.03857258
000120 cf 6a f8 bc ea 28 98 bd 44 49 ec 3b c5 78 d4 bc
       -0.030324368 -0.07429679 0.0072108824 -0.025936494
000130 c0 30 96 bc 6e 6e d8 3b ab 63 0d 3c 4e 0c 12 bd
       -0.018333793 0.006604961 0.00862972 -0.035656266
000140 4f 9f 39 3b 93 21 2c bc f2 6a 06 3d 8b 4b da ba
       0.0028323715 -0.010506052 0.032816835 -0.0016654594
000150 f9 bf e1 bc 75 76 66 3b 36 9a e5 b6 87 b6 6d 3d
       -0.02755736 0.003516582 -6.8426843e-06 0.0580354
000160 1e 67 e2 3d 77 32 3d 3c ff 24 58 bb b4 32 24 bd
       0.11054824 0.011547676 -0.0032981036 -0.040087417
000170 3a 94 96 3c a8 e1 77 3c 5e 74 bf 3b 8e 16 9d bd
       0.018381227 0.015129484 0.0058427295 -0.076703176
000180 90 58 c4 3b 18 79 8f bc 8e 64 43 bd 6c cf be 3c
       0.005992003 -0.017513797 -0.04770332 0.023292266
000190 39 12 df bc a9 96 b5 bc 4c c6 19 3c 0a 1e 12 3c
       -0.027230369 -0.022166567 0.009385657 0.008918295
0001a0 c5 23 42 bc 5d 1e da 3c af 52 4b bc 99 c7 5f 3b
       -0.011849348 0.026625806 -0.01240985 0.003414607
0001b0 18 a0 87 3c ed 2e 1a 3c fb 34 43 bd ba 99 9b bc
       0.01655583 0.009410602 -0.047657948 -0.018994201
0001c0 46 d2 36 3c f4 92 20 bc 00 1a 34 bc e9 90 0e bd
       0.0111585315 -0.009800661 -0.010992527 -0.034806166
0001d0 40 90 de 3c 2d 98 1f 3c a9 78 19 bd aa c8 44 3c
       0.027168393 0.009740871 -0.037468586 0.012010733
0001e0 08 4a 87 3d 2f 2d b9 3d 26 b1 02 3d ca 91 5f bc
       0.06605917 0.09041821 0.031907223 -0.013645599
0001f0 fa 3a 9c 3b 63 85 3c bb f1 0b 7a bd 00 03 ad 39
       0.0047677727 -0.0028766028 -0.061046544 0.00032999367
000200 25 69 5f bc d1 89 7d bc 89 40 00 bc a5 69 9b bc
       -0.013635908 -0.0154747525 -0.007827886 -0.018971274
000210 20 87 98 3c 83 eb 7b 3d 67 be 03 3c 56 86 db 3c
       0.01861912 0.0615039 0.008041001 0.026797455
000220 1d c4 43 bc 7c a7 1b 3c 94 96 c5 3d 3c f4 71 3d
       -0.0119486125 0.009500381 0.09647861 0.05907081
000230 da 16 52 3d 17 27 b7 bd 6c 26 04 bd 20 53 ce 3c
       0.051291324 -0.08943003 -0.032263204 0.025186121
000240 a7 27 c8 3c b0 ca 2b 3d 2c 79 8b bd d6 35 c1 bd
       0.02443297 0.041941345 -0.06810221 -0.094340965
000250 6f 02 3c bd 7a 49 69 bd 45 14 b7 3c c7 68 f3 3c
       -0.04590076 -0.05695484 0.022348532 0.029713048
000260 46 2a 92 bc da e7 96 bc 4e de 62 bc 73 94 d8 3c
       -0.017842423 -0.018421102 -0.013846947 0.026437974
000270 c8 88 db bc d7 f0 9b 3b d8 5c a0 3b 62 9b 9f bd
       -0.02679862 0.004758935 0.0048938803 -0.07793309
000280 1d 8f ad 3c 27 4c 58 bd fb 26 64 bd e2 32 03 3e
       0.021186406 -0.052807 -0.055701237 0.12812379
000290 30 db 5b 3c 44 ae e5 3b 49 80 ee bc 7c 6d 9e bd
       0.013418958 0.0070092995 -0.029113906 -0.07735726
0002a0 3a 73 ab bc 13 86 60 bb ab 27 54 3d c6 cc 89 3d
       -0.020928968 -0.0034259602 0.051795643 0.067285106
0002b0 43 f9 f5 bb 35 0b 37 bc 91 48 cb bc 2b ab c0 3c
       -0.007506521 -0.011172106 -0.024814876 0.02351912
0002c0 8e 0c 18 3d 12 8e 9e bc 57 07 23 bc 55 c5 d9 3c
       0.037121348 -0.019354854 -0.00995048 0.026583353
0002d0 59 e2 18 3c 83 1c e0 3c df de 15 3d f6 99 9c bc
       0.009331309 0.027357345 0.0365895 -0.019116383
0002e0 98 82 e1 3c 14 ee 91 3c b7 e9 0c 3c 2a 86 da bb
       0.027528092 0.01781372 0.008600644 -0.0066688256
0002f0 1b 02 06 3c ff ae 40 bb 1b 47 dc 3c 4b 7b 45 bc
       0.008179213 -0.002940118 0.026889374 -0.012053321
000300 42 ca 73 bc 22 ae 20 3b 48 fc d1 bc 3f 41 05 3b
       -0.014879765 0.0024517854 -0.025632992 0.002033308
000310 8c 16 a4 bc 81 01 d8 bc 5e d5 c8 3b e6 a0 38 bc
       -0.020030282 -0.026367905 0.006128951 -0.01126883
000320 51 36 d2 bb bb 77 5c bd 83 e2 35 bd 82 cb d1 bc
       -0.0064151664 -0.05382512 -0.04440547 -0.025609735
000330 6a b3 3b bd 2e 41 b6 ba 70 a7 1b bd bf 11 49 bd
       -0.0458254 -0.0013904923 -0.038001478 -0.04908919
000340 70 8c 8d bc 50 74 50 3d ef 7d fd 3c 06 4a cc bb
       -0.01727888 0.050892174 0.030943839 -0.00623441
000350 94 e9 ab 3c 57 c1 15 bc 22 23 93 3d 06 40 b9 ba
       0.020985402 -0.009140334 0.071844354 -0.001413346
000360 8e 61 f0 bb 7a 52 b2 bc b2 0b eb 3c ea f9 36 3d
       -0.007335848 -0.021767844 0.0286921 0.04467193
000370 63 94 1d 39 ca 78 b8 3c d0 5e 4e 3d 49 1b 25 3d
       0.00015027965 0.022518534 0.05038339 0.040309224
000380 a4 a3 23 bc af 09 c3 3b a6 5b 14 3c 76 3a 5d 3b
       -0.009987745 0.005952082 0.009055054 0.003375677
000390 6c f0 0e bc 8a fe 03 bd 29 97 ec 3c 8c a3 34 bc
       -0.008724313 -0.03222517 0.028880673 -0.011025321
0003a0 9e ad d8 bc 16 4c 31 bc e0 f4 6a 3c fc 9e b2 bc
       -0.026449975 -0.010821363 0.014340609 -0.021804325
0003b0 62 72 02 bc 1b 0e f4 bb 76 da 2f bc 7f 2f 89 3c
       -0.007961841 -0.0074479706 -0.0107332375 0.01674628
0003c0 50 92 83 bc 75 25 5e 3c fa 01 ab 3c 27 28 ca 3c
       -0.016060978 0.013558735 0.020874966 0.02467735
0003d0 34 f0 ed 3c 1a a5 bb b9 84 9f 7c 3c 22 58 7b bc
       0.029045202 -0.0003579043 0.015418891 -0.015340837
0003e0 a9 d4 04 bd 42 76 0c bd fb 9b 14 bd 7d 3c 83 bc
       -0.03242937 -0.034292467 -0.036281567 -0.016020054
0003f0 e5 5a 00 3c 8d ef 4d 3c 6c 85 7e 3d ad 7e 38 bd
       0.007834171 0.01256932 0.06213896 -0.045042682
