resutls/epoch_26.233.pth (torch, 231589 bytes, 5 tensors)

conv1.weight f4 [64, 1, 9, 9]
0	0x3d6a5101	0.057206158
1	0xbd489cbe	-0.048977606
2	0xbcaee579	-0.021349655
3	0x3d56d2fa	0.052447297
4	0xbdd5c510	-0.10437977
5	0x3d877c1e	0.0661547
6	0xbcbee89a	-0.023304272
7	0x3d67ad91	0.05656201
8	0x3c81bfe9	0.01583858
9	0xbc64f899	-0.013975286
10	0x3cfa9229	0.030587273
11	0x3bb08503	0.00538695
12	0x3d2619a7	0.040551808
13	0xbd3150a7	-0.043289807
14	0xbc10e4fd	-0.008843658
15	0xbc3115ef	-0.010808452
16	0x3c815116	0.015785735
17	0xb9cb45e4	-0.0003877125
18	0x3dc7d759	0.09757871
19	0x3d10602e	0.035247974
20	0xbd25d27f	-0.040483948
21	0xbd879274	-0.066197306
22	0xbc900156	-0.017578762
23	0xbd43e70b	-0.04782776
24	0xbd12245e	-0.035679214
25	0x3bbb4958	0.0057155304
26	0x3d8910d0	0.0669266
27	0x3d7a8876	0.061165296
28	0xbddc8921	-0.10768343
29	0x3d8f6620	0.07001901
30	0x3d051505	0.03249075
31	0x3dda7da2	0.10668494
32	0x3d96ce3a	0.07363553
33	0xbdcf43f2	-0.101203814
34	0xbdd77427	-0.10520201
35	0xbd584849	-0.05280331
36	0x3dc8f391	0.098120816
37	0xbc905508	-0.017618671
38	0x3d479fff	0.04873657
39	0xbd4e1878	-0.050316304
40	0x3de1933e	0.11014412
41	0xbd408ba7	-0.047008183
42	0x3da9f7f3	0.08299246
43	0x3ab7907c	0.0014004852
44	0xbd6dcb43	-0.058055174
45	0x3d6b3295	0.057421286
46	0xbd6eeec8	-0.05833319
47	0x3d09867c	0.03357552
48	0xbcfefb90	-0.031125814
49	0xbc3946a1	-0.011308343
50	0xbddb868c	-0.10719022
51	0xbd5ba3df	-0.053623077
52	0x3d763b1a	0.060114957
53	0xbcdb6411	-0.026781114
54	0x3de31c88	0.11089426
55	0x3db7605c	0.08953926
56	0xbb8fa712	-0.00438393
57	0xbd965681	-0.07340718
58	0x3d8beacf	0.068318956
59	0x3d0b4fe2	0.03401173
60	0xbd9488a5	-0.072526254
61	0x3d937403	0.07199862
62	0x3d8ab124	0.06772068
63	0x3dc9da0b	0.098560415
64	0xbd7d66ab	-0.06186549
65	0xbc910ffa	-0.017707814
66	0xbac6658c	-0.0015136464
67	0x3c893f6b	0.016753873
68	0xbdadef0b	-0.084928595
69	0xbda2f685	-0.07957176
70	0x3d76f026	0.060287617
71	0xbcd338fd	-0.02578401
72	0x3d5b83a2	0.05359233
73	0x3bc39725	0.0059689456
74	0x3d14e47e	0.03635072
75	0x3cc76ae6	0.024342965
76	0x3d24addf	0.04020488
77	0x3d5ce5cc	0.05393009
78	0xbdd52a21	-0.10408426
79	0x3d62a7d6	0.055335842
80	0xbda05b6f	-0.078299396
81	0xbdb38341	-0.08765269
82	0x3b3d0fda	0.002884856
83	0xbcb5b9dc	-0.022183351
84	0x3d803425	0.06259946
85	0xbd868581	-0.065684326
86	0xbdcca862	-0.09993054
87	0x3da2a971	0.07942475
88	0xbc96921f	-0.018380223
89	0x3d752993	0.0598541
90	0x3d03613a	0.032075144
91	0xbdb227fb	-0.08699032
92	0x3c9e6114	0.0193334
93	0x3cc76340	0.024339318
94	0xbd9a5461	-0.07535625
95	0xbd5b1dd4	-0.053495243
96	0x3d16ab40	0.03678441
97	0x3c95de99	0.01829462
98	0xbd4b68aa	-0.049660362
99	0xbd18bdfd	-0.037290562
100	0x3dc8e852	0.098099366
101	0xbcc06208	-0.023484245
102	0x3d77594e	0.060387902
103	0x3d41e242	0.047334917
104	0xbd9446f9	-0.072400995
105	0xbdc36ba8	-0.09542018
106	0x3dd76f6d	0.105193
107	0x3b64c547	0.0034907626
108	0x3d96aa7b	0.07356735
109	0x3ca7cd06	0.020483505
110	0x3d0b79cd	0.034051705
111	0x3da8207e	0.082093224
112	0x3dd93682	0.106061
113	0xbd9524b6	-0.07282393
114	0x3c6be954	0.0143988915
115	0x3da98867	0.0827797
116	0x3da2895f	0.07936358
117	0x3d897761	0.06712223
118	0xbda8675b	-0.082228385
119	0xbda58e2d	-0.080837585
120	0xbd8976a4	-0.06712082
121	0x3c81445f	0.015779672
122	0x3de70fd0	0.11282313
123	0xbd8c40c6	-0.06848292
124	0x3d76bf2e	0.060240917
125	0xbd7c25d8	-0.061559528
126	0xbdd6abcc	-0.104819864
127	0xbcc29bcd	-0.023755932
128	0x3d8514d7	0.064981155
129	0x3dd76a6b	0.105183445
130	0xbd855dc7	-0.06512027
131	0x3ce6ba1c	0.028164916
132	0x3dcbd415	0.09952561
133	0x3d9cb4c7	0.07651668
134	0x3d913fb0	0.070922256
135	0x3d9eb3cf	0.077491395
136	0x3d8d505d	0.06900094
137	0x3ce9591e	0.028484877
138	0xbd99cc8f	-0.075097196
139	0xbdb98ed4	-0.090604454
140	0xbd44b977	-0.048028436
141	0xbc2b2830	-0.010446593
142	0xbd87c488	-0.06629282
143	0x3d29300f	0.041305598
144	0x3cfed197	0.0311058
145	0xbce82969	-0.028340058
146	0x3d25a625	0.04044165
147	0x3d0e0c47	0.034679677
148	0x3d8bd480	0.068276405
149	0x3d9a94f8	0.07547945
150	0xbd1917cf	-0.03737622
151	0x3ddda7f5	0.10823051
152	0xbc67ef17	-0.014156125
153	0xbc08cb24	-0.008349214
154	0xbde018a4	-0.109422
155	0xbd9a3a68	-0.07530671
156	0xbd8ae3e8	-0.06781751
157	0xbd487708	-0.048941642
158	0x3d9f48e2	0.07777573
159	0xbd1b0265	-0.03784408
160	0xbdadfeb8	-0.08495849
161	0x3d241709	0.04006103
162	0x3d111f27	0.0354301
163	0x3d93b374	0.07211962
164	0xbd6947b2	-0.05695314
165	0x3cd42225	0.025895188
166	0xbd1acf95	-0.037795622
167	0xbcc93e12	-0.02456573
168	0xbdb825c6	-0.0899158
169	0xbd53fc00	-0.051753998
170	0xbd11470d	-0.03546815
171	0x3d46583b	0.048423987
172	0x3cb10da0	0.021612942
173	0x3cefc709	0.029269712
174	0x3de9b604	0.1141167
175	0x3de65fc0	0.112487316
176	0x3d9ebefe	0.077512726
177	0x3b5911e0	0.0033122227
178	0xbd9d9778	-0.07694906
179	0x3db0d14e	0.08633672
180	0xbcda4eca	-0.026648898
181	0xbbf12cab	-0.007360061
182	0xbdbf7aa7	-0.09349566
183	0xbc94d39e	-0.018167313
184	0xbd88f2bd	-0.06686924
185	0x3dd5bd3d	0.10436485
186	0xbdc460c3	-0.09588768
187	0xbdb0e0bd	-0.086366154
188	0xbb8404d3	-0.0040288954
189	0xbd72e204	-0.059297577
190	0x3d2841d1	0.041078392
191	0xbd27002d	-0.040771652
192	0xbd46ee38	-0.048567027
193	0x3c32d596	0.010915181
194	0x3da8c6f2	0.08241071
195	0xbda09ebc	-0.07842776
196	0x3d54aaf2	0.05192084
197	0x3d909c45	0.07061056
198	0x3dde7983	0.1086302
199	0xbd9e4a0c	-0.07728967
200	0x3ce62571	0.028094025
201	0xbda269c0	-0.079303265
202	0x3dca2880	0.09871006
203	0xbd2c18ba	-0.04201577
204	0x3d86825d	0.065678336
205	0x3b05c8fa	0.002041398
206	0xbc2ab7b5	-0.010419776
207	0xbb7f1278	-0.003892092
208	0x3c9c5d1d	0.019087369
209	0x3d5a3d10	0.05328089
210	0x3ca72a8b	0.020406028
211	0x3d196fbe	0.03746008
212	0xbdcaeff6	-0.0990905
213	0x3da315b8	0.07963127
214	0x3dc3c204	0.0955849
215	0x3db873ac	0.09006438
216	0x3da6e1f8	0.08148569
217	0xbda48ec7	-0.08035045
218	0xbd26b49a	-0.04069958
219	0x3dccea07	0.10005575
220	0xbda7185e	-0.081589445
221	0x3dcf4b77	0.10121816
222	0xbdb6453f	-0.088999264
223	0xbda376bd	-0.07981632
224	0x3d566b41	0.05234838
225	0xbda56eb3	-0.08077755
226	0xbcd4b1cc	-0.025963686
227	0x3da5b732	0.08091582
228	0x3db79c2b	0.089653336
229	0x3ddc8103	0.107667945
230	0xbcb7bb95	-0.022428313
231	0xbdb476c8	-0.08811718
232	0x3ddc9a88	0.10771662
233	0xbcd2a780	-0.025714636
234	0xbd41ff3a	-0.047362544
235	0x3cd31af8	0.025769696
236	0xbda0cbca	-0.0785137
237	0x3d96d095	0.073640026
238	0x3d91b738	0.07115024
239	0xbdb6256b	-0.08893856
240	0xbdbfd71f	-0.09367203
241	0xbc442852	-0.011972504
242	0x3d34ebae	0.044170074
243	0xbb3f78c2	-0.0029216264
244	0xbd65e0b1	-0.056122486
245	0x3b345dc0	0.00275217
246	0xbdd58c65	-0.10427169
247	0xbda06c5f	-0.0783317
248	0xbd97f999	-0.07420654
249	0x3db91468	0.09037095
250	0x3dc65e0c	0.09685907
251	0xbd1f6df6	-0.038923226
252	0x3bb113a0	0.005403951
253	0x3d4c5c07	0.04989245
254	0x3c5f5702	0.013631584
255	0xbd62a180	-0.0553298

conv1.bias f4 [64]
0	0xbd5a5a5a	-0.053308822
1	0x3cb192be	0.021676417
2	0xbd92e4e2	-0.07172562
3	0xbd2e30cc	-0.042527005
4	0x3d9e5cf3	0.077325724
5	0x3d2acee5	0.041701216
6	0x3da6e49c	0.081490725
7	0xbccc52e9	-0.024941878
8	0x3dd1b531	0.10239638
9	0x3da2432f	0.079229705
10	0x3d7cdcaa	0.06173388
11	0x3d5ac31e	0.053408735
12	0xbdc2ae7b	-0.09505936
13	0xbd6aa0cd	-0.057282258
14	0x3ac3a1bf	0.0014925523
15	0x3d0b694d	0.03403597
16	0x3dfd2104	0.12359813
17	0x3dbc871b	0.09205457
18	0xbd447da1	-0.04797137
19	0x3d6af9e3	0.057367217
20	0x3d29f811	0.04149634
21	0xbd663503	-0.0562029
22	0xbddc074f	-0.107435815
23	0x3d408904	0.04700567
24	0x3bb6caec	0.0055783894
25	0x3ce7317e	0.028221842
26	0x3d969408	0.073524535
27	0xbcfd1751	-0.030894907
28	0xbd2c508b	-0.042069
29	0x3d0203fd	0.031742085
30	0xbd306967	-0.04306927
31	0xbd85ac45	-0.065269984
32	0xbddc26f6	-0.10749619
33	0xbdb8d76e	-0.09025465
34	0xbc07afc0	-0.008281648
35	0x3dc2dda2	0.09514929
36	0xbd8f6f57	-0.07003658
37	0x3cee7712	0.029109512
38	0x3d881b7f	0.066458695
39	0x3c98b5ad	0.018641317
40	0xbb49601a	-0.0030727447
41	0x3dad5b8e	0.08464728
42	0xbdd3fdf7	-0.10351174
43	0x3dbe8479	0.09302611
44	0x3dbb5773	0.09147539
45	0x3dc3c4dc	0.09559032
46	0x3dabc899	0.0838787
47	0xbbf0ebe7	-0.0073523405
48	0xbdb1a9e0	-0.08674979
49	0xbd8f962e	-0.070110664
50	0xbdb60fc7	-0.08889728
51	0xbd882a0e	-0.06648646
52	0xbdcac635	-0.09901086
53	0x3d986705	0.074415244
54	0x3d328599	0.04358444
55	0xbd4544c4	-0.048161283
56	0x3be8ea56	0.007108013
57	0x3c661e49	0.0140453065
58	0x3a84e43f	0.0010138823
59	0x3d8bd5bc	0.06827876
60	0x3d2f02f4	0.042727426
61	0xbdb230eb	-0.087007366
62	0x3dd63b6f	0.10460555
63	0xbd2dcdd5	-0.042432625

conv2.weight f4 [32, 64, 5, 5]
0	0xbc0132f5	-0.007885684
1	0x3cdf45ec	0.027255021
2	0xbc4dbae3	-0.012556764
3	0xbb2f6ec6	-0.0026768907
4	0x3b6c9b84	0.0036103437
5	0xbca8aadc	-0.020589285
6	0x3ca267cd	0.019824887
7	0x3cb24af4	0.021764256
8	0xbcad1c3d	-0.02113163
9	0xbb53bb45	-0.0032307666
10	0x3be5f2e6	0.007017481
11	0x3c8cd6f0	0.017192334
12	0x3c590e0f	0.013247981
13	0x3aa58c58	0.0012630327
14	0x3cbeb1ed	0.023278201
15	0xbb86b1d9	-0.0041105566
16	0x3b0d4b86	0.0021559908
17	0xbc6a5e67	-0.014304734
18	0xbc4635a2	-0.012097748
19	0xbbe94271	-0.007118516
20	0xbcb29a68	-0.021802142
21	0xbb2a3289	-0.0025970063
22	0x3be013c7	0.006838295
23	0xbc771d0d	-0.01508261
24	0xbcaad912	-0.02085546
25	0x3ccd2231	0.025040718
26	0xbc2843b6	-0.01027005
27	0xbc97fa2b	-0.018551907
28	0xbbcfe1f4	-0.0063440744
29	0xbc469326	-0.012120044
30	0xbca12b26	-0.019673895
31	0xbabd5e89	-0.0014447729
32	0xbc27bb5e	-0.010237543
33	0xbbd8e4ce	-0.0066190725
34	0x3c410663	0.011781308
35	0x3ba9679b	0.0051698214
36	0x3cb81b22	0.022473875
37	0xbcc57a4b	-0.024106165
38	0x3cb90356	0.022584599
39	0x3c63acf0	0.013896212
40	0xbb33e396	-0.0027448884
41	0x3c9b25b0	0.01893887
42	0x3cc61d7b	0.02418398
43	0x3b4fd369	0.0031711704
44	0x3be77074	0.007062966
45	0xbb8ca48c	-0.0042920765
46	0xbad018f5	-0.0015876578
47	0xbaf2cee4	-0.0018524793
48	0xbc59d2c4	-0.013294879
49	0x3b53cbb4	0.0032317461
50	0xbc234bc9	-0.009966799
51	0x3c4d67ba	0.012536937
52	0x3b982c2a	0.0046439366
53	0xbc8a4636	-0.016879182
54	0x3cc3c4a5	0.023897478
55	0x3c1e361c	0.009656455
56	0x3c57c30d	0.013169062
57	0xbcb7232c	-0.022355638
58	0x3cd1604f	0.025558619
59	0x3c2c5d7d	0.010520336
60	0xb98bc2bb	-0.00026657232
61	0xbc7f58a5	-0.015585099
62	0x3bdd5bdb	0.006755335
63	0x3c54cca2	0.012988241
64	0x3c212432	0.00983529
65	0x3c9aaec0	0.018882155
66	0xbcbc679c	-0.022998624
67	0xbc99676c	-0.018726073
68	0x3cd6a6fb	0.02620267
69	0x3cb346e6	0.021884393
70	0xbaf1cb05	-0.0018447345
71	0x3c5a6e83	0.013332012
72	0x3c9508cd	0.018192673
73	0x3c9f48ba	0.019443858
74	0xbc41443b	-0.011796053
75	0xbc17430f	-0.009232297
76	0xbc534f1d	-0.01289728
77	0xbbc9da85	-0.0061600828
78	0x3cc83c80	0.024442911
79	0x3901913f	0.00012356507
80	0xbca2c9cf	-0.01987162
81	0x3c9d2733	0.01918373
82	0x3c2f3d0b	0.010695706
83	0x3baa8402	0.005203725
84	0xbc491d8d	-0.012275112
85	0x3c9689c9	0.018376248
86	0xbca2ebdb	-0.019887855
87	0x3c5c5d93	0.013450044
88	0xbad5b25e	-0.0016303768
89	0xbc03a2c6	-0.008034414
90	0xbcb65d74	-0.022261359
91	0x3b7bcde8	0.003842229
92	0xbc302ca6	-0.0107528325
93	0xbc0bacbf	-0.008525073
94	0x3c78493e	0.015154181
95	0xbc80b0aa	-0.01570924
96	0x3cc60e7a	0.024176825
97	0x3cb0513a	0.021523107
98	0x3ca21d96	0.019789498
99	0x3b76c88b	0.0037656154
100	0xbcad261e	-0.02113634
101	0xbc091012	-0.008365648
102	0xbc616f4c	-0.013759445
103	0xbb9e30cd	-0.004827595
104	0xbcc87f5b	-0.02447479
105	0xbc514517	-0.01277282
106	0xbbd4492f	-0.0064784507
107	0xba912a6d	-0.0011075266
108	0xbbed589c	-0.007243229
109	0x3b9277a1	0.0044698273
110	0xbc59d1d9	-0.0132946605
111	0xbc8d89a2	-0.017277543
112	0xbc8deea0	-0.0173257
113	0x3cc6a51a	0.024248648
114	0x3c818448	0.015810147
115	0xbcaf31b2	-0.021386001
116	0xbcac4144	-0.021027215
117	0x392bea05	0.0001639501
118	0xbc4502ea	-0.012024621
119	0x3c1edea0	0.009696633
120	0xbc1f75e0	-0.009732693
121	0x3a860881	0.0010225923
122	0xbbe03cf3	-0.006843203
123	0xbca131b9	-0.01967703
124	0xbb2d1a54	-0.0026413398
125	0x3cddfc36	0.027097803
126	0x3cc2c0c3	0.023773557
127	0xbc4f6dcd	-0.012660456
128	0x3c2db06a	0.010601142
129	0x3cb308d9	0.021854805
130	0x3be155fe	0.006876706
131	0x3b4e79e9	0.003150577
132	0x3cdeaf82	0.027183298
133	0x3ba3137e	0.004976689
134	0xbb4ce60c	-0.0031265048
135	0x3ce64f69	0.028114038
136	0x3c822541	0.015886905
137	0xbc266ae0	-0.010157317
138	0x3cbc041b	0.022951176
139	0x3cb2e7d8	0.021839067
140	0x3cc9482a	0.024570543
141	0xbbe53b41	-0.006995589
142	0xbb8fd447	-0.004389319
143	0x3ca2fd7c	0.019896261
144	0x3c9e8ff7	0.019355757
145	0xbc8d517a	-0.017250765
146	0x3cc58269	0.024110036
147	0x3c80e5bf	0.015734551
148	0x3c1d5989	0.009603866
149	0xbc050961	-0.008119912
150	0xbb62fa99	-0.003463423
151	0x3c7681d4	0.015045602
152	0x3b7e6a04	0.0038820514
153	0x3ca0e375	0.01963971
154	0xbc8056ec	-0.015666448
155	0xbc139949	-0.009008714
156	0xbb49d22d	-0.003079544
157	0x3c22b9b4	0.00993197
158	0x3c0b6b83	0.0085095195
159	0x3c55e90d	0.013056052
160	0xbc6630e0	-0.014049739
161	0xbb9814af	-0.0046411376
162	0x3c1c2ee1	0.009532661
163	0xbc384677	-0.011247269
164	0x3c90d4eb	0.017679652
165	0x3c8ee7b3	0.017444467
166	0x3c5fb747	0.013654537
167	0x3c5748f7	0.013139955
168	0x3c7410a6	0.014896547
169	0xbcaf070b	-0.021365663
170	0xbc003870	-0.007825956
171	0x3c9804af	0.01855692
172	0xbc2d26b7	-0.010568312
173	0x3af8bbcb	0.0018976865
174	0xbc0ec93a	-0.008714968
175	0x3c0ccb8e	0.008593453
176	0x3aeac7c9	0.0017912324
177	0xb9a9a7b3	-0.00032359138
178	0x3c24f948	0.010069199
179	0x3cd1d178	0.025612578
180	0x3c194749	0.009355375
181	0xbae0b4bd	-0.0017143708
182	0x3cdcc629	0.026949959
183	0xbbc471ba	-0.0059950026
184	0x3c0ed93a	0.008718783
185	0x3c2c2bc5	0.010508482
186	0x3c664a6e	0.014055831
187	0x3cb8fa20	0.022580206
188	0x3c5ad64c	0.013356756
189	0x3ac60f68	0.0015110793
190	0x3c933828	0.017971113
191	0x3bf38773	0.0074319183
192	0x3a1a0f06	0.00058768725
193	0x3c12e738	0.00896626
194	0xbc4e059f	-0.012574582
195	0x3c0089b2	0.007845329
196	0xbc50ff4b	-0.012756179
197	0x3c6876d2	0.014188485
198	0x3cd29884	0.02570749
199	0xbc263397	-0.010144136
200	0xbcbb0799	-0.022830771
201	0x3ca6bba4	0.020353146
202	0xbc54b674	-0.012982953
203	0x3c85cbf9	0.016332613
204	0x3c8aaa2d	0.01692685
205	0xbc16d4b8	-0.00920599
206	0x3a111e7e	0.0005535855
207	0xbc2b84e8	-0.010468699
208	0x3caa7d90	0.020811826
209	0xbc95eb23	-0.018300598
210	0x3b22a22b	0.0024815898
211	0xbc652f52	-0.013988333
212	0x3ca368db	0.01994746
213	0x3c46ac04	0.012125973
214	0x3caefcd5	0.021360794
215	0xbc417994	-0.011808772
216	0x3c098ce8	0.008395411
217	0xbcadfde2	-0.021239225
218	0x3c71160c	0.014714729
219	0xbc0d44f2	-0.008622395
220	0x3c02dcd1	0.007987217
221	0x3c444fe9	0.011981943
222	0xbc80faea	-0.015744645
223	0x3c62342b	0.013806383
224	0xbc2da7e7	-0.010599113
225	0x3c2a8312	0.010407226
226	0xbbe12e07	-0.006871942
227	0x3b61a8b6	0.0034432835
228	0x3b8ead82	0.00435418
229	0x3caaa56d	0.020830834
230	0x3bf83170	0.007574253
231	0x3bb98f8b	0.0056628636
232	0xbb31dc0d	-0.0027139217
233	0xbcc1ce67	-0.02365799
234	0xbc4cdb64	-0.012503479
235	0xbbffa551	-0.0078016897
236	0x3c317927	0.010832108
237	0x38dd3bf5	0.00010549269
238	0x3c1307ec	0.008974057
239	0xbc6e10f1	-0.014530406
240	0xbcc8f6a3	-0.024531668
241	0x3c27260b	0.010201941
242	0x3c74df5f	0.014945834
243	0x3c62d56c	0.013844829
244	0x3c97ff22	0.018554274
245	0xbcc18d3f	-0.023626922
246	0x3c10b89b	0.008833076
247	0x3cb174ac	0.021662079
248	0xbc415e4a	-0.011802265
249	0x3c4687b7	0.012117318
250	0x3c4ee4a1	0.012627752
251	0x3ba37b69	0.004989077
252	0xbcc6b0b3	-0.024254179
253	0x3c3a0699	0.011354112
254	0x3cb4e2ad	0.022080744
255	0xbb75d3c5	-0.0037510258

conv2.bias f4 [32]
0	0xbc560f2e	-0.013065143
1	0xbcafb392	-0.02144793
2	0xbca571b5	-0.020195821
3	0x3c963a14	0.01833824
4	0xbc33e22d	-0.0109792175
5	0x3b89a105	0.004200103
6	0x3c7e78b6	0.015531709
7	0x3c6478c7	0.013944811
8	0x3c9153c1	0.017740132
9	0xbb882100	-0.0041543245
10	0x3a8fbc09	0.0010966073
11	0x3c79af75	0.015239586
12	0xbac03ae7	-0.0014665992
13	0xbc5cba16	-0.013472101
14	0xba8591fa	-0.0010190599
15	0x3c837f6b	0.016051969
16	0x3ca55dbc	0.020186298
17	0x3b17cd93	0.0023163303
18	0xbb9ca6cd	-0.0047806264
19	0xbcb42894	-0.021992005
20	0xbc454ee0	-0.012042731
21	0x3be45ae1	0.0069688414
22	0x3a948d60	0.0011333637
23	0x3c8dbf9d	0.017303282
24	0x3b98b079	0.004659709
25	0x3c2d715f	0.010586112
26	0x3c89d494	0.016824998
27	0x3c69849a	0.014252806
28	0xbb94e9aa	-0.0045444565
29	0x3c765625	0.015035187
30	0x3cbe4e4e	0.023230698
31	0x3c0dd948	0.008657761

conv3.weight f4 [1, 32, 5, 5]
0	0xbc82e31e	-0.015977439
1	0x3d11c100	0.03558445
2	0x3ce2092a	0.02759226
3	0xbc8f6357	-0.017503424
4	0x3cf744ad	0.030184114
5	0x3c78d6fb	0.015187974
6	0x3cfcd40e	0.030862834
7	0xbb4838fa	-0.0030551539
8	0xbcd9a020	-0.026565611
9	0xbc3b387e	-0.011427043
10	0x3ceeee67	0.029166413
11	0xbbf2e64a	-0.0074127065
12	0x3ccb9b9e	0.024854477
13	0x3c6df675	0.014524092
14	0xbbedaf92	-0.0072535956
15	0x3c660424	0.014039073
16	0x3cdeed2a	0.027212698
17	0x3cdcc23f	0.026948093
18	0xbcd491db	-0.025948456
19	0xbca7f36c	-0.020501815
20	0x3c110554	0.008851368
21	0xbcd781c7	-0.026307
22	0xbcf27445	-0.029596457
23	0x3c510577	0.012757651
24	0xbbb89d6e	-0.0056340015
25	0xbc17a5a5	-0.009255801
26	0x3c5509eb	0.013002853
27	0xbd0d726c	-0.03453295
28	0x3ab476fb	0.0013768369
29	0xbc874a69	-0.016514974
30	0xbcfb1979	-0.030651795
31	0x3c26d621	0.010182888
32	0x3b936726	0.0044983802
33	0xbc8e38b0	-0.017361015
34	0x3c0415d9	0.0080618495
35	0xbccc30db	-0.02492564
36	0x3d09f86f	0.03368419
37	0x3c3d9971	0.011572228
38	0xbbc10da5	-0.005891519
39	0xbc3ed1ae	-0.011646671
40	0x3d05362d	0.03252237
41	0xbd07a2d8	-0.033114284
42	0xbbfdf316	-0.0077499254
43	0x3c9ef8b3	0.019405698
44	0x3c3de5b3	0.011590409
45	0x3c71ada2	0.01475087
46	0xbcb2b912	-0.021816764
47	0x3d05362c	0.032522365
48	0x3be8f8e9	0.0071097505
49	0xbce2c435	-0.02768145
50	0x3cdf0eec	0.027228795
51	0x3d0559b3	0.032556247
52	0x3d235d86	0.039884113
53	0x3c1fa6af	0.00974433
54	0xbca4d44f	-0.020120768
55	0x3c2c0704	0.0104997195
56	0xbcf2ac0d	-0.029623056
57	0xbc7a9bd9	-0.015295946
58	0xbc114cb4	-0.008868385
59	0xbbd9ec9c	-0.0066505205
60	0xbc11e736	-0.008905223
61	0x3ab74883	0.0013983402
62	0x3c24cda0	0.01005879
63	0x3cc424bf	0.023943303
64	0x3b5e841d	0.0033953257
65	0x3ce1b94b	0.027554175
66	0x3c67caf8	0.014147513
67	0x3d101b31	0.03518218
68	0x3c7681f7	0.0150456345
69	0x3c9e0312	0.019288573
70	0x3cbce42f	0.023058025
71	0xbb995c9b	-0.004680229
72	0xbabd3ffd	-0.0014438626
73	0xbd013a70	-0.03154987
74	0xbb292cd5	-0.0025814075
75	0xbcbd4ccb	-0.023107907
76	0xbac6b1e0	-0.0015159212
77	0x3cc94158	0.024567291
78	0x3d077f1d	0.03308021
79	0xbcad4941	-0.021153094
80	0xbb01b37f	-0.0019790826
81	0x3adf3e52	0.0017032123
82	0x3cd6b2e4	0.026208349
83	0xbc322b43	-0.010874572
84	0xbb7b892f	-0.0038381328
85	0x39139370	0.00014073937
86	0x3c6484a3	0.013947639
87	0x3c927c9c	0.017881684
88	0x3d16c2ff	0.036807057
89	0x3d06713b	0.03282283
90	0x3c150429	0.00909523
91	0xbd08bb30	-0.03338164
92	0x3d053b54	0.032527283
93	0x3c427487	0.011868603
94	0x3c89c7cc	0.016818903
95	0xbd081246	-0.033220552
96	0x3ce01241	0.027352454
97	0x3a8e5eaf	0.0010861958
98	0xbd005ecd	-0.03134041
99	0x3cb1c4f3	0.021700358
100	0xbcdc72b8	-0.02691017
101	0xbca79300	-0.020455837
102	0x3c90d04b	0.017677447
103	0x3c5bf575	0.013425221
104	0x3b7998ce	0.0038085463
105	0x3d01e2f9	0.0317106
106	0xbb5d05b0	-0.0033725314
107	0x3c204bb3	0.009783673
108	0x3c9ab829	0.018886643
109	0x3cd1317b	0.02553629
110	0xbce0d2ef	-0.027444331
111	0x3c57b927	0.013166702
112	0x3cf86978	0.030323729
113	0x3b8f017a	0.0043641897
114	0x3b9a64aa	0.004711707
115	0xbc627a17	-0.013823054
116	0x3d1354cd	0.035969544
117	0x3cfe6966	0.031056117
118	0x3a3737a7	0.0006989189
119	0x3cade4ea	0.021227319
120	0x3d095a7e	0.033533566
121	0x3d058415	0.032596666
122	0x3c8c990f	0.017162828
123	0x3acf359c	0.0015808824
124	0x3b8ec1ca	0.0043565976
125	0xbbebf51a	-0.0072008492
126	0xbcc00fb1	-0.023444982
127	0x3cf39986	0.029736292
128	0xbc825357	-0.01590888
129	0x3bf5abb5	0.0074972757
130	0xbc858536	-0.016298871
131	0x3af969d9	0.0019028737
132	0x3c60cc23	0.013720545
133	0x3cf685d4	0.030093111
134	0x39a32adb	0.00031121713
135	0xbca87864	-0.02056522
136	0x3bbb9aeb	0.005725255
137	0xbcaca4d4	-0.02107469
138	0x3c47e331	0.012200163
139	0x3cee060e	0.029055621
140	0x3cfc0d01	0.03076792
141	0xbd0ff291	-0.03514344
142	0x3cbc7658	0.02300565
143	0xbc0003d5	-0.007813414
144	0x3ce12bbc	0.027486674
145	0x3cbc35aa	0.022974808
146	0xbcdc7290	-0.026910096
147	0xbb7f0a10	-0.003891591
148	0xbbe40146	-0.0069581596
149	0xbce68032	-0.0281373
150	0x3cc6a033	0.02424631
151	0x3cfeeee3	0.03111977
152	0xbcf05d25	-0.02934129
153	0xbbaa6a58	-0.0052006654
154	0xbc4714d5	-0.012150963
155	0x3c044006	0.008071905
156	0xbc3639b2	-0.011122154
157	0x3d19143c	0.037372813
158	0x3c24c3e8	0.010056473
159	0xbcfef36a	-0.031121928
160	0x3c10d262	0.008839222
161	0xbc02a9b8	-0.007975034
162	0xbc96f6ad	-0.018428171
163	0x3d15dcac	0.036587402
164	0x3cb1c3eb	0.021699866
165	0x3b105044	0.0022020498
166	0xb9d8d3ed	-0.00041356627
167	0x3a03ad50	0.0005023079
168	0xbbd9dc77	-0.006648596
169	0x3c1064c3	0.008813086
170	0x3c46bc4a	0.012129853
171	0x3cc3891f	0.023869095
172	0xbc82b2d6	-0.015954416
173	0x3c968e44	0.018378384
174	0xbcbbc271	-0.022919865
175	0x3c94cb3e	0.01816332
176	0x3cfe4059	0.031036543
177	0xbcd0bc57	-0.025480432
178	0xbc83f367	-0.016107274
179	0x3ca67652	0.020320091
180	0x3b85340e	0.0040650433
181	0x3caee7a8	0.021350697
182	0x3cfa08ec	0.030521832
183	0xbcce8be2	-0.025213186
184	0x3caeabe9	0.021322208
185	0x3c54484a	0.012956688
186	0x3b454bcc	0.0030104993
187	0xbc4adf43	-0.012382331
188	0x3b1e9439	0.0024197234
189	0xbc10d047	-0.00883872
190	0x3cb62420	0.022234023
191	0xbc8e90cb	-0.017403027
192	0xbca6cca4	-0.020361252
193	0xbb4c6126	-0.0031185835
194	0xbd00338c	-0.03129916
195	0xbb49b75a	-0.0030779452
196	0xbcd3ac3a	-0.02583896
197	0xbd0443fd	-0.0322914
198	0x38c20a50	9.252562e-05
199	0xbc8ed4ad	-0.017435396
200	0xbb2cd27b	-0.0026370573
201	0xbcb9837c	-0.022645704
202	0x3b843112	0.00403417
203	0x3c6bcf6c	0.014392715
204	0xbca1350e	-0.019678619
205	0xbc069f78	-0.008216731
206	0xbd072d8d	-0.033002425
207	0xbd05bc35	-0.03265019
208	0xbc83c41b	-0.016084721
209	0x3c71fd6e	0.014769895
210	0x3c8f9067	0.017524911
211	0xbcb1fd54	-0.021727242
212	0x3c88324e	0.01662555
213	0xbc8da018	-0.017288253
214	0x3d064ef5	0.032790143
215	0xbc0846df	-0.008317678
216	0xbbeeb2c0	-0.0072844923
217	0xbcca27aa	-0.024677116
218	0x3cec2c13	0.02882961
219	0x3cc271a6	0.023735832
220	0xbb88201b	-0.004154218
221	0x3c9d3186	0.019188654
222	0x3cb6f45d	0.022333318
223	0x3c83b762	0.016078655
224	0xbc937a42	-0.018002633
225	0x3c4bf483	0.012448433
226	0x3c80ee7b	0.015738716
227	0x3c2bb2d2	0.010479646
228	0xbad3fce3	-0.0016173389
229	0xbcce9ce8	-0.025221303
230	0x3d135177	0.035966363
231	0xbb724f66	-0.0036973595
232	0xbc98b204	-0.018639572
233	0xbb468852	-0.0030293656
234	0x3cb4c0a4	0.022064514
235	0xbc6cf98a	-0.014463792
236	0xb9e55d03	-0.00043747583
237	0x3a0e4f8a	0.00054287224
238	0xbb32af54	-0.0027265148
239	0x3cca5a5a	0.024701286
240	0xbc2328e1	-0.009958477
241	0x3ca225b9	0.019793378
242	0x3ce207a5	0.027591536
243	0x3d00d726	0.03145518
244	0x3d1292ef	0.035784658
245	0x3bac768f	0.0052631567
246	0x3cad6b61	0.021169366
247	0xbc158f7e	-0.0091284495
248	0xbcd6dacf	-0.026227383
249	0xbce65742	-0.02811778
250	0xbc860c46	-0.016363274
251	0xbb2afc7b	-0.0026090431
252	0x3cbeb94b	0.023281714
253	0x3c6ffaa1	0.014647157
254	0x3cee15d9	0.029063152
255	0xbccc5659	-0.024943518
