resutls/epoch_26.736.pth (torch, 231589 bytes, 5 tensors)

conv1.weight f4 [64, 1, 9, 9]
0.057324737 -0.04885183 -0.021058116 0.05256626 -0.104379736 0.0661547 -0.023116162 0.05668954
0.016138203 -0.013810852 0.030760305 0.005576376 0.040584452 -0.043272946 -0.008822057 -0.010736031
0.015947964 -0.00019729167 0.097578734 0.035325203 -0.040365603 -0.06619715 -0.017353313 -0.04782528
-0.03567557 0.005865822 0.0669266 0.06124072 -0.107682995 0.07002055 0.032773167 0.10668518
0.07363553 -0.101203814 -0.10520201 -0.052790094 0.09812103 -0.017264618 0.04911251 -0.049955428
0.110144325 -0.04700987 0.08299246 0.001326435 -0.058050964 0.057567164 -0.0580283 0.0339942
-0.030731611 -0.011083295 -0.10719023 -0.05378564 0.060063165 -0.026827762 0.11089637 0.089551814
-0.0038854014 -0.073401436 0.068318985 0.033953335 -0.072527215 0.07199851 0.06772068 0.09856261
-0.061332118 -0.017186418 -0.0010797832 0.016973203 -0.084928595 -0.07957181 0.060266487 -0.025816673
0.053676035 0.0063767377 0.03686817 0.024778673 0.04029826 0.053928904 -0.10408426 0.055333298
-0.078299396 -0.0875333 0.0033960855 -0.021829706 0.062728494 -0.065523624 -0.09981214 0.0794533
-0.01841239 0.059714302 0.032404117 -0.08675447 0.019681308 0.024736553 -0.07520721 -0.053155202
0.036904145 0.018157246 -0.049900148 -0.036933657 0.098373614 -0.023122238 0.060787853 0.047767084
-0.072315015 -0.09541869 0.10511821 0.0032040426 0.0736493 0.020937966 0.034343217 0.08218581
0.106208906 -0.0727245 0.014525058 0.08271739 0.0792194 0.06711825 -0.08218555 -0.08084097
-0.06709263 0.01611683 0.11293238 -0.068443604 0.060152583 -0.061827227 -0.104747094 -0.023298768
0.06510555 0.105491124 -0.06437724 0.029051734 0.100154966 0.07671077 0.07095664 0.07754991
0.0691788 0.028887628 -0.07467675 -0.08960479 -0.046995256 -0.0094974935 -0.06589788 0.04164794
0.03138366 -0.02787735 0.040837143 0.03536141 0.06921861 0.07660162 -0.036483984 0.108562276
-0.013796453 -0.007960066 -0.10915665 -0.075177774 -0.06745455 -0.048127066 0.078575484 -0.037084207
-0.084710404 0.040485222 0.03571743 0.07221994 -0.056861054 0.026134545 -0.03723611 -0.02428868
-0.089916855 -0.05162721 -0.03552306 0.048684176 0.021979716 0.029476294 0.11425974 0.11313455
0.07765345 0.0034209343 -0.07694445 0.08628151 -0.026386194 -0.0069469376 -0.09340515 -0.017530765
-0.06572751 0.10470529 -0.095863 -0.086360574 -0.004310775 -0.05911066 0.04146882 -0.04038944
-0.047787394 0.012103605 0.082834356 -0.07841396 0.051873107 0.0704099 0.10864033 -0.07721312
0.028425746 -0.078714766 0.100085445 -0.041416813 0.06566564 0.0018212383 -0.011032984 -0.004043483
0.019147307 0.05337453 0.020961268 0.038451515 -0.098919675 0.07959988 0.09551669 0.08966152
0.08146145 -0.08032841 -0.04052441 0.100430556 -0.0804308 0.101509504 -0.0889929 -0.07982847
0.05204015 -0.080779955 -0.025739621 0.08096009 0.09009933 0.1089664 -0.02170091 -0.0880385
0.10774807 -0.025733724 -0.047500864 0.02576022 -0.078533165 0.0737324 0.07181679 -0.08871978
-0.09363713 -0.011769672 0.044166386 -0.002677762 -0.056069143 0.0029475864 -0.104271695 -0.0783317
-0.07420654 0.09037095 0.09685907 -0.038942993 0.00565897 0.049958456 0.013817037 -0.05527494
00000000: 58cd 6a3d db18 48bd 1282 acbc b84f 573d
00000010: 0bc5 d5bd 1e7c 873d 1b5e bdbc 4b33 683d
00000020: 4434 843c e946 62bc 09fd fb3c 08ba b63b
00000030: e23b 263d f93e 31bd 648a 10bc 2ee6 2fbc
00000040: 4ea5 823c 14e0 4eb9 5cd7 c73d 29b1 103d
00000050: 6756 25bd 5f92 87bd 8928 8ebc 71e4 43bd
00000060: 8c20 12bd 1536 c03b d010 893d 8dd7 7a3d
00000070: e788 dcbd ef66 8f3d 283d 063d c27d da3d
00000080: 3ace 963d f243 cfbd 2774 d7bd 6d3a 58bd
00000090: aef3 c83d 876e 8dbc 332a 493d 109e 4cbd
000000a0: 5993 e13d 6c8d 40bd f3f7 a93d c6db ad3a
000000b0: d9c6 6dbd 8ccb 6b3d 15af 6dbd 813d 0b3d
000000c0: dcc0 fbbc b596 35bc 8d86 dbbd 554e 5cbd
000000d0: cb04 763d e5c5 dbbc a31d e33d f166 b73d
000000e0: 38a2 7ebb 7e53 96bd d3ea 8b3d a712 0b3d
000000f0: 2689 94bd f473 933d 24b1 8a3d 32db c93d
00000100: 6337 7bbd 88ca 8cbc 8387 8dba 630b 8b3c
00000110: 0bef adbd 8cf6 a2bd fed9 763d 7d7d d3bc
00000120: 67db 5b3d f4f3 d03b 1403 173d a5fc ca3c
00000130: ca0f 253d 8ee4 5c3d 212a d5bd 2ba5 623d
00000140: 6f5b a0bd a944 b3bd dc90 5e3b 36d4 b2bc
00000150: cc77 803d 4031 86bd 4f6a ccbd 69b8 a23d
00000160: 95d5 96bc fc96 743d 2eba 043d 54ac b1bd
00000170: b23a a13c 50a4 ca3c 3d06 9abd 45b9 59bd
00000180: cd28 173d 81be 943c 1964 4cbd bf47 17bd
00000190: 1b78 c93d d96a bdbc affc 783d 6ba7 433d
000001a0: e519 94bd e06a c3bd 3748 d73d eafa 513b
000001b0: 72d5 963d 1986 ab3c 79ab 0c3d 0951 a83d
000001c0: 0e84 d93d 95f0 94bd 82fa 6d3c bc67 a93d
000001d0: c83d a23d 4b75 893d e650 a8bd f38f a5bd
000001e0: dc67 89bd 7107 843c 1749 e73d 292c 8cbd
000001f0: 8e62 763d 8c3e 7dbd a585 d6bd 0fdd bebc
00000200: 0f56 853d bb0b d83d 37d8 83bd e7fd ed3c
00000210: 0c1e cd3d 891a 9d3d b751 913d 7dd2 9e3d
00000220: 9dad 8d3d bfa5 ec3c 20f0 98bd b782 b7bd
00000230: 197e 40bd 609b 1bbc 78f5 86bd 0897 2a3d
00000240: 278c 003d 0a5f e4bc d944 273d 20d7 103d
00000250: 7dc2 8d3d 4fe1 9c3d 3b70 15bd e655 de3d
00000260: 850a 62bc f06a 02bc 868d dfbd cef6 99bd
00000270: 9c25 8abd e320 45bd 2fec a03d 9ce5 17bd
00000280: a67c adbd d5d3 253d 714c 123d 0ce8 933d
00000290: 23e7 68bd 1d18 d63c e484 18bd 0ef9 c6bc
000002a0: 5426 b8bd 0e77 53bd a180 11bd 0f69 473d
000002b0: ce0e b43c 4578 f13c 0301 ea3d 16b3 e73d
000002c0: c608 9f3d c131 603b 0d95 9dbd 5cb4 b03d
000002d0: dc27 d8bc 23a3 e3bb 334b bfbd ae9c 8fbc
000002e0: 259c 86bd ba6f d63d d253 c4bd d0dd b0bd
000002f0: 6741 8dbb 051e 72bd 36db 293d 666f 25bd
00000300: b7bc 43bd 334e 463c 0fa5 a93d 8097 a0bd
00000310: e578 543d 1133 903d d27e de3d ea21 9ebd
00000320: 1cdd e83c 3535 a1bd 99f9 cc3d ada4 29bd
00000330: b57b 863d 9eb6 ee3a b0c3 34bc 327f 84bb
00000340: d0da 9c3c 409f 5a3d f7b6 ab3c 567f 1d3d
00000350: 6696 cabd 4305 a33d 419e c33d 76a0 b73d
00000360: 43d5 a63d 3983 a4bd ecfc 25bd 89ae cd3d
00000370: e7b8 a4bd 37e4 cf3d e941 b6bd 1c7d a3bd
00000380: 0d28 553d f66f a5bd e6db d2bc 67ce a53d
00000390: ff85 b83d c729 df3d 1bc6 b1bc 874d b4bd
000003a0: 05ab dc3d 88cf d2bc 4490 42bd 1907 d33c
000003b0: ffd5 a0bd 0301 973d ae14 933d b7b2 b5bd
000003c0: d3c4 bfbd 95d5 40bc d0e7 343d 647d 2fbb
000003d0: c2a8 65bd 4b2c 413b 668c d5bd 5f6c a0bd
000003e0: 99f9 97bd 6814 b93d 0c5e c63d b082 1fbd
000003f0: e26e b93b 3da1 4c3d db60 623c fa67 62bd

conv1.bias f4 [64]
-0.053054575 0.022545943 -0.0704199 -0.042272102 0.07902797 0.042224202 0.08149292 -0.022415435
0.10240825 0.07808722 0.06364194 0.053977724 -0.09505936 -0.055512294 0.005207094 0.03533327
0.122026466 0.09355864 -0.048298817 0.058116805 0.04227096 -0.055059455 -0.107389875 0.04707247
0.010463434 0.032431524 0.075365245 -0.032768704 -0.04265875 0.032483425 -0.04306927 -0.065269984
-0.10417827 -0.08887819 -0.009450894 0.09525672 -0.07003658 0.028089236 0.06496102 0.020439984
-0.0029784592 0.08527351 -0.10351184 0.094930984 0.09163191 0.09601726 0.08416176 -0.007352353
-0.08489062 -0.070110664 -0.08666748 -0.06648645 -0.09901086 0.07402204 0.04336415 -0.048161283
0.009633454 0.014901772 0.0026389104 0.070253804 0.044093654 -0.0878445 0.105088696 -0.044374533
00000000: c14f 59bd 45b2 b83c 4f38 90bd 8325 2dbd
00000010: 6bd9 a13d 49f3 2c3d c3e5 a63d 93a0 b7bc
00000020: 6bbb d13d 31ec 9f3d b556 823d bf17 5d3d
00000030: 7bae c2bd dc60 63bd 45a0 aa3b 9eb9 103d
00000040: 03e9 f93d ac9b bf3d fbd4 45bd e30b 6e3d
00000050: 5024 2d3d 0686 61bd 39ef dbbd 10cf 403d
00000060: d36e 2b3c ebd6 043d 1859 9a3d 7a38 06bd
00000070: f1ba 2ebd 570d 053d 6769 30bd 45ac 85bd
00000080: 6b5b d5bd c505 b6bd ecd7 1abc f515 c33d
00000090: 576f 8fbd 661b e63c 490a 853d c171 a73c
000000a0: 4132 43bb e1a3 ae3d 04fe d3bd 2d6b c23d
000000b0: 83a9 bb3d b2a4 c43d 005d ac3d 02ec f0bb
000000c0: 22db adbd 2e96 8fbd b87e b1bd 0c2a 88bd
000000d0: 35c6 cabd de98 973d 9b9e 313d c444 45bd
000000e0: a2d5 1d3c 9026 743c 92f1 2c3b 3ae1 8f3d
000000f0: 8c9b 343d d1e7 b3bd be38 d73d 12c2 35bd

conv2.weight f4 [32, 64, 5, 5]
-0.0076791355 0.027346179 -0.012465688 -0.0028428244 0.0029950382 -0.020427587 0.019775089 0.021635702
-0.021544162 -0.0041127936 0.007375018 0.017338665 0.013294522 0.0010107643 0.022576692 -0.003954461
0.0021318365 -0.014398295 -0.01247902 -0.007947332 -0.021588592 -0.0024981436 0.006932152 -0.015255726
-0.021477161 0.025303489 -0.010085556 -0.018653488 -0.006580336 -0.012524356 -0.019040527 -0.0008848992
-0.009974282 -0.006567615 0.011566005 0.005608132 0.022788802 -0.024150869 0.022232676 0.013220266
-0.0022116764 0.019308243 0.024135537 0.0027741173 0.0062921164 -0.0037328545 -0.0012007481 -0.0019078447
-0.013669093 0.0025412184 -0.0103166485 0.012123973 0.0042592995 -0.017203953 0.023685243 0.00966621
0.013093901 -0.022336444 0.025709547 0.010798458 -0.00027419848 -0.01568103 0.0066893287 0.012991172
0.009945361 0.01903914 -0.022970855 -0.018779678 0.026013507 0.021748984 -0.0015764111 0.013446742
0.018094346 0.019002808 -0.0122605115 -0.009232297 -0.012892111 -0.0060222996 0.024443462 0.00013919188
-0.01987162 0.01918373 0.010891736 0.0053421627 -0.012241007 0.018376248 -0.019887684 0.013652639
-0.0014570412 -0.007925469 -0.022261359 0.003914293 -0.010538469 -0.008312097 0.015257856 -0.01570924
0.024176834 0.021812713 0.02005931 0.0038931605 -0.020976562 -0.008341335 -0.013957059 -0.0050124656
-0.024454052 -0.01264603 -0.0065107485 -0.0013353203 -0.0075059184 0.0043245163 -0.013013312 -0.017197112
-0.017393626 0.024082357 0.015643507 -0.021039857 -0.020901648 0.00010634866 -0.012169502 0.009523016
-0.0095985 0.0009964529 -0.0070955697 -0.01994836 -0.0028805223 0.027421776 0.02382869 -0.012601586
0.0108531555 0.022003368 0.007398278 0.0035360295 0.027675794 0.005649425 -0.0026898787 0.028317818
0.016059173 -0.009780994 0.0235158 0.022119822 0.024761274 -0.006854923 -0.004052457 0.020450026
0.019721154 -0.017150443 0.024014594 0.015711823 0.009783049 -0.008053768 -0.0035312637 0.015012572
0.0038142677 0.019637546 -0.015668646 -0.009040257 -0.0031469413 0.00990146 0.00847665 0.013022397
-0.014081495 -0.004703467 0.009503438 -0.011278542 0.017677361 0.017442795 0.013625462 0.013113077
0.014867915 -0.021367854 -0.007854116 0.018555436 -0.010593738 0.0018332229 -0.008752281 0.009118467
0.0017236426 -0.0006381277 0.009618299 0.025165642 0.009754505 -0.0018655802 0.026685141 -0.006306545
0.008333637 0.011081998 0.014144623 0.022661224 0.013352295 0.0013003974 0.018260138 0.007230718
0.00029213508 0.008488529 -0.013326884 0.008358604 -0.012754206 0.013941672 0.02511292 -0.011081398
-0.022881016 0.020329893 -0.013011035 0.016329352 0.01692059 -0.009336218 0.00052654283 -0.010405832
0.020810863 -0.018304937 0.002390641 -0.01395758 0.019990558 0.012174142 0.021355055 -0.011882
0.0083905915 -0.021238338 0.014705183 -0.00867373 0.007918892 0.011962288 -0.01574613 0.013772663
-0.010679106 0.010589756 -0.006649774 0.0035025682 0.004178019 0.020399245 0.0077262796 0.0058501693
-0.002744586 -0.024039328 -0.013239085 -0.007470655 0.011113874 5.5555334e-05 0.0084255 -0.015558139
-0.02416403 0.010451987 0.01478608 0.013089536 0.017205874 -0.023206016 0.009087721 0.02148092
-0.012600968 0.010739092 0.01255704 0.0048750737 -0.024273306 0.011226636 0.02205107 -0.003863966
00000000: 42a1 fbbb 1805 e03c e33c 4cbc ae4e 3abb
00000010: 6748 443b c157 a7bc 5eff a13c 5b3d b13c
00000020: 627d b0bc 9dc4 86bb 23aa f13b d109 8e3c
00000030: 44d1 593c 9f7b 843a c1f2 b83c 6c94 81bb
00000040: 48b6 0b3b d4e6 6bbc ce74 4cbc 8735 02bc
00000050: 8fda b0bc e5b7 23bb 1b27 e33b 27f3 79bc
00000060: dff0 afbc 4349 cf3c e33d 25bc 33cf 98bc
00000070: dc9f d7bb f532 4dbc e1fa 9bbc 94f8 67ba
00000080: 2c6b 23bc 2635 d7bb 577f 3d3c 6cc4 b73b
00000090: 95af ba3c 0bd8 c5bc 4d21 b63c d199 583c
000000a0: c6f1 10bb 522c 9e3c e4b7 c53c f7cd 353b
000000b0: 192e ce3b e8a2 74bb 6c62 9dba a510 faba
000000c0: 55f4 5fbc 928a 263b 2907 29bc a1a3 463c
000000d0: 9891 8b3b 4eef 8cbc 8e07 c23c 065f 1e3c
000000e0: cd87 563c ebfa b6bc d49c d23c 04ec 303c
000000f0: 4cc2 8fb9 8175 80bc 2832 db3b edd8 543c
00000100: def1 223c f8f7 9b3c 602d bcbc d7d7 99bc
00000110: 471a d53c ed2a b23c 949f ceba b94f 5c3c
00000120: 983a 943c c7ab 9b3c 50e0 48bc 0f43 17bc
00000130: 6f39 53bc b656 c5bb a83d c83c 09f4 1139
00000140: cfc9 a2bc 3327 9d3c 4073 323c 4f0d af3b
00000150: 818e 48bc c989 963c 7feb a2bc 52af 5f3c
00000160: 31fa beba d4d9 01bc 745d b6bc 7843 803b
00000170: 8ba9 2cbc 762f 08bc 16fc 793c aab0 80bc
00000180: 7f0e c63c 93b0 b23c 6c53 a43c 6524 7f3b
00000190: 0ad7 abbc 18aa 08bc 26ac 64bc 9c3f a4bb
000001a0: dd53 c8bc 4b31 4fbc 1e58 d5bb ea05 afba
000001b0: 35f4 f5bb acb4 8d3b c935 55bc f5e0 8cbc
000001c0: 147d 8ebc 5d48 c53c d026 803c c75b acbc
000001d0: ef39 abbc 8107 df38 9762 47bc 6d06 1c3c
000001e0: 0743 1dbc 699b 823a f481 e8bb be6a a3bc
000001f0: 25c7 3cbb a2a3 e03c 6334 c33c e276 4ebc
00000200: 6fd1 313c 6840 b43c 416d f23b bbbc 673b
00000210: 59b8 e23c d01e b93b ad48 30bb c5fa e73c
00000220: 878e 833c 7640 20bc 35a4 c03c a134 b53c
00000230: 28d8 ca3c 439f e0bb 79ca 84bb d086 a73c
00000240: 428e a13c 167f 8cbc 41ba c43c 15b6 803c
00000250: 1549 203c f4f3 03bc c66c 67bb 4af7 753c
00000260: cbf8 793b ebde a03c 885b 80bc 961d 14bc
00000270: ea3c 4ebb bc39 223c a6e1 0a3c e45b 553c
00000280: 12b6 66bc 8a1f 9abb 4fb4 1b3c a2c9 38bc
00000290: 1dd0 903c 31e4 8e3c 543d 5f3c 3bd8 563c
000002a0: 8e98 733c a30b afbc 8dae 00bc 9201 983c
000002b0: 5c91 2dbc c148 f03a ba65 0fbc 9f65 153c
000002c0: d9eb e13a 0648 27ba 1296 1d3c 2d28 ce3c
000002d0: 5cd1 1f3c 7c86 f4ba cc9a da3c 22a7 cebb
000002e0: cf89 083c 4591 353c d9be 673c 08a4 b93c
000002f0: 96c3 5a3c 1972 aa3a 4996 953c a9ef ec3b
00000300: b529 9939 7913 0b3c 0159 5abc 87f2 083c
00000310: 04f7 50bc 9c6b 643c 9cb9 cd3c c18e 35bc
00000320: f870 bbbc e08a a63c 3c2c 55bc 22c5 853c
00000330: 0d9d 8a3c f0f6 18bc b107 0a3a 397d 2abc
00000340: 8b7b aa3c 3cf4 95bc 4dac 1c3b 55ae 64bc
00000350: 3dc3 a33c 0d76 473c ccf0 ae3c b8ac 42bc
00000360: b178 093c 06fc adbc 02ee 703c 431c 0ebc
00000370: 3ebe 013c 79fd 433c 07fe 80bc bca6 613c
00000380: 6bf7 2ebc a880 2d3c 59e6 d9bb 588b 653b
00000390: c3e7 883b 511c a73c bb2c fd3b c7b2 bf3b
000003a0: 83de 33bb 20ee c4bc bfe8 58bc 65cc f4bb
000003b0: f716 363c 1604 6938 1c0b 0a3c 91e7 7ebc
000003c0: a5f3 c5bc d03e 2b3c 5141 723c 7e75 563c
000003d0: 55f3 8c3c 8b1a bebc aae4 143c c1f8 af3c
000003e0: 4a74 4ebc 04f3 2f3c 0bbc 4d3c 15bf 9f3b
000003f0: d0d8 c6bc edef 373c 72a4 b43c 983a 7dbb

conv2.bias f4 [32]
-0.012931917 -0.021622282 -0.020826934 0.02005 -0.009268033 0.005378899 0.014738095 0.014033423
0.017917173 -0.004557714 0.000996694 0.017380303 0.00022751561 -0.01222869 -0.001115197 0.015150401
0.020457536 0.0026639877 -0.004186797 -0.022427965 -0.011415507 0.006206714 0.0024844846 0.019105118
0.0059845275 0.009850596 0.016722934 0.013256918 -0.0045028357 0.01681284 0.023753282 0.0077722995
00000000: 64e0 53bc 3621 b1bc 3f9d aabc e63f a43c
00000010: f3d8 17bc 7a41 b03b 0d78 713c 71ec 653c
00000020: 09c7 923c e058 95bb 80a3 823a 2361 8e3c
00000030: 4291 6e39 d85a 48bc cd2b 92ba 6339 783c
00000040: 9096 a73c 4c96 2e3b 6631 89bb daba b7bc
00000050: 1b08 3bbc b161 cb3b bcd2 223b 5682 9c3c
00000060: db19 c43b 6564 213c 89fe 883c 8b33 593c
00000070: 868c 93bb 15bb 893c 3e96 c23c c6ae fe3b

conv3.weight f4 [1, 32, 5, 5]
-0.015818013 0.03579795 0.028061425 -0.017692469 0.030010419 0.015234954 0.031007955 -0.0026359302
-0.026871704 -0.011759561 0.02927451 -0.007206058 0.025307503 0.014174835 -0.007643065 0.013768314
0.026961403 0.026880298 -0.0267433 -0.02123081 0.008437384 -0.026779713 -0.02994656 0.0117834145
-0.0063955323 -0.009255801 0.012984558 -0.03453295 0.001414809 -0.016514974 -0.030651795 0.010163587
0.0044983802 -0.017361015 0.0080618495 -0.02492564 0.03368419 0.011572228 -0.0058698533 -0.011646671
0.03252237 -0.033114284 -0.007749927 0.019405698 0.011590409 0.01475087 -0.021816764 0.032522365
0.007112688 -0.02768145 0.027352702 0.032826234 0.040356547 0.0096844975 -0.02033212 0.010642175
-0.029243024 -0.01469119 -0.008843387 -0.006862092 -0.008659368 0.0019346187 0.010857902 0.024120823
0.003288767 0.027712507 0.014578877 0.035882805 0.015158836 0.019179415 0.023042832 -0.00447921
-0.0010031783 -0.031573985 -0.002687711 -0.023441095 -0.0016191201 0.024819875 0.033134878 -0.021026097
-0.0020761811 0.0018705678 0.0267804 -0.010489369 -0.0034481946 0.00011639805 0.014219878 0.018610429
0.037324067 0.033312008 0.008693115 -0.033470493 0.032809623 0.012034268 0.016998915 -0.033727426
0.027175698 0.0013299861 -0.031172872 0.02196365 -0.027282892 -0.02061233 0.018166836 0.013649638
0.003971842 0.031583056 -0.0032676891 0.010572981 0.019345233 0.025825553 -0.027623257 0.013332817
0.031175185 0.004770749 0.004822002 -0.014063691 0.03599116 0.031667627 0.0007614633 0.02095705
0.033352226 0.032567725 0.017570952 0.0014252444 0.003900205 -0.0072181523 -0.02352624 0.029749207
-0.015906302 0.0076226667 -0.016254637 0.0019101507 0.01390769 0.03019004 0.00048144103 -0.020563576
0.005696566 -0.020945726 0.012284786 0.02909854 0.030401353 -0.035505112 0.022725847 -0.008178731
0.027090695 0.022700815 -0.027318384 -0.004220403 -0.0073865796 -0.028586822 0.0242984 0.031028436
-0.029135313 -0.005139669 -0.012296342 0.008219179 -0.011126505 0.0375811 0.010176502 -0.031213487
0.009049492 -0.007923531 -0.018067544 0.03668148 0.021653134 0.0020929736 -0.0007023671 0.0004824371
-0.0068143606 0.008483387 0.012068001 0.023617843 -0.01594892 0.018273495 -0.023142276 0.01816331
0.030971473 -0.025481304 -0.016107338 0.020278342 0.004084065 0.021300279 0.030520823 -0.02521325
0.021286355 0.013019947 0.0028909058 -0.012436082 0.0023388707 -0.009056308 0.022241494 -0.017405095
-0.020361459 -0.0032204231 -0.03129916 -0.0029843224 -0.025843337 -0.0322914 -4.0203926e-05 -0.017647123
-0.0026370573 -0.022645704 0.00403417 0.014392715 -0.019678619 -0.008216731 -0.033002425 -0.03265019
-0.016084721 0.014769895 0.017524911 -0.021727242 0.01662555 -0.017288253 0.032790143 -0.008317678
-0.0072844923 -0.024677116 0.02882961 0.023735832 -0.004154218 0.019188654 0.022333318 0.016078655
-0.018002633 0.012448433 0.015738716 0.010479646 -0.0015788861 -0.025221303 0.035966363 -0.0035620765
-0.018562475 -0.0028569854 0.022091856 -0.014335974 -0.00029857556 0.0007269334 -0.002539781 0.02478545
-0.0101133175 0.019771539 0.02758888 0.03145518 0.035784658 0.005062033 0.02102347 -0.009347109
-0.026349181 -0.028226407 -0.016558286 -0.002761946 0.023339015 0.014756791 0.029285014 -0.02517988
00000000: c794 81bc dfa0 123d 13e1 e53c ccef 90bc
00000010: 69d8 f53c 079c 793c 6504 fe3c 92bf 2cbb
00000020: 0c22 dcbc 2cab 40bc 19d1 ef3c cc20 ecbb
00000030: ae51 cf3c 913d 683c ad72 fabb 7f94 613c
00000040: 29de dc3c 1234 dc3c c414 dbbc 3cec adbc
00000050: f43c 0a3c 2161 dbbc 7d52 f5bc 390f 413c
00000060: 9d91 d1bb a5a5 17bc 2fbd 543c 6c72 0dbd
00000070: 1d71 b93a 694a 87bc 7919 fbbc 2c85 263c
00000080: 2667 933b b038 8ebc d915 043c db30 ccbc
00000090: 6ff8 093d 7199 3d3c e657 c0bb aed1 3ebc
000000a0: 2d36 053d d8a2 07bd 1af3 fdbb b3f8 9e3c
000000b0: b3e5 3d3c a2ad 713c 12b9 b2bc 2c36 053d
000000c0: 8d11 e93b 35c4 e2bc c612 e03c cd74 063d
000000d0: e84c 253d baab 1e3c 8c8f a6bc 845c 2e3c
000000e0: 118f efbc 51b3 70bc dae3 10bc 66db e0bb
000000f0: 06e0 0dbc 0893 fd3a 57e5 313c 0899 c53c
00000100: 5b88 573b 5705 e33c 3edc 6e3c d9f9 123d
00000110: c45c 783c 261e 9d3c 52c4 bc3c 56c6 92bb
00000120: 147d 83ba b953 01bd 4f24 30bb 8a07 c0bc
00000130: a838 d4ba 0d53 cb3c 70b8 073d ec3e acbc
00000140: 8a10 08bb d72d f53a 9262 db3c 9adb 2bbc
00000150: 1bfb 61bb ba1a f438 7efa 683c e674 983c
00000160: 1fe1 183d 2c72 083d 916d 0e3c 5b18 09bd
00000170: 6263 063d 612b 453c 4f41 8b3c c525 0abd
00000180: 929f de3c ee52 ae3a 405e ffbc 1ded b33c
00000190: 5f80 dfbc 30db a8bc 9ed2 943c bba2 5f3c
000001a0: 3a26 823b 3c5d 013d ba26 56bb 4c3a 2d3c
000001b0: e579 9e3c 1c90 d33c 2b4a e2bc e371 5a3c
000001c0: 1a63 ff3c f153 9c3b e201 9e3b 656b 66bc
000001d0: 776b 133d eab5 013d f09c 473a 1fae ab3c
000001e0: 589c 083d bc65 053d f5f0 8f3c 44cf ba3a
000001f0: 959a 7f3b 4086 ecbb 1aba c0bc 9cb4 f33c
00000200: ef4d 82bc 90c7 f93b 7228 85bc 065e fa3a
00000210: 14dd 633c 1a51 f73c ec69 fc39 f274 a8bc
00000220: 42aa ba3b 5f96 abbc 2146 493c 1060 ee3c
00000230: 420c f93c cf6d 11bd 8e2b ba3c 1600 06bc
00000240: 4eed dd3c 0ff7 b93c ceca dfbc 4e4b 8abb
00000250: 1f0b f2bb e92e eabc 700d c73c 592f fe3c
00000260: 2ead eebc ab6a a8bb 9976 49bc bca9 063c
00000270: f24b 36bc a4ee 193d 58bb 263c 6db3 ffbc
00000280: 5244 143c b3d1 01bc 6302 94bc 523f 163d
00000290: ea61 b13c 452a 093b 0f1f 38ba 9def fc39
000002a0: 004b dfbb e7fd 0a3c ddb8 453c 357a c13c
000002b0: 4fa7 82bc 4cb2 953c df94 bdbc 39cb 943c
000002c0: e3b7 fd3c 2bbe d0bc 89f3 83bc c41e a63c
000002d0: 9fd3 853b ec7d ae3c ce06 fa3c 058c cebc
000002e0: b960 ae3c 9e51 553c 5a75 3d3b b5c0 4bbc
000002f0: bd47 193b e960 14bc cb33 b63c 2195 8ebc
00000300: 13cd a6bc bc0d 53bb 8c33 00bd 9f94 43bb
00000310: 68b5 d3bc fd43 04bd a3a0 28b8 b390 90bc
00000320: 7bd2 2cbb 7c83 b9bc 1231 843b 6ccf 6b3c
00000330: 0e35 a1bc 789f 06bc 8d2d 07bd 35bc 05bd
00000340: 1bc4 83bc 6efd 713c 6790 8f3c 54fd b1bc
00000350: 4e32 883c 18a0 8dbc f54e 063d df46 08bc
00000360: c0b2 eebb aa27 cabc 132c ec3c a671 c23c
00000370: 1b20 88bb 8631 9d3c 5df4 b63c 62b7 833c
00000380: 427a 93bc 83f4 4b3c 7bee 803c d2b2 2b3c
00000390: a0f2 ceba e89c cebc 7751 133d ba71 69bb
000003a0: 5510 98bc 433c 3bbb fbf9 b43c 6fe1 6abc
000003b0: 228a 9cb9 ad8f 3e3a 7472 26bb db0a cb3c
000003c0: 54b2 25bc ecf7 a13c 1302 e23c 26d7 003d
000003d0: ef92 123d 69df a53b 6a39 ac3c 9e24 19bc
000003e0: 3dda d7bc 113b e7bc 3ea5 87bc c401 35bb
000003f0: 7631 bf3c 78c6 713c 20e7 ef3c 0946 cebc
