resutls/epoch_25.747.pth (torch, 231589 bytes, 5 tensors)

conv1.weight f4 [64, 1, 9, 9]
0	0x3d6981af	0.05700844
1	0xbd497cf9	-0.04919145
2	0xbcb0f5bc	-0.02160155
3	0x3d5597b9	0.052146647
4	0xbdd63b9d	-0.10460589
5	0x3d87827f	0.06616687
6	0xbcbf02b2	-0.023316715
7	0x3d671ba0	0.05642283
8	0x3c80a3ff	0.0157032
9	0xbc652f94	-0.013988394
10	0x3cfa3fc3	0.030547982
11	0x3bae4198	0.005317878
12	0x3d25cedf	0.04048049
13	0xbd31c9e9	-0.043405447
14	0xbc0ea6ac	-0.00870673
15	0xbc2e0d34	-0.010623265
16	0x3c81ae61	0.01583022
17	0xb9babbba	-0.00035616552
18	0x3dc762a6	0.097356126
19	0x3d0f1f07	0.0349417
20	0xbd277a63	-0.0408882
21	0xbd884afa	-0.06654926
22	0xbc942502	-0.018084053
23	0xbd445f8e	-0.04794269
24	0xbd122eed	-0.035689283
25	0x3bb603d0	0.0055546537
26	0x3d88d501	0.06681252
27	0x3d78e77e	0.060767643
28	0xbddd58f5	-0.10807983
29	0x3d8e72ea	0.06955512
30	0x3d022b3c	0.031779513
31	0x3dd948e1	0.10609604
32	0x3d965add	0.073415495
33	0xbdcf6aba	-0.10127778
34	0xbdd7d23b	-0.10538145
35	0xbd590fcf	-0.052993592
36	0x3dc8452a	0.09778817
37	0xbc945a08	-0.018109336
38	0x3d44f9b4	0.048089698
39	0xbd5115f0	-0.05104631
40	0x3de059aa	0.10954602
41	0xbd413ded	-0.047178198
42	0x3da9ffef	0.083007686
43	0x3aab6d22	0.0013078789
44	0xbd6e5512	-0.058186598
45	0x3d6a24e7	0.0571641
46	0xbd709ebf	-0.058745142
47	0x3d0759cc	0.03304462
48	0xbd01ccb2	-0.031689353
49	0xbc42a7d7	-0.011880836
50	0xbddb98e5	-0.10722522
51	0xbd5b2bc9	-0.053508554
52	0x3d7628a9	0.06009737
53	0xbcdbb823	-0.026821202
54	0x3de2bf88	0.11071688
55	0x3db6e008	0.08929449
56	0xbb9f00e3	-0.0048524006
57	0xbd97270e	-0.07380496
58	0x3d8b1502	0.06791116
59	0x3d0b61a0	0.03402865
60	0xbd943db5	-0.07238332
61	0x3d936e6f	0.07198798
62	0x3d8a9a74	0.06767741
63	0x3dc9bfaf	0.09851014
64	0xbd7e844e	-0.062137894
65	0xbc93aa76	-0.018025618
66	0xbaf6570a	-0.001879425
67	0x3c865c64	0.016401477
68	0xbdadb2e6	-0.08481388
69	0xbda29603	-0.07938769
70	0x3d7708f5	0.060311276
71	0xbcd32d0e	-0.02577832
72	0x3d5bde2f	0.053678688
73	0x3bc1c0ec	0.0059128907
74	0x3d14335a	0.036181785
75	0x3cc5e30f	0.024156122
76	0x3d240fcf	0.04005414
77	0x3d5dbb94	0.054133967
78	0xbdd4b015	-0.103851475
79	0x3d62f1a5	0.05540623
80	0xbda03c86	-0.07824044
81	0xbdb2a714	-0.08723274
82	0x3b5ab6a4	0.0033373022
83	0xbcb19bf0	-0.021680802
84	0x3d8100ea	0.062990025
85	0xbd8664dc	-0.06562206
86	0xbdcc969f	-0.09989666
87	0x3da30231	0.07959402
88	0xbc9308ea	-0.017948586
89	0x3d77abc1	0.06046653
90	0x3d0542bb	0.032534342
91	0xbdb12bdc	-0.08650944
92	0x3ca2899d	0.01984101
93	0x3cca7c1b	0.024717381
94	0xbd9a4686	-0.075329825
95	0xbd5b1aa6	-0.05349221
96	0x3d175ba1	0.03695262
97	0x3c998b7b	0.018743267
98	0xbd48bdc0	-0.049009085
99	0xbd1687e6	-0.036750697
100	0x3dca0d9c	0.09865877
101	0xbcbbbc50	-0.022916943
102	0x3d79229f	0.060824033
103	0x3d420bb5	0.047374446
104	0xbd943d65	-0.072382726
105	0xbdc30168	-0.095217526
106	0x3dd872f5	0.10568801
107	0x3b8a62f7	0.0042232233
108	0x3d974f84	0.07388213
109	0x3caa4657	0.020785494
110	0x3d0c80e2	0.0343026
111	0x3da84403	0.08216097
112	0x3dd867c9	0.105666704
113	0xbd95fbfa	-0.07323451
114	0x3c68d044	0.014209811
115	0x3da9e25f	0.0829513
116	0x3da3897b	0.07985207
117	0x3d8a1d18	0.067438304
118	0xbda7cf58	-0.081938446
119	0xbda53740	-0.08067179
120	0xbd89a08f	-0.06720077
121	0x3c7857fc	0.015157696
122	0x3de5b2d9	0.11215753
123	0xbd8d3119	-0.0689413
124	0x3d7660d4	0.060150936
125	0xbd7b0757	-0.061286297
126	0xbdd724bb	-0.10505053
127	0xbcc563ab	-0.024095377
128	0x3d83fdd5	0.06444899
129	0x3dd597d0	0.104293466
130	0xbd887291	-0.06662477
131	0x3cda9cda	0.02668612
132	0x3dc938d1	0.0982529
133	0x3d9af37f	0.075659744
134	0x3d905a37	0.07048457
135	0x3d9ee8cd	0.07759247
136	0x3d8d52e5	0.069005765
137	0x3ce7f4b8	0.028314933
138	0xbd9aec85	-0.07564644
139	0xbdbbe7c2	-0.09175064
140	0xbd4963c7	-0.04916742
141	0xbc3aa6cb	-0.011392306
142	0xbd890204	-0.066898376
143	0x3d2838bd	0.041069735
144	0x3d015362	0.03157366
145	0xbce4bf33	-0.027923202
146	0x3d26ff4f	0.040770825
147	0x3d0df210	0.034654677
148	0x3d8abb1c	0.067739695
149	0x3d9968c8	0.074906886
150	0xbd1aa901	-0.03775883
151	0x3ddd7445	0.10813192
152	0xbc653868	-0.013990499
153	0xbbfdc531	-0.0077444543
154	0xbdded611	-0.10880674
155	0xbd98f7b7	-0.07469123
156	0xbd8a30e5	-0.06747607
157	0xbd48c79e	-0.049018495
158	0x3d9f0831	0.07765234
159	0xbd1b05b6	-0.037847243
160	0xbdada499	-0.0847866
161	0x3d255d6c	0.040372297
162	0x3d104906	0.03522589
163	0x3d936395	0.07196728
164	0xbd695554	-0.05696614
165	0x3cd0525c	0.025429897
166	0xbd1ebd7f	-0.038754936
167	0xbccb2e2d	-0.024802292
168	0xbdb77815	-0.08958451
169	0xbd53aed8	-0.051680416
170	0xbd104235	-0.03521939
171	0x3d443c60	0.04790914
172	0x3cacbaa4	0.021085091
173	0x3cec00ec	0.028809033
174	0x3de7aae7	0.11311894
175	0x3de31b8a	0.11089237
176	0x3d9d41f1	0.07678593
177	0x3b56569c	0.0032705432
178	0xbd9e0ead	-0.07717643
179	0x3db0cdb7	0.08632987
180	0xbcdf61c4	-0.027268298
181	0xbc03ccfd	-0.0080444785
182	0xbdc0dd01	-0.09417153
183	0xbc9fbe93	-0.019500053
184	0xbd8cf75a	-0.06883116
185	0x3dd395db	0.10331317
186	0xbdc4ec24	-0.09615353
187	0xbdb1b82c	-0.08677706
188	0xbb885832	-0.0041609043
189	0xbd74dbee	-0.059780054
190	0x3d25ddf3	0.04049487
191	0xbd29948d	-0.041401435
192	0xbd4c665f	-0.049902316
193	0x3c12b8f1	0.008955226
194	0x3da6c2f1	0.08142651
195	0xbda0cea9	-0.07851917
196	0x3d53db84	0.05172302
197	0x3d90c9b5	0.070697226
198	0x3dde0d81	0.108424194
199	0xbd9eec4e	-0.07759915
200	0x3ce30135	0.027710536
201	0xbda4bc30	-0.080437064
202	0x3dc68a8f	0.09694397
203	0xbd2efeb3	-0.04272337
204	0x3d870384	0.065924674
205	0x3b1091ee	0.0022059637
206	0xbc236833	-0.0099735735
207	0xbb7e6e6f	-0.0038823148
208	0x3c9b7d2b	0.018980583
209	0x3d597af3	0.05309577
210	0x3c9f6204	0.019455917
211	0x3d12fb4e	0.035884194
212	0xbdcc195c	-0.099657744
213	0x3da3a0b8	0.07989639
214	0x3dc40f1e	0.09573196
215	0x3db954b1	0.09049357
216	0x3da71c65	0.08159713
217	0xbda47ea9	-0.08031971
218	0xbd26d2c3	-0.04072834
219	0x3dcb671c	0.09931776
220	0xbda9dd80	-0.08294201
221	0x3dce7732	0.100813285
222	0xbdb59be4	-0.088676244
223	0xbda317c3	-0.079635166
224	0x3d581c03	0.05276109
225	0xbda5235c	-0.08063385
226	0xbcd403f1	-0.025880786
227	0x3da5d9a1	0.0809815
228	0x3db65592	0.0890304
229	0x3dd9fe81	0.10644246
230	0xbcbaf39f	-0.022821246
231	0xbdb3ff74	-0.08788958
232	0x3ddcc6ca	0.107801035
233	0xbcd07317	-0.025445504
234	0xbd3ffa56	-0.0468696
235	0x3cd737e9	0.026271777
236	0xbd9fb2bd	-0.077977635
237	0x3d96ba15	0.07359711
238	0x3d9074e9	0.07053549
239	0xbdb5f44a	-0.08884485
240	0xbdbebe23	-0.093136095
241	0xbc3edc25	-0.011649166
242	0x3d36bdef	0.04461473
243	0xbb5db32e	-0.0033828723
244	0xbd6786a4	-0.056524888
245	0x3b1999d3	0.0023437634
246	0xbdd64788	-0.10462862
247	0xbda13181	-0.0787077
248	0xbd97e910	-0.074175
249	0x3db9e0be	0.09076069
250	0x3dc71fb2	0.09722842
251	0xbd1d8d77	-0.03846499
252	0x3b9f3d02	0.0048595676
253	0x3d4a6020	0.04940808
254	0x3c578035	0.0131531255
255	0xbd6486eb	-0.05579273

conv1.bias f4 [64]
0	0xbd5cb752	-0.053885765
1	0x3cc0f58a	0.023554582
2	0xbd96f8a5	-0.07371644
3	0xbd317f21	-0.04333413
4	0x3d9d9693	0.076947354
5	0x3d379334	0.04481812
6	0x3da67d79	0.08129401
7	0xbcc3ed8d	-0.023916984
8	0x3dd01e5f	0.10162043
9	0x3da082ea	0.0783747
10	0x3d71e41d	0.059055436
11	0x3d63b3c0	0.055591345
12	0xbdc2d92d	-0.09514079
13	0xbd718340	-0.05896306
14	0xba506e7b	-0.0007951033
15	0x3ce66adf	0.028127132
16	0x3df12e12	0.11776365
17	0x3dbddae1	0.092702635
18	0xbd4557b1	-0.048179332
19	0x3d7c711c	0.061631307
20	0x3d29021b	0.041261774
21	0xbd6dba68	-0.0580391
22	0xbddf30ed	-0.10898004
23	0x3d3ea8fc	0.046547875
24	0x3b99722d	0.0046828003
25	0x3ce191d6	0.02753536
26	0x3d967af5	0.07347671
27	0xbcfa45ec	-0.03055092
28	0xbd2ce5ec	-0.042211458
29	0x3cdd1818	0.026989028
30	0xbd306960	-0.043069243
31	0xbd85e3cc	-0.065375894
32	0xbde4379e	-0.11143421
33	0xbdbc61a7	-0.09198313
34	0xbbfdc133	-0.0077439784
35	0x3dbfe756	0.09370296
36	0xbd8f6f57	-0.07003658
37	0x3cdf20f2	0.02723739
38	0x3d837875	0.0641946
39	0x3c9305f4	0.017947175
40	0xbb66323a	-0.0035125152
41	0x3da9f567	0.0829876
42	0xbdd51dd6	-0.104060814
43	0x3dbd5e60	0.09246516
44	0x3dbac090	0.0911876
45	0x3dc23040	0.09481859
46	0x3da903eb	0.082527004
47	0xbbf0e7e8	-0.007351864
48	0xbdb60fd9	-0.088897415
49	0xbd8f971d	-0.070112444
50	0xbdbdd663	-0.09269407
51	0xbd89efe7	-0.06735211
52	0xbdcac643	-0.09901097
53	0x3d9a4e28	0.07534438
54	0x3d31cb2b	0.043406647
55	0xbd4544c4	-0.048161283
56	0x3b00107f	0.0019541082
57	0x3c3c80e3	0.011505338
58	0xba95d1f6	-0.0011430371
59	0x3d8ec665	0.069714345
60	0x3d3630e8	0.044480234
61	0xbdb147b3	-0.08656254
62	0x3dd298e8	0.10283071
63	0xbd2906a0	-0.041266084

conv2.weight f4 [32, 64, 5, 5]
0	0xbc0e2f38	-0.00867825
1	0x3cd92fed	0.02651211
2	0xbc5f32e0	-0.013622969
3	0xbb6e76f7	-0.0036386827
4	0x3b708846	0.003670232
5	0xbcaca9b9	-0.021077024
6	0x3c9f8a40	0.019475102
7	0x3cacf9b8	0.021115169
8	0xbcb1b379	-0.021692025
9	0xbb316415	-0.002706771
10	0x3bcc3979	0.006232437
11	0x3c87383f	0.016506312
12	0x3c4800ad	0.012207192
13	0x3997dc8d	0.00028965287
14	0x3cbfa15e	0.023392376
15	0xbb8fe5d4	-0.0043914113
16	0x3b00baf8	0.0019642692
17	0xbc73784e	-0.014860226
18	0xbc4dfa03	-0.0125718145
19	0xbbd5180a	-0.00650311
20	0xbcb4f345	-0.022088656
21	0xbb39c43d	-0.0028345727
22	0x3bcc2fac	0.006231269
23	0xbc7f25e1	-0.015572996
24	0xbca626a3	-0.020282095
25	0x3cc55469	0.024088101
26	0xbc29b71f	-0.010358601
27	0xbc959170	-0.018257827
28	0xbbc9975f	-0.006152078
29	0xbc433610	-0.011914745
30	0xbcacfff3	-0.02111814
31	0xbb02ac3c	-0.0019939085
32	0xbc2aaed3	-0.010417658
33	0xbbdfdeb5	-0.0068319687
34	0x3c3f9ae9	0.011694648
35	0x3b88158a	0.0041529583
36	0x3cb7b76f	0.022426335
37	0xbcc2afec	-0.023765527
38	0x3cbbe1bf	0.022934793
39	0x3c6c1492	0.014409201
40	0xbb75bf23	-0.003749796
41	0x3c9b5d31	0.018965336
42	0x3cc9db3a	0.024640668
43	0x3b6cb03f	0.0036115793
44	0x3bfc382c	0.007697126
45	0xbba039ba	-0.004889694
46	0xba997e3f	-0.0011710598
47	0xba825727	-0.0009944186
48	0xbc4d5140	-0.012531579
49	0x3b869af2	0.0041078264
50	0xbc2331cb	-0.009960602
51	0x3c515f7f	0.012779116
52	0x3b960228	0.0045778938
53	0xbc8d96fe	-0.017283913
54	0x3cc42bd7	0.023946686
55	0x3c1497f9	0.009069436
56	0x3c5210a0	0.0128213465
57	0xbcbd2259	-0.023087667
58	0x3cc8aeb2	0.024497364
59	0x3c236392	0.00997247
60	0xba066601	-0.0005126894
61	0xbc7fae9a	-0.015605593
62	0x3bd0a2bc	0.0063670557
63	0x3c4a25ec	0.012338143
64	0x3c1f40b0	0.009720013
65	0x3c9b0234	0.018921949
66	0xbcba4845	-0.022739539
67	0xbc99a6de	-0.018756326
68	0x3cd59ece	0.0260767
69	0x3cb6c54c	0.022310875
70	0xbae67088	-0.0017581144
71	0x3c5f2f05	0.01362205
72	0x3c95676f	0.018237798
73	0x3c9fd0e5	0.019508788
74	0xbc3697dd	-0.011144605
75	0xbc17223d	-0.009224472
76	0xbc553848	-0.013013907
77	0xbbd4d4fb	-0.006495116
78	0x3cc5af6a	0.024131496
79	0xb68bb766	-4.163873e-06
80	0xbca320d7	-0.01991312
81	0x3c9be487	0.019029869
82	0x3c286849	0.01027877
83	0x3b9c052a	0.004761358
84	0xbc4cf91c	-0.012510564
85	0x3c95a9c4	0.018269427
86	0xbca4a8ed	-0.020100081
87	0x3c548b30	0.012972638
88	0xbb0d91a2	-0.0021601696
89	0xbc0918b1	-0.008367703
90	0xbcb6f16a	-0.022331912
91	0x3b6f4ee3	0.0036515526
92	0xbc37dacc	-0.011221599
93	0xbc1479c2	-0.009062232
94	0x3c735d73	0.014853823
95	0xbc81609f	-0.015793143
96	0x3cc4578c	0.023967527
97	0x3cab7c6b	0.02093335
98	0x3c9ce0ed	0.019150222
99	0x3b5f9156	0.0034113727
100	0xbca7c742	-0.020480756
101	0xbbf0bcfe	-0.0073467484
102	0xbc51d056	-0.012806019
103	0xbb823121	-0.003973142
104	0xbcc2abd3	-0.023763573
105	0xbc46cdc9	-0.012134024
106	0xbbb30299	-0.005462956
107	0xb97f74fe	-0.00024362278
108	0xbbd3efa4	-0.0064677764
109	0x3ba91284	0.005159678
110	0xbc5a0d0b	-0.013308774
111	0xbc8ab83d	-0.016933555
112	0xbc8cfbab	-0.017209848
113	0x3cc70d64	0.024298377
114	0x3c81e25e	0.01585501
115	0xbcb0fa8e	-0.021603849
116	0xbcab4c1a	-0.020910311
117	0x38b4075d	8.5844404e-05
118	0xbc47b41c	-0.0121889375
119	0x3c1be9ab	0.00951616
120	0xbc1baa48	-0.009501047
121	0x3acd4953	0.0015662111
122	0xbbd1bc9c	-0.006400658
123	0xbc9e9d8d	-0.019362235
124	0xbb1fde9a	-0.0024394155
125	0x3ccfda53	0.02537266
126	0x3cb92070	0.022598475
127	0xbc5cefe8	-0.0134849325
128	0x3c27c5e6	0.010240054
129	0x3cb73e6b	0.02236863
130	0x3b9ca58f	0.0047804783
131	0x3ac5c891	0.0015089681
132	0x3cd36348	0.025804177
133	0x3b84e576	0.004055674
134	0xbb47bdce	-0.0030478123
135	0x3cd7e089	0.026352184
136	0x3c6d5e65	0.014487837
137	0xbc39e7bc	-0.011346754
138	0x3cb6354b	0.022242209
139	0x3cb5be6a	0.022185523
140	0x3cbba645	0.022906432
141	0xbc07670c	-0.008264314
142	0xbbb0518b	-0.0053808144
143	0x3c9ed794	0.019389905
144	0x3ca2342e	0.019800272
145	0xbc97a801	-0.018512728
146	0x3cbfb1a6	0.023400139
147	0x3c7cd440	0.015431464
148	0x3c1fc14b	0.0097506745
149	0xbbea0296	-0.0071414215
150	0xbb5d8baa	-0.003380517
151	0x3c77e98d	0.015131366
152	0x3b8220b3	0.003971183
153	0x3ca1785e	0.019710716
154	0xbc7f7306	-0.015591389
155	0xbc123d02	-0.008925678
156	0xbb440c6f	-0.0029914638
157	0x3c242381	0.01001823
158	0x3c0ce01c	0.008598354
159	0x3c577007	0.013149268
160	0xbc64ca25	-0.013964211
161	0xbb9522c1	-0.004551262
162	0x3c1d9eed	0.00962041
163	0xbc36d005	-0.011157994
164	0x3c917223	0.01775462
165	0x3c8f70dd	0.017509872
166	0x3c611e42	0.013740124
167	0x3c58abd9	0.013224565
168	0x3c757237	0.014980844
169	0xbcae6c95	-0.02129201
170	0xbbfdbc1a	-0.0077433707
171	0x3c988f4b	0.018623015
172	0xbc2bcaea	-0.01048539
173	0x3b01fc2c	0.0019834144
174	0xbc0d3574	-0.008618701
175	0x3ba42ada	0.005009991
176	0x38d85e14	0.00010317206
177	0xbacf629e	-0.0015822237
178	0x3c1ca8e3	0.00956175
179	0x3cd4ddfd	0.025984759
180	0x3bd12f73	0.00638383
181	0xbb35d6c8	-0.0027746428
182	0x3cd6851d	0.02618652
183	0xbbc6da4a	-0.0060685026
184	0x3c1e1c58	0.009650312
185	0x3bf10d9e	0.0073563596
186	0x3c51d605	0.012807374
187	0x3cb03e59	0.021514105
188	0x3c55d678	0.013051622
189	0x3b1b4da4	0.00236974
190	0x3c84624b	0.016160151
191	0x3bf93b69	0.007605959
192	0x3a873ac4	0.0010317196
193	0x3c2721b6	0.010200908
194	0xbc279185	-0.010227566
195	0x3bd419ed	0.006472817
196	0xbc46ba9f	-0.012129455
197	0x3c78e06c	0.015190225
198	0x3ce1b5df	0.027552543
199	0xbbee1f56	-0.007266919
200	0xbcb95cf5	-0.022627333
201	0x3ca78be4	0.020452447
202	0xbc5427fe	-0.012948988
203	0x3c86835c	0.016420059
204	0x3c8c1534	0.017099954
205	0xbc13fc66	-0.009032344
206	0x3a0f6afb	0.00054709584
207	0xbc2d5706	-0.01057983
208	0x3caa8471	0.020815106
209	0xbc94f917	-0.018185182
210	0x3b29a2aa	0.002588431
211	0xbc6705fb	-0.014100547
212	0x3ca1b92c	0.019741617
213	0x3c45f6f0	0.0120828
214	0x3cafa94d	0.021443034
215	0xbc3f71bd	-0.011684832
216	0x3c08f31e	0.008358745
217	0xbcaeddad	-0.021345938
218	0x3c7187b5	0.014741828
219	0xbc0b2041	-0.008491577
220	0x3c04f7ad	0.008115691
221	0x3c44b839	0.012006813
222	0xbc812de9	-0.015768962
223	0x3c63a159	0.013893449
224	0xbc2b0e8d	-0.010440481
225	0x3c2377e3	0.009977314
226	0xbbfac045	-0.007652315
227	0x3b2a908f	0.0026026105
228	0x3b81ef9d	0.0039653317
229	0x3caf0e16	0.021369021
230	0x3bebf829	0.007201214
231	0x3ba2400b	0.004951482
232	0xbb60ee76	-0.0034321821
233	0xbcc34e91	-0.023841174
234	0xbc3fd137	-0.011707596
235	0xbc0a70a5	-0.008449708
236	0x3c22bb1f	0.009932308
237	0xba3a7c5f	-0.00071138697
238	0x3c0f885b	0.008760537
239	0xbc60f564	-0.013730381
240	0xbccd11fd	-0.025032992
241	0x3c1b93bb	0.009495671
242	0x3c6b17ab	0.014348905
243	0x3c6359cf	0.0138763925
244	0x3ca13c2d	0.019682014
245	0xbcc69afb	-0.024243822
246	0x3c03dee8	0.00804875
247	0x3cabf2af	0.020989744
248	0xbc41bf4f	-0.011825397
249	0x3c5811a6	0.013187801
250	0x3c50e672	0.012750255
251	0x3ba80609	0.0051276726
252	0xbcc58753	-0.02411238
253	0x3c3c9cde	0.011512009
254	0x3cb63a0d	0.022244478
255	0xbb6d16c3	-0.0036176897

conv2.bias f4 [32]
0	0xbc87de66	-0.01658554
1	0xbcaed2cc	-0.02134075
2	0xbc9ff28e	-0.019524839
3	0x3c4ec528	0.012620248
4	0xbc76e82c	-0.0150700025
5	0x3a7b9b58	0.0009598038
6	0x3c854314	0.016267337
7	0x3c59ae04	0.013286117
8	0x3c8f4824	0.017490454
9	0xbb608a35	-0.0034262065
10	0x3ab82372	0.001404865
11	0x3c52a942	0.012857737
12	0xbb10e46f	-0.0022108813
13	0xbc62af9d	-0.013835815
14	0xba485538	-0.0007642093
15	0x3c8a3f78	0.016875967
16	0x3ca731f4	0.020409562
17	0x3b2887c8	0.0025715698
18	0xbba2ba7b	-0.004966078
19	0xbcb44d51	-0.022009524
20	0xbc599a39	-0.013281398
21	0x3c2881cd	0.010284853
22	0x39d390a1	0.00040352813
23	0x3c71f681	0.014768244
24	0x3a9b8296	0.0011864479
25	0x3c2fb654	0.010724623
26	0x3c876882	0.016529325
27	0x3c71e4be	0.014764009
28	0xbb96c1c8	-0.0046007372
29	0x3c37208f	0.011177196
30	0x3cb1a6d3	0.021685993
31	0x3c17841a	0.009247804

conv3.weight f4 [1, 32, 5, 5]
0	0xbc8d893b	-0.01727735
1	0x3d0daad1	0.03458673
2	0x3cd7abd2	0.026327047
3	0xbc8f48ff	-0.017490862
4	0x3cf7c039	0.030243026
5	0x3c69a3ba	0.014260227
6	0x3cf7ba51	0.03024021
7	0xbb81a6f7	-0.0039566713
8	0xbcd60105	-0.026123533
9	0xbc332a11	-0.010935322
10	0x3ce64fb9	0.028114187
11	0xbc05b3e8	-0.008160569
12	0x3cc36db7	0.023856027
13	0x3c74f59c	0.014951136
14	0xbbdd87ab	-0.0067605576
15	0x3c61d2fd	0.013783214
16	0x3cdfdc68	0.027326778
17	0x3cdc22f3	0.026872134
18	0xbcca556f	-0.024698941
19	0xbc9de915	-0.019276181
20	0x3c102205	0.008797173
21	0xbcd4ad9c	-0.02596169
22	0xbcf0c49c	-0.029390626
23	0x3c6811ad	0.0141643705
24	0xbb8ec272	-0.004356676
25	0xbc17d733	-0.009267616
26	0x3c571c36	0.013129285
27	0xbd0d7d81	-0.034543518
28	0x3aa7606e	0.0012769827
29	0xbc874a69	-0.016514974
30	0xbcfb3d7e	-0.03066897
31	0x3c28e444	0.010308329
32	0x3b9306ce	0.004486895
33	0xbc8eec94	-0.017446794
34	0x3c0415c4	0.00806183
35	0xbccc5c63	-0.024946397
36	0x3d0a4b10	0.03376299
37	0x3c3d56eb	0.011556367
38	0xbbc4c8c4	-0.0060053784
39	0xbc3ed1b8	-0.0116466805
40	0x3d052bbe	0.03251242
41	0xbd07482f	-0.033027824
42	0xbbfdeea1	-0.007749394
43	0x3c9e6a3d	0.019337768
44	0x3c3de59a	0.011590386
45	0x3c717bc5	0.014738982
46	0xbcb20f11	-0.0217357
47	0x3d05328f	0.03251892
48	0x3be63bdb	0.0070261783
49	0xbce2c435	-0.02768145
50	0x3cd73f24	0.026275225
51	0x3d00fe95	0.03149279
52	0x3d1e46f6	0.038641892
53	0x3c1e82c9	0.009674736
54	0xbca50061	-0.020141782
55	0x3c1fcd56	0.009753546
56	0xbcf9f3ea	-0.030511815
57	0xbc8619be	-0.016369697
58	0xbc0eea78	-0.008722894
59	0xbbd1bda3	-0.0064007803
60	0xbc234a05	-0.009966378
61	0x392b72a4	0.00016350538
62	0x3c0d4e88	0.00862468
63	0x3cc2c9ce	0.023777869
64	0x3b5cc96c	0.0033689393
65	0x3cdabaa9	0.026700335
66	0x3c579ab6	0.013159445
67	0x3d0b5f6c	0.03402655
68	0x3c7782b5	0.015106847
69	0x3c9f2cb9	0.019430505
70	0x3cb6a579	0.0222957
71	0xbbb56188	-0.0055353083
72	0xbb200972	-0.0024419692
73	0xbd00d2c8	-0.031451017
74	0xbb24519d	-0.002507306
75	0xbcba534c	-0.022744797
76	0xbac322df	-0.0014887712
77	0x3cc204e2	0.023683969
78	0x3d050530	0.03247565
79	0xbcb5169a	-0.022105504
80	0xbaf83706	-0.0018937297
81	0x3abbd071	0.0014329088
82	0x3ccca4d2	0.024980936
83	0xbc415c19	-0.011801743
84	0xbba6c732	-0.005089664
85	0xb931e299	-0.0001696445
86	0x3c595f72	0.013267385
87	0x3c84bbe6	0.016202878
88	0x3d114ce9	0.035473738
89	0x3cff8164	0.031189628
90	0x3c24937a	0.010044927
91	0xbd062d66	-0.03275814
92	0x3d040d8c	0.03223948
93	0x3c42136c	0.011845451
94	0x3c86bead	0.016448343
95	0xbd048663	-0.032354724
96	0x3ce45cd3	0.027876293
97	0x3a3f4eca	0.0007297812
98	0xbd00f34f	-0.031482037
99	0x3cad8dce	0.021185782
100	0xbcda5052	-0.026649628
101	0xbca7ff7f	-0.020507572
102	0x3c862aae	0.016377773
103	0x3c4ee8fe	0.012628792
104	0x3b524afd	0.0032088154
105	0x3d01a469	0.031650934
106	0xbb786602	-0.0037902598
107	0x3c048019	0.0080871815
108	0x3c914425	0.01773269
109	0x3cc9c4d9	0.024629997
110	0xbce30f86	-0.027717363
111	0x3c4cd576	0.012502065
112	0x3ce859d4	0.028363146
113	0x3b45aa8d	0.003016147
114	0x3b71c21f	0.0036889387
115	0xbc5f3751	-0.013624028
116	0x3d12ba78	0.03582236
117	0x3cf36238	0.02970992
118	0xb803f622	-3.1462063e-05
119	0x3caa4cac	0.020788513
120	0x3d0a0f7b	0.03370617
121	0x3d04ecc5	0.032452364
122	0x3c82231d	0.015885884
123	0x3a6d3959	0.0009049378
124	0x3b80f6ab	0.003935655
125	0xbc030958	-0.007997833
126	0xbcc5a82b	-0.02412804
127	0x3cece753	0.028918898
128	0xbc8886f5	-0.016665915
129	0x3bd7af25	0.006582158
130	0xbc8e5ae1	-0.017377319
131	0x3a6d500b	0.000905276
132	0x3c4dadc7	0.012553639
133	0x3cedbeb4	0.029021598
134	0xba5ff078	-0.00085426075
135	0xbcaf0455	-0.02136437
136	0x3ba3f819	0.005003941
137	0xbcb3eeb5	-0.02196441
138	0x3c3b4333	0.011429596
139	0x3ce733cb	0.028222939
140	0x3cff322b	0.031151852
141	0xbd0dc203	-0.034608852
142	0x3cbfa386	0.023393404
143	0xbbefaa46	-0.0073139993
144	0x3ce48b57	0.027898474
145	0x3cc10b22	0.023564879
146	0xbcd656c9	-0.02616443
147	0xbb53853c	-0.0032275459
148	0xbbcaf71c	-0.0061940085
149	0xbce11d6f	-0.027479855
150	0x3cc532db	0.024072101
151	0x3cfe3ef9	0.031035887
152	0xbcf7bb27	-0.030240608
153	0xbbb9b06f	-0.0056667845
154	0xbc4a9406	-0.012364393
155	0x3bff2dd9	0.007787448
156	0xbc394673	-0.0113083
157	0x3d14f522	0.03636659
158	0x3c1bf454	0.009518702
159	0xbd009371	-0.03139061
160	0x3c05da1c	0.008169677
161	0xbc0c065d	-0.008546439
162	0xbca28e87	-0.019843353
163	0x3d123720	0.035697103
164	0x3cacf33e	0.02111208
165	0x3b268101	0.0025406482
166	0x3883f595	6.29231e-05
167	0x3953703b	0.00020164337
168	0xbbd528c8	-0.0065051056
169	0x3c164559	0.009171807
170	0x3c4bbb39	0.012434774
171	0x3cc7485c	0.024326496
172	0xbc85104b	-0.01624312
173	0x3c976705	0.01848174
174	0xbcb9891b	-0.022648385
175	0x3c930175	0.01794503
176	0x3cffd404	0.031229027
177	0xbccf9439	-0.025339233
178	0xbc834b9c	-0.016027264
179	0x3ca76ec2	0.020438556
180	0x3b7c6c43	0.0038516677
181	0x3cb0998f	0.021557597
182	0x3cfb6faf	0.030692903
183	0xbccdb027	-0.02510841
184	0x3cafd532	0.021463964
185	0x3c4ef365	0.012631272
186	0x3b4b1233	0.003098619
187	0xbc491bfb	-0.0122747375
188	0x3b21ac0b	0.0024669196
189	0xbc0f186a	-0.008733848
190	0x3cb303bb	0.021852365
191	0xbc8e9932	-0.017407034
192	0xbca6aaee	-0.020345178
193	0xbb4d167f	-0.0031293926
194	0xbd003612	-0.031301565
195	0xbb5dee85	-0.0033864093
196	0xbcd30dc8	-0.025763407
197	0xbd03f620	-0.032217145
198	0x3927787c	0.00015971245
199	0xbc8de317	-0.017320199
200	0xbb2d0e25	-0.0026406136
201	0xbcb98a6d	-0.022649014
202	0x3b8406cf	0.004029132
203	0x3c6bb15a	0.014385546
204	0xbca14307	-0.019685281
205	0xbc06a96e	-0.008219106
206	0xbd073131	-0.033005897
207	0xbd05bff7	-0.032653775
208	0xbc83cc57	-0.016088648
209	0x3c71dcd0	0.014762118
210	0x3c8f8c46	0.017522942
211	0xbcb2065f	-0.021731554
212	0x3c882968	0.016621307
213	0xbc8daead	-0.017295206
214	0x3d0646d6	0.0327824
215	0xbc083384	-0.0083130635
216	0xbbeecabf	-0.007287353
217	0xbcca2c77	-0.024679406
218	0x3cec2430	0.02882585
219	0x3cc26594	0.023730077
220	0xbb87f666	-0.004149246
221	0x3c9d2fa1	0.01918775
222	0x3cb6f1a0	0.022332013
223	0x3c83b29b	0.016076377
224	0xbc93823b	-0.018006435
225	0x3c4aa0fb	0.012367482
226	0x3c7f40f9	0.0155794555
227	0x3c2630ad	0.010143441
228	0xbafb07db	-0.0019152121
229	0xbcd04be3	-0.02542681
230	0x3d11ca1c	0.035593137
231	0xbb89a86b	-0.004200985
232	0xbc9eae2d	-0.019370163
233	0xbb722876	-0.0036950386
234	0x3cafc19e	0.021454629
235	0xbc756f17	-0.014980099
236	0xba86a6a4	-0.0010273051
237	0xb985854e	-0.00025467057
238	0xbb64b704	-0.0034899125
239	0x3cc46c26	0.02397735
240	0xbc1fb121	-0.009746821
241	0x3ca3b015	0.019981423
242	0x3ce1c9a4	0.02756197
243	0x3d00b204	0.03141977
244	0x3d129495	0.03578623
245	0x3bbacf05	0.005700948
246	0x3cb0d47d	0.021585697
247	0xbc11fbb4	-0.008910108
248	0xbcd484dd	-0.02594226
249	0xbce3c149	-0.027802126
250	0xbc8619be	-0.016369697
251	0xbb391b18	-0.002824491
252	0x3cb8f365	0.022576997
253	0x3c6c5871	0.014425383
254	0x3cec9b60	0.028882682
255	0xbccba10e	-0.02485707
