resutls/epoch_26.474.pth (torch, 231589 bytes, 5 tensors)

conv1.weight f4 [64, 1, 9, 9]
0.057267807 -0.048914216 -0.021218052 0.05251069 -0.10437975 0.0661547 -0.023229975 0.056623228
0.015974306 -0.01389927 0.030666646 0.005470383 0.040565725 -0.043282874 -0.008837282 -0.010787198
0.015844306 -0.0003136368 0.09757871 0.035285536 -0.04042189 -0.066197224 -0.017466877 -0.04782757
-0.035679094 0.005769062 0.0669266 0.061202656 -0.107683286 0.070019744 0.032646902 0.10668509
0.07363553 -0.101203814 -0.10520201 -0.05280211 0.09812085 -0.017472012 0.048918154 -0.050134394
0.11014424 -0.047008313 0.08299246 0.0013584106 -0.05805529 0.057491053 -0.058180958 0.033784535
-0.030959234 -0.0111990925 -0.10719022 -0.053678922 0.060099244 -0.026802532 0.11089503 0.089545146
-0.004177425 -0.073403254 0.068318985 0.03400499 -0.072526306 0.0719986 0.06772068 0.098561205
-0.061623417 -0.017502189 -0.0013325441 0.01686729 -0.084928595 -0.07957176 0.06028556 -0.025785439
0.05362606 0.0061259633 0.03656406 0.024509689 0.04024589 0.053930055 -0.10408426 0.055335745
-0.078299396 -0.08760927 0.003019903 -0.022116207 0.06263724 -0.06562512 -0.099887215 0.07943128
-0.018442746 0.059736438 0.032145306 -0.08692069 0.019395847 0.024428004 -0.07529823 -0.0534084
0.036794152 0.018198626 -0.04981662 -0.03722204 0.09817154 -0.02342023 0.060474876 0.047457214
-0.07236292 -0.095425695 0.10512895 0.0033211953 0.07358907 0.020593729 0.03410433 0.08213108
0.10613704 -0.07276833 0.014428241 0.08272927 0.07924866 0.06710615 -0.082216576 -0.0808493
-0.06710655 0.015905263 0.112891525 -0.06845593 0.06019116 -0.061705243 -0.10478164 -0.02360394
0.06505297 0.10535353 -0.064758435 0.028523507 0.099831976 0.07663701 0.07094349 0.07751731
0.06908069 0.028613051 -0.07490109 -0.09018966 -0.047627356 -0.01008643 -0.06610168 0.04141523
0.031157563 -0.028215611 0.040545605 0.034898993 0.068635575 0.07588804 -0.03705509 0.10837964
-0.014052626 -0.008257757 -0.10933522 -0.07525908 -0.06767994 -0.048652817 0.078087024 -0.03757382
-0.084834605 0.040196497 0.035533953 0.072172195 -0.056932908 0.025992388 -0.03755374 -0.024463605
-0.08991941 -0.05172249 -0.03552746 0.048524655 0.021742336 0.02933687 0.11421304 0.11284
0.07760217 0.0033411118 -0.07694611 0.086291805 -0.026547933 -0.007207223 -0.093439534 -0.017902784
-0.06635221 0.104559675 -0.09586965 -0.08636142 -0.0041562854 -0.05922236 0.041223414 -0.040629353
-0.04825523 0.011411586 0.082640424 -0.078417294 0.05190095 0.07048546 0.108636186 -0.07724577
0.0282064 -0.079013325 0.09926917 -0.041780762 0.065667875 0.0019501095 -0.010681591 -0.0039580124
0.01909955 0.0533101 0.020633908 0.03787249 -0.098985896 0.07960745 0.09553697 0.08983289
0.08146792 -0.08033698 -0.040640723 0.10025809 -0.08108774 0.101373896 -0.088995904 -0.07982643
0.052189495 -0.08077909 -0.02588739 0.0809445 0.08988764 0.10820435 -0.022149537 -0.08807348
0.107736476 -0.025757937 -0.047435977 0.025745312 -0.07853107 0.07369765 0.07146721 -0.088837825
-0.093657956 -0.01192784 0.044123083 -0.002820314 -0.056089845 0.0028335166 -0.104271695 -0.0783317
-0.07420654 0.09037095 0.09685907 -0.038939357 0.0055095647 0.049931798 0.013710661 -0.055297688
00000000: a691 6a3d 465a 48bd 7bd1 adbc 7315 573d
00000010: 0dc5 d5bd 1e7c 873d ca4c bebc c2ed 673d
00000020: 8cdc 823c c4b9 63bc 9e38 fb3c e640 b33b
00000030: 3f28 263d 6249 31bd 3fca 10bc cabc 30bc
00000040: ebcb 813c 9e6f a4b9 59d7 c73d 9187 103d
00000050: 6c91 25bd 6992 87bd b216 8fbc d8e6 43bd
00000060: 3e24 12bd 660a bd3b d010 893d a3af 7a3d
00000070: 0e89 dcbd 8366 8f3d c2b8 053d b67d da3d
00000080: 3ace 963d f243 cfbd 2774 d7bd 0647 58bd
00000090: 96f3 c83d 7721 8fbc 675e 483d b959 4dbd
000000a0: 4e93 e13d ca8b 40bd f3f7 a93d b20c b23a
000000b0: 62cb 6dbd bd7b 6b3d 284f 6ebd a761 0a3d
000000c0: 389e fdbc 667c 37bc 8c86 dbbd 6ede 5bbd
000000d0: a02a 763d fc90 dbbc ef1c e33d 7263 b73d
000000e0: c8e2 88bb 7254 96bd d3ea 8b3d d148 0b3d
000000f0: ac88 94bd 0174 933d 24b1 8a3d 75da c93d
00000100: d668 7cbd c060 8fbc c3a8 aeba 452d 8a3c
00000110: 0bef adbd 85f6 a2bd feed 763d fc3b d3bc
00000120: 00a7 5b3d 4ebc c83b 32c4 153d 8bc8 c83c
00000130: e0d8 243d c3e5 5c3d 212a d5bd bca7 623d
00000140: 6f5b a0bd 7d6c b3bd 91e9 453b 0c2d b5bc
00000150: f447 803d 7766 86bd ab91 ccbd deac a23d
00000160: 3e15 97bc 32ae 743d ccaa 033d 7a03 b2bd
00000170: 0ae4 9e3c 3d1d c83c f535 9abd c4c2 5abd
00000180: 77b5 163d 4915 953c 830c 4cbd 2376 18bd
00000190: 290e c93d c8db bfbc 81b4 773d 7f62 423d
000001a0: 0333 94bd 8c6e c3bd d94d d73d 69a8 593b
000001b0: deb5 963d 2eb4 a83c fbb0 0b3d 5734 a83d
000001c0: 605e d93d 9007 95bd 6e64 6c3c f76d a93d
000001d0: 1f4d a23d f36e 893d 2a61 a8bd 5194 a5bd
000001e0: 296f 89bd c14b 823c ac33 e73d 9f32 8cbd
000001f0: 018b 763d a3be 7cbd c297 d6bd 0d5d c1bc
00000200: 7e3a 853d 97c3 d73d 12a0 84bd 21aa e93c
00000210: b574 cc3d ddf3 9c3d d24a 913d 65c1 9e3d
00000220: 2d7a 8d3d eb65 ea3c be65 99bd 5bb5 b8bd
00000230: e714 43bd 8e41 25bc 5160 87bd 04a3 293d
00000240: 253e ff3c 6d24 e7bc 2613 263d 3ff2 0e3d
00000250: cf90 8c3d 306b 9b3d 14c7 17bd 25f6 dd3d
00000260: fc3c 66bc 8b4b 07bc 25eb dfbd 6f21 9abd
00000270: c89b 8abd 2d48 47bd 17ec 9f3d 02e7 19bd
00000280: c4bd adbd 15a5 243d 0d8c 113d 04cf 933d
00000290: 7b32 69bd fded d43c f3d1 19bd e667 c8bc
000002a0: ab27 b8bd f6da 53bd 3e85 11bd cac1 463d
000002b0: fc1c b23c e053 f03c 87e8 e93d a818 e73d
000002c0: e3ed 9e3d 8ef6 5a3b ec95 9dbd c2b9 b03d
000002d0: 0d7b d9bc 922a ecbb 3a5d bfbd dca8 92bc
000002e0: abe3 87bd 6223 d63d 4f57 c4bd 42de b0bd
000002f0: 7331 88bb 2593 72bd e2d9 283d f76a 26bd
00000300: 47a7 45bd a9f7 3a3c 623f a93d 3f99 a0bd
00000310: 1796 543d ae5a 903d a67c de3d 0833 9ebd
00000320: 1c11 e73c bdd1 a1bd a24d cb3d 4e22 2bbd
00000330: e17c 863d d19a ff3a d701 2fbc 37b2 81bb
00000340: a976 9c3c b15b 5a3d 7108 a93c 2f20 1b3d
00000350: 1eb9 cabd 3b09 a33d e3a8 c33d 4efa b73d
00000360: a7d8 a63d b787 a4bd e376 26bd 1d54 cd3d
00000370: 5411 a6bd 1e9d cf3d 7c43 b6bd 0a7c a3bd
00000380: a7c4 553d 826f a5bd cb11 d4bc 3bc6 a53d
00000390: 0317 b83d 3e9a dd3d f272 b5bc de5f b4bd
000003a0: f1a4 dc3d 4f02 d3bc 3a4c 42bd d5e7 d23c
000003b0: e6d4 a0bd cbee 963d 675d 923d 9bf0 b5bd
000003c0: becf bfbd fd6c 43bc 68ba 343d 04d5 38bb
000003d0: 77be 65bd 85b2 393b 668c d5bd 5f6c a0bd
000003e0: 99f9 97bd 6814 b93d 0c5e c63d e07e 1fbd
000003f0: 9489 b43b 4985 4c3d aea2 603c d47f 62bd

conv1.bias f4 [64]
-0.053118795 0.021874981 -0.071110316 -0.04240708 0.07799406 0.041874707 0.08149292 -0.023731688
0.102408044 0.078864045 0.06257967 0.05363503 -0.09505936 -0.056566875 0.003280585 0.034693256
0.12329734 0.09276201 -0.048100196 0.05770426 0.04169824 -0.055730436 -0.10741571 0.047062263
0.0077484376 0.03001921 0.07442244 -0.031718392 -0.0423332 0.032073036 -0.04306927 -0.065269984
-0.10604189 -0.08950415 -0.008738127 0.09519993 -0.07003658 0.02896466 0.06591718 0.019600328
-0.0030226647 0.08510986 -0.10351181 0.0938067 0.09159283 0.09584794 0.08406394 -0.0073523493
-0.08603336 -0.070110664 -0.08790949 -0.06648645 -0.09901086 0.07412939 0.043452784 -0.048161283
0.008165908 0.01450783 0.0016700036 0.06909831 0.04339552 -0.08752971 0.104833275 -0.043245815
00000000: 1893 59bd 2933 b33c 49a2 91bd 0cb3 2dbd
00000010: 5abb 9f3d d084 2b3d c3e5 a63d f568 c2bc
00000020: 4fbb d13d 7983 a13d c529 803d 68b0 5b3d
00000030: 7bae c2bd abb2 67bd 15ff 563b 841a 0e3d
00000040: 5183 fc3d 02fa bd3d b604 45bd 4d5b 6c3d
00000050: c6cb 2a3d 9945 64bd c5fc dbbd 5cc4 403d
00000060: 9be6 fd3b d9ea f53c cb6a 983d 25eb 01bd
00000070: 9465 2dbd 045f 033d 6769 30bd 45ac 85bd
00000080: 7e2c d9bd f44d b7bd 5c2a 0fbc 2ef8 c23d
00000090: 576f 8fbd 4b47 ed3c 96ff 863d de90 a03c
000000a0: e617 46bb 144e ae3d 00fe d3bd ba1d c03d
000000b0: 0695 bb3d ed4b c43d b729 ac3d faeb f0bb
000000c0: 4232 b0bd 2e96 8fbd e409 b4bd 0c2a 88bd
000000d0: 35c6 cabd 26d1 973d 8cfb 313d c444 45bd
000000e0: 4dca 053c 40b2 6d3c 06e4 da3a 6a83 8d3d
000000f0: 80bf 313d c742 b3bd d4b2 d63d 8622 31bd

conv2.weight f4 [32, 64, 5, 5]
-0.007810931 0.027284877 -0.012520579 -0.0027456642 0.0033422415 -0.020563144 0.01977227 0.02169126
-0.021318348 -0.0036220571 0.0071263416 0.017220482 0.013252235 0.0011507083 0.022969766 -0.0040980093
0.0020999499 -0.014373267 -0.012278223 -0.00749363 -0.021767631 -0.0026043241 0.006842535 -0.015182539
-0.021149667 0.025188828 -0.0101918215 -0.018605573 -0.0064479755 -0.012288305 -0.019372523 -0.0012112127
-0.010139098 -0.0065996107 0.011700539 0.0053771334 0.022595983 -0.02413997 0.022439722 0.013630946
-0.002501344 0.01908233 0.02415168 0.0030134458 0.006768883 -0.004037063 -0.0014356662 -0.0018843479
-0.013440346 0.0029707095 -0.010094474 0.012384272 0.00450762 -0.016992228 0.0238045 0.009674116
0.013155945 -0.022329591 0.02563416 0.010619201 -0.00026910225 -0.015624836 0.0067379302 0.012992019
0.009856942 0.018930601 -0.022995468 -0.01875013 0.026125258 0.021803591 -0.0017675628 0.013353758
0.018142466 0.01927172 -0.011999249 -0.009232297 -0.012892171 -0.0060966057 0.02444344 0.00013001934
-0.01987162 0.01918373 0.010774715 0.005265353 -0.012256467 0.018376248 -0.019887684 0.0135311475
-0.0015550702 -0.007983147 -0.022261359 0.00387477 -0.010672686 -0.00844674 0.015189828 -0.01570924
0.024176834 0.021668863 0.019917049 0.0038116784 -0.021097112 -0.00839215 -0.013868221 -0.0049212812
-0.024478277 -0.012747301 -0.006527817 -0.0012292843 -0.007368808 0.0043963 -0.013195543 -0.017263819
-0.017373031 0.024169484 0.015740203 -0.021252865 -0.020988032 0.00013135638 -0.012084682 0.00963077
-0.009682006 0.0009943566 -0.006960024 -0.019805852 -0.0027523693 0.02726833 0.023816256 -0.012632236
0.01069757 0.02190554 0.00711402 0.0033096473 0.02736806 0.005228377 -0.0029651558 0.028215878
0.01594869 -0.010033998 0.02314632 0.02192911 0.02467667 -0.006936786 -0.004272297 0.020094834
0.019483581 -0.017183868 0.024076525 0.01571315 0.00965749 -0.008111304 -0.0034944273 0.015023175
0.0038506633 0.019637657 -0.015668547 -0.009030379 -0.0031108095 0.009910605 0.008486767 0.013032368
-0.01407173 -0.0046722656 0.009511781 -0.011269371 0.017677454 0.017442865 0.013633703 0.013120249
0.0148757985 -0.02136777 -0.0078463275 0.01855549 -0.010587325 0.0018669536 -0.008741039 0.008926336
0.0018063865 -0.00044085152 0.009878663 0.025416158 0.009600204 -0.001763599 0.026823571 -0.006159637
0.008520689 0.0108239865 0.014106658 0.022596234 0.013320852 0.0013920923 0.01814372 0.0073406557
0.00043313156 0.008724175 -0.012926627 0.008110262 -0.012762382 0.0140644945 0.025434488 -0.01055381
-0.02286837 0.020334182 -0.013003212 0.016329523 0.016921027 -0.009268341 0.0005329056 -0.010458796
0.020810878 -0.018304719 0.0024373245 -0.013986384 0.019954702 0.01212982 0.021355381 -0.0118533885
0.008386849 -0.021239461 0.014703266 -0.0086583365 0.007943659 0.011965895 -0.015746094 0.013780806
-0.0106492555 0.010492044 -0.006777255 0.0034669158 0.0042663435 0.020615805 0.0076434426 0.0057386174
-0.002731685 -0.023830302 -0.012838257 -0.0076741804 0.010934532 7.1566086e-05 0.008732117 -0.014978935
-0.024407413 0.010275971 0.014854951 0.013511971 0.017975144 -0.023471419 0.008921705 0.021577286
-0.012136198 0.011542694 0.012584739 0.0049380558 -0.02427115 0.011287094 0.022054689 -0.0038025596
00000000: d7f2 ffbb 8984 df3c 1d23 4dbc 9af0 33bb
00000010: 8209 5b3b 0a74 a8bc 75f9 a13c dfb1 b13c
00000020: d1a3 aebc 0960 6dbb 1684 e93b f811 8d3c
00000030: e71f 593c 5dd3 963a 172b bc3c 9848 86bb
00000040: 509f 093b da7d 6bbc 9a2a 49bc 208d f5bb
00000050: 0852 b2bc 4fad 2abb 5837 e03b 2fc0 78bc
00000060: 1142 adbc cd58 ce3c 99fb 26bc b76a 98bc
00000070: 8a49 d3bb e354 49bc 20b3 9ebc 8ec1 9eba
00000080: 761e 26bc 8c41 d8bb 9eb3 3f3c aa32 b03b
00000090: 361b b93c 30c1 c5bc 82d3 b73c 5554 5f3c
000000a0: 97ed 23bb 8c52 9c3c bed9 c53c 3b7d 453b
000000b0: 82cd dd3b 5749 84bb f72c bcba 39fc f6ba
000000c0: e634 5cbc 3cb0 423b 4b63 25bc 67e7 4a3c
000000d0: a8b4 933b 4933 8bbc a801 c33c 2f80 1e3c
000000e0: 088c 573c 8cec b6bc bbfe d13c 28fc 2d3c
000000f0: 4b16 8db9 50ff 7fbc dbc9 dc3b 7adc 543c
00000100: 037f 213c 5914 9b3c fe60 bcbc df99 99bc
00000110: a304 d63c 729d b23c 91ad e7ba b8c9 5a3c
00000120: 829f 943c badf 9d3c 8098 44bc 0f43 17bc
00000130: af39 53bc 09c6 c7bb 9c3d c83c cd55 0839
00000140: cfc9 a2bc 3327 9d3c 6e88 303c fb88 ac3b
00000150: 59cf 48bc c989 963c 7feb a2bc bfb1 5d3c
00000160: 7fd3 cbba bfcb 02bc 745d b6bc daef 7d3b
00000170: 7ddc 2ebc 3264 0abc c2de 783c aab0 80bc
00000180: 7f0e c63c e682 b13c 1429 a33c 5acd 793b
00000190: dad3 acbc 3a7f 09bc 8937 63bc b342 a1bb
000001a0: ab86 c8bc 0eda 50bc 4ce7 d5bb f01f a1ba
000001b0: 0b76 f1bb d60e 903b 1e32 58bc da6c 8dbc
000001c0: e351 8ebc 15ff c53c 99f1 803c 7d1a aebc
000001d0: 18ef abbc b6bc 0939 d4fe 45bc 61ca 1d3c
000001e0: 47a1 1ebc 1255 823a ea10 e4bb e23f a2bc
000001f0: 1861 34bb d561 df3c 4f1a c33c 70f7 4ebc
00000200: dc44 2f3c 3f73 b33c ba1c e93b abe6 583b
00000210: fb32 e03c ce52 ab3b 0f53 42bb fc24 e73c
00000220: d4a6 823c a365 24bc 5a9d bd3c ada4 b33c
00000230: ba26 ca3c fb4d e3bb a0fe 8bbb ec9d a43c
00000240: 089c 9f3c 2fc5 8cbc 223c c53c ddb8 803c
00000250: 733a 1e3c 46e5 04bc c302 65bb c323 763c
00000260: 695b 7c3b 27df a03c 535b 80bc 28f4 13bc
00000270: b9de 4bbb 1760 223c 150c 0b3c b785 553c
00000280: 1d8d 66bc ce19 99bb 4dd7 1b3c 2ba3 38bc
00000290: 4fd0 903c 57e4 8e3c e55f 5f3c 50f6 563c
000002a0: 9fb9 733c 760b afbc e28d 00bc af01 983c
000002b0: 7676 2dbc 91b4 f43a 9336 0fbc c43f 123c
000002c0: 46c4 ec3a 1722 e7b9 1eda 213c 8c35 d03c
000002d0: 2d4a 1d3c 9028 e7ba 1bbd db3c c8d6 c9bb
000002e0: 5c9a 0b3c 1757 313c 9d1f 673c bd1b b93c
000002f0: b43f 5a3c de76 b63a 24a2 943c e289 f03b
00000300: ef15 e339 d8ef 0e3c 34ca 53bc e8e0 043c
00000310: 4f19 51bc c46e 663c fd5b d03c e3e9 2cbc
00000320: 7356 bbbc df93 a63c 6d0b 55bc 7ec5 853c
00000330: f79d 8a3c 3dda 17bc b0b2 0b3a 5f5b 2bbc
00000340: 937b aa3c c7f3 95bc 85bb 1f3b 2527 65bc
00000350: 0b78 a33c 27bc 463c 7bf1 ae3c b734 42bc
00000360: ff68 093c 61fe adbc f8e5 703c b2db 0dbc
00000370: 1f26 023c 9a0c 443c f4fd 80bc e4c8 613c
00000380: 377a 2ebc d2e6 2b3c bc13 debb 3235 633b
00000390: afcc 8b3b 7ae2 a83c d875 fa3b 030b bc3b
000003a0: 1206 33bb c437 c3bc 8d57 52bc b177 fbbb
000003b0: c026 333c c015 9638 2711 0f3c 356a 75bc
000003c0: 0ef2 c7bc 8c5c 283c 2e62 733c 5061 5d3c
000003d0: 9c40 933c 2247 c0bc 582c 123c d9c2 b03c
000003e0: e7d6 46bc 911d 3d3c 3930 4e3c 6acf a13b
000003f0: 4ad4 c6bc 81ed 383c 09ac b43c 5d34 79bb

conv2.bias f4 [32]
-0.012901666 -0.021504084 -0.02043919 0.019141328 -0.009869467 0.0046913424 0.015241459 0.014024359
0.017817 -0.0043967227 0.0010831646 0.016214782 -0.0007183639 -0.012913794 -0.0010545452 0.015735844
0.020377321 0.0025800248 -0.004406693 -0.022231758 -0.011756045 0.0065777246 0.0016925873 0.017969187
0.00537708 0.010154519 0.016786365 0.013828722 -0.004526325 0.015918374 0.023507496 0.008284724
00000000: 8261 53bc 5529 b0bc 1770 a7bc 46ce 9c3c
00000010: 8bb3 21bc d5b9 993b 50b7 793c 6dc6 653c
00000020: f5f4 913c 6212 90bb f9f8 8d3a ddd4 843c
00000030: 9650 3cba 6194 53bc aa38 8aba 75e8 803c
00000040: 57ee a63c a215 293b 0566 90bb 601f b6bc
00000050: 6d9c 40bc f489 d73b ced9 dd3a 1e34 933c
00000060: 3732 b03b 245f 263c 8f83 893c dd91 623c
00000070: 9151 94bb 4067 823c cb92 c03c a7bc 073c

conv3.weight f4 [1, 32, 5, 5]
-0.015862957 0.03570036 0.027813844 -0.017564718 0.030140048 0.015224609 0.030916424 -0.0028854504
-0.02669888 -0.011553234 0.029206045 -0.007354437 0.025021745 0.0143649215 -0.0074061295 0.013916894
0.027081894 0.026905056 -0.026288107 -0.020794077 0.0086835455 -0.0265102 -0.029732892 0.012362516
-0.005928507 -0.009255801 0.012984571 -0.03453295 0.0013955565 -0.016514974 -0.030651795 0.010163611
0.0044983802 -0.017361015 0.0080618495 -0.02492564 0.03368419 0.011572228 -0.0058706547 -0.011646671
0.03252237 -0.033114284 -0.007749927 0.019405698 0.011590409 0.01475087 -0.021816764 0.032522365
0.007112688 -0.02768145 0.027301896 0.032698784 0.04010927 0.009736128 -0.020165961 0.010557092
-0.029468048 -0.0150485635 -0.008863715 -0.0067111007 -0.0088128885 0.0016078461 0.010375072 0.024004431
0.0033770946 0.027611908 0.014315861 0.03545716 0.015081522 0.019269139 0.023057291 -0.0045917886
-0.0012577411 -0.03156175 -0.002596535 -0.023233961 -0.001550747 0.024685666 0.033119358 -0.021069575
-0.002011203 0.0017753837 0.0264513 -0.010703971 -0.0036500534 0.0001479042 0.014071252 0.018194715
0.037044946 0.033072524 0.008911035 -0.033444148 0.032631412 0.0119213695 0.016894877 -0.03342369
0.027282652 0.0011955734 -0.031264216 0.021832412 -0.027082318 -0.020536043 0.017886251 0.013533376
0.0039032337 0.03163732 -0.0033442345 0.010112463 0.01908913 0.025686948 -0.027533805 0.013210785
0.030665213 0.0045373924 0.0047879745 -0.013960725 0.035943784 0.03127496 0.0007179673 0.021137998
0.033426728 0.032562952 0.017327396 0.0015345342 0.004212897 -0.007176612 -0.023457818 0.029755738
-0.015900675 0.0075610676 -0.01625088 0.001932343 0.013813089 0.030149763 0.00039385105 -0.020554762
0.005722864 -0.021019189 0.012226239 0.029072177 0.030610215 -0.035364904 0.022861557 -0.007994294
0.02730805 0.022856247 -0.027076112 -0.004032493 -0.007142966 -0.028317757 0.024275353 0.031081554
-0.029242266 -0.005172394 -0.012201075 0.008133178 -0.011130071 0.037488647 0.010104448 -0.031155055
0.008935603 -0.007949964 -0.01826355 0.036646534 0.021695388 0.002140962 -0.00055367296 0.00048767411
-0.0067332755 0.008667144 0.012094883 0.023751853 -0.015950236 0.018326053 -0.023016036 0.018163336
0.030991534 -0.025481094 -0.01610731 0.020299377 0.0040792553 0.021313291 0.030521037 -0.025213227
0.02130239 0.012990637 0.0029595096 -0.012405673 0.0023929204 -0.008915979 0.022239689 -0.01740496
-0.020361423 -0.0031525136 -0.03129916 -0.0030378783 -0.02584299 -0.0322914 4.7407015e-05 -0.01752022
-0.0026370573 -0.022645704 0.00403417 0.014392715 -0.019678619 -0.008216731 -0.033002425 -0.03265019
-0.016084721 0.014769895 0.017524911 -0.021727242 0.01662555 -0.017288253 0.032790143 -0.008317678
-0.0072844923 -0.024677116 0.02882961 0.023735832 -0.004154218 0.019188654 0.022333318 0.016078655
-0.018002633 0.012448433 0.015738716 0.010479646 -0.001601608 -0.025221303 0.035966363 -0.0036339879
-0.018563485 -0.002952025 0.022091853 -0.014389216 -0.00037080102 0.00062645646 -0.002642521 0.024779698
-0.010036685 0.019771636 0.027588882 0.03145518 0.035784658 0.005176349 0.021043194 -0.009207858
-0.026339136 -0.028220627 -0.016445473 -0.0026700166 0.023319095 0.014692242 0.029163435 -0.025043309
00000000: 08f3 81bc 8a3a 123d dcd9 e33c e2e3 8fbc
00000010: 43e8 f63c a370 793c 7144 fd3c d319 3dbb
00000020: 9cb7 dabc c749 3dbc 8441 ef3c 7dfd f0bb
00000030: 67fa cc3c d95a 6b3c 1eaf f2bb af03 643c
00000040: d9da dd3c fe67 dc3c 285a d7bc 5758 aabc
00000050: 6e45 0e3c eb2b d9bc 6592 f3bc 268c 4a3c
00000060: ec43 c2bb a5a5 17bc 3dbd 543c 6c72 0dbd
00000070: 1beb b63a 694a 87bc 7919 fbbc 4685 263c
00000080: 2667 933b b038 8ebc d915 043c db30 ccbc
00000090: 6ff8 093d 7199 3d3c 9f5e c0bb aed1 3ebc
000000a0: 2d36 053d d8a2 07bd 1af3 fdbb b3f8 9e3c
000000b0: b3e5 3d3c a2ad 713c 12b9 b2bc 2c36 053d
000000c0: 8d11 e93b 35c4 e2bc 3aa8 df3c 29ef 053d
000000d0: 9e49 243d 4884 1f3c 1633 a5bc a7f7 2c3c
000000e0: fa66 f1bc 408e 76bc 1e39 11bc cbe8 dbbb
000000f0: ef63 10bc 5dbe d23a 35fc 293c f1a4 c43c
00000100: 3f52 5d3b 5e32 e23c 138d 6a3c 873b 113d
00000110: 7d18 773c 50da 9d3c a5e2 bc3c b776 96bb
00000120: cada a4ba e546 01bd a12a 2abb 2655 bebc
00000130: 6f42 cbba 9839 ca3c 2aa8 073d 1a9a acbc
00000140: 63ce 03bb feb3 e83a 66b0 d83c b55f 2fbc
00000150: bc35 6fbb bb16 1b39 1c8b 663c 150d 953c
00000160: 71bc 173d 0e77 073d 97ff 113c bbfc 08bd
00000170: 84a8 053d d951 433c 2067 8a3c 47e7 08bd
00000180: de7f df3c c9b4 9c3a e80e 00bd e3d9 b23c
00000190: bddb ddbc 343b a8bc 3086 923c 18bb 5d3c
000001a0: 65cd 7f3b 2296 013d f22a 5bbb beae 253c
000001b0: cf60 9c3c 6f6d d23c 938e e1bc 0c72 583c
000001c0: 9d35 fb3c 68ae 943b 71e4 9c3b 86bb 64bc
000001d0: ca39 133d 2c1a 003d f835 3c3a 9829 ad3c
000001e0: 77ea 083d bb60 053d 2ff2 8d3c 6c22 c93a
000001f0: 570c 8a3b c929 ebbb 9c2a c0bc 4ec2 f33c
00000200: 2242 82bc d5c2 f73b 9120 85bc ac46 fd3a
00000210: 4b50 623c a3fc f63c cb7d ce39 7662 a8bc
00000220: dd86 bb3b 6f30 acbc 9050 483c c628 ee3c
00000230: 46c2 fa3c cada 10bd 2948 bb3c 80fa 02bc
00000240: 22b5 df3c 063d bb3c b9ce ddbc 0123 84bb
00000250: 8b0f eabb a4fa e7bc 1bdd c63c be9e fe3c
00000260: 7a8d efbc 307d a9bb 05e7 47bc 0541 053c
00000270: e75a 36bc b28d 193d 208d 253c e338 ffbc
00000280: a366 123c 9140 02bc 719d 95bc ad1a 163d
00000290: 87ba b13c 624f 0c3b 5d24 11ba 83ae ff39
000002a0: cfa2 dcbb a300 0e3c 9e29 463c 3f93 c23c
000002b0: 12aa 82bc 8520 963c 208c bcbc 47cb 943c
000002c0: f5e1 fd3c babd d0bc 7af3 83bc e14a a63c
000002d0: 46ab 853b 3699 ae3c 4107 fa3c f88b cebc
000002e0: 5a82 ae3c aed6 543c 55f4 413b 2a41 4bbc
000002f0: 8bd2 1c3b 5414 12bc 0230 b63c d994 8ebc
00000300: 00cd a6bc 679a 4ebb 8c33 00bd 2417 47bb
00000310: aeb4 d3bc fd43 04bd e5d6 4638 9086 8fbc
00000320: 7bd2 2cbb 7c83 b9bc 1231 843b 6ccf 6b3c
00000330: 0e35 a1bc 789f 06bc 8d2d 07bd 35bc 05bd
00000340: 1bc4 83bc 6efd 713c 6790 8f3c 54fd b1bc
00000350: 4e32 883c 18a0 8dbc f54e 063d df46 08bc
00000360: c0b2 eebb aa27 cabc 132c ec3c a671 c23c
00000370: 1b20 88bb 8631 9d3c 5df4 b63c 62b7 833c
00000380: 427a 93bc 83f4 4b3c 7bee 803c d2b2 2b3c
00000390: 0ced d1ba e89c cebc 7751 133d 3328 6ebb
000003a0: 7312 98bc c376 41bb f9f9 b43c bfc0 6bbc
000003b0: 1268 c2b9 c838 243a 252e 2dbb cbfe ca3c
000003c0: e870 24bc 20f8 a13c 1402 e23c 26d7 003d
000003d0: ef92 123d 5d9e a93b c762 ac3c 8edc 16bc
000003e0: 2cc5 d7bc f22e e7bc a8b8 86bc 72fb 2ebb
000003f0: b007 bf3c bbb7 703c 28e8 ee3c a027 cdbc
