resutls/epoch_26.618.pth (torch, 231589 bytes, 5 tensors)

conv1.weight f4 [64, 1, 9, 9]
00000000: 49b5 6a3d e534 48bd 8c1c adbc 9435 573d
00000010: 0bc5 d5bd 1e7c 873d a6d6 bdbc d614 683d
00000020: 8b9b 833c eee2 62bc 7ba5 fb3c 7c1f b53b
00000030: 4332 263d 7044 31bd 56b7 10bc b85e 30bc
00000040: 1337 823c b321 85b9 5cd7 c73d 199f 103d
00000050: b370 25bd 6492 87bd f897 8ebc 42e6 43bd
00000060: 5323 12bd 1b89 be3b d010 893d 6cc7 7a3d
00000070: f588 dcbd c766 8f3d 1602 063d bc7d da3d
00000080: 3ace 963d f243 cfbd 2774 d7bd c742 58bd
00000090: a1f3 c83d 883d 8ebc e0cc 483d d0f4 4cbd
000000a0: 5493 e13d ac8c 40bd f3f7 a93d 6aec ae3a
000000b0: 98ca 6dbd dea9 6b3d 01f5 6dbd 7adb 0a3d
000000c0: 98a5 fcbc 9378 36bc 8c86 dbbd e71b 5cbd
000000d0: 6516 763d 3ab3 dbbc 5e1d e33d b765 b73d
000000e0: fcec 83bb cb53 96bd d3ea 8b3d 9030 0b3d
000000f0: d788 94bd fd73 933d 24b1 8a3d efda c93d
00000100: 4ebe 7bbd 670d 8ebc f35a 9dba c7ab 8a3c
00000110: 0bef adbd 88f6 a2bd ebe6 763d de51 d3bc
00000120: e3c5 5b3d 9df7 cc3b 096c 163d 15e5 c93c
00000130: 4cf5 243d 66e5 5c3d 212a d5bd 32a7 623d
00000140: 6f5b a0bd 9455 b3bd b39a 513b 191c b4bc
00000150: 2661 803d c348 86bd 2e7c ccbd 9cb3 a23d
00000160: b40c 97bc 3c96 743d 3f27 043d 4dd8 b1bd
00000170: 51ee 9f3c a045 c93c 231b 9abd 2047 5abd
00000180: 9ce8 163d 56d3 943c 8f47 4cbd cdf0 17bd
00000190: 623f c93d ddc8 bebc e047 783d 15fe 423d
000001a0: 8d24 94bd 5b6c c3bd 4249 d73d 66db 543b
000001b0: fdc5 963d 1efe a93c 301f 0c3d af44 a83d
000001c0: 3d76 d93d d0f8 94bd eb22 6d3c 3e69 a93d
000001d0: 4e41 a23d 7072 893d 0d58 a8bd c491 a5bd
000001e0: 336a 89bd 3235 833c 5c42 e73d fd2d 8cbd
000001f0: d472 763d 680a 7dbd 6a8c d6bd 0622 c0bc
00000200: 964c 853d 0ef3 d73d b423 84bd 48ea eb3c
00000210: a4d9 cc3d 7f0d 9d3d 9e4f 913d e1cb 9e3d
00000220: 9298 8d3d 2383 eb3c 0c1e 99bd d806 b8bd
00000230: 82c2 41bd 175b 20bc 9520 87bd 001e 2a3d
00000240: ee0b 003d b2d4 e5bc d2a3 263d d6de 0f3d
00000250: 0437 8d3d 822d 9c3d bc9d 16bd b32d de3d
00000260: 3931 64bc df03 05bc c1b9 dfbd 2f09 9abd
00000270: de58 8abd 7533 46bd ce7a a03d 79e5 18bd
00000280: 1a94 adbd f940 253d 70ed 113d ffdd 933d
00000290: c20e 69bd d68a d53c cf19 19bd dfae c7bc
000002a0: e026 b8bd 2caa 53bd 198a 11bd b717 473d
000002b0: dd13 b33c 2ae0 f03c 00f9 e93d 0e7b e73d
000002c0: fefe 9e3d 9d66 5d3b 5695 9dbd a4b5 b03d
000002d0: 0fd2 d8bc abea e7bb 1d52 bfbd be14 91bc
000002e0: 7226 87bd e651 d63d f854 c4bd e9dd b0bd
000002f0: d6e3 8abb b557 72bd 215b 293d 70ee 25bd
00000300: caad 44bd 43e5 403c 927b a93d 1698 a0bd
00000310: 3187 543d 3041 903d b67d de3d f428 9ebd
00000320: fceb e73c d778 a1bd 8e33 cc3d e861 2abd
00000330: fd7b 863d 8fce f63a 4c0b 32bc e93c 83bb
00000340: 3aa1 9c3c 237a 5a3d 1766 aa3c 1959 1c3d
00000350: 6fa4 cabd 7006 a33d 7fa1 c33d aac0 b73d
00000360: d8d5 a63d 1785 a4bd ee3f 26bd fc86 cd3d
00000370: 9a55 a5bd c8c3 cf3d b742 b6bd e57c a3bd
00000380: 4b65 553d 2370 a5bd 197d d3bc eaca a53d
00000390: fd55 b83d 9e6f de3d f1a2 b3bc 0856 b4bd
000003a0: 6ba8 dc3d 1b03 d3bc 0578 42bd b3e5 d23c
000003b0: 10d6 a0bd 06f9 963d 43c2 923d 68d2 b5bd
000003c0: f4ca bfbd 9257 42bc 05c2 343d 0dd1 33bb
000003d0: bcae 65bd 38bf 3d3b 668c d5bd 5f6c a0bd
000003e0: 99f9 97bd 6814 b93d 0c5e c63d 7981 1fbd
000003f0: 9e27 b73b ec98 4c3d 6597 613c 436f 62bd
0.057301793 -0.04887857 -0.021131776 0.05254133 -0.104379736 0.0661547 -0.023173641 0.056660496
0.01606538 -0.01384805 0.030718556 0.005527435 0.040575277 -0.043278158 -0.008832773 -0.01076477
0.015895402 -0.00025392845 0.097578734 0.035307977 -0.04039068 -0.06619719 -0.017406449 -0.047827013
-0.03567822 0.005814684 0.0669266 0.06122534 -0.1076831 0.07002025 0.032716833 0.10668513
0.07363553 -0.101203814 -0.10520201 -0.05279806 0.098120935 -0.017363325 0.04902351 -0.05003816
0.11014429 -0.047009155 0.08299246 0.0013345603 -0.058054537 0.057535045 -0.058094982 0.033900715
-0.03084068 -0.011137146 -0.10719022 -0.053737547 0.06007995 -0.02681886 0.11089586 0.089549474
-0.0040260535 -0.07340201 0.068318985 0.03398186 -0.07252663 0.071998574 0.06772068 0.098562114
-0.061460786 -0.017340375 -0.0012005254 0.016927613 -0.084928595 -0.07957178 0.060278814 -0.025795873
0.053655516 0.0062551037 0.036724124 0.024645368 0.040272996 0.05392971 -0.10408426 0.05533523
-0.078299396 -0.08756557 0.0031983077 -0.021986054 0.062685296 -0.06556847 -0.09984623 0.07944414
-0.018438675 0.059713587 0.03226399 -0.08683834 0.019522818 0.024569333 -0.07524707 -0.053290486
0.036842927 0.01816718 -0.04987293 -0.03709488 0.098265424 -0.023289138 0.06061542 0.047605593
-0.07233534 -0.095421515 0.1051202 0.0032479404 0.07361982 0.020751055 0.03420943 0.08216225
0.10618255 -0.0727402 0.014473657 0.082720265 0.07922612 0.0671128 -0.08219919 -0.08084443
-0.06709709 0.016016576 0.11291954 -0.06844709 0.060168102 -0.061777502 -0.104760006 -0.023453724
0.06508748 0.10544406 -0.06452122 0.028798237 0.10002449 0.0766859 0.07095264 0.077537306
0.06913866 0.028749054 -0.07476434 -0.0898568 -0.047304638 -0.0097873425 -0.065980114 0.041532516
0.031261377 -0.028055523 0.040683575 0.035124622 0.06895259 0.076258674 -0.03677152 0.1084856
-0.013927751 -0.008118599 -0.109241016 -0.07521283 -0.06755231 -0.048388917 0.07835923 -0.037328217
-0.08475514 0.040345166 0.03562683 0.07220077 -0.05689884 0.026067179 -0.03737813 -0.024375377
-0.0899179 -0.05167596 -0.03553209 0.0486066 0.021860057 0.029403765 0.11424446 0.11302768
0.0776348 0.0033783086 -0.07694499 0.08628395 -0.026467351 -0.007077535 -0.09341834 -0.017710086
-0.0659913 0.1046484 -0.09586519 -0.08636076 -0.004238586 -0.059165675 0.041346673 -0.040510595
-0.0480173 0.01177341 0.08275522 -0.07841508 0.05188674 0.070436835 0.10863821 -0.07722655
0.028310768 -0.078843765 0.09970771 -0.041597277 0.06566618 0.001882987 -0.010866951 -0.004005064
0.019119848 0.053339135 0.020800633 0.038170908 -0.098946445 0.07960212 0.09552287 0.08972295
0.08146256 -0.080331974 -0.04058831 0.10035512 -0.08072968 0.10144764 -0.088994436 -0.07982806
0.052098554 -0.08078029 -0.025816487 0.080953434 0.09000776 0.10861133 -0.021928282 -0.08805472
0.10774311 -0.025758317 -0.04747774 0.025744295 -0.07853329 0.07371716 0.07165959 -0.088780224
-0.09364882 -0.011861699 0.044130344 -0.0027437836 -0.056074843 0.0028953087 -0.104271695 -0.0783317
-0.07420654 0.09037095 0.09685907 -0.038941834 0.0055894395 0.049950525 0.013769005 -0.05528189

conv1.bias f4 [64]
00000000: cd62 59bd 43bc b53c 4fd1 90bd 455f 2dbd
00000010: 09d3 a03d d464 2c3d c3e5 a63d d4cd bbbc
00000020: 6abb d13d 0fb5 a03d 9253 813d 948b 5c3d
00000030: 7bae c2bd 8f78 65bd f0f2 8f3b 388e 0f3d
00000040: 7b4f fb3d 7ff8 be3d a874 45bd 2c74 6d3d
00000050: 1eeb 2b3d 06d7 62bd 72f6 dbbd b2cd 403d
00000060: e3df 163c 3c39 003d eb8c 993d 6b43 04bd
00000070: fb34 2ebd 502a 043d 6769 30bd 45ac 85bd
00000080: ae18 d7bd ba7f b6bd 9b1a 15bc f609 c33d
00000090: 576f 8fbd 3059 ea3c 35f5 853d e877 a43c
000000a0: 3655 44bb be97 ae3d 03fe d3bd e94f c13d
000000b0: 44a5 bb3d b486 c43d f842 ac3d 02ec f0bb
000000c0: 950a afbd 2e96 8fbd bbb6 b2bd 0c2a 88bd
000000d0: 35c6 cabd ffa2 973d d4b5 313d c444 45bd
000000e0: 840c 123c 739f 713c ac49 0e3b 88d3 8e3d
000000f0: 8979 333d 87c4 b3bd def9 d63d 388b 33bd
-0.05307274 0.022184497 -0.070711724 -0.042327184 0.07852752 0.042088345 0.08149292 -0.022925295
0.102408245 0.07847034 0.06314768 0.05384405 -0.09505936 -0.056023177 0.004392974 0.03504774
0.12271019 0.093247406 -0.048206955 0.05797212 0.041972272 -0.055380844 -0.10740365 0.047071166
0.009208652 0.031304583 0.07497581 -0.032290857 -0.042530995 0.032266915 -0.04306927 -0.065269984
-0.10502754 -0.08911081 -0.0091005815 0.09523384 -0.07003658 0.028606981 0.0654091 0.020076707
-0.0029958016 0.08525036 -0.10351183 0.0943907 0.09162381 0.09596005 0.08411211 -0.007352353
-0.0854694 -0.070110664 -0.08726259 -0.06648645 -0.09901086 0.07404136 0.043386295 -0.048161283
0.008914117 0.014747488 0.0021711392 0.0697394 0.043817077 -0.08777719 0.10496877 -0.04383394

conv2.weight f4 [32, 64, 5, 5]
00000000: 5be3 fdbb c2bf df3c 43b6 4cbc 7f6e 37bb
00000010: 64bb 4e3b eb03 a8bc bbe3 a13c 1963 b13c
00000020: 9fab afbc 74d8 7ebb b039 ed3b 6d77 8d3c
00000030: 6f5d 593c 299a 8c3a a46d ba3c 0c84 84bb
00000040: 8690 093b 0be9 6bbc ed0b 4bbc 35b7 fdbb
00000050: b7bb b1bc e43a 28bb b84a e13b 6f92 79bc
00000060: 27c5 aebc b9f0 ce3c 8419 26bc 76af 98bc
00000070: 66c5 d5bb 276e 4bbc da2e 9dbc b3a0 88ba
00000080: 8bd5 24bc 50e0 d7bb 1e88 3e3c 1b6e b43b
00000090: e1e5 b93c 80dd c5bc b1ea b63c dddb 5b3c
000000a0: d973 19bb 2343 9d3c 72bc c53c 4d57 3d3b
000000b0: 1ee6 d53b df8a 7dbb a664 acba 1c18 f9ba
000000c0: 7720 5ebc 1189 343b ba35 27bc 55c7 483c
000000d0: adb2 8f3b 3310 8cbc a775 c23c 267b 1e3c
000000e0: 571b 573c 80ec b6bc 1354 d23c 5461 2f3c
000000f0: adfe 8eb9 f13b 80bc 980b dc3b 82d4 543c
00000100: ba14 223c 5f7b 9b3c d74b bcbc 88bc 99bc
00000110: 0b86 d53c 274d b23c 265e dcba a46d 5b3c
00000120: 5c63 943c 86bf 9c3c e6e6 46bc 0f43 17bc
00000130: 6f39 53bc f17a c6bb a73d c83c 6943 0d39
00000140: cfc9 a2bc 3327 9d3c 0298 313c 81e0 ad3b
00000150: dca8 48bc c989 963c 7feb a2bc f1c5 5e3c
00000160: ea01 c5ba 1546 02bc 745d b6bc 305f 7f3b
00000170: eabf 2dbc a24c 09bc 1a66 793c aab0 80bc
00000180: 7f0e c63c e546 b23c d7d4 a33c cb67 7c3b
00000190: d461 acbc 813f 09bc 9a1f 64bc 6501 a3bb
000001a0: 6d73 c8bc 2b1b 50bc caf1 d5bb d27b a9ba
000001b0: 8ef8 f3bb cab1 8e3b 4bb5 56bc 052f 8dbc
000001c0: 2d72 8ebc c397 c53c 1786 803c 6834 adbc
000001d0: 0196 abbc b1ee f138 69ba 46bc 7ce4 1c3c
000001e0: 6ded 1dbc dbd0 813a 9389 e6bb 5ef0 a2bc
000001f0: 6727 39bb 6023 e03c d536 c33c a2b3 4ebc
00000200: f286 303c 84d0 b33c 9139 ee3b 5ba4 603b
00000210: 7473 e13c 432a b23b aa80 39bb 87a4 e73c
00000220: 481b 833c 7e6c 22bc ee13 bf3c 565f b43c
00000230: db9c ca3c ccd2 e1bb 3c77 88bb ac0c a63c
00000240: 4e8d a03c 9487 8cbc 4d02 c53c 8cb1 803c
00000250: d032 1f3c 1084 04bc 1057 66bb 7202 763c
00000260: 5008 7b3b ecde a03c 885b 80bc 6613 14bc
00000270: e12f 4dbb 9242 223c 9eeb 0a3c 2565 553c
00000280: 4aac 66bc adb6 99bb e8bb 1b3c 10c1 38bc
00000290: 1dd0 903c 31e4 8e3c b144 5f3c 41de 563c
000002a0: 679f 733c a30b afbc cfa7 00bc 9201 983c
000002b0: 738c 2dbc 1831 f23a 4d5b 0fbc 3d7b 143c
000002c0: 685b e83a f50a 0fba 8d71 1f3c 9608 cf3c
000002d0: bf01 1f3c f916 eeba 490e db3c 010f cdbb
000002e0: 20a6 093c 2ff9 333c e67e 673c a94e b93c
000002f0: 3634 5a3c 89df ad3a fb4c 953c 8f9b ee3b
00000300: 308f b639 8599 0c3c 6f81 57bc 2560 073c
00000310: bc03 51bc 0d4b 653c 59e4 ce3c 3293 31bc
00000320: 606b bbbc 4d8c a63c b324 55bc 29c5 853c
00000330: 1e9d 8a3c 7c81 18bc eeef 093a 6304 2bbc
00000340: 8a7b aa3c 33f4 95bc dbfb 1d3b 08fc 64bc
00000350: 5e93 a33c 90ff 463c d7f0 ae3c b188 42bc
00000360: b369 093c 91fd adbc c1e2 703c 7c0d 0ebc
00000370: 64da 013c 00ff 433c 08fe 80bc 00ad 613c
00000380: 47d5 2ebc ccd5 2c3c f3d0 dbbb b281 643b
00000390: 7e21 8a3b 44df a73c 2d03 fc3b 26f3 bd3b
000003a0: 8d8b 33bb 0528 c4bc 36eb 55bc 6513 f8bb
000003b0: 7297 343c 1abd 7238 e755 0c3c 897c 7abc
000003c0: dffa c6bc 2db0 293c 28a5 723c 13a3 593c
000003d0: 4cea 8f3c 1730 bfbc 8d7f 133c 8d52 b03c
000003e0: e1d5 4abc 3742 363c 63e0 4d3c e1ae a03b
000003f0: 53d8 c6bc ec48 383c 43a5 b43c 246d 7bbb
-0.00774805 0.027313117 -0.012494626 -0.0027989445 0.00315448 -0.02050968 0.01976191 0.021653699
-0.02144414 -0.003888634 0.007239543 0.01726886 0.013266905 0.0010727096 0.022757359 -0.0040440615
0.0020990684 -0.0143988235 -0.01239298 -0.0077427872 -0.021695955 -0.0025669867 0.0068753622 -0.015232666
-0.021334244 0.02526127 -0.010137919 -0.018638354 -0.006523776 -0.012416399 -0.01918738 -0.0010423869
-0.010060678 -0.0065880194 0.011629133 0.0055062897 0.022692623 -0.024153471 0.022328706 0.013419119
-0.0023414998 0.019197052 0.02413771 0.0028891147 0.0065276762 -0.003868751 -0.0013152554 -0.0019004378
-0.013557545 0.0027547518 -0.0102056805 0.012254556 0.0043853135 -0.017097568 0.023737742 0.009672916
0.013129077 -0.022329569 0.025674855 0.010704357 -0.000272741 -0.015653582 0.0067152493 0.012990119
0.009892637 0.018979726 -0.022985382 -0.018766657 0.026064893 0.021765305 -0.0016812726 0.01339284
0.018113784 0.019134294 -0.012140011 -0.009232297 -0.012892111 -0.006057136 0.02444346 0.0001347192
-0.01987162 0.01918373 0.010839464 0.005306304 -0.01224729 0.018376248 -0.019887684 0.013596998
-0.0015030478 -0.007951279 -0.022261359 0.0038966648 -0.010604838 -0.008380087 0.015222097 -0.01570924
0.024176834 0.02176232 0.01999895 0.0038514014 -0.021042742 -0.008376957 -0.01392355 -0.0049745315
-0.024469102 -0.01270179 -0.0065290676 -0.0012930578 -0.0074454015 0.00435469 -0.013104747 -0.017234335
-0.017388428 0.024120217 0.015688939 -0.021143153 -0.02094555 0.00011536235 -0.012129405 0.009575959
-0.009639126 0.0009904163 -0.007035443 -0.019890007 -0.0028252245 0.027360618 0.023829857 -0.01261607
0.010774361 0.021950014 0.007270046 0.003427765 0.027520873 0.005437167 -0.002830545 0.028276695
0.01600422 -0.009913562 0.023324933 0.022018116 0.024732998 -0.006891584 -0.0041646045 0.020269714
0.01959863 -0.017154492 0.024048949 0.015709661 0.0097167045 -0.008088127 -0.0035147108 0.015015231
0.0038304515 0.019637547 -0.015668646 -0.009037828 -0.0031309056 0.009903567 0.008479027 0.013024603
-0.014079163 -0.004690966 0.00950525 -0.011276498 0.017677361 0.017442795 0.013627217 0.013114513
0.014869547 -0.021367854 -0.007852509 0.018555436 -0.010592568 0.0018477766 -0.008749795 0.009062585
0.0017727436 -0.000545665 0.009731662 0.025272649 0.009705006 -0.0018164805 0.02674021 -0.006257892
0.008401424 0.010984703 0.014129376 0.022620516 0.013318112 0.0013265471 0.018225184 0.0072817276
0.00034820428 0.008581524 -0.013153418 0.008262669 -0.012757238 0.013994944 0.025255369 -0.010838317
-0.022878349 0.020330573 -0.013009238 0.016329365 0.016920622 -0.009308215 0.00052618876 -0.010438058
0.020810861 -0.01830492 0.0024106416 -0.013976105 0.019967731 0.012145892 0.021355076 -0.01187341
0.008387017 -0.021239074 0.0147025 -0.008670207 0.007925604 0.011962652 -0.015746132 0.013774157
-0.0106709665 0.01054902 -0.0067082583 0.0034867343 0.0042154184 0.020492204 0.0076908083 0.005796808
-0.0027396411 -0.023944864 -0.013056567 -0.0075706714 0.0110224355 5.787341e-05 0.008565403 -0.015288481
-0.024289547 0.010356945 0.014809884 0.013283509 0.017567776 -0.02333836 0.009002578 0.021523738
-0.012380094 0.011124185 0.012565705 0.0049036597 -0.024273073 0.011247855 0.02205146 -0.0038364613

conv2.bias f4 [32]
00000000: b8d8 52bc 6aa5 b0bc 9bde a8bc 692e a13c
00000010: efab 19bc 114a a53b fccc 753c bd0b 663c
00000020: cc65 923c 974a 93bb 3c4a 8e3a e9da 893c
00000030: e960 3eb9 fc9e 4cbc a922 8eba 5b44 7d3c
00000040: b995 a73c 6a9b 2d3b afa6 8abb 28e5 b6bc
00000050: fb7d 3dbc 513b d23b a1a1 093b c3b9 973c
00000060: 43a3 bc3b f844 233c 6c3b 893c 930f 5e3c
00000070: 7ee3 93bb bda0 863c 2dc1 c13c 95f0 033c
-0.012869053 -0.02156325 -0.020613959 0.01967545 -0.009379371 0.00504423 0.015002485 0.014040885
0.017870806 -0.004494976 0.0010855864 0.016828017 -0.00018155914 -0.012489077 -0.001084407 0.015458192
0.020457136 0.002649034 -0.004231296 -0.022326067 -0.011565681 0.0064157625 0.002100088 0.018521195
0.005756767 0.009965174 0.016751967 0.013553518 -0.004513203 0.016434068 0.023651684 0.008052965

conv3.weight f4 [1, 32, 5, 5]
00000000: e59c 81bc 4479 123d 33fa e43c ef6d 90bc
00000010: bd69 f63c 869f 793c 48a0 fd3c 97cd 34bb
00000020: 8685 dbbc 4807 3fbc 9787 ef3c 2ed5 eebb
00000030: e71e ce3c 3f8e 693c 0db6 f6bb 0eb2 623c
00000040: e141 dd3c 1740 dc3c b85c d9bc 8931 acbc
00000050: 3436 0c3c 4c57 dabc 9a74 f4bc f999 453c
00000060: da00 cabb a5a5 17bc 2fbd 543c 6c72 0dbd
00000070: 6444 b83a 694a 87bc 7919 fbbc 2c85 263c
00000080: 2667 933b b038 8ebc d915 043c db30 ccbc
00000090: 6ff8 093d 7199 3d3c e957 c0bb aed1 3ebc
000000a0: 2d36 053d d8a2 07bd 1af3 fdbb b3f8 9e3c
000000b0: b3e5 3d3c a2ad 713c 12b9 b2bc 2c36 053d
000000c0: 8d11 e93b 35c4 e2bc d7ed df3c db3e 063d
000000d0: f9da 243d 3f19 1f3c bcd1 a5bc c9b0 2d3c
000000e0: d372 f0bc 4d8b 73bc 5f23 11bc f043 debb
000000f0: 8a20 0fbc 767c e83a 6aff 2d3c 3f14 c53c
00000100: 55bc 5a3b 389c e23c cebd 6c3c 7c1d 123d
00000110: 35a5 773c ed86 9d3c 16d6 bc3c 7c81 94bb
00000120: 2093 93ba bd51 01bd 85ce 2cbb 5d31 bfbc
00000130: 6092 cfba 64d3 ca3c d2b3 073d 5957 acbc
00000140: 23de 05bb 276b ef3a 5c1a da3c 597e 2dbc
00000150: ebcb 67bb fa48 0f39 58e0 673c 58d7 963c
00000160: a35e 183d 040d 083d e80b 103c bd11 09bd
00000170: b905 063d 6631 443c bad9 8a3c f98a 09bd
00000180: 9212 df3c 256c a63a d4b2 ffbc 2c7c b33c
00000190: d1c5 debc 279b a8bc 63b8 933c fabf 5e3c
000001a0: 2645 813b f673 013d e8e0 58bb a599 293c
000001b0: 167b 9d3c 8b15 d33c 59fb e1bc b655 593c
000001c0: 2655 fd3c 9a91 983b d3b0 9d3b 93d2 65bc
000001d0: 4c48 133d 9fe2 003d 8d62 403a 656d ac3c
000001e0: 71b8 083d a55c 053d 6af2 8e3c f7ee c13a
000001f0: 621f 853b aa89 ebbb df64 c0bc 3cc1 f33c
00000200: e245 82bc 2aee f83b 4819 85bc c3a2 fc3a
00000210: cf2e 633c fa2a f73c 4dc0 e739 c667 a8bc
00000220: 9619 bb3b 1de4 abbc fdb6 483c d540 ee3c
00000230: 70d4 f93c f045 11bd b595 ba3c f6bf 04bc
00000240: 96b4 de3c 2590 ba3c 63d3 debc a254 87bb
00000250: 7f46 eebb 0817 e9bc ecfb c63c e860 fe3c
00000260: da10 efbc 39f4 a8bb 2aab 48bc 1f00 063c
00000270: b860 36bc 60c9 193d 1422 263c 9576 ffbc
00000280: 636e 133c 6508 02bc 0ebf 94bc 7631 163d
00000290: 0b95 b13c 325d 0a3b 4c9b 27ba f28e fc39
000002a0: ab40 debb 5160 0c3c 69e7 453c 14f6 c13c
000002b0: 93a7 82bc cdde 953c 5e18 bdbc 44cb 943c
000002c0: 38c3 fd3c 03be d0bc 87f3 83bc 622d a63c
000002d0: 0ad7 853b 5384 ae3c f606 fa3c 048c cebc
000002e0: 7e6a ae3c f722 553c ee8e 3f3b 0084 4bbc
000002f0: 6b19 1b3b f834 13bc e032 b63c 1995 8ebc
00000300: 0ccd a6bc 0fc3 50bb 8c33 00bd 2634 45bb
00000310: 50b5 d3bc fd43 04bd ff98 a136 6d1c 90bc
00000320: 7bd2 2cbb 7c83 b9bc 1231 843b 6ccf 6b3c
00000330: 0e35 a1bc 789f 06bc 8d2d 07bd 35bc 05bd
00000340: 1bc4 83bc 6efd 713c 6790 8f3c 54fd b1bc
00000350: 4e32 883c 18a0 8dbc f54e 063d df46 08bc
00000360: c0b2 eebb aa27 cabc 132c ec3c a671 c23c
00000370: 1b20 88bb 8631 9d3c 5df4 b63c 62b7 833c
00000380: 427a 93bc 83f4 4b3c 7bee 803c d2b2 2b3c
00000390: 9075 d0ba e89c cebc 7751 133d 3aa5 6bbb
000003a0: 5710 98bc 4f26 3ebb fbf9 b43c 7022 6bbc
000003b0: 57c7 adb9 7422 323a 26a2 29bb a409 cb3c
000003c0: cc58 25bc ecf7 a13c 1302 e23c 26d7 003d
000003d0: ef92 123d dc84 a73b 773a ac3c 8502 18bc
000003e0: ecd9 d7bc ef3a e7bc 5b36 87bc 4d16 32bb
000003f0: 2c24 bf3c 4c42 713c 3d76 ef3c 5dbd cdbc
-0.015821883 0.03576018 0.027951336 -0.017630545 0.030079717 0.015235787 0.030960217 -0.0027588361
-0.026797067 -0.011659451 0.029239459 -0.0072885966 0.02516122 0.0142551055 -0.0075290264 0.013836397
0.027008953 0.02688603 -0.02653347 -0.021019714 0.008557845 -0.026652955 -0.029840756 0.012060636
-0.0061646523 -0.009255801 0.012984558 -0.03453295 0.0014058468 -0.016514974 -0.030651795 0.010163587
0.0044983802 -0.017361015 0.0080618495 -0.02492564 0.03368419 0.011572228 -0.0058698547 -0.011646671
0.03252237 -0.033114284 -0.007749927 0.019405698 0.011590409 0.01475087 -0.021816764 0.032522365
0.007112688 -0.02768145 0.02733509 0.032774787 0.04024789 0.009710609 -0.02024161 0.010601231
-0.029351627 -0.014864755 -0.008858531 -0.006783001 -0.008735785 0.0017737288 0.0106199775 0.024057506
0.0033376415 0.027662382 0.01444955 0.03567265 0.015115072 0.019229377 0.023051303 -0.0045320373
-0.0011259057 -0.031572092 -0.0026368212 -0.023338968 -0.001583647 0.024759002 0.033130474 -0.021037744
-0.0020426593 0.0018266187 0.026623897 -0.010589206 -0.0035369347 0.00013664729 0.014152609 0.01841323
0.037199628 0.033215538 0.008791901 -0.033464182 0.0327203 0.011974668 0.016949523 -0.0335798
0.027230535 0.0012697025 -0.031213202 0.021909796 -0.027193936 -0.020581795 0.018032258 0.0135955755
0.0039450107 0.03160473 -0.003309304 0.010351573 0.019223731 0.025767108 -0.027585672 0.013265064
0.030924391 0.004656029 0.004812339 -0.014027256 0.03595762 0.031466123 0.0007338904 0.021048257
0.033379022 0.032559056 0.017449576 0.0014795949 0.004062579 -0.0071880417 -0.0234856 0.029755227
-0.015902463 0.0075967507 -0.016247407 0.0019274581 0.0138661405 0.03017186 0.0004420303 -0.020557296
0.005709837 -0.020982796 0.012250659 0.029083649 0.030496806 -0.03546709 0.022776464 -0.008102408
0.02718572 0.022773812 -0.027200406 -0.004129962 -0.0072715874 -0.028453365 0.024290048 0.031052068
-0.02918284 -0.0051560667 -0.01224784 0.00817874 -0.011131458 0.03754556 0.010139961 -0.031184474
0.008998486 -0.007936572 -0.018157508 0.036668263 0.021677515 0.0021112678 -0.00063936855 0.00048171688
-0.0067826114 0.0085678855 0.012079098 0.02367691 -0.015949046 0.018294716 -0.023082908 0.01816333
0.030976877 -0.02548123 -0.016107334 0.020285312 0.0040844725 0.021303331 0.030520897 -0.025213249
0.021291014 0.013008825 0.002922948 -0.012421608 0.0023666273 -0.008984797 0.022241056 -0.01740508
-0.020361446 -0.0031854545 -0.03129916 -0.0030090897 -0.025843292 -0.0322914 4.815985e-06 -0.01759168
-0.0026370573 -0.022645704 0.00403417 0.014392715 -0.019678619 -0.008216731 -0.033002425 -0.03265019
-0.016084721 0.014769895 0.017524911 -0.021727242 0.01662555 -0.017288253 0.032790143 -0.008317678
-0.0072844923 -0.024677116 0.02882961 0.023735832 -0.004154218 0.019188654 0.022333318 0.016078655
-0.018002633 0.012448433 0.015738716 0.010479646 -0.0015904177 -0.025221303 0.035966363 -0.0035956637
-0.018562479 -0.0029014533 0.022091856 -0.014351472 -0.0003314565 0.0006795295 -0.0025884002 0.02478487
-0.010091972 0.019771539 0.02758888 0.03145518 0.035784658 0.0051122736 0.021023972 -0.009277944
-0.02634903 -0.028226344 -0.01650541 -0.0027173937 0.023332678 0.014725279 0.029231185 -0.02511471
