resutls/epoch_26.539.pth (torch, 231589 bytes, 5 tensors)

conv1.weight f4 [64, 1, 9, 9]
0	0x3d6c1d62	0.05764521
1	0xbd46cdcf	-0.048536118
2	0xbcab68df	-0.02092403
3	0x3d5871b7	0.052842822
4	0xbdd4cdd7	-0.10390823
5	0x3d8855ab	0.06656965
6	0xbcbb5594	-0.022867955
7	0x3d69f41d	0.05711757
8	0x3c86d5ea	0.016459424
9	0xbc5e8fe1	-0.013584108
10	0x3cfdd2c4	0.03098429
11	0x3bbdc929	0.0057918024
12	0x3d27d4f6	0.04097458
13	0xbd2fd106	-0.04292395
14	0xbc0bf2df	-0.008541792
15	0xbc2accd5	-0.010424812
16	0x3c854eaf	0.01627287
17	0x3921bdd5	0.00015424874
18	0x3dc8c263	0.09802701
19	0x3d1222fa	0.035677887
20	0xbd242d21	-0.0400821
21	0xbd869464	-0.06571272
22	0xbc8d83ed	-0.017274821
23	0xbd429373	-0.0475039
24	0xbd107ff2	-0.03527827
25	0x3bca7e6b	0.006179621
26	0x3d8a3802	0.06748964
27	0x3d7be243	0.061495077
28	0xbddba6f3	-0.107252024
29	0x3d905ae0	0.07048583
30	0x3d062465	0.032749552
31	0x3ddb2915	0.10701195
32	0x3d974852	0.07386841
33	0xbdceb2a2	-0.10092665
34	0xbdd6b0d8	-0.10482949
35	0xbd56877a	-0.052375294
36	0x3dc982c0	0.09839392
37	0xbc8e6063	-0.017379945
38	0x3d486f26	0.048934124
39	0xbd4d8294	-0.050173357
40	0x3de1ee64	0.110317975
41	0xbd406bff	-0.046977993
42	0x3daa0b26	0.08302908
43	0x3ac9fb61	0.001541
44	0xbd6cddc8	-0.057828695
45	0x3d6c7e0c	0.057737395
46	0xbd6dbd08	-0.058041602
47	0x3d0aa57b	0.03384922
48	0xbcfd0fd9	-0.030891346
49	0xbc382621	-0.011239559
50	0xbddb9205	-0.107212104
51	0xbd5bdaf7	-0.053675618
52	0x3d7674c5	0.060169954
53	0xbcd9c3b6	-0.02658258
54	0x3de4181c	0.11137411
55	0x3db87fb6	0.09008734
56	0xbb827652	-0.00398139
57	0xbd95792b	-0.072985016
58	0x3d8c571e	0.06852554
59	0x3d0b367a	0.0339875
60	0xbd94a8a0	-0.07258725
61	0x3d939a20	0.072071314
62	0x3d8b2bf1	0.067954905
63	0x3dcaff24	0.099119455
64	0xbd7b64ed	-0.061375547
65	0xbc8ccbe3	-0.017187065
66	0xba90adde	-0.0011038145
67	0x3c8b093d	0.016972179
68	0xbdadc5f1	-0.0848502
69	0xbda2dbf7	-0.07952111
70	0x3d77ab95	0.060466368
71	0xbcd09d91	-0.025465759
72	0x3d5cf4d2	0.053944416
73	0x3bd08099	0.0063629863
74	0x3d1678e8	0.0367364
75	0x3cca2eb9	0.024680482
76	0x3d258d9b	0.04041825
77	0x3d5d17a1	0.053977612
78	0xbdd51d94	-0.10406032
79	0x3d6330cb	0.055466454
80	0xbd9feb88	-0.07808596
81	0xbdb3a037	-0.08770793
82	0x3b39dac9	0.0028359166
83	0xbcb6b7d6	-0.022304457
84	0x3d800041	0.062500484
85	0xbd86a403	-0.065742515
86	0xbdccd538	-0.10001606
87	0x3da27064	0.07931593
88	0xbc978cc8	-0.018499747
89	0x3d747319	0.05968008
90	0x3d0344b5	0.032047946
91	0xbdb22963	-0.086993
92	0x3c9db873	0.019252991
93	0x3cc6e598	0.0242794
94	0xbd9a6398	-0.07538527
95	0xbd5b65d3	-0.053563904
96	0x3d1646b0	0.036688507
97	0x3c94ec06	0.018178951
98	0xbd4c1c92	-0.049831934
99	0xbd18a922	-0.037270673
100	0x3dc90252	0.09814896
101	0xbcc0ac99	-0.023519801
102	0x3d774f66	0.060378455
103	0x3d41e98c	0.04734187
104	0xbd94569c	-0.07243082
105	0xbdc38c72	-0.09548272
106	0x3dd74263	0.10510709
107	0x3b5c8bd0	0.003365267
108	0x3d96b292	0.07358278
109	0x3ca7f782	0.020503763
110	0x3d0b1ffb	0.033966046
111	0x3da7fd18	0.08202571
112	0x3dd91fc8	0.10601765
113	0xbd95421c	-0.07288
114	0x3c6af515	0.014340659
115	0x3da96ef2	0.08273114
116	0x3da262bf	0.079289906
117	0x3d8973ac	0.06711516
118	0xbda86d6d	-0.08223996
119	0xbda5d63a	-0.08097501
120	0xbd89b1be	-0.06723355
121	0x3c80af66	0.015708636
122	0x3de6fecd	0.11279068
123	0xbd8c406c	-0.06848225
124	0x3d76ceaf	0.060255703
125	0xbd7c4261	-0.06158674
126	0xbdd66918	-0.10469264
127	0xbcc1c58e	-0.023653772
128	0x3d8511ef	0.06497561
129	0x3dd777a6	0.10520868
130	0xbd852b3b	-0.06502386
131	0x3ce88590	0.028384
132	0x3dcc6882	0.09980871
133	0x3d9d5230	0.07681692
134	0x3d91b561	0.071146734
135	0x3d9efcf5	0.077630915
136	0x3d8d9951	0.069140084
137	0x3ce9cea1	0.028540911
138	0xbd998bfd	-0.07497404
139	0xbdb913e0	-0.09036994
140	0xbd43326d	-0.04765551
141	0xbc2408cb	-0.010011862
142	0xbd86f6d5	-0.06590048
143	0x3d2a47b4	0.041572288
144	0x3cff3786	0.031154405
145	0xbce79f1d	-0.028274113
146	0x3d25c5e6	0.040471934
147	0x3d0e8109	0.034791026
148	0x3d8c5a02	0.06853105
149	0x3d9b4eb9	0.075833745
150	0xbd176d09	-0.03696922
151	0x3dde597f	0.10856914
152	0xbc649efc	-0.01395392
153	0xbc0744a5	-0.008256112
154	0xbddfd954	-0.10930124
155	0xbd9a0791	-0.075209744
156	0xbd8a82f1	-0.06763256
157	0xbd47273f	-0.048621412
158	0x3da010f9	0.07815737
159	0xbd1965df	-0.037450667
160	0xbdad4f6d	-0.08462415
161	0x3d250e78	0.040297
162	0x3d11dc01	0.035610203
163	0x3d940fcb	0.07229575
164	0xbd68922f	-0.056780037
165	0x3cd6b8fb	0.026211252
166	0xbd18f426	-0.037342213
167	0xbcc77664	-0.024348445
168	0xbdb7d72a	-0.08976586
169	0xbd533a70	-0.051569402
170	0xbd10db30	-0.035365283
171	0x3d46e0c3	0.048554193
172	0x3cb20fef	0.021736113
173	0x3cf0ea65	0.029408643
174	0x3dea522d	0.11441455
175	0x3de733f3	0.112892054
176	0x3d9f2f78	0.07772726
177	0x3b620c5b	0.0034492228
178	0xbd9d4abf	-0.07680272
179	0x3db0d9ec	0.08635315
180	0xbcd95a1e	-0.026532229
181	0xbbed01b2	-0.007232868
182	0xbdbf1c22	-0.09331538
183	0xbc922ab4	-0.017842628
184	0xbd880bef	-0.06642901
185	0x3dd62fda	0.10458346
186	0xbdc41f3d	-0.09576271
187	0xbdb0b438	-0.08628124
188	0xbb8653b7	-0.004099335
189	0xbd729abc	-0.059229597
190	0x3d28a4ed	0.04117291
191	0xbd265198	-0.040605158
192	0xbd45867d	-0.04822396
193	0x3c3ab7c9	0.011396357
194	0x3da93c18	0.08263415
195	0xbda06680	-0.0783205
196	0x3d54ce14	0.051954344
197	0x3d904b26	0.070455834
198	0x3dde75c1	0.108623035
199	0xbd9e36a7	-0.07725268
200	0x3ce72418	0.028215453
201	0xbda1c6ac	-0.07899222
202	0x3dcb1038	0.09915203
203	0xbd2b56af	-0.041830715
204	0x3d869c06	0.06572728
205	0x3b042ab3	0.0020167052
206	0xbc2e3490	-0.010632649
207	0xbb8110d3	-0.003938773
208	0x3c9c4d0a	0.019079704
209	0x3d5a9ef0	0.05337423
210	0x3ca98c4e	0.020696785
211	0x3d1b33c0	0.03789115
212	0xbdca9764	-0.09892157
213	0x3da30f91	0.079619534
214	0x3dc395dd	0.095500685
215	0x3db7f2a4	0.08981827
216	0x3da6e6a5	0.08149461
217	0xbda46afe	-0.0802822
218	0xbd2600a3	-0.04052795
219	0x3dcdbb12	0.100454465
220	0xbda5fefb	-0.08105274
221	0x3dcfe31c	0.101507396
222	0xbdb60fb3	-0.08889713
223	0xbda36208	-0.07977682
224	0x3d55f068	0.052231222
225	0xbda54c8b	-0.0807124
226	0xbcd3b420	-0.025842726
227	0x3da638dc	0.08116314
228	0x3db89614	0.09013
229	0x3dddcf92	0.108306065
230	0xbcb49844	-0.022045262
231	0xbdb411bd	-0.08792446
232	0x3ddce68a	0.10786159
233	0xbcd2c24b	-0.025727412
234	0xbd424951	-0.0474332
235	0x3cd30df7	0.025763495
236	0xbda0933a	-0.07840581
237	0x3d97975d	0.07401917
238	0x3d92daea	0.07170661
239	0xbdb58a07	-0.08864217
240	0xbdbfb349	-0.09360368
241	0xbc43ad0a	-0.011943111
242	0x3d3484c2	0.04407192
243	0xbb330c6e	-0.002732064
244	0xbd64fe2c	-0.05590646
245	0x3b4007e7	0.0029301585
246	0xbdd50d10	-0.10402882
247	0xbd9fe317	-0.07806986
248	0xbd97ff89	-0.07421786
249	0x3db8a30b	0.09015473
250	0x3dc5f13d	0.09665153
251	0xbd20039f	-0.039065953
252	0x3bb5c697	0.0055473554
253	0x3d4d06bc	0.05005525
254	0x3c616eb7	0.013759307
255	0xbd61f7d0	-0.055167973

conv1.bias f4 [64]
0	0xbd57e7d4	-0.052711323
1	0x3cb62880	0.022236109
2	0xbd918cdc	-0.07106945
3	0xbd2d6af5	-0.04233833
4	0x3da1e028	0.079040825
5	0x3d318541	0.04333997
6	0x3da71c83	0.08159735
7	0xbcb67d32	-0.022276495
8	0x3dd1acc3	0.1023803
9	0x3da4b3c6	0.080421016
10	0x3d802c27	0.062584214
11	0x3d5f7678	0.05455634
12	0xbdc2d92d	-0.09514079
13	0xbd689403	-0.05678178
14	0x3b6a7fdf	0.0035781784
15	0x3d0a7df4	0.033811525
16	0x3df97a2e	0.12181507
17	0x3dbfc0cc	0.09362945
18	0xbd44ee07	-0.048078563
19	0x3d7360fe	0.05941867
20	0x3d2a32a8	0.041552216
21	0xbd664845	-0.056221265
22	0xbddbfff7	-0.10742181
23	0x3d40b241	0.047044996
24	0x3c18cd7e	0.009326337
25	0x3d00dbb7	0.031459536
26	0x3d9b088e	0.07569991
27	0xbd01b0e4	-0.031662837
28	0xbd2dd7be	-0.042442076
29	0x3cfd3839	0.030910598
30	0xbd306954	-0.0430692
31	0xbd85dca8	-0.065362275
32	0xbdda7173	-0.1066617
33	0xbdb637e6	-0.088973805
34	0xbc0d1cb7	-0.008612803
35	0x3dc440e9	0.09582693
36	0xbd8f6f57	-0.07003658
37	0x3cf11eeb	0.029433688
38	0x3d850fa6	0.06497125
39	0x3cac1566	0.021006297
40	0xbb4c6429	-0.003118763
41	0x3dad703d	0.084686734
42	0xbdd35caa	-0.10320409
43	0x3dc141ab	0.09436353
44	0x3dbc1d60	0.0918529
45	0x3dc4908d	0.095978834
46	0x3dabb79e	0.083846316
47	0xbbf0e6ce	-0.007351733
48	0xbdb0b8ae	-0.08628975
49	0xbd8f99f2	-0.070117846
50	0xbdb4c2a2	-0.08826186
51	0xbd886494	-0.06659809
52	0xbdcac658	-0.09901112
53	0x3d97cc45	0.07412008
54	0x3d318cb3	0.04334707
55	0xbd4544c4	-0.048161283
56	0x3be85bc1	0.007091016
57	0x3c77d4e9	0.015126445
58	0x3a88176f	0.001038296
59	0x3d8f84ee	0.07007776
60	0x3d348a13	0.04407699
61	0xbdb2ba48	-0.087269366
62	0x3dd65683	0.104657196
63	0xbd3004ac	-0.042973205

conv2.weight f4 [32, 64, 5, 5]
0	0xbbfd77cd	-0.0077352286
1	0x3cdfe19f	0.027329264
2	0xbc4d602f	-0.012535139
3	0xbb37850d	-0.0028002888
4	0x3b53d641	0.003232375
5	0xbca82940	-0.020527482
6	0x3ca221b2	0.019791458
7	0x3cb130e3	0.021629756
8	0xbcafb829	-0.02145012
9	0xbb76beb6	-0.0037650294
10	0x3beafed8	0.007171493
11	0x3c8d0395	0.017213622
12	0x3c56e94a	0.013117144
13	0x3a72bd5d	0.0009259785
14	0x3cba629f	0.022752104
15	0xbb85461a	-0.0040671946
16	0x3b08a3ac	0.002084951
17	0xbc6db678	-0.014508836
18	0xbc4c8a2b	-0.012484114
19	0xbbfbd617	-0.0076854336
20	0xbcb1ed9d	-0.021719748
21	0xbb29e78f	-0.0025925373
22	0x3bdddad1	0.0067704697
23	0xbc7a5146	-0.015278166
24	0xbcae0f5c	-0.021247558
25	0x3ccdd3ef	0.025125472
26	0xbc26a893	-0.010172027
27	0xbc97e7f0	-0.018543214
28	0xbbd0c18e	-0.0063707298
29	0xbc47f5bb	-0.012204583
30	0xbca016db	-0.019542148
31	0xbaa70df3	-0.0012745246
32	0xbc26d29f	-0.010182052
33	0xbbd8dade	-0.006617888
34	0x3c40306a	0.011730293
35	0x3bab919d	0.0052358643
36	0x3cb91aaf	0.022595732
37	0xbcc5b32a	-0.024133284
38	0x3cb8016f	0.022461621
39	0x3c6099b1	0.013708518
40	0xbb2dfd57	-0.0026548707
41	0x3c9c7277	0.01909755
42	0x3cc6127f	0.024178741
43	0x3b458eec	0.0030145003
44	0x3bdfeab0	0.006833397
45	0xbb86c9fc	-0.004113434
46	0xbab2dfd4	-0.0013647028
47	0xbaec3903	-0.0018022362
48	0xbc5c004a	-0.013427803
49	0x3b4559c4	0.003011332
50	0xbc24bea1	-0.010055215
51	0x3c4b34d8	0.012402736
52	0x3b94fa76	0.004546459
53	0xbc8a8355	-0.016908327
54	0x3cc42c36	0.023946863
55	0x3c1e3d5e	0.009658186
56	0x3c56f07a	0.0131188575
57	0xbcb7384a	-0.022365708
58	0x3cd253d1	0.025674732
59	0x3c30577d	0.010763046
60	0xb966aecf	-0.0002199963
61	0xbc7fea1c	-0.015619781
62	0x3bdc2df7	0.0067193466
63	0x3c5613cc	0.013066243
64	0x3c2453ee	0.010029776
65	0x3c9ba2fc	0.018998615
66	0xbcbc6290	-0.022996217
67	0xbc99fd41	-0.018797519
68	0x3cd68c8d	0.026190067
69	0x3cb3bb1a	0.021939803
70	0xbae2d3e9	-0.0017305586
71	0x3c59dd55	0.013297399
72	0x3c9386cb	0.01800861
73	0x3c9da917	0.019245667
74	0xbc4412d7	-0.011967382
75	0xbc173187	-0.009228117
76	0xbc52e675	-0.012872328
77	0xbbc8e14a	-0.006130372
78	0x3cc870c8	0.02446784
79	0x38d30e3b	0.00010063915
80	0xbca2aafc	-0.019856922
81	0x3c9da09c	0.019241624
82	0x3c2fcb82	0.010729672
83	0x3baa4a7d	0.005196868
84	0xbc497b3e	-0.01229745
85	0x3c96d8f8	0.018414006
86	0xbca24f9b	-0.01981335
87	0x3c5d34c7	0.013501353
88	0xbad51660	-0.0016257279
89	0xbc03fc16	-0.008055707
90	0xbcb65ce2	-0.022261087
91	0x3b7d5934	0.0038657906
92	0xbc2fcd93	-0.010730165
93	0xbc0c2375	-0.0085533755
94	0x3c779aba	0.015112573
95	0xbc80cc82	-0.015722517
96	0x3cc65a67	0.02421303
97	0x3cb014bc	0.021494262
98	0x3ca182d0	0.019715697
99	0x3b73001b	0.003707892
100	0xbcad5fa8	-0.021163777
101	0xbc0aa121	-0.008461268
102	0xbc63f2ff	-0.013912915
103	0xbba07f36	-0.004897977
104	0xbcc7c075	-0.024383763
105	0xbc51c891	-0.012804166
106	0xbbd769b5	-0.0065738806
107	0xbaab0263	-0.0013046976
108	0xbbf259c4	-0.007395955
109	0x3b917964	0.0044395197
110	0xbc590812	-0.013246553
111	0xbc8dd9c0	-0.017315745
112	0xbc8f7d29	-0.017515736
113	0x3cc51f87	0.024062885
114	0x3c80a819	0.015705155
115	0xbcae2c6c	-0.021261416
116	0xbcac14c2	-0.021005992
117	0x3823668a	3.8957725e-05
118	0xbc475715	-0.012166758
119	0x3c1d11bc	0.009586748
120	0xbc1dce40	-0.009631693
121	0x3a83ca38	0.0010054773
122	0xbbe3f203	-0.0069563403
123	0xbca22d8b	-0.019797107
124	0xbb35bc8c	-0.002773079
125	0x3cdde152	0.02708498
126	0x3cc2013f	0.023682235
127	0xbc50e49e	-0.012749819
128	0x3c2e298c	0.010630023
129	0x3cb37b84	0.021909483
130	0x3bddde1e	0.006770863
131	0x3b4575b3	0.0030129969
132	0x3cddd9c7	0.027081383
133	0x3ba3ace0	0.0049949735
134	0xbb49c64d	-0.0030788362
135	0x3ce3f955	0.027828852
136	0x3c7f63fb	0.015587802
137	0xbc29ee3e	-0.010371743
138	0x3cbb9c4a	0.022901673
139	0x3cb2e7f1	0.021839114
140	0x3cc74bd1	0.024328144
141	0xbbed5dab	-0.007243832
142	0xbb938f6d	-0.0045031817
143	0x3ca3b5fc	0.019984238
144	0x3c9fabc4	0.019491084
145	0xbc8e9924	-0.017407008
146	0x3cc42cb6	0.023947101
147	0x3c809e7c	0.015700571
148	0x3c1f71c1	0.009731711
149	0xbc02b619	-0.007977986
150	0xbb652a17	-0.0034967714
151	0x3c75faa6	0.0150133725
152	0x3b7c924c	0.0038539348
153	0x3ca07fca	0.019592185
154	0xbc80b9df	-0.01571363
155	0xbc141ff0	-0.009040818
156	0xbb4bad08	-0.0031078476
157	0x3c2247e9	0.00990484
158	0x3c0afbf1	0.008482919
159	0x3c557ba1	0.013029964
160	0xbc66afc1	-0.014079989
161	0xbb98f087	-0.004667345
162	0x3c1bc6e6	0.00950787
163	0xbc38aea0	-0.011272103
164	0x3c9079b9	0.017636167
165	0x3c8e7e39	0.017394172
166	0x3c5f3c4a	0.013625214
167	0x3c56d9ab	0.0131134195
168	0x3c739c0f	0.01486875
169	0xbcaf67da	-0.021411825
170	0xbc00c02d	-0.007858318
171	0x3c97a0ea	0.018509347
172	0xbc2d9a5c	-0.010595884
173	0x3af5125f	0.0018697492
174	0xbc0f401e	-0.008743314
175	0x3c0e83c5	0.0086984085
176	0x3ac7c4b2	0.0015241115
177	0xba3d7fdc	-0.00072288304
178	0x3c20556f	0.009785994
179	0x3cd1479c	0.025546841
180	0x3c189282	0.009312274
181	0xbb05f46d	-0.0020439879
182	0x3cd95ea5	0.026534388
183	0xbbccba84	-0.0062478203
184	0x3c0efe72	0.008727657
185	0x3c2b40b6	0.01045244
186	0x3c61de86	0.013785964
187	0x3cb62e1a	0.02223878
188	0x3c586127	0.013206757
189	0x3ad5d324	0.0016313535
190	0x3c92adba	0.017905105
191	0x3beca458	0.0072217397
192	0x39a571e2	0.00031556102
193	0x3c108a6a	0.008822063
194	0xbc4dcbb0	-0.01256077
195	0x3c031491	0.008000509
196	0xbc50e239	-0.012749248
197	0x3c66d9f8	0.014090054
198	0x3cd1f35b	0.025628736
199	0xbc273907	-0.0102064675
200	0xbcbb51e6	-0.0228662
201	0x3ca62486	0.020281088
202	0xbc55bf81	-0.013046146
203	0x3c857de9	0.01629539
204	0x3c8a9427	0.016916348
205	0xbc17831f	-0.00924757
206	0x39f4022f	0.00046540934
207	0xbc2d0b24	-0.010561738
208	0x3caa0c15	0.020757714
209	0xbc962d72	-0.018332217
210	0x3b1ed8ff	0.0024238226
211	0xbc66fcb1	-0.014098332
212	0x3ca28306	0.019837867
213	0x3c45a0a3	0.012062225
214	0x3cae900f	0.021308927
215	0xbc42567d	-0.011861441
216	0x3c082396	0.008309266
217	0xbcaebb8b	-0.021329662
218	0x3c70310a	0.014660129
219	0xbc0df6cd	-0.008664799
220	0x3c020a23	0.007936987
221	0x3c43370f	0.011914982
222	0xbc819a39	-0.01582061
223	0x3c61728d	0.013760221
224	0xbc2e5a4b	-0.010641645
225	0x3c2f61ff	0.010704516
226	0xbbd9e5f3	-0.0066497265
227	0x3b698f5e	0.0035638432
228	0x3b8d77a7	0.004317242
229	0x3ca7d149	0.020485537
230	0x3c00c547	0.007859535
231	0x3bc09b67	0.0058779004
232	0xbb2b9881	-0.0026183429
233	0xbcc2b070	-0.023765773
234	0xbc549324	-0.012974534
235	0xbbf88812	-0.00758458
236	0x3c33d34c	0.01097567
237	0x38bebd1b	9.09513e-05
238	0x3c0e171f	0.008672505
239	0xbc7a683f	-0.015283643
240	0xbcc6e69d	-0.024279887
241	0x3c298019	0.010345482
242	0x3c73aea6	0.014873182
243	0x3c5be490	0.013421193
244	0x3c90a542	0.017656926
245	0xbcbeebea	-0.023305852
246	0x3c14034d	0.00903399
247	0x3cb12839	0.021625625
248	0xbc47b465	-0.0121890055
249	0x3c38b508	0.01127363
250	0x3c4e2975	0.012583126
251	0x3ba1ad4e	0.0049339896
252	0xbcc730ca	-0.024315257
253	0x3c3903b0	0.011292383
254	0x3cb46758	0.022021934
255	0xbb7996fb	-0.0038084376

conv2.bias f4 [32]
0	0xbc5c2b43	-0.013438049
1	0xbcaf1327	-0.021371437
2	0xbca4f58e	-0.02013662
3	0x3c9ab229	0.018883782
4	0xbc1e784e	-0.009672238
5	0x3b901092	0.0043965066
6	0x3c7e80d9	0.015533649
7	0x3c5aaf35	0.013347437
8	0x3c91b9bd	0.017788762
9	0xbb8af958	-0.00424115
10	0x3aaeaae9	0.0013326082
11	0x3c84af60	0.016196907
12	0xba6a8708	-0.0008946513
13	0xbc491f86	-0.012275582
14	0xba6c119a	-0.00090053084
15	0x3c80e866	0.015735816
16	0x3ca8cc92	0.02060536
17	0x3b38352b	0.0028107862
18	0xbb8f0b4e	-0.0043653613
19	0xbcb90ff2	-0.022590611
20	0xbc451e06	-0.012031084
21	0x3bec48f2	0.007210844
22	0x3aad8fc0	0.0013241693
23	0x3c8a9b84	0.016919859
24	0x3bb65fc6	0.0055656163
25	0x3c26a92d	0.010172171
26	0x3c88b443	0.016687518
27	0x3c63210c	0.013862859
28	0xbb943415	-0.00452281
29	0x3c77c22b	0.015121977
30	0x3cc047b6	0.023471694
31	0x3c0c1ae0	0.008551329

conv3.weight f4 [1, 32, 5, 5]
0	0xbc817627	-0.01580341
1	0x3d125adb	0.035731178
2	0x3ce3bb46	0.02779926
3	0xbc8ed75f	-0.017436681
4	0x3cf7c68a	0.030246038
5	0x3c7a5f21	0.01528147
6	0x3cfd9ff5	0.030960063
7	0xbb3d2004	-0.0028858194
8	0xbcd953db	-0.026529243
9	0xbc3af8d7	-0.011411867
10	0x3cef0414	0.02917675
11	0xbbf275a9	-0.00739928
12	0x3ccc5c75	0.02494643
13	0x3c6da09d	0.014503625
14	0xbbee596d	-0.007273844
15	0x3c644d76	0.013934484
16	0x3cde0159	0.027100252
17	0x3cdc8185	0.026917228
18	0xbcd5cb77	-0.026097996
19	0xbca8e7db	-0.02061837
20	0x3c0eab7f	0.00870788
21	0xbcd907e2	-0.026493017
22	0xbcf34c9e	-0.02969962
23	0x3c4d6022	0.012535127
24	0xbbbd3ffa	-0.005775449
25	0xbc174a44	-0.009234015
26	0x3c547831	0.012968109
27	0xbd0d70f1	-0.034531537
28	0x3aba0ffa	0.0014195435
29	0xbc874a95	-0.016515056
30	0xbcfaf7a3	-0.03063566
31	0x3c263ef4	0.010146845
32	0x3b935a97	0.004496883
33	0xbc8dc2e1	-0.01730484
34	0x3c040fb0	0.008060381
35	0xbccc0dac	-0.024908863
36	0x3d09a962	0.0336088
37	0x3c3d959f	0.011571317
38	0xbbbff63a	-0.00585821
39	0xbc3ed6c2	-0.011647882
40	0x3d05588e	0.032555155
41	0xbd07efb7	-0.033187594
42	0xbbfdf2c0	-0.0077498853
43	0x3c9f737b	0.019464245
44	0x3c3de12a	0.011589328
45	0x3c71fb93	0.014769453
46	0xbcb36263	-0.0218975
47	0x3d053c3c	0.032528147
48	0x3bea6d6e	0.0071541583
49	0xbce2c448	-0.027681485
50	0x3cdfb896	0.027309697
51	0x3d05c868	0.032661825
52	0x3d23c7a7	0.039985325
53	0x3c1f9f4f	0.009742572
54	0xbca507d0	-0.020145327
55	0x3c2ce1a1	0.010551841
56	0xbcf1be51	-0.029509695
57	0xbc787135	-0.015163709
58	0xbc10c02a	-0.008834878
59	0xbbda359f	-0.006659224
60	0xbc116288	-0.008873589
61	0x3ac62f19	0.0015120237
62	0x3c27483c	0.010210093
63	0x3cc4b36c	0.024011336
64	0x3b602c14	0.003420596
65	0x3ce26cb5	0.027639726
66	0x3c6ad57f	0.014333128
67	0x3d111c34	0.035427287
68	0x3c7939be	0.015211521
69	0x3c9f22d9	0.019425796
70	0x3cbd83ba	0.023134101
71	0xbb93ed4c	-0.004514372
72	0xba9e9738	-0.001209951
73	0xbd00932e	-0.03139036
74	0xbb1dd63b	-0.002408399
75	0xbcbdc9d1	-0.023167523
76	0xbac22221	-0.0014811197
77	0x3cc9adc5	0.024618993
78	0x3d07eebe	0.033186667
79	0xbcabc60f	-0.020968465
80	0xbb012914	-0.0019708322
81	0x3aef3505	0.0018250054
82	0x3cd7e832	0.026355837
83	0xbc2ea40f	-0.010659232
84	0xbb690a28	-0.0035559032
85	0x3923ce69	0.00015621785
86	0x3c66ea08	0.014093883
87	0x3c93ec32	0.018056963
88	0x3d17d498	0.03706798
89	0x3d07ca0e	0.03315168
90	0x3c151f99	0.009101772
91	0xbd080441	-0.03320718
92	0x3d063921	0.032769326
93	0x3c47af23	0.012187752
94	0x3c8cf514	0.017206706
95	0xbd086052	-0.033294983
96	0x3ce0fe18	0.027464911
97	0x3aaaaccb	0.0013021467
98	0xbcfe2a3c	-0.031025998
99	0x3cb53f8c	0.022125028
100	0xbcddf0d2	-0.027092371
101	0xbca83285	-0.020531902
102	0x3c921317	0.017831368
103	0x3c5f37f0	0.013624176
104	0x3b83c08a	0.004020755
105	0x3d01721f	0.031602975
106	0xbb5adacb	-0.003339457
107	0x3c249466	0.010045147
108	0x3c9cf9ca	0.019162077
109	0x3cd31745	0.025767932
110	0xbce19d53	-0.027540838
111	0x3c5861f8	0.013206951
112	0x3cfa4d15	0.030554334
113	0x3b9561ee	0.0045587933
114	0x3b9dbb70	0.004813604
115	0xbc62f5ec	-0.013852578
116	0x3d13a49c	0.036045656
117	0x3d001921	0.031273965
118	0x3a52bde1	0.00080391584
119	0x3cad867d	0.021182293
120	0x3d0964d4	0.033543423
121	0x3d05bfab	0.032653492
122	0x3c8dc448	0.017305508
123	0x3acca42d	0.0015612893
124	0x3b88f824	0.0041799713
125	0xbbed622c	-0.007244369
126	0xbcc07826	-0.023494791
127	0x3cf31a41	0.029675605
128	0xbc82d4ed	-0.015970672
129	0x3bf4f9a6	0.0074760495
130	0xbc8598df	-0.016308246
131	0x3af8d031	0.0018982944
132	0x3c609688	0.013707764
133	0x3cf651a4	0.030068226
134	0x39aba4bd	0.000327384
135	0xbca925ce	-0.02064791
136	0x3bb933da	0.005651933
137	0xbcad4589	-0.021151321
138	0x3c467c60	0.012114614
139	0x3ced9562	0.029001895
140	0x3cfa3090	0.030540735
141	0xbd10bb7b	-0.035335045
142	0x3cbaa66e	0.022784438
143	0xbc03ee8f	-0.008052482
144	0x3cdf4e20	0.027258933
145	0x3cba1bd2	0.022718344
146	0xbcdea30d	-0.027177358
147	0xbb88fa82	-0.0041802535
148	0xbbee7b1e	-0.0072778603
149	0xbce9197c	-0.028454535
150	0x3cc6a407	0.024248136
151	0x3cfe63ee	0.03105351
152	0xbcf085b2	-0.029360626
153	0xbbabcb7e	-0.005242764
154	0xbc48dd4c	-0.012259793
155	0x3c0442a7	0.008072532
156	0xbc37641c	-0.0111933015
157	0x3d18eca6	0.03733506
158	0x3c23e5f1	0.010003553
159	0xbcffdfdd	-0.031234676
160	0x3c111b5f	0.008856623
161	0xbc03b670	-0.008039102
162	0xbc9750e4	-0.018471189
163	0x3d15b88b	0.036552947
164	0x3cb12ea8	0.021628693
165	0x3b0c8f47	0.0021447705
166	0xba0dbd23	-0.0005406907
167	0x39dab47c	0.00041714672
168	0xbbdd1398	-0.0067467205
169	0x3c0debd8	0.008662187
170	0x3c461da9	0.0120920325
171	0x3cc2b6b2	0.023768757
172	0xbc830782	-0.015994791
173	0x3c960de9	0.01831718
174	0xbcbca35c	-0.023027115
175	0x3c946b3a	0.018117536
176	0x3cfd6b0c	0.030934833
177	0xbcd1c616	-0.02560715
178	0xbc84ea77	-0.016225083
179	0x3ca5376e	0.020168032
180	0x3b842ffc	0.0040340405
181	0x3cae3862	0.02126712
182	0x3cf9311f	0.03041893
183	0xbccf57a7	-0.02531035
184	0x3cad99a0	0.021191418
185	0x3c543df0	0.01295422
186	0x3b406eb6	0.0029362864
187	0xbc4be8b3	-0.012445617
188	0x3b19faab	0.0023495357
189	0xbc124daa	-0.008929649
190	0x3cb64919	0.022251653
191	0xbc8f561e	-0.017497119
192	0xbca7ace8	-0.02046819
193	0xbb52f285	-0.003218801
194	0xbd00e84a	-0.031471528
195	0xbb49e17b	-0.0030804563
196	0xbcd48151	-0.02594057
197	0xbd04dd83	-0.032437813
198	0xb820c3e0	-3.8329395e-05
199	0xbc902bb5	-0.017598966
200	0xbb2d1b58	-0.0026414003
201	0xbcb98a6d	-0.022649014
202	0x3b840860	0.0040293187
203	0x3c6bb15a	0.014385546
204	0xbca14307	-0.019685281
205	0xbc06a9df	-0.008219211
206	0xbd073131	-0.033005897
207	0xbd05bff7	-0.032653775
208	0xbc83cc57	-0.016088648
209	0x3c71dcd2	0.01476212
210	0x3c8f8c45	0.01752294
211	0xbcb2065f	-0.021731554
212	0x3c882968	0.016621307
213	0xbc8daead	-0.017295206
214	0x3d0646d6	0.0327824
215	0xbc0836b4	-0.0083138235
216	0xbbeece2c	-0.007287761
217	0xbcca2c77	-0.024679406
218	0x3cec2430	0.02882585
219	0x3cc26594	0.023730077
220	0xbb881613	-0.004153022
221	0x3c9d2fa1	0.01918775
222	0x3cb6f1a0	0.022332013
223	0x3c83b29b	0.016076377
224	0xbc93823b	-0.018006435
225	0x3c4b98f5	0.0124266045
226	0x3c80c1bb	0.015717378
227	0x3c2aab5d	0.010416833
228	0xbadc0d61	-0.0016788655
229	0xbcceaf7b	-0.02523016
230	0x3d13a804	0.036048904
231	0xbb708343	-0.0036699332
232	0xbc990719	-0.018680142
233	0xbb470ebf	-0.003037378
234	0x3cb4cc49	0.022070067
235	0xbc6bda3c	-0.014395293
236	0xb9c5394f	-0.00037617466
237	0x3a127f70	0.00055884477
238	0xbb30f616	-0.0027002147
239	0x3ccaad81	0.024740936
240	0xbc240d90	-0.010012999
241	0x3ca1eb67	0.019765569
242	0x3ce137ea	0.027492482
243	0x3d004d54	0.031323746
244	0x3d1226a1	0.03568137
245	0x3ba8554b	0.005137121
246	0x3cac9219	0.021065759
247	0xbc18442c	-0.009293597
248	0xbcd7ee2d	-0.026358688
249	0xbce72e26	-0.028220247
250	0xbc874e20	-0.016516745
251	0xbb3406dd	-0.002746991
252	0x3cbdea3e	0.023182984
253	0x3c709a1e	0.014685182
254	0x3cef3cec	0.029203855
255	0xbccdc74f	-0.025119452
