resutls/epoch_30.801.pth (torch, 231589 bytes, 5 tensors)

conv1.weight f4 [64, 1, 9, 9]
0.045368813 -0.052656695 -0.019717958 0.057041034 -0.103532754 0.061680824 -0.024344984 0.07613103
0.0038459592 -0.02978103 0.01950083 -0.00023678038 0.040864483 -0.043864757 -0.016919328 -0.01844358
0.029209932 -0.015326789 0.08369011 0.023946524 -0.045584194 -0.06333052 -0.007995355 -0.04896074
-0.04969508 0.008670358 0.046732206 0.04264218 -0.12397231 0.060644124 0.031899128 0.12479823
0.06785822 -0.13180111 -0.11456926 -0.08493732 0.07717141 -0.034889247 0.038372327 -0.050221954
0.13909358 -0.057076603 0.043270092 -0.018230379 -0.09955282 0.045893047 -0.06331042 0.03501594
-0.02068615 0.024863288 -0.11448716 -0.08289385 0.047546487 -0.06583038 0.09502936 0.08523265
0.0022550637 -0.056127694 0.09946816 0.020761367 -0.09948778 0.067485325 0.031048732 0.0681817
-0.07857718 -0.018293772 0.009413822 0.023924937 -0.11677525 -0.10630362 0.061109986 -0.057695616
0.02620155 -0.0071405945 0.043500196 0.04438812 0.042795263 0.03210257 -0.12595533 0.0586904
-0.106571466 -0.087571904 0.0040576584 -0.02105124 0.06446096 -0.06665755 -0.10063861 0.08176817
-0.012744747 0.062867634 0.03189374 -0.08735247 0.017268285 0.021244204 -0.082160115 -0.059704833
0.033205867 0.01819142 -0.051046398 -0.03798861 0.09754489 -0.025094267 0.058203965 0.041506223
-0.078362435 -0.099856436 0.1038063 0.0005525862 0.07314915 0.020605447 0.034532923 0.082758725
0.10315385 -0.07691227 0.010625127 0.0808504 0.07578711 0.06511209 -0.084463954 -0.08405902
-0.07129987 0.00888081 0.106055856 -0.07430932 0.055357892 -0.067880325 -0.10765499 -0.026033068
0.062007513 0.100400575 -0.072532885 0.02209398 0.09460347 0.071106166 0.064497575 0.07604788
0.069107026 0.028225483 -0.07862529 -0.09853012 -0.05365006 -0.013562061 -0.06962035 0.038476888
0.02830559 -0.029471057 0.040535755 0.033989653 0.06336803 0.07153857 -0.04067088 0.104151845
-0.015872594 -0.0062284614 -0.1099662 -0.07864864 -0.070489794 -0.05276733 0.075625874 -0.041491933
-0.09012008 0.03991395 0.027887823 0.07039394 -0.050250795 0.032558665 -0.024082754 -0.030282352
-0.113742456 -0.06488251 -0.044447884 0.03762693 0.015977228 0.03422943 0.12275183 0.1252751
0.070556134 -0.022785699 -0.09627034 0.069943085 -0.03858795 -0.01489253 -0.092090026 -0.01693628
-0.062074486 0.09249454 -0.1231381 -0.10750822 -0.023323528 -0.077006795 0.029309561 -0.04119118
-0.04771777 0.016072357 0.07608654 -0.09251143 0.040755276 0.059684955 0.09084841 -0.089507796
0.028625151 -0.0762848 0.10143908 -0.05451972 0.056076292 -0.005939859 -0.0192806 -0.009178572
0.01969198 0.06756489 0.037668224 0.043483883 -0.10465518 0.073350325 0.092284426 0.08725195
0.076585025 -0.08061234 -0.0291844 0.11264681 -0.087106176 0.09132612 -0.10182871 -0.095629245
0.037103284 -0.09267158 -0.03258853 0.08285753 0.09074572 0.09494052 -0.024174111 -0.10055645
0.093212865 -0.039952684 -0.08314676 -0.0032293366 -0.094996326 0.06468383 0.06018309 -0.08959348
-0.11493881 -0.031888667 0.027521553 -0.007170073 -0.060619835 0.003345339 -0.1036404 -0.079897374
-0.0776459 0.08341985 0.08990502 -0.05037362 0.010386098 0.05332499 0.018439543 -0.045627255
00000000: a6d4 393d 8cae 57bd 8e87 a1bc dca3 693d
00000010: fb08 d4bd 08a5 7c3d 226f c7bc 96ea 9b3d
00000020: 7d0c 7c3b 59f7 f3bc 34c0 9f3c 4048 78b9
00000030: 8461 273d 88ab 33bd 679a 8abc fe16 97bc
00000040: ab49 ef3c 361d 7bbc b865 ab3d 802b c43c
00000050: 7eb6 3abd 6fb3 81bd f3fe 02bc 0f8b 48bd
00000060: 118d 4bbd 1e0e 0e3c 456a 3f3d 91a9 2e3d
00000070: 32e5 fdbd f965 783d a9a8 023d 3796 ff3d
00000080: 40f9 8a3d dff6 06be 4aa3 eabd 9ef3 adbd
00000090: 0b0c 9e3d 07e8 0ebd 4d2c 1d3d 89b5 4dbd
000000a0: 8c6e 0e3e 28c9 69bd fb3b 313d e057 95bc
000000b0: 59e2 cbbd 59fa 3b3d e5a8 81bd e06c 0f3d
000000c0: 0076 a9bc 18ae cb3c 3f78 eabd 40c4 a9bd
000000d0: 1bc0 423d 14d2 86bd c19e c23d 758e ae3d
000000e0: b1c9 133b 27e6 65bd f6b5 cb3d be13 aa3c
000000f0: 40c0 cbbd bf35 8a3d e959 fe3c d9a2 8b3d
00000100: 13ed a0bd d2dc 95bc 6e3c 1a3c 3bfe c33c
00000110: dd27 efbd b6b5 d9bd 774e 7a3d 3d52 6cbd
00000120: a2a4 d63c a6fb e9bb 432d 323d 51d0 353d
00000130: 164a 2f3d fc7d 033d 6ffa 00be 5865 703d
00000140: 2442 dabd e658 b3bd 1bf6 843b a673 acbc
00000150: 1c04 843d c183 88bd 9e1b cebd 1276 a73d
00000160: 58cf 50bc bfc0 803d 03a3 023d dae5 b2bd
00000170: 3876 8d3c 5308 ae3c 9043 a8bd 0e8d 74bd
00000180: e002 083d 2c06 953c 0716 51bd f299 1bbd
00000190: 9ec5 c73d 7e92 cdbc 4867 6e3d 6e02 2a3d
000001a0: 7c7c a0bd 8881 ccbd 6698 d43d 6fdb 103a
000001b0: 39cf 953d c1cc a83c 6572 0d3d 687d a93d
000001c0: 5342 d33d 2e84 9dbd 0315 2e3c e594 a53d
000001d0: 4636 9b3d 7d59 853d 70fb acbd 2327 acbd
000001e0: ab05 92bd d180 113c d033 d93d 7c2f 98bd
000001f0: f5be 623d d704 8bbd 387a dcbd 4d43 d5bc
00000200: 97fb 7d3d d19e cd3d 1f8c 94bd 6ffe b43c
00000210: 77bf c13d 1ca0 913d 4e17 843d febe 9b3d
00000220: fc87 8d3d 2139 e73c 4c06 a1bd 29ca c9bd
00000230: 2ac0 5bbd 6833 5ebc 1d95 8ebd f199 1d3d
00000240: 20e1 e73c 496d f1bc d208 263d bc38 0b3d
00000250: 19c7 813d d082 923d 8296 26bd 904d d53d
00000260: 3e07 82bc 1f18 ccbb f635 e1bd 8a12 a1bd
00000270: f45c 90bd 8e22 58bd bde1 9a3d 72f3 29bd
00000280: e090 b8bd cf7c 233d 0175 e43c b32a 903d
00000290: c7d3 4dbd 3c5c 053d 3249 c5bc b212 f8bc
000002a0: cef1 e8bd 1fe1 84bd fc0e 36bd b21e 1a3d
000002b0: ade2 823c 2934 0c3d 5065 fb3d 1e48 003e
000002c0: bc7f 903d 13a9 babc 6229 c5bd 523e 8f3d
000002d0: 660e 1ebd ccff 73bc b299 bcbd f4bd 8abc
000002e0: d141 7ebd c76d bd3d d42f fcbd 452d dcbd
000002f0: fc10 bfbc bdb5 9dbd 9b1a f03c 15b8 28bd
00000300: b573 43bd 2daa 833c 43d3 9b3d a276 bdbd
00000310: 01ef 263d 3678 743d bb0e ba3d dd4f b7bd
00000320: 4b7f ea3c 353b 9cbd 4bbf cf3d 1250 5fbd
00000330: 41b0 653d 26a3 c2bb 59f2 9dbc b961 16bc
00000340: 1351 a13c 765f 8a3d ff49 1a3d 281c 323d
00000350: 7455 d6bd b238 963d 9eff bc3d 26b1 b23d
00000360: 9cd8 9c3d 1518 a5bd 1f14 efbc 5fb3 e63d
00000370: b964 b2bd 3009 bb3d 928b d0bd 44d9 c3bd
00000380: 9df9 173d 99ca bdbd 8d7b 05bd 35b1 a93d
00000390: e4d8 b93d 2d70 c23d c908 c6bc 8af0 cdbd
000003a0: 63e6 be3d 6da5 23bd d948 aabd 47a3 53bb
000003b0: 6f8d c2bd f578 843d 8b82 763d c97c b7bd
000003c0: 0a65 ebbd b19d 02bd e174 e13c eff2 eabb
000003d0: 814c 78bd 7a3d 5b3b 6b41 d4bd 3ca1 a3bd
000003e0: d004 9fbd 07d8 aa3d 2020 b83d 9254 4ebd
000003f0: 742a 2a3c 4e6b 5a3d 860e 973c a5e3 3abd

conv1.bias f4 [64]
-0.031246318 0.008673338 -0.08216977 -0.033477448 0.06409968 0.031811953 -0.030696165 -0.027670782
0.05540521 0.05844542 0.07853452 0.041393854 -0.053872574 -0.06550446 0.020108972 0.013560453
0.14449462 0.06956004 -0.002722491 0.054212995 0.033027776 -0.06580552 -0.09521107 0.08575588
0.0039121653 0.01665041 0.053465877 -0.00043149714 -0.044642374 -0.008996025 0.022488357 0.00015894444
-0.11204966 -0.09692141 0.01322478 0.08673603 -0.002353307 0.011580964 0.08499826 0.011148487
-0.0151812555 0.06374637 -0.07643279 0.040580995 0.13744761 0.09873737 0.09331017 0.028981477
-0.03405732 0.013477458 -0.110929914 -0.04652449 -0.10557421 0.04645008 0.038398176 0.018962314
-0.0045720176 0.002908211 -0.008146094 0.058222186 0.035910405 -0.010155321 0.09328922 -0.009415156
00000000: 47f8 ffbc 9e1a 0e3c a048 a8bd a61f 09bd
00000010: b146 833d 404d 023d 8676 fbbc d6ad e2bc
00000020: 93f0 623d 7764 6f3d b5d6 a03d 9a8c 293d
00000030: 7da9 5cbd 3427 86bd 92bb a43c aa2c 5e3c
00000040: 66f6 133e 7f75 8e3d d26b 32bb 720e 5e3d
00000050: 2248 073d 0bc5 86bd 05fe c2bd c7a0 af3d
00000060: 9f31 803b 7166 883c 09ff 5a3d 913a e2b9
00000070: ecda 36bd 1064 13bc 8139 b83c 53aa 2639
00000080: 4b7a e5bd bb7e c6bd bfac 583c a9a2 b13d
00000090: f139 1abb 15be 3d3c 9113 ae3d 25a8 363c
000000a0: cdba 78bc 758d 823d cb88 9cbd 4238 263d
000000b0: 11bf 0c3e d136 ca3d 6719 bf3d 906a ed3c
000000c0: b07f 0bbd 8ed0 5c3c 392f e3bd 7790 3ebd
000000d0: 4b37 d8bd 7042 3e3d 6847 1d3d db56 9b3c
000000e0: ddd0 95bb af97 3e3b 3277 05bc 637a 6e3d
000000f0: ca16 133d 8162 26bc 6b0e bf3d 0742 1abc

conv2.weight f4 [32, 64, 5, 5]
-0.018026926 0.019268768 -0.020153297 -0.014738155 0.022190945 -0.021008382 0.021797238 0.017183818
-0.034253303 0.006943298 0.0040718853 0.01567782 0.010244485 -0.010692782 0.03271609 -0.005647861
0.0038203252 -0.013471554 -0.027085904 -0.0038104171 -0.015200298 0.0012458038 0.01654981 -0.009568451
-0.012272816 0.0292584 -0.009810227 -0.014298626 -0.0045142802 -0.016519843 -0.01505096 -0.0017073527
-0.009871414 -0.0033135808 0.012744964 0.0076484326 0.018913262 -0.027698848 0.021330113 0.004696015
-0.00061287184 0.017783107 0.019993406 -0.0046564913 -0.010044058 -0.010212186 0.010375093 0.027928406
0.018716617 0.0027677906 -0.00017364066 0.019032065 0.020901987 -0.0077545936 0.030631712 0.018099122
0.01713798 -0.02104892 0.036547374 0.019919422 -1.9538895e-05 -0.015411629 0.0046105543 0.019073596
0.018654408 0.026858715 -0.021004334 -0.022435952 0.039747443 0.03796281 0.009105993 0.017232096
0.018516293 0.019755501 -0.008374235 -0.00092305173 0.0098143015 0.035108972 0.06584586 0.023661437
0.03561076 0.03525256 0.014941584 0.012312634 0.0028508357 0.107177004 0.009812838 -0.002799452
-0.025216818 -0.017490106 0.03444222 0.03638446 -0.009177136 -0.031333223 -0.041960735 -0.056890443
-0.019903682 0.00796298 0.04225424 0.02330522 -0.029020263 -0.007667509 -0.011398177 -0.00982168
-0.009848087 -0.013525441 0.0072903917 0.0066373614 -0.009807517 0.019163491 0.0006336752 -0.0010932703
-0.005444711 0.025882404 0.03795078 -0.014729562 -0.01341548 0.014475165 -0.0100782085 0.03316691
0.03624981 0.02758973 0.011910536 -0.008021417 0.036135893 0.018076949 0.01602732 -0.0262727
-0.003454898 0.01887372 -0.0025330638 -0.0048674513 0.018078005 -0.0001086519 0.0029122403 0.024066264
0.014985086 -0.0050137015 0.027348902 0.031160744 0.025415083 -0.0119325835 -0.004847007 0.016160863
0.022889381 -0.004207269 0.029028524 0.015945358 0.00017188798 -0.007174624 -0.007866156 0.077720836
-0.018059965 0.071708605 0.026538312 -0.04291557 -0.070600815 -0.032529514 -0.022218836 -0.036900073
0.0366721 0.04194834 -0.017671237 -0.025867127 0.014566351 -0.091320194 0.026330465 -0.01880983
0.081314005 -0.012491811 -0.0992317 0.0465638 -0.043097317 0.03133357 0.0030960052 0.009946746
0.00035834612 -0.0002165898 0.011826869 0.033216555 0.0065423544 -0.0062202537 0.026283372 -0.0032628214
0.017173095 0.0039259535 0.0072464277 0.01861739 0.011736094 0.00489341 0.013001271 0.006806008
0.00067122874 0.0094633 -0.0072410107 0.0044738967 -0.009828918 0.019188693 0.03483752 0.003067795
0.02392317 0.01708555 -0.033560988 0.055442702 -0.049316097 0.108327925 0.06584283 -0.07046837
0.01793724 -0.04408964 0.051938165 -0.029141385 -0.057780217 0.010016284 0.018335138 0.02056475
-0.04712105 -0.10251091 0.0046583824 0.0353179 0.2475635 0.09567272 -0.08513796 -0.09633305
-0.08055496 -0.027293598 -0.029968398 -0.019630559 -0.011573288 0.026727779 -0.020747023 -0.005467657
-0.019163039 -0.034980617 -0.0044859387 -0.020459758 0.0035558292 -0.004497027 0.009966674 -0.01058285
-0.031469945 0.00059960684 -0.0043453234 0.00042496683 0.01283558 -0.04229087 -0.009607508 0.022888212
0.0038273134 0.023425438 -0.113883615 0.04631841 0.032131407 0.032381423 0.085459255 -0.042761583
00000000: 34ad 93bc 89d9 9d3c 8718 a5bc 4d78 71bc
00000010: c9c9 b53c c519 acbc 1f90 b23c 14c5 8c3c
00000020: 314d 0cbd 9b84 e33b 736d 853b c66e 803c
00000030: 7cd8 273c c730 2fbc 4f01 063d b111 b9bb
00000040: 6c5e 7a3b cbb7 5cbc 42e3 ddbc 31b8 79bb
00000050: ac0a 79bc 3d4a a33a 7893 873c fec4 1cbc
00000060: ec13 49bc 50af ef3c 13bb 20bc c944 6abc
00000070: 87ec 93bb 9f54 87bc 4d98 76bc 40c9 dfba
00000080: b6bb 21bc a928 59bb 41d0 503c b49f fa3b
00000090: fcef 9a3c b2e8 e2bc 7dbc ae3c 07e1 993b
000000a0: 22a9 20ba e1ad 913c 36c9 a33c 7b95 98bb
000000b0: d58f 24bc 0351 27bc 4bfc 293c 1dca e43c
000000c0: 9753 993c d263 353b 4f13 36b9 22e9 9b3c
000000d0: a53a ab3c 3f1a febb 5bef fa3c 9c44 943c
000000e0: f364 8c3c c96e acbc b3b2 153d 0e2e a33c
000000f0: 75e7 a3b7 0f81 7cbc 2214 973b 3b40 9c3c
00000100: 21d1 983c cf06 dc3c 4811 acbc 9acb b7bc
00000110: 37ce 223d e47e 1b3d 4e31 153c 532a 8d3c
00000120: 7baf 973c 4ad6 a13c 1634 09bc f4f8 71ba
00000130: 2acc 203c 6dce 0f3d 32da 863d a1d5 c13c
00000140: 97dc 113d fd64 103d 8ccd 743c eeba 493c
00000150: 16d5 3a3b 9e7f db3d 07c6 203c 0377 37bb
00000160: 8093 cebc 6947 8fbc 4913 0d3d df07 153d
00000170: b35b 16bc 4457 00bd 05df 2bbd f405 69bd
00000180: 0c0d a3bc 2977 023c c812 2d3d 97ea be3c
00000190: e7bb edbc ba3f fbbb 6bbf 3abc 1deb 20bc
000001a0: df59 21bc d099 5dbc 3de4 ee3b 397e d93b
000001b0: b5af 20bc c1fc 9c3c 391d 263a 104c 8fba
000001c0: 8c69 b2bb 5607 d43c 4772 1b3d 4354 71bc
000001d0: 9acc 5bbc 3e29 6d3c 121f 25bc 07da 073d
000001e0: ae7a 143d dc03 e23c 6924 433c 436c 03bc
000001f0: 3b03 143d 1c16 943c ba4b 833c d839 d7bc
00000200: 926b 62bb 0f9d 9a3c c201 26bb 247f 9fbb
00000210: 5318 943c 0bdc e3b8 49db 3e3b 9d26 c53c
00000220: 0284 753c fa49 a4bb ce0a e03c d144 ff3c
00000230: 4b33 d03c e280 43bc a4d3 9ebb c963 843c
00000240: 8382 bb3c 21dd 89bb 3acd ed3c d79f 823c
00000250: d43c 3439 1c19 ebbb 0de1 00bc 1a2c 9f3d
00000260: 7ef2 93bc f6db 923d e066 d93c 3dc8 2fbd
00000270: 2997 90bd ab3d 05bd 4704 b6bc 8824 17bd
00000280: 7c35 163d 06d2 2b3d 45c3 90bc 4ce7 d3bc
00000290: b4a7 6e3c 1506 bbbd fdb2 d73c 1317 9abc
000002a0: f587 a63d 74aa 4cbc fd39 cbbd afb9 3e3d
000002b0: d086 30bd a157 003d 59e6 4a3b adf7 223c
000002c0: 67e0 bb39 621c 63b9 7cc5 413c 150e 083d
000002d0: 3f61 d63b 45d3 cbbb 3a50 d73c 0fd5 55bb
000002e0: 97ae 8c3c 49a5 803b 7173 ed3b 7f83 983c
000002f0: bf48 403c e658 a03b 4803 553c ef04 df3b
00000300: 66f5 2f3a f50b 1b3c 0046 edbb c499 923b
00000310: 7809 21bc 9b31 9d3c cab1 0e3d 0f0d 493b
00000320: 86fa c33c fff6 8b3c 3f77 09bd e317 633d
00000330: adff 49bd 08db dd3d 9bd8 863d b951 90bd
00000340: 1ef1 923c 5797 34bd 1dbd 543d eab9 eebc
00000350: f3aa 6cbd 571b 243c 9233 963c 6877 a83c
00000360: 0102 41bd 3df1 d1bd 58a5 983b 81a9 103d
00000370: 4981 7d3e 0ff0 c33d d05c aebd 434a c5bd
00000380: 00fa a4bd d396 dfbc 4980 f5bc 44d0 a0bc
00000390: e39d 3dbc 37f4 da3c a9f5 a9bc 082a b3bb
000003a0: cefb 9cbc d647 0fbd c8fe 92bb 399b a7bc
000003b0: ea08 693b cc5b 93bb 434b 233c b163 2dbc
000003c0: a1e6 00bd ef2e 1d3a 3763 8ebb 15ce de39
000003d0: 534c 523c 3139 2dbd cf68 1dbc 0f80 bb3c
000003e0: aad3 7a3b b4e6 bf3c d03b e9bd 60b8 3d3d
000003f0: 399c 033d 62a2 043d 4305 af3d c526 2fbd

conv2.bias f4 [32]
-0.014994306 -0.02750236 -0.030703032 -0.020784976 -0.024172816 0.0007021366 0.010066552 0.007744335
0.009564919 -0.013554097 -0.004904302 0.002378953 -0.00901422 -0.018564254 -0.0064708414 0.019266656
0.018689765 0.0063691987 -0.00087916816 -0.034122985 0.00057271903 0.017412646 -0.00047413594 0.0051834537
0.01853643 0.0061100437 0.00977058 0.008024076 -0.010373003 0.001710869 0.020323263 0.006785702
00000000: adaa 75bc a14c e1bc ed84 fbbc 4145 aabc
00000010: 1206 c6bc 970f 383a 2eee 243c 31c4 fd3b
00000020: 2eb6 1c3c 0112 5ebc 44b4 a0bb 35e8 1b3b
00000030: 61b0 13bc 1014 98bc 5a09 d4bb 1bd5 9d3c
00000040: 471b 993c b6b4 d03b fa77 66ba 8bc4 0bbd
00000050: 8622 163a f7a4 8e3c 7395 f8b9 f6d9 a93b
00000060: b6d9 973c c336 c83b c814 203c 6a77 033c
00000070: 87f3 29bc 3d3f e03a f97c a63c 985a de3b

conv3.weight f4 [1, 32, 5, 5]
-0.025230302 0.031907164 0.026162528 -0.022706952 0.02224886 0.008763033 0.035264917 0.00596101
-0.030692583 -0.021508459 0.025041686 0.005137878 0.048570305 0.00825551 -0.02457351 0.0048574675
0.027316995 0.04036232 -0.028979648 -0.030699061 -0.0037842118 -0.048705 -0.053338237 0.0024371606
-0.008451241 -0.0032678274 0.019158404 -0.028634453 0.0071028536 -0.010562496 -0.024669515 0.016337026
0.010395078 -0.011620808 0.0140176825 -0.018948535 0.039789446 0.017463684 -0.00017985902 -0.005687082
0.03851607 -0.026993474 -0.0018318967 0.025175596 0.017467603 0.020743027 -0.015702441 0.03843763
0.012865121 -0.021790639 0.021997912 0.032053445 0.043830108 0.011093833 -0.027749076 0.001179149
-0.04437383 -0.030580027 -0.01833637 -0.01774776 -0.018415004 -0.013899898 0.005621544 0.024943551
-0.003553985 0.023801439 0.014189951 0.046750292 0.020496069 0.016266167 0.014724859 -0.014315737
-0.017624607 -0.05072463 -0.0127783585 -0.029301126 -0.009692511 0.014540028 0.017914979 -0.036746655
-0.009422456 -0.008877173 0.0295533 -0.010045502 -0.021261167 -0.0026026247 0.007085772 0.042765923
0.07205607 0.02836419 -3.422642e-05 -0.046876136 0.024576616 0.014122163 0.009080555 -0.053665478
0.01073804 -0.016091214 -0.045183934 0.011883845 -0.03097144 -0.026883945 0.0059429086 0.002418405
-0.008222657 0.024179056 -0.013961986 -0.0020065368 0.010540264 0.014137881 -0.040553134 -0.004030446
0.015308869 -0.0082700765 -0.0107621625 -0.022031823 0.028197918 0.020531805 -0.014213247 0.0068545365
0.03843556 0.041878983 0.016567629 -0.008427352 -0.0054375697 -0.012630637 -0.03642338 0.022191891
-0.023754012 -0.0053490764 -0.014676504 -0.0029567669 0.023810616 0.049718514 0.010843032 -0.01622469
-0.003252208 -0.014798842 0.037425324 0.047540125 0.03352452 -0.052916884 0.010118479 -0.0037901977
0.03317933 0.032359537 -0.042680588 -0.02541803 -0.017878871 -0.037796784 0.027180677 0.03426517
-0.025616666 -0.012059476 -0.027301323 0.010622894 -0.018058702 0.02573392 0.0074366266 -0.05002837
0.007521489 -0.027714832 -0.03184732 0.066566914 0.030338546 0.0061380803 -0.012824199 -0.026573518
-0.010942191 0.004955934 0.026160153 0.036718518 -0.0155487005 0.006950935 -0.030861527 0.02351912
0.037121348 -0.019354854 -0.00995048 0.026583353 0.009331309 0.027357345 0.0365895 -0.019116383
0.027528092 0.01781372 0.008600644 -0.0066688256 0.008179213 -0.002940118 0.026889374 -0.012053321
-0.014879765 0.0024517854 -0.025632992 0.002033308 -0.020030282 -0.026367905 0.006128951 -0.01126883
-0.007859503 -0.042332873 -0.03292297 -0.018888881 -0.03575581 -0.011988686 -0.0476506 -0.06563748
-0.02429405 0.048706364 0.033991657 -0.01430159 0.009023738 -0.00054994086 0.08199018 0.0056619346
-0.0023471706 -0.028738238 0.031647634 0.039363857 -2.9957182e-05 0.032746326 0.044406623 0.030026877
-0.019098582 0.005952082 0.009055054 0.003375677 -0.008724313 -0.03222517 0.028880673 -0.011025321
-0.026449975 -0.010821363 0.014340609 -0.021804325 -0.007961841 -0.0074479706 -0.0107332375 0.01674628
-0.016060978 0.013558735 0.020874966 0.02467735 0.029045202 -0.0003579043 0.015418891 -0.015340837
-0.03242937 -0.034292467 -0.024846422 -0.011182657 0.01318141 0.009926995 0.035510097 -0.03287437
00000000: c7af cebc 16b1 023d cc52 d63c ee03 babc
00000010: 3e43 b63c d392 0f3c f271 103d 9454 c33b
00000020: 036f fbbc 8232 b0bc 3924 cd3c a55b a83b
00000030: a8f1 463d 1e42 073c 634e c9bc 642b 9f3b
00000040: e4c7 df3c f652 253d ba66 edbc 997c fbbc
00000050: 8a00 78bb e57e 47bd 3279 5abd c5b8 1f3b
00000060: 1377 0abc 0c29 56bb 16f2 9c3c cd92 eabc
00000070: 0ebf e83b 520e 2dbc b917 cabc 3ad5 853c
00000080: 1e50 2a3c 3465 3ebc 6caa 653c f539 9bbc
00000090: 42fa 223d 0010 8f3c 8a98 3cb9 b45a babb
000000a0: 07c3 1d3d 6b21 ddbc 411c f0ba 0d3d ce3c
000000b0: 3818 8f3c 48ed a93c 68a2 80bc c770 1d3d
000000c0: 3ac8 523c 4882 b2bc f734 b43c 794a 033d
000000d0: 3387 333d e8c2 353c 0852 e3bc ad8d 9a3a
000000e0: 55c1 35bd f782 fabc 2836 96bc c063 91bc
000000f0: 10db 96bc 66bc 63bc ee34 b83b 6b56 cc3c
00000100: f9e9 68bb 3cfb c23c f87c 683c 3c7d 3f3d
00000110: 5fe7 a73c a040 853c 8940 713c 8e8c 6abc
00000120: 7b61 90bc a1c4 4fbd 525c 51bc ea08 f0bc
00000130: 56cd 1ebc 4c39 6e3c 6fc2 923c a983 16bd
00000140: a560 1abc 9071 11bc c319 f23c e495 24bc
00000150: e62b aebc cc90 2abb c42f e83b 522b 2f3d
00000160: 2292 933d 055c e83c 578e 0fb8 3101 40bd
00000170: e654 c93c a560 673c 9cc6 143c 55d0 5bbd
00000180: 9bee 2f3c b9d1 83bc ca12 39bd 75b4 423c
00000190: d1b7 fdbc b83b dcbc bbbc c23b 1a7e 1e3b
000001a0: 53b8 06bc 2813 c63c d0c0 64bc 1a80 03bb
000001b0: 12b1 2c3c 92a2 673c 0b1b 26bd d511 84bb
000001c0: 0dd2 7a3c 377f 07bc c853 30bc 157c b4bc
000001d0: 52ff e63c 5132 a83c aede 68bc 059c e03b
000001e0: 9b6e 1d3d 4c89 2b3d d6b8 873c e012 0abc
000001f0: a42d b2bb bbf0 4ebc af30 15bd c5cb b53c
00000200: c697 c2bc 4e47 afbb b875 70bc 51c6 41bb
00000210: 7b0e c33c a4a5 4b3d f9a6 313c a4e9 84bc
00000220: ff22 55bb d876 72bc 4c4b 193d 6fb9 423d
00000230: 0251 093d 60bf 58bd fac7 253c f764 78bb
00000240: 0de7 073d 6f8b 043d d7d1 2ebd 7939 d0bc
00000250: b676 92bc cdd0 1abd 03aa de3c a359 0c3d
00000260: 0bda d1bc 1c95 45bc 06a7 dfbc a60b 2e3c
00000270: d8ef 93bc f1cf d23c f2ae f33b 8cea 4cbd
00000280: d376 f63b 370a e3bc 5672 02bd 3c54 883d
00000290: 8b88 f83c f321 c93b 971c 52bc b5b0 d9bc
000002a0: e046 33bc 6365 a23b d14d d63c 2866 163d
000002b0: fabf 7ebc abc4 e33b 50d1 fcbc 2bab c03c
000002c0: 8e0c 183d 128e 9ebc 5707 23bc 55c5 d93c
000002d0: 59e2 183c 831c e03c dfde 153d f699 9cbc
000002e0: 9882 e13c 14ee 913c b7e9 0c3c 2a86 dabb
000002f0: 1b02 063c ffae 40bb 1b47 dc3c 4b7b 45bc
00000300: 42ca 73bc 22ae 203b 48fc d1bc 3f41 053b
00000310: 8c16 a4bc 8101 d8bc 5ed5 c83b e6a0 38bc
00000320: 25c5 00bc 3c65 2dbd 3cda 06bd dbbc 9abc
00000330: af74 12bd 326c 44bc 472d 43bd f16c 86bd
00000340: 5104 c7bc 5380 473d d63a 0b3d 3751 6abc
00000350: 4dd8 133c e829 10ba 78ea a73d c087 b93b
00000360: fdd2 19bb 746c ebbc f3a0 013d ff3b 213d
00000370: 8f4c fbb7 0321 063d b8e3 353d edfa f53c
00000380: a174 9cbc af09 c33b a65b 143c 763a 5d3b
00000390: 6cf0 0ebc 8afe 03bd 2997 ec3c 8ca3 34bc
000003a0: 9ead d8bc 164c 31bc e0f4 6a3c fc9e b2bc
000003b0: 6272 02bc 1b0e f4bb 76da 2fbc 7f2f 893c
000003c0: 5092 83bc 7525 5e3c fa01 ab3c 2728 ca3c
000003d0: 34f0 ed3c 1aa5 bbb9 849f 7c3c 2258 7bbc
000003e0: a9d4 04bd 4276 0cbd b98a cbbc 7737 37bc
000003f0: d7f6 573c d6a4 223c 0973 113d 47a7 06bd
