resutls/epoch_26.691.pth (torch, 231589 bytes, 5 tensors)

conv1.weight f4 [64, 1, 9, 9]
0	0x3d6ac456	0.057316147
1	0xbd4823c0	-0.04886222
2	0xbcacbfa5	-0.021087477
3	0x3d574536	0.05255624
4	0xbdd5c50b	-0.104379736
5	0x3d877c1e	0.0661547
6	0xbcbd90b8	-0.023140296
7	0x3d68274b	0.056678098
8	0x3c83f8d9	0.01610987
9	0xbc6281d8	-0.0138249025
10	0x3cfbda45	0.030743727
11	0x3bb61528	0.0055567212
12	0x3d263802	0.040580757
13	0xbd314138	-0.043275088
14	0xbc10a280	-0.0088278055
15	0xbc301ce2	-0.010749074
16	0x3c8276c9	0.015925782
17	0xb9672e59	-0.00022047143
18	0x3dc7d75c	0.097578734
19	0x3d10a9de	0.035318248
20	0xbd256124	-0.040375844
21	0xbd879260	-0.06619716
22	0xbc8e5677	-0.017375214
23	0xbd43e566	-0.047826193
24	0xbd1221eb	-0.035676878
25	0x3bbf7d86	0.005843821
26	0x3d8910d0	0.0669266
27	0x3d7ad15b	0.061234813
28	0xbddc88eb	-0.107683025
29	0x3d8f66e2	0.07002045
30	0x3d06254b	0.03275041
31	0x3dda7dbf	0.106685154
32	0x3d96ce3a	0.07363553
33	0xbdcf43f2	-0.101203814
34	0xbdd77427	-0.10520201
35	0xbd583e6b	-0.0527939
36	0x3dc8f3ab	0.09812101
37	0xbc8dc1db	-0.017304352
38	0x3d4904b9	0.04907677
39	0xbd4cc176	-0.049989186
40	0x3de19358	0.11014432
41	0xbd408d4b	-0.047009747
42	0x3da9f7f3	0.08299246
43	0x3aadf343	0.001327135
44	0xbd6dc8da	-0.058052875
45	0x3d6bbe34	0.05755444
46	0xbd6dcb26	-0.058055066
47	0x3d0b15c3	0.0339563
48	0xbcfc1e97	-0.030776305
49	0xbc35f5b8	-0.011105947
50	0xbddb868c	-0.10719022
51	0xbd5c3cc7	-0.0537689
52	0x3d760ab2	0.060068794
53	0xbcdbc282	-0.026826147
54	0x3de31d8b	0.11089619
55	0x3db76685	0.08955101
56	0xbb81305e	-0.0039425334
57	0xbd965395	-0.07340161
58	0x3d8bead3	0.068318985
59	0x3d0b1daf	0.033963855
60	0xbd948907	-0.072526984
61	0x3d9373f7	0.07199853
62	0x3d8ab124	0.06772068
63	0x3dc9db20	0.09856248
64	0xbd7b6ae2	-0.06138123
65	0xbc8d4c10	-0.017248183
66	0xba93d8be	-0.0011279804
67	0x3c8ae63a	0.016955484
68	0xbdadef0b	-0.084928595
69	0xbda2f68a	-0.0795718
70	0x3d76dfa0	0.06027186
71	0xbcd369dc	-0.025807314
72	0x3d5bd3ae	0.05366867
73	0x3bcf5d20	0.00632824
74	0x3d16c742	0.03681112
75	0x3cca8b9c	0.024724774
76	0x3d2504fb	0.040287953
77	0x3d5ce4e3	0.05392922
78	0xbdd52a21	-0.10408426
79	0x3d62a622	0.055334218
80	0xbda05b6f	-0.078299396
81	0xbdb34a74	-0.08754435
82	0x3b593b27	0.003314683
83	0xbcb35d09	-0.021894949
84	0x3d806f61	0.06271244
85	0xbd86397a	-0.065539315
86	0xbdcc70c3	-0.09982445
87	0x3da2b6aa	0.07944997
88	0xbc96f00a	-0.018425006
89	0x3d749474	0.05971189
90	0x3d047cbf	0.03234553
91	0xbdb1bd68	-0.086787045
92	0x3ca0ae70	0.019614428
93	0x3cca11e8	0.024666741
94	0xbd9a0d90	-0.07522118
95	0xbd59f476	-0.05321165
96	0x3d170e14	0.03687866
97	0x3c94c24d	0.018159056
98	0xbd4c5bb3	-0.04989214
99	0xbd179024	-0.037002698
100	0x3dc960e2	0.09832932
101	0xbcbdff91	-0.023193153
102	0x3d78aff0	0.060714662
103	0x3d43619c	0.04770051
104	0xbd941da8	-0.07232219
105	0xbdc36b71	-0.09541977
106	0x3dd7486c	0.1051186
107	0x3b52ec15	0.0032184173
108	0x3d96cf80	0.07363796
109	0x3caae195	0.020859519
110	0x3d0c6f97	0.034286108
111	0x3da84cb2	0.082177535
112	0x3dd97fa4	0.10620049
113	0xbd94f338	-0.07272953
114	0x3c6da0cf	0.014503672
115	0x3da96819	0.08271808
116	0x3da23e9c	0.07922098
117	0x3d897443	0.06711628
118	0xbda85371	-0.0821904
119	0xbda5908b	-0.0808421
120	0xbd89688f	-0.06709396
121	0x3c83b501	0.01607752
122	0x3de74715	0.11292855
123	0xbd8c2cba	-0.068444684
124	0x3d76680f	0.06015783
125	0xbd7d2c85	-0.061810035
126	0xbdd687d5	-0.10475127
127	0xbcbf6180	-0.023361921
128	0x3d855325	0.06509999
129	0x3dd803ff	0.10547637
130	0xbd83f146	-0.06442504
131	0x3ced2b06	0.02895118
132	0x3dcd05e0	0.10010886
133	0x3d9d1673	0.076702975
134	0x3d915101	0.070955284
135	0x3d9ed062	0.077545896
136	0x3d8da68e	0.069165334
137	0x3cec3156	0.028832119
138	0xbd98ff4a	-0.074705675
139	0xbdb7b199	-0.08969421
140	0xbd41001d	-0.04711925
141	0xbc1d81b2	-0.009613441
142	0xbd87045e	-0.0659263
143	0x3d2a6680	0.041601658
144	0x3d005696	0.031332575
145	0xbce4f890	-0.027950555
146	0x3d270294	0.040773943
147	0x3d107206	0.03526499
148	0x3d8d8e99	0.06911964
149	0x3d9c9b5a	0.076468185
150	0xbd15eabf	-0.036600824
151	0x3dde4780	0.10853481
152	0xbc62ec64	-0.013850305
153	0xbc037e46	-0.008025711
154	0xbddf9df4	-0.10918799
155	0xbd99fd27	-0.07518988
156	0xbd8a37d4	-0.067489296
157	0xbd458f69	-0.04823247
158	0x3da0c2cb	0.07849654
159	0xbd184caa	-0.037182488
160	0xbdad842c	-0.084724754
161	0x3d2599a7	0.040429737
162	0x3d122738	0.035681933
163	0x3d93e4a1	0.07221342
164	0xbd68f67a	-0.056875683
165	0x3cd5e1c2	0.026108626
166	0xbd18bc33	-0.037288856
167	0xbcc740cd	-0.024322892
168	0xbdb8268c	-0.08991727
169	0xbd538aad	-0.051645923
170	0xbd1184fb	-0.03552721
171	0x3d4749d4	0.048654392
172	0x3cb3aac0	0.021932006
173	0x3cf13b4d	0.029447222
174	0x3de9fe9e	0.114255175
175	0x3de7a154	0.11310068
176	0x3d9f05a0	0.07764745
177	0x3b5f15a4	0.0034039998
178	0xbd9d952a	-0.076944664
179	0x3db0b4c1	0.08628226
180	0xbcd86b95	-0.026418487
181	0xbbe55888	-0.006999079
182	0xbdbf4d7e	-0.09340952
183	0xbc903093	-0.017601287
184	0xbd86cd28	-0.06582099
185	0x3dd665d6	0.104686424
186	0xbdc45436	-0.095863745
187	0xbdb0ddd9	-0.08636064
188	0xbb8c4e69	-0.004281808
189	0xbd72348f	-0.059132155
190	0x3d29a87a	0.041420437
191	0xbd25a23c	-0.040437922
192	0xbd441ce4	-0.047879115
193	0x3c442db9	0.011973792
194	0x3da996bd	0.08280704
195	0xbda097b8	-0.07841438
196	0x3d547f29	0.051879082
197	0x3d9037f2	0.07041921
198	0x3dde7e7b	0.10863968
199	0xbd9e244d	-0.077217676
200	0x3ce87a87	0.028378738
201	0xbda14de3	-0.07876184
202	0x3dccae40	0.09994173
203	0xbd29f068	-0.041489035
204	0x3d867bbd	0.0656657
205	0x3af1ffb8	0.0018463051
206	0xbc33afb9	-0.0109671885
207	0xbb8402ac	-0.004028639
208	0x3c9cc2b2	0.019135807
209	0x3d5a9009	0.05336002
210	0x3cab2fe2	0.020896856
211	0x3d1d09ef	0.03833955
212	0xbdca9b43	-0.09892895
213	0x3da3058f	0.079600446
214	0x3dc39f39	0.09551854
215	0x3db7ab43	0.089682125
216	0x3da6d56f	0.08146178
217	0xbda483dc	-0.08032963
218	0xbd261985	-0.04055168
219	0x3dcd9f9c	0.10040209
220	0xbda4f51d	-0.08054564
221	0x3dcfd7c4	0.10148576
222	0xbdb6423d	-0.08899353
223	0xbda37d12	-0.0798284
224	0x3d553d4e	0.052060418
225	0xbda56ff5	-0.08077995
226	0xbcd31d9f	-0.02577096
227	0x3da5cd2c	0.08095774
228	0x3db8745a	0.09006567
229	0x3ddee1da	0.108829215
230	0xbcb2885e	-0.02179354
231	0xbdb450a9	-0.08804447
232	0x3ddcaa2e	0.10774647
233	0xbcd2e907	-0.025745882
234	0xbd428867	-0.047493365
235	0x3cd2f655	0.025752226
236	0xbda0d60a	-0.07853325
237	0x3d96fe19	0.07372684
238	0x3d92f546	0.071756884
239	0xbdb5bf99	-0.08874435
240	0xbdbfc743	-0.09364178
241	0xbc417c8a	-0.011809478
242	0x3d34d599	0.044149015
243	0xbb3120a6	-0.0027027517
244	0xbd65aa1c	-0.056070432
245	0x3b3fe501	0.0029280784
246	0xbdd58c66	-0.104271695
247	0xbda06c5f	-0.0783317
248	0xbd97f999	-0.07420654
249	0x3db91468	0.09037095
250	0x3dc65e0c	0.09685907
251	0xbd1f8230	-0.038942516
252	0x3bb89242	0.0056326697
253	0x3d4c9f40	0.04995656
254	0x3c62173e	0.013799487
255	0xbd6269aa	-0.05527655

conv1.bias f4 [64]
0	0xbd5958a2	-0.053063042
1	0x3cb76ebd	0.022391671
2	0xbd906cc8	-0.070519984
3	0xbd2d3924	-0.04229082
4	0x3da171fd	0.0788307
5	0x3d2cc185	0.042176742
6	0x3da6e5c3	0.08149292
7	0xbcb90416	-0.022584956
8	0x3dd1bb6b	0.10240825
9	0x3da03eac	0.07824454
10	0x3d81f6b1	0.06345881
11	0x3d5ce6c0	0.053930998
12	0xbdc2ae7b	-0.09505936
13	0xbd643072	-0.055710264
14	0x3ba0d3b9	0.004908052
15	0x3d1049a0	0.035226464
16	0x3dfa7d04	0.12230876
17	0x3dbf65cb	0.09345587
18	0xbd45b137	-0.04826471
19	0x3d6ddb42	0.05807043
20	0x3d2ca350	0.042147934
21	0xbd620ca7	-0.055187847
22	0xbddbf288	-0.107396185
23	0x3d40ceca	0.04707221
24	0x3c237ca2	0.009978445
25	0x3d03055e	0.03198754
26	0x3d9a109b	0.075226985
27	0xbd057ab5	-0.032587726
28	0xbd2e8f61	-0.042617206
29	0x3d04ac5c	0.032390937
30	0xbd306967	-0.04306927
31	0xbd85ac45	-0.065269984
32	0xbdd60310	-0.10449803
33	0xbdb62aa4	-0.08894852
34	0xbc188ccb	-0.009310911
35	0x3dc31142	0.09524776
36	0xbd8f6f57	-0.07003658
37	0x3ce7f8f5	0.028316954
38	0x3d8566cf	0.0651375
39	0x3ca64feb	0.02030178
40	0xbb4395ec	-0.0029844
41	0x3daea303	0.08527186
42	0xbdd3fe03	-0.10351183
43	0x3dc1fa5c	0.094715804
44	0x3dbba8c2	0.091630474
45	0x3dc4990d	0.095995046
46	0x3dac5295	0.08414189
47	0xbbf0ec02	-0.007352353
48	0xbdae55e7	-0.08512478
49	0xbd8f962e	-0.070110664
50	0xbdb1fcb0	-0.086907744
51	0xbd882a0c	-0.06648645
52	0xbdcac635	-0.09901086
53	0x3d979af5	0.074026026
54	0x3d31a43b	0.043369513
55	0xbd4544c4	-0.048161283
56	0x3c1920f4	0.009346236
57	0x3c73413a	0.014847094
58	0x3b20c336	0.0024530417
59	0x3d8f7de5	0.07006434
60	0x3d343701	0.04399777
61	0xbdb3e08f	-0.087830655
62	0x3dd71f3b	0.105040036
63	0xbd34e09d	-0.04415952

conv2.weight f4 [32, 64, 5, 5]
0	0xbbfc92b2	-0.007707917
1	0x3cdfe725	0.027331898
2	0xbc4c70a2	-0.012478026
3	0xbb393e3f	-0.0028265861
4	0x3b484ab0	0.0030562095
5	0xbca7a44a	-0.020464081
6	0x3ca1ee5e	0.019766983
7	0x3cb14845	0.021640906
8	0xbcb02f44	-0.021506913
9	0xbb83f323	-0.004026787
10	0x3befc743	0.007317455
11	0x3c8dc8f3	0.017307734
12	0x3c599b28	0.013281621
13	0x3a877a42	0.0010336118
14	0x3cb9849b	0.022646239
15	0xbb82e76b	-0.0039948723
16	0x3b0a96b1	0.0021146948
17	0xbc6bf47e	-0.014401553
18	0xbc4bf1d2	-0.012447791
19	0xbc00ef6b	-0.007869582
20	0xbcb13e2b	-0.02163609
21	0xbb25c8b2	-0.0025296626
22	0x3be24de1	0.0069062565
23	0xbc79da32	-0.015249776
24	0xbcaf81fe	-0.02142429
25	0x3ccf2c12	0.025289569
26	0xbc259542	-0.010106387
27	0xbc98c634	-0.018649198
28	0xbbd6f208	-0.006559614
29	0xbc4c85dd	-0.012483087
30	0xbc9c6f74	-0.019096114
31	0xba78590d	-0.0009473719
32	0xbc24015a	-0.010010088
33	0xbbd783c9	-0.0065769893
34	0x3c3de5cb	0.011590431
35	0x3bb683ad	0.005569896
36	0x3cba5ea0	0.022750199
37	0xbcc5dda3	-0.024153536
38	0x3cb66f57	0.022269888
39	0x3c59e516	0.013299247
40	0xbb142cdb	-0.0022609744
41	0x3c9dcef7	0.019263728
42	0x3cc5b729	0.02413519
43	0x3b38c9e6	0.0028196513
44	0x3bd147ab	0.0063867173
45	0xbb7804eb	-0.0037844728
46	0xbaa35eb8	-0.0012464141
47	0xbaf9cbb7	-0.0019057904
48	0xbc5f3a6e	-0.013624771
49	0x3b2c2b3c	0.0026270887
50	0xbc284c34	-0.0102720745
51	0x3c478188	0.012176879
52	0x3b8d3fcc	0.0043105837
53	0xbc8c960b	-0.01716139
54	0x3cc22f87	0.023704303
55	0x3c1e6bf7	0.0096692955
56	0x3c56c7ad	0.01310913
57	0xbcb6f382	-0.02233291
58	0x3cd27fc9	0.025695698
59	0x3c3046bd	0.010759053
60	0xb98fb62d	-0.00027410817
61	0xbc805e8b	-0.015670082
62	0x3bdb8c11	0.006700047
63	0x3c54d3db	0.012989963
64	0x3c228eb0	0.009921715
65	0x3c9bc22f	0.019013492
66	0xbcbc3ace	-0.022977259
67	0xbc99cddc	-0.01877492
68	0x3cd54296	0.026032727
69	0x3cb23366	0.021753024
70	0xbad47e0c	-0.0016211881
71	0x3c5bed10	0.013423219
72	0x3c9448c3	0.018101102
73	0x3c9c195d	0.019055063
74	0xbc481eea	-0.012214402
75	0xbc17430f	-0.009232297
76	0xbc53396f	-0.012892111
77	0xbbc5ca5e	-0.006036087
78	0x3cc83da8	0.024443462
79	0x390ffc9a	0.00013731644
80	0xbca2c9cf	-0.01987162
81	0x3c9d2733	0.01918373
82	0x3c322495	0.01087298
83	0x3bae969c	0.0053280126
84	0xbc489881	-0.012243391
85	0x3c9689c9	0.018376248
86	0xbca2eb7f	-0.019887684
87	0x3c5f59b5	0.013632228
88	0xbac15974	-0.001475139
89	0xbc020408	-0.007935531
90	0xbcb65d74	-0.022261359
91	0x3b800d72	0.003907853
92	0xbc2d17e6	-0.01056478
93	0xbc08a367	-0.008339739
94	0x3c79bd25	0.0152428495
95	0xbc80b0aa	-0.01570924
96	0x3cc60e7f	0.024176834
97	0x3cb28ffb	0.02179717
98	0x3ca424aa	0.020037014
99	0x3b7e03bc	0.003875955
100	0xbcac10f3	-0.021004176
101	0xbc08ed9a	-0.00835743
102	0xbc647b8a	-0.01394547
103	0xbba3cafc	-0.004998563
104	0xbcc861eb	-0.024460753
105	0xbc4f935c	-0.012669411
106	0xbbd5a41a	-0.0065198066
107	0xbaad0b7f	-0.0013202279
108	0xbbf5340c	-0.007483011
109	0x3b8e1155	0.0043355622
110	0xbc55d0cf	-0.013050272
111	0xbc8d01d6	-0.01721279
112	0xbc8e7a57	-0.01739232
113	0x3cc565a0	0.02409631
114	0x3c804b46	0.015660893
115	0xbcacb17d	-0.021080727
116	0xbcab5f36	-0.020919424
117	0x38e4ff1e	0.000109194065
118	0xbc472184	-0.012153987
119	0x3c1c5e2c	0.009543937
120	0xbc1d874e	-0.009614779
121	0x3a82292c	0.0009930483
122	0xbbe7c45f	-0.00707297
123	0xbca3404c	-0.01992812
124	0xbb3b75fb	-0.0028604257
125	0x3ce076ae	0.02740034
126	0x3cc3389a	0.0238307
127	0xbc4e8f15	-0.012607356
128	0x3c314b71	0.010821209
129	0x3cb411e5	0.021981189
130	0x3bf0d353	0.0073494106
131	0x3b64eeb7	0.0034932324
132	0x3ce23462	0.027612869
133	0x3bb64c30	0.0055632815
134	0xbb340910	-0.0027471222
135	0x3ce7dc50	0.028303295
136	0x3c835fa0	0.016036808
137	0xbc212739	-0.009836012
138	0x3cbfff65	0.023437211
139	0x3cb4dbe2	0.022077505
140	0x3ccac66c	0.024752818
141	0xbbe11537	-0.006868984
142	0xbb864c92	-0.0040984834
143	0x3ca6ec2b	0.020376286
144	0x3ca12531	0.019671055
145	0xbc8c7d13	-0.017149484
146	0x3cc4d8c3	0.024029141
147	0x3c80b299	0.015710162
148	0x3c1fd48a	0.009755263
149	0xbc0432c4	-0.008068744
150	0xbb6703b6	-0.0035250015
151	0x3c75fa19	0.015013241
152	0x3b7a5ed0	0.0038203485
153	0x3ca0deec	0.019637547
154	0xbc805b88	-0.015668646
155	0xbc141b13	-0.009039658
156	0xbb4dd81a	-0.0031409324
157	0x3c223bd4	0.009901959
158	0x3c0ae40b	0.008477221
159	0x3c555e00	0.0130229
160	0xbc66b3ae	-0.014080925
161	0xbb99fb33	-0.0046991347
162	0x3c1bb60f	0.009503855
163	0xbc38c7a2	-0.011278065
164	0x3c90d01d	0.017677361
165	0x3c8ee431	0.017442795
166	0x3c5f3efe	0.013625858
167	0x3c56d984	0.013113383
168	0x3c739a0d	0.014868272
169	0xbcaf0ba3	-0.021367854
170	0xbc00ad12	-0.007853763
171	0x3c980192	0.018555436
172	0xbc2d905c	-0.0105935
173	0x3af0fc4a	0.0018385735
174	0xbc0f6352	-0.008751707
175	0x3c152798	0.009103678
176	0x3ae4b2aa	0.0017448266
177	0xba1de1d4	-0.0006022726
178	0x3c1e45d2	0.009660201
179	0x3cce7a2c	0.02520474
180	0x3c1f9467	0.009739972
181	0xbaf1f71d	-0.0018460486
182	0x3cdac36a	0.026704509
183	0xbbce2e82	-0.0062921653
184	0x3c08e552	0.0083554555
185	0x3c3506e6	0.011049008
186	0x3c67a8a9	0.014139333
187	0x3cb97e19	0.022643136
188	0x3c5a788f	0.0133344075
189	0x3aab40e1	0.00130656
190	0x3c9582fb	0.018250933
191	0x3bed98a8	0.007250864
192	0x39a39ad4	0.0003120514
193	0x3c0b9b3c	0.0085208975
194	0xbc594ac2	-0.013262453
195	0x3c086883	0.008325699
196	0xbc50fa9e	-0.012755064
197	0x3c64befe	0.013961552
198	0x3cce29da	0.02516644
199	0xbc340621	-0.010987789
200	0xbcbb6fb0	-0.022880405
201	0x3ca68b2c	0.020330034
202	0xbc552ab3	-0.013010669
203	0x3c85c524	0.016329356
204	0x3c8a9d11	0.016920598
205	0xbc18ce60	-0.009326547
206	0x3a09c283	0.000525512
207	0xbc2abb34	-0.010420609
208	0x3caa7b8a	0.020810861
209	0xbc95f43a	-0.018304933
210	0x3b1d25d2	0.0023978841
211	0xbc64d335	-0.013966371
212	0x3ca3ac88	0.01997973
213	0x3c473e77	0.012160889
214	0x3caef0ce	0.021355059
215	0xbc42a2bc	-0.011879619
216	0x3c097085	0.008388643
217	0xbcadfcd2	-0.021238718
218	0x3c70e77f	0.0147036305
219	0xbc0e18b1	-0.008672879
220	0x3c01c565	0.007920598
221	0x3c43fd5f	0.011962264
222	0xbc80fe08	-0.015746132
223	0x3c61a7fe	0.013772963
224	0xbc2eeeb2	-0.010677027
225	0x3c2d4376	0.010575166
226	0xbbdaa2ba	-0.0066722305
227	0x3b6524ce	0.0034964564
228	0x3b8959ae	0.004191599
229	0x3ca76475	0.020433644
230	0x3bfcbee0	0.0077131838
231	0x3bbf0132	0.005829
232	0xbb33c7c8	-0.0027432311
233	0xbcc4a332	-0.024003599
234	0xbc57c333	-0.013169098
235	0xbbf61d36	-0.0075108064
236	0x3c357961	0.011076302
237	0x38664f8b	5.4910353e-05
238	0x3c0aeb94	0.008479018
239	0xbc7d2fd9	-0.015453302
240	0xbcc6600a	-0.024215717
241	0x3c2a971f	0.010412007
242	0x3c725f2b	0.014793198
243	0x3c57ae7b	0.013164158
244	0x3c8e1c95	0.017347613
245	0xbcbe8a6c	-0.023259364
246	0x3c145281	0.009052874
247	0x3cb01a6b	0.021496972
248	0xbc4d088c	-0.012514245
249	0x3c32721e	0.0108914655
250	0x3c4dc691	0.012559549
251	0x3ba018b6	0.0048857583
252	0xbcc6d8bc	-0.024273269
253	0x3c380ab7	0.011233023
254	0x3cb4a497	0.022051139
255	0xbb7c8d3c	-0.003853633

conv2.bias f4 [32]
0	0xbc534b32	-0.012896346
1	0xbcb0f083	-0.02159906
2	0xbca9de5c	-0.020735912
3	0x3ca3290e	0.019917037
4	0xbc17dc90	-0.009268895
5	0x3babc730	0.005242251
6	0x3c734716	0.014848491
7	0x3c6606c5	0.0140397
8	0x3c92a0f1	0.017899008
9	0xbb949514	-0.004534373
10	0x3a891efa	0.0010461502
11	0x3c8c87be	0.01715457
12	0x38a6e68c	7.9584395e-05
13	0xbc498c91	-0.01230158
14	0xba9084e7	-0.0011025936
15	0x3c7a528d	0.015278471
16	0x3ca7a87e	0.020466086
17	0x3b2e8e97	0.0026635283
18	0xbb895171	-0.004190617
19	0xbcb75b7f	-0.022382496
20	0xbc3bf50c	-0.011471998
21	0x3bce662f	0.0062988023
22	0x3b18c571	0.0023311044
23	0x3c9a8aeb	0.01886507
24	0x3bc19ad0	0.0059083477
25	0x3c21b46d	0.009869677
26	0x3c892319	0.016740369
27	0x3c5b398d	0.01338042
28	0xbb93ae2b	-0.0045068464
29	0x3c889288	0.016671434
30	0x3cc245e9	0.023714976
31	0x3c01520c	0.007893097

conv3.weight f4 [1, 32, 5, 5]
0	0xbc81905f	-0.015815912
1	0x3d12932c	0.035784885
2	0x3ce5891e	0.028019484
3	0xbc90bd07	-0.01766826
4	0x3cf614a0	0.030039132
5	0x3c79a200	0.015236378
6	0x3cfdda88	0.030987993
7	0xbb3000d5	-0.0026855965
8	0xbcdbe8a0	-0.026844323
9	0xbc4004c1	-0.011719883
10	0x3cefb25e	0.029259857
11	0xbbed4a3c	-0.0072415154
12	0x3cced346	0.025247227
13	0x3c68b719	0.01420381
14	0xbbf8f910	-0.00759805
15	0x3c620073	0.013794052
16	0x3cdcffba	0.026977409
17	0x3cdc351a	0.02688079
18	0xbcda6bb8	-0.026662692
19	0xbcad3d0b	-0.021147272
20	0x3c0b04da	0.008485043
21	0xbcdaf9ce	-0.026730444
22	0xbcf4fa40	-0.029904485
23	0x3c42d86f	0.011892422
24	0xbbce8999	-0.006303024
25	0xbc17a5a5	-0.009255801
26	0x3c54bd2f	0.012984558
27	0xbd0d726c	-0.03453295
28	0x3ab8f96b	0.0014112418
29	0xbc874a69	-0.016514974
30	0xbcfb1979	-0.030651795
31	0x3c26852c	0.010163587
32	0x3b936726	0.0044983802
33	0xbc8e38b0	-0.017361015
34	0x3c0415d9	0.0080618495
35	0xbccc30db	-0.02492564
36	0x3d09f86f	0.03368419
37	0x3c3d9971	0.011572228
38	0xbbc057e6	-0.0058698533
39	0xbc3ed1ae	-0.011646671
40	0x3d05362d	0.03252237
41	0xbd07a2d8	-0.033114284
42	0xbbfdf31a	-0.007749927
43	0x3c9ef8b3	0.019405698
44	0x3c3de5b3	0.011590409
45	0x3c71ada2	0.01475087
46	0xbcb2b912	-0.021816764
47	0x3d05362c	0.032522365
48	0x3be9118d	0.007112688
49	0xbce2c435	-0.02768145
50	0x3ce0074e	0.027347233
51	0x3d0661a6	0.03280797
52	0x3d252248	0.040315896
53	0x3c1ed7e6	0.009695029
54	0xbca63fad	-0.020294035
55	0x3c2e18e7	0.010626054
56	0xbcefe969	-0.029286103
57	0xbc71d561	-0.014760346
58	0xbc11023a	-0.0088506285
59	0xbbdfc93a	-0.006829408
60	0xbc0e6112	-0.008690136
61	0x3af51891	0.0018699338
62	0x3c3053b3	0.010762143
63	0x3cc560ae	0.024093952
64	0x3b58e21f	0.0033093763
65	0x3ce2da7c	0.027692072
66	0x3c6e01c9	0.014526793
67	0x3d12a101	0.035798077
68	0x3c780c74	0.015139688
69	0x3c9d4a46	0.019200455
70	0x3cbccb4a	0.023046155
71	0xbb937772	-0.004500323
72	0xba89f1a6	-0.0010524287
73	0xbd015417	-0.031574335
74	0xbb2ec03f	-0.002666488
75	0xbcbfb12e	-0.023399916
76	0xbad24394	-0.0016041868
77	0x3ccb224a	0.024796624
78	0x3d07b711	0.03313357
79	0xbcac4518	-0.02102904
80	0xbb072463	-0.0020621053
81	0x3af2fe8b	0.0018538994
82	0x3cdae178	0.02671884
83	0xbc2c7efc	-0.010528322
84	0xbb642e1f	-0.003481753
85	0x3903bc31	0.0001256324
86	0x3c688f1b	0.014194275
87	0x3c97d230	0.018532842
88	0x3d18af9a	0.03727684
89	0x3d084dd3	0.033277344
90	0x3c0f0dca	0.008731315
91	0xbd0916b4	-0.033468917
92	0x3d063dc8	0.032773763
93	0x3c44c333	0.01200943
94	0x3c8b17e6	0.01697917
95	0xbd09e83d	-0.033668745
96	0x3cdecefe	0.027198311
97	0x3aab5089	0.0013070266
98	0xbcff7e56	-0.031188171
99	0x3cb3c408	0.02194406
100	0xbcdf3994	-0.027249135
101	0xbca8c427	-0.020601345
102	0x3c9462d9	0.01811354
103	0x3c5f492d	0.013628286
104	0x3b81d575	0.0039622136
105	0x3d01659f	0.031591054
106	0xbb574b26	-0.0032851188
107	0x3c2bca0c	0.010485183
108	0x3c9e14a3	0.01929695
109	0x3cd36268	0.02580376
110	0xbce22d2f	-0.027609436
111	0x3c59f8db	0.013303961
112	0x3cfe8f56	0.031074207
113	0x3b9acc9e	0.0047240993
114	0x3b9de9d6	0.004819135
115	0xbc663a70	-0.0140520185
116	0x3d135b0d	0.035975505
117	0x3d015ed8	0.03158459
118	0x3a44357c	0.00074847764
119	0x3cabfac0	0.02099359
120	0x3d08a57b	0.03336094
121	0x3d056089	0.032562766
122	0x3c8f88e4	0.01752133
123	0x3abd924f	0.0014463159
124	0x3b81f942	0.0039664814
125	0xbbec0ff9	-0.0072040525
126	0xbcc094dd	-0.023508484
127	0x3cf3bafb	0.029752245
128	0xbc824a1d	-0.01590448
129	0x3bf9765c	0.0076129865
130	0xbc851fc9	-0.016250508
131	0x3afb6f14	0.0019182884
132	0x3c639aec	0.013891917
133	0x3cf74207	0.030182851
134	0x39f467ea	0.0004661673
135	0xbca86e9a	-0.020560551
136	0x3bbad72c	0.00570192
137	0xbcabb610	-0.020960838
138	0x3c490779	0.012269848
139	0x3cee5265	0.029092023
140	0x3cf95899	0.030437754
141	0xbd1162fe	-0.035494797
142	0x3cba4e77	0.022742493
143	0xbc058c6e	-0.008151157
144	0x3cde352c	0.027124964
145	0x3cba329d	0.022729212
146	0xbcdf680a	-0.02727129
147	0xbb891d60	-0.00418441
148	0xbbf09058	-0.007341426
149	0xbce9be29	-0.028533058
150	0x3cc70805	0.024295816
151	0x3cfe41ae	0.031037178
152	0xbceed329	-0.029153423
153	0xbba8a3c1	-0.005146474
154	0xbc492447	-0.012276716
155	0x3c0667eb	0.008203487
156	0xbc365713	-0.011129159
157	0x3d19e185	0.037568588
158	0x3c267c9f	0.010161548
159	0xbcff9b6b	-0.031202039
160	0x3c13f281	0.009029985
161	0xbc01e886	-0.007928973
162	0xbc944bb5	-0.018102506
163	0x3d163a81	0.036676887
164	0x3cb176ca	0.021663088
165	0x3b0992e9	0.0020992106
166	0xba321724	-0.00067936094
167	0x39fc484d	0.00048119054
168	0xbbdef0a1	-0.0068035875
169	0x3c0b861b	0.00851586
170	0x3c45c9ac	0.012072008
171	0x3cc1a7ff	0.023639677
172	0xbc82a7b2	-0.015949104
173	0x3c95c186	0.018280756
174	0xbcbd64fa	-0.023119438
175	0x3c94cb3c	0.018163316
176	0x3cfdbaee	0.030972924
177	0xbcd0be21	-0.025481286
178	0xbc83f388	-0.016107336
179	0x3ca622d0	0.020280272
180	0x3b85d868	0.0040846355
181	0x3cae7f61	0.021300973
182	0x3cfa06d7	0.03052084
183	0xbcce8c05	-0.02521325
184	0x3cae6337	0.021287544
185	0x3c554085	0.013015871
186	0x3b3e434a	0.0029031807
187	0xbc4ba9b0	-0.012430593
188	0x3b1a04da	0.0023501427
189	0xbc13e749	-0.009027311
190	0x3cb6337b	0.022241345
191	0xbc8e951e	-0.017405089
192	0xbca6cd12	-0.020361457
193	0xbb521e4c	-0.0032061515
194	0xbd00338c	-0.03129916
195	0xbb443813	-0.002994065
196	0xbcd3b563	-0.025843328
197	0xbd0443fd	-0.0322914
198	0xb7b73338	-2.183915e-05
199	0xbc90683b	-0.017627826
200	0xbb2cd27b	-0.0026370573
201	0xbcb9837c	-0.022645704
202	0x3b843112	0.00403417
203	0x3c6bcf6c	0.014392715
204	0xbca1350e	-0.019678619
205	0xbc069f78	-0.008216731
206	0xbd072d8d	-0.033002425
207	0xbd05bc35	-0.03265019
208	0xbc83c41b	-0.016084721
209	0x3c71fd6e	0.014769895
210	0x3c8f9067	0.017524911
211	0xbcb1fd54	-0.021727242
212	0x3c88324e	0.01662555
213	0xbc8da018	-0.017288253
214	0x3d064ef5	0.032790143
215	0xbc0846df	-0.008317678
216	0xbbeeb2c0	-0.0072844923
217	0xbcca27aa	-0.024677116
218	0x3cec2c13	0.02882961
219	0x3cc271a6	0.023735832
220	0xbb88201b	-0.004154218
221	0x3c9d3186	0.019188654
222	0x3cb6f45d	0.022333318
223	0x3c83b762	0.016078655
224	0xbc937a42	-0.018002633
225	0x3c4bf483	0.012448433
226	0x3c80ee7b	0.015738716
227	0x3c2bb2d2	0.010479646
228	0xbacf9382	-0.0015836807
229	0xbcce9ce8	-0.025221303
230	0x3d135177	0.035966363
231	0xbb6a4d86	-0.0035751774
232	0xbc981055	-0.018562475
233	0xbb3c60f4	-0.0028744312
234	0x3cb4f9fb	0.022091856
235	0xbc6af4a0	-0.01434055
236	0xb9a33a2b	-0.0003113312
237	0x3a39a543	0.0007081816
238	0xbb27b59c	-0.0025590425
239	0x3ccb0a98	0.024785325
240	0xbc259d46	-0.010108298
241	0x3ca1f7ec	0.019771539
242	0x3ce20213	0.02758888
243	0x3d00d726	0.03145518
244	0x3d1292ef	0.035784658
245	0x3ba67c65	0.005080747
246	0x3cac398c	0.021023534
247	0xbc18b33d	-0.0093200775
248	0xbcd7da2f	-0.026349155
249	0xbce73b0c	-0.028226398
250	0xbc8779d1	-0.016537579
251	0xbb33d4df	-0.0027440113
252	0x3cbf2d8a	0.023337144
253	0x3c71922b	0.014744322
254	0x3cefbd5e	0.029265102
255	0xbcce0fcd	-0.025154019
