resutls/epoch_27.026.pth (torch, 231589 bytes, 5 tensors)

conv1.weight f4 [64, 1, 9, 9]
0	0x3d6afe03	0.05737115
1	0xbd47cc8c	-0.048779055
2	0xbcaa153d	-0.02076208
3	0x3d57aba1	0.052653912
4	0xbdd5c505	-0.10437969
5	0x3d877c1e	0.0661547
6	0xbcbb0a9b	-0.022832206
7	0x3d68809d	0.05676328
8	0x3c8610f0	0.016365498
9	0xbc6064ca	-0.013695905
10	0x3cfd5393	0.03092364
11	0x3bbdf633	0.0057971715
12	0x3d266666	0.040625
13	0xbd31222b	-0.043245476
14	0xbc0dd81b	-0.008657481
15	0xbc2c56b7	-0.010518721
16	0x3c84cfe5	0.016212413
17	0x385f1e27	5.3195425e-05
18	0x3dc7d75f	0.09757876
19	0x3d10deb2	0.03536863
20	0xbd250001	-0.040283207
21	0xbd879254	-0.06619707
22	0xbc8bfb5b	-0.017087629
23	0xbd43c68f	-0.047796782
24	0xbd11fb88	-0.03564027
25	0x3bc97774	0.006148273
26	0x3d8910d1	0.066926606
27	0x3d7af12d	0.06126516
28	0xbddc88d8	-0.107682884
29	0x3d8f673e	0.07002114
30	0x3d072900	0.032998085
31	0x3dda7dd6	0.106685326
32	0x3d96ce3a	0.07363553
33	0xbdcf43f2	-0.101203814
34	0xbdd77427	-0.10520201
35	0xbd57f54a	-0.05272416
36	0x3dc8f3b7	0.0981211
37	0xbc8a5404	-0.016885765
38	0x3d4a944c	0.049457833
39	0xbd4b125e	-0.049578063
40	0x3de19376	0.11014454
41	0xbd407455	-0.046985943
42	0x3da9f7f3	0.08299246
43	0x3ac1447c	0.0014745141
44	0xbd6d8ba0	-0.057994485
45	0x3d6c0c66	0.05762901
46	0xbd6cf01b	-0.05784617
47	0x3d0c82be	0.034304373
48	0xbcf81341	-0.030282618
49	0xbc3144aa	-0.010819593
50	0xbddb868e	-0.10719024
51	0xbd5c81b5	-0.053834636
52	0x3d75f5f5	0.060049016
53	0xbcdb2f3a	-0.026755918
54	0x3de31dd2	0.11089672
55	0x3db76849	0.08955438
56	0xbb5cc018	-0.0033683833
57	0xbd96531b	-0.0734007
58	0x3d8bead3	0.068318985
59	0x3d0ae5f9	0.033910725
60	0xbd94897e	-0.07252787
61	0x3d9373e9	0.071998425
62	0x3d8ab124	0.06772068
63	0x3dc9db68	0.098563015
64	0xbd79a9f8	-0.06095311
65	0xbc8802b7	-0.016602857
66	0xba21c483	-0.0006170945
67	0x3c8c9081	0.017158749
68	0xbdadef0b	-0.084928595
69	0xbda2f695	-0.07957188
70	0x3d76bbc9	0.06023768
71	0xbcd40581	-0.02588153
72	0x3d5bfb62	0.053706534
73	0x3bdf18db	0.006808383
74	0x3d191803	0.037376415
75	0x3ccf521e	0.025307711
76	0x3d2572b1	0.04039258
77	0x3d5ce5ab	0.053929966
78	0xbdd52a21	-0.10408426
79	0x3d629e6f	0.055326875
80	0xbda05b6f	-0.078299396
81	0xbdb3367c	-0.087506264
82	0x3b84e9cb	0.0040561906
83	0xbcae3162	-0.021263782
84	0x3d8097ce	0.062789544
85	0xbd8614b8	-0.065469205
86	0xbdcc4d34	-0.09975663
87	0x3da2c05e	0.079468474
88	0xbc9594ee	-0.018259492
89	0x3d74da97	0.059778776
90	0x3d069a1e	0.03286182
91	0xbdb1637f	-0.086615555
92	0x3ca65617	0.020304723
93	0x3ccfcb97	0.025365634
94	0xbd99e992	-0.07515253
95	0xbd57c01f	-0.052673455
96	0x3d181924	0.03713335
97	0x3c9508db	0.0181927
98	0xbd4c6200	-0.049898148
99	0xbd148e09	-0.036268268
100	0x3dca072b	0.098646484
101	0xbcb79f04	-0.022414692
102	0x3d7bc981	0.061471466
103	0x3d45dbeb	0.048305433
104	0xbd94070d	-0.07227907
105	0xbdc36825	-0.09541348
106	0x3dd747ec	0.10511765
107	0x3b518174	0.003196803
108	0x3d96f3a5	0.0737069
109	0x3cb19bc3	0.021680718
110	0x3d0ef022	0.034896977
111	0x3da8630d	0.082220174
112	0x3dd9926d	0.106236316
113	0xbd94e5d1	-0.072703965
114	0x3c714ffb	0.0147285415
115	0x3da96703	0.08271601
116	0x3da23c95	0.07921711
117	0x3d897950	0.06712592
118	0xbda847a9	-0.08216793
119	0xbda58e40	-0.08083773
120	0xbd89665b	-0.06708976
121	0x3c85ecc3	0.016348248
122	0x3de74eee	0.112943515
123	0xbd8c2a2f	-0.068439834
124	0x3d764a60	0.060129523
125	0xbd7d816a	-0.061890997
126	0xbdd67e9f	-0.1047337
127	0xbcbab74b	-0.022792479
128	0x3d855dfc	0.06512067
129	0x3dd81eeb	0.10552772
130	0xbd83916f	-0.06424224
131	0x3cf4589e	0.029827412
132	0x3dcd8b22	0.10036303
133	0x3d9d2b4a	0.07674272
134	0x3d91555f	0.07096361
135	0x3d9eda22	0.07756449
136	0x3d8dc6bd	0.06922672
137	0x3cf042e5	0.029328773
138	0xbd98c275	-0.07458965
139	0xbdb6d630	-0.08927572
140	0xbd3c1163	-0.04591502
141	0xbc0b509d	-0.008503106
142	0xbd86ac0c	-0.06575784
143	0x3d2c4c67	0.04206505
144	0x3d026bf7	0.031841245
145	0xbcdf29b9	-0.027241575
146	0x3d294099	0.04132137
147	0x3d13e596	0.036107622
148	0x3d8e9565	0.069620885
149	0x3d9e66b2	0.07734431
150	0xbd111549	-0.03542069
151	0x3dde9794	0.10868755
152	0xbc59d794	-0.013296027
153	0xbbf15186	-0.0073644547
154	0xbddf4aed	-0.10902963
155	0xbd99e276	-0.07513897
156	0xbd89ebc7	-0.06734424
157	0xbd41ff02	-0.047362335
158	0x3da188d0	0.07887423
159	0xbd14c653	-0.03632195
160	0xbdad69c4	-0.08467439
161	0x3d276355	0.040866215
162	0x3d135802	0.035972603
163	0x3d93f4d1	0.072244294
164	0xbd687b1a	-0.056758024
165	0x3cd7444c	0.026277684
166	0xbd176e87	-0.03697064
167	0xbcc4cb46	-0.02402271
168	0xbdb8257a	-0.08991523
169	0xbd52f112	-0.051499434
170	0xbd114687	-0.03546765
171	0x3d4837d1	0.048881356
172	0x3cb70c21	0.02234465
173	0x3cf3362d	0.029688919
174	0x3dea07ec	0.11427292
175	0x3de7e6ad	0.11323295
176	0x3d9f1403	0.07767489
177	0x3b692d4a	0.0035579973
178	0xbd9d94dd	-0.07694409
179	0x3db0b26d	0.08627782
180	0xbcd5feb3	-0.026122427
181	0xbbd66e30	-0.006543897
182	0xbdbf41ef	-0.09338748
183	0xbc8b5b61	-0.017011346
184	0xbd85db41	-0.0653596
185	0x3dd697dd	0.10478184
186	0xbdc45278	-0.09586042
187	0xbdb0dddc	-0.08636066
188	0xbb955205	-0.0045568966
189	0xbd7175c8	-0.058950216
190	0x3d2b466d	0.04181521
191	0xbd23ee65	-0.040022273
192	0xbd40df9a	-0.047088243
193	0x3c56d588	0.013112433
194	0x3da9e98e	0.082965
195	0xbda096c0	-0.07841253
196	0x3d543f93	0.05181844
197	0x3d901e03	0.07036974
198	0x3dde8012	0.10864271
199	0xbd9e17a8	-0.07719356
200	0x3cec3549	0.028834002
201	0xbda0bbeb	-0.078483425
202	0x3dcea1d5	0.10089461
203	0xbd273353	-0.04082043
204	0x3d867bca	0.0656658
205	0x3ad1b73c	0.0016000043
206	0xbc3d37a6	-0.011548912
207	0xbb88ea89	-0.0041783494
208	0x3c9d5bed	0.019208873
209	0x3d5b117f	0.053483482
210	0x3caff39c	0.021478467
211	0x3d2124cb	0.03934173
212	0xbdca7e2e	-0.09887348
213	0x3da304bb	0.07959887
214	0x3dc39a49	0.09550912
215	0x3db77652	0.08958115
216	0x3da6d499	0.081460185
217	0xbda4809b	-0.08032342
218	0xbd2519bb	-0.04030774
219	0x3dcdf74a	0.10056932
220	0xbda37620	-0.07981515
221	0x3dd029f5	0.10164253
222	0xbdb64013	-0.0889894
223	0xbda37d24	-0.07982853
224	0x3d54bbe8	0.051937014
225	0xbda57036	-0.08078043
226	0xbcd120ba	-0.0255283
227	0x3da5d39a	0.080970004
228	0x3db8d332	0.09024657
229	0x3de0b349	0.10971696
230	0xbcab15c2	-0.020884398
231	0xbdb43c91	-0.088006146
232	0x3ddcae98	0.107754886
233	0xbcd19ba8	-0.025586918
234	0xbd42db4f	-0.04757243
235	0x3cd31458	0.025766537
236	0xbda0d5dd	-0.07853291
237	0x3d9709e4	0.07374933
238	0x3d939544	0.072062045
239	0xbdb5708d	-0.08859358
240	0xbdbfb893	-0.093613766
241	0xbc3b42ea	-0.011429528
242	0x3d359204	0.044328704
243	0xbb248f7c	-0.0025109937
244	0xbd65a76f	-0.05606788
245	0x3b4943aa	0.0030710497
246	0xbdd58c67	-0.1042717
247	0xbda06c5f	-0.0783317
248	0xbd97f999	-0.07420654
249	0x3db91468	0.09037095
250	0x3dc65e0c	0.09685907
251	0xbd1f83b5	-0.038943965
252	0x3bbf3a37	0.005835797
253	0x3d4ca310	0.049960196
254	0x3c640027	0.013916052
255	0xbd62659e	-0.05527269

conv1.bias f4 [64]
0	0xbd58260a	-0.052770652
1	0x3cc4ffca	0.024047751
2	0xbd8fd774	-0.07023516
3	0xbd2ccb8e	-0.042186312
4	0x3da3f16c	0.08005032
5	0x3d2d536f	0.042315897
6	0x3da6e4be	0.08149098
7	0xbcb319f9	-0.02186297
8	0x3dd1bb6b	0.10240825
9	0x3d9d32c7	0.07675701
10	0x3d832c22	0.06404902
11	0x3d5d2999	0.05399475
12	0xbdc2ae7b	-0.09505936
13	0xbd5e85f8	-0.05432698
14	0x3bdca27e	0.0067332378
15	0x3d134fc2	0.035964735
16	0x3df4df41	0.11956645
17	0x3dc015c2	0.0937915
18	0xbd467466	-0.04845085
19	0x3d6de149	0.058076177
20	0x3d326344	0.0435517
21	0xbd5cb2a5	-0.053881306
22	0xbddb1539	-0.10697407
23	0x3d40cc38	0.04706976
24	0x3c6afd32	0.014342593
25	0x3d12530a	0.035723723
26	0x3d9b3cd6	0.07579963
27	0xbd0a316e	-0.033738546
28	0xbd2f0a5c	-0.04273449
29	0x3d084945	0.033273
30	0xbd306967	-0.04306927
31	0xbd85ac45	-0.065269984
32	0xbdd1c207	-0.10242086
33	0xbdb6b372	-0.08920945
34	0xbc2e2989	-0.01063002
35	0x3dc35f4f	0.09539663
36	0xbd8f6f57	-0.07003658
37	0x3cce8c73	0.025213456
38	0x3d81ffe5	0.06347636
39	0x3cae500d	0.021278406
40	0xbb4307c2	-0.0029759263
41	0x3dae4e9e	0.08511089
42	0xbdd3fd89	-0.10351092
43	0x3dc5f73c	0.09666297
44	0x3dbbaa13	0.091632985
45	0x3dc4d758	0.09611386
46	0x3dac9895	0.0842754
47	0xbbf0ebf8	-0.0073523484
48	0xbdaa9550	-0.0832926
49	0xbd8f962e	-0.070110664
50	0xbdace353	-0.08441796
51	0xbd882a0c	-0.06648645
52	0xbdcac635	-0.09901086
53	0x3d9797be	0.074019894
54	0x3d31cc21	0.043407563
55	0xbd4544c4	-0.048161283
56	0x3c450794	0.012025733
57	0x3c77483b	0.015092905
58	0x3b873c60	0.0041270703
59	0x3d927050	0.07150328
60	0x3d359228	0.04432884
61	0xbdb3ebff	-0.08785247
62	0x3dd7c73c	0.10536048
63	0xbd3c5e70	-0.0459885

conv2.weight f4 [32, 64, 5, 5]
0	0xbbf2e7ac	-0.0074128713
1	0x3ce14277	0.027497513
2	0xbc499bbc	-0.012305196
3	0xbb3d4122	-0.0028877934
4	0x3b2ae85e	0.0026078443
5	0xbca3bfa5	-0.019988844
6	0x3ca38995	0.019963065
7	0x3cb1c201	0.021698954
8	0xbcb1e5cc	-0.021716021
9	0xbb993137	-0.0046750563
10	0x3c02decc	0.007987689
11	0x3c914aac	0.017735802
12	0x3c5d50c0	0.013508022
13	0x3a74ab8a	0.00093334226
14	0x3cb542dc	0.022126608
15	0xbb6144a2	-0.0034373184
16	0x3b20acc9	0.002451705
17	0xbc68eca6	-0.014216578
18	0xbc4e18d2	-0.01257916
19	0xbc09ff35	-0.0084226625
20	0xbcac3d1a	-0.02102523
21	0xbb0718d8	-0.0020614173
22	0x3bef79f5	0.0073082396
23	0xbc77f9ab	-0.015135209
24	0xbcb1ef9d	-0.021720702
25	0x3ccf741e	0.025323924
26	0xbc223003	-0.009899142
27	0xbc986167	-0.018601133
28	0xbbd98354	-0.00663797
29	0xbc50bc95	-0.012740274
30	0xbc990488	-0.018678918
31	0xb9bc139f	-0.00035872773
32	0xbc1d1512	-0.009587543
33	0xbbd1721f	-0.006391778
34	0x3c3bb850	0.011457518
35	0x3bbfafdd	0.005849822
36	0x3cbd794b	0.023129126
37	0xbcc50031	-0.024047943
38	0x3cb4628a	0.022019643
39	0x3c4ecbb5	0.01262181
40	0xbaf7ad1f	-0.0018896199
41	0x3ca140e6	0.019684266
42	0x3cc633a9	0.024194555
43	0x3b1fa104	0.0024357447
44	0x3bb49ad5	0.0055116215
45	0xbb5f0be9	-0.0034034199
46	0xba56fe59	-0.0008201353
47	0xbaf63ccf	-0.0018786433
48	0xbc6595e0	-0.014012784
49	0x3aef551f	0.0018259621
50	0xbc2f2744	-0.010690514
51	0x3c3ecd94	0.011645693
52	0x3b7861f2	0.0037900177
53	0xbc8f9e79	-0.01753162
54	0x3cc15871	0.023601742
55	0x3c1d9c97	0.009619853
56	0x3c534ccf	0.012896731
57	0xbcb78922	-0.022404257
58	0x3cd3b6f7	0.02584408
59	0x3c37d0cb	0.011219214
60	0xb9864f53	-0.00025617573
61	0xbc8153cd	-0.01578703
62	0x3bd77dbe	0.006576269
63	0x3c55ec09	0.013056763
64	0x3c285897	0.010275028
65	0x3c9e6cda	0.019339014
66	0xbcbbaa4b	-0.02290835
67	0xbc9a0a9d	-0.018803889
68	0x3cd458d0	0.025921255
69	0x3cb29f2b	0.021804413
70	0xba8c9d6d	-0.0010728069
71	0x3c60ced5	0.013721188
72	0x3c94042b	0.018068394
73	0x3c987035	0.018608192
74	0xbc4dca5d	-0.012560454
75	0xbc17430f	-0.009232297
76	0xbc53396f	-0.012892111
77	0xbbc26ef7	-0.005933638
78	0x3cc83da7	0.02444346
79	0x3929a5cb	0.00016178859
80	0xbca2c9cf	-0.01987162
81	0x3c9d2733	0.01918373
82	0x3c3350eb	0.010944585
83	0x3bb2f862	0.0054617384
84	0xbc484429	-0.012223282
85	0x3c9689c9	0.018376248
86	0xbca2eb7f	-0.019887684
87	0x3c60c3b4	0.013718534
88	0xbaab4216	-0.001306596
89	0xbc008f0c	-0.007846605
90	0xbcb65d74	-0.022261359
91	0x3b80e8fe	0.003934025
92	0xbc29cd74	-0.010363925
93	0xbc03f0cd	-0.008053017
94	0x3c7c8d3c	0.015414532
95	0xbc80b0aa	-0.01570924
96	0x3cc60e7f	0.024176834
97	0x3cb2ef63	0.021842664
98	0x3ca57102	0.020195488
99	0x3b850c63	0.0040603145
100	0xbca940f0	-0.020660847
101	0xbc053402	-0.008130075
102	0xbc650fcc	-0.013980817
103	0xbba6563f	-0.0050761993
104	0xbcc79e91	-0.024367603
105	0xbc4ab0a1	-0.012371213
106	0xbbd06e51	-0.006360807
107	0xbab59818	-0.0013854532
108	0xbbfa4cc4	-0.0076385457
109	0x3b8c4b03	0.004281403
110	0xbc4f6643	-0.012658658
111	0xbc8b9710	-0.017039806
112	0xbc8e61c0	-0.017380595
113	0x3cc4af6b	0.024009427
114	0x3c7da355	0.015480836
115	0xbca97f04	-0.020690449
116	0xbca9f62f	-0.020747272
117	0x38f5fc8e	0.00011729552
118	0xbc48ea28	-0.012262858
119	0x3c19a149	0.009376832
120	0xbc1a9a61	-0.009436221
121	0x3a8c02a0	0.0010681935
122	0xbbec86dc	-0.007218225
123	0xbca3e1e6	-0.020005178
124	0xbb4013a6	-0.0029308586
125	0x3ce1204d	0.027481223
126	0x3cc2c192	0.023773942
127	0xbc4d7ebf	-0.012542426
128	0x3c36891c	0.011141088
129	0x3cb60556	0.022219341
130	0x3bfd1365	0.0077232593
131	0x3b7ffb7d	0.003905981
132	0x3ce79f36	0.02827416
133	0x3bd2ca22	0.0064327875
134	0xbb0e6904	-0.0021730075
135	0x3ce86b19	0.02837138
136	0x3c857886	0.016292822
137	0xbc16b19e	-0.009197621
138	0x3cc6eb3d	0.024282092
139	0x3cb8a9e5	0.02254195
140	0x3cca71ba	0.024712432
141	0xbbdcf5a9	-0.006743152
142	0xbb6b9334	-0.0035945894
143	0x3cad2255	0.021134535
144	0x3ca5671d	0.02019077
145	0xbc8d94f9	-0.01728295
146	0x3cc383f1	0.023866626
147	0x3c81216e	0.01576301
148	0x3c24c62c	0.0100570135
149	0xbc012bb2	-0.007883953
150	0xbb69f0c6	-0.003569649
151	0x3c75f3e4	0.015011761
152	0x3b77a8f6	0.0037789918
153	0x3ca0deeb	0.019637546
154	0xbc805b88	-0.015668646
155	0xbc142089	-0.00904096
156	0xbb507f5b	-0.003181419
157	0x3c22378d	0.00990094
158	0x3c0adf15	0.008476038
159	0x3c555a01	0.013021947
160	0xbc66b8b0	-0.014082119
161	0xbb9a9280	-0.004717171
162	0x3c1bb2cb	0.009503077
163	0xbc38cb72	-0.011278974
164	0x3c90d01d	0.017677361
165	0x3c8ee431	0.017442795
166	0x3c5f3beb	0.013625125
167	0x3c56d748	0.0131128505
168	0x3c739767	0.01486764
169	0xbcaf0ba3	-0.021367854
170	0xbc00afbb	-0.007854397
171	0x3c980192	0.018555436
172	0xbc2d9205	-0.010593896
173	0x3aec71e2	0.0018039311
174	0xbc0f6805	-0.0087528275
175	0x3c144b5e	0.009051172
176	0x3acd82d1	0.0015679245
177	0xba59c1d3	-0.0008306775
178	0x3c1aee06	0.009456163
179	0x3ccd1ed1	0.025039108
180	0x3c201b6a	0.009772161
181	0xbafff55b	-0.0019528078
182	0x3cda9434	0.026681997
183	0xbbca5d85	-0.006175699
184	0x3c09cae2	0.008410187
185	0x3c37ddb8	0.011222295
186	0x3c68fcf6	0.014220467
187	0x3cbbe448	0.022936001
188	0x3c60d102	0.013721706
189	0x3ac14144	0.0014744182
190	0x3c953652	0.018214379
191	0x3be8c03c	0.0071029942
192	0x397d2c44	0.0002414445
193	0x3c0a1aef	0.008429273
194	0xbc5f6ebe	-0.013637243
195	0x3c0aa146	0.008461302
196	0xbc50e51b	-0.0127499355
197	0x3c628d50	0.013827637
198	0x3ccb2b55	0.024800936
199	0xbc3fcc7e	-0.01170647
200	0xbcbb71ec	-0.02288147
201	0x3ca68ab1	0.020329805
202	0xbc5520be	-0.013008295
203	0x3c85c522	0.016329352
204	0x3c8a9d0c	0.016920589
205	0xbc196db8	-0.009364538
206	0x3a16a2de	0.0005746315
207	0xbc26fbba	-0.010191852
208	0x3caa7bba	0.02081095
209	0xbc95f43c	-0.018304937
210	0x3b1ac771	0.0023617411
211	0xbc621666	-0.0137992855
212	0x3ca567af	0.020191042
213	0x3c4acea2	0.012378367
214	0x3caef0cc	0.021355055
215	0xbc42ba3b	-0.011885221
216	0x3c0a7951	0.008451776
217	0xbcade0a9	-0.02122529
218	0x3c71bde3	0.014754745
219	0xbc0e1f0b	-0.008674393
220	0x3c01b690	0.007917061
221	0x3c4422bb	0.011971171
222	0xbc80fda7	-0.01574595
223	0x3c61a855	0.013773044
224	0xbc2f0099	-0.010681295
225	0x3c2de49e	0.010613589
226	0xbbd52dd5	-0.0065057077
227	0x3b6a0b46	0.0035712286
228	0x3b87b6b7	0.0041416544
229	0x3ca5b7b4	0.020229198
230	0x3bfed69b	0.007777048
231	0x3bc5a37e	0.0060314527
232	0xbb300742	-0.0026859795
233	0xbcc66377	-0.02421735
234	0xbc6028de	-0.0136816185
235	0xbbe98983	-0.0071269884
236	0x3c3c401a	0.011489892
237	0x393c8ed0	0.00017982279
238	0x3c05176e	0.008123262
239	0xbc8578b4	-0.016292907
240	0xbcc1e5c9	-0.02366914
241	0x3c3262d1	0.0108878175
242	0x3c73b9da	0.014875853
243	0x3c4ecebd	0.012622532
244	0x3c8453fd	0.01615333
245	0xbcba3e61	-0.022734823
246	0x3c1a7bba	0.009428913
247	0x3caf9a22	0.021435801
248	0xbc58d64a	-0.013234684
249	0x3c1c2ff7	0.00953292
250	0x3c4dac1f	0.012553244
251	0x3b9e5a08	0.00483251
252	0xbcc6d8d7	-0.02427332
253	0x3c37c7df	0.011217087
254	0x3cb4a464	0.022051044
255	0xbb80325d	-0.003912254

conv2.bias f4 [32]
0	0xbc5bdcc3	-0.013419333
1	0xbcb1e48f	-0.02171543
2	0xbcb0ce00	-0.021582603
3	0x3ca9bdfa	0.02072047
4	0xbc34f275	-0.011044134
5	0x3bd2a29d	0.0064280764
6	0x3c617ae9	0.013762214
7	0x3c61752f	0.013760849
8	0x3c93deb3	0.018050527
9	0xbb99f1b3	-0.0046980022
10	0x384e72d4	4.922117e-05
11	0x3ca0bf78	0.01962255
12	0x3a948f39	0.0011334188
13	0xbc402450	-0.011727408
14	0xbaa27cb7	-0.0012396787
15	0x3c675aa8	0.014120735
16	0x3ca65095	0.020302096
17	0x3b241548	0.0025037099
18	0xbb9298c2	-0.0044737766
19	0xbcbb6913	-0.022877252
20	0xbc3463c0	-0.01101011
21	0x3bb0f6d3	0.0054005175
22	0x3b6c0400	0.0036013126
23	0x3cac5830	0.021038145
24	0x3bca0de6	0.0061662076
25	0x3c20ae2a	0.009807149
26	0x3c83975a	0.016063381
27	0x3c4835fc	0.012219902
28	0xbb9209d3	-0.0044567375
29	0x3c90e93a	0.017689336
30	0x3cc495d7	0.02399723
31	0x3bdd5772	0.006754809

conv3.weight f4 [1, 32, 5, 5]
0	0xbc82ffbc	-0.015991084
1	0x3d12cbfd	0.03583907
2	0x3ce83d6c	0.0283496
3	0xbc923af7	-0.017850382
4	0x3cf3b217	0.029748006
5	0x3c78e956	0.01519235
6	0x3cffdc35	0.031232933
7	0xbb0db303	-0.0021621592
8	0xbcdce49b	-0.026964476
9	0xbc456865	-0.012048815
10	0x3cf13692	0.029444966
11	0xbbde199e	-0.006777956
12	0x3cd46349	0.02592625
13	0x3c66e609	0.014092931
14	0xbc02b472	-0.007977592
15	0x3c5f320e	0.013622774
16	0x3cdcd9a0	0.02695924
17	0x3cdcf57c	0.026972525
18	0xbcdf66e7	-0.027270747
19	0xbcb3564a	-0.021891732
20	0x3c03fdcd	0.008056116
21	0xbcde3be1	-0.027128162
22	0xbcf81b0e	-0.030286338
23	0x3c337453	0.010953027
24	0xbbeb0714	-0.0071724746
25	0xbc17a5a5	-0.009255801
26	0x3c54bd2f	0.012984558
27	0xbd0d726c	-0.03453295
28	0x3abaad7d	0.0014242377
29	0xbc874a69	-0.016514974
30	0xbcfb1979	-0.030651795
31	0x3c26852c	0.010163587
32	0x3b936726	0.0044983802
33	0xbc8e38b0	-0.017361015
34	0x3c0415d9	0.0080618495
35	0xbccc30db	-0.02492564
36	0x3d09f86f	0.03368419
37	0x3c3d9971	0.011572228
38	0xbbc057e6	-0.0058698533
39	0xbc3ed1ae	-0.011646671
40	0x3d05362d	0.03252237
41	0xbd07a2d8	-0.033114284
42	0xbbfdf31a	-0.007749927
43	0x3c9ef8b3	0.019405698
44	0x3c3de5b3	0.011590409
45	0x3c71ada2	0.01475087
46	0xbcb2b912	-0.021816764
47	0x3d05362c	0.032522365
48	0x3be9118d	0.007112688
49	0xbce2c435	-0.02768145
50	0x3cdff7ca	0.027339835
51	0x3d06d64c	0.032919213
52	0x3d265100	0.04060459
53	0x3c1d317c	0.0095943175
54	0xbca9bc9b	-0.020719817
55	0x3c307c1e	0.010771779
56	0xbceca327	-0.02888639
57	0xbc6739fe	-0.0141129475
58	0xbc0f1981	-0.008734108
59	0xbbeb0f99	-0.0071734902
60	0xbc095d94	-0.008384127
61	0x3b24099d	0.0025030144
62	0x3c3f9aab	0.011694591
63	0x3cc7fe22	0.024413172
64	0x3b4987f1	0.0030751193
65	0x3ce487a0	0.027896702
66	0x3c766293	0.01503815
67	0x3d15fdd5	0.036619026
68	0x3c7bf681	0.015378595
69	0x3c9b48f6	0.018955689
70	0x3cbc9f2d	0.02302512
71	0xbb8c9a62	-0.004290865
72	0xba175397	-0.0005772649
73	0xbd01288a	-0.0315328
74	0xbb3e01f2	-0.0028992859
75	0xbcc2cd18	-0.023779437
76	0xbae84d64	-0.001772326
77	0x3ccc985c	0.024974994
78	0x3d07ba1a	0.033136465
79	0xbcac6f6d	-0.021049226
80	0xbb102798	-0.0021996256
81	0x3b01725a	0.0019751997
82	0x3cdf5dcc	0.027266406
83	0xbc26cac9	-0.010180184
84	0xbb528d52	-0.003212769
85	0x37d21eb1	2.5048243e-05
86	0x3c6be33c	0.014397439
87	0x3c9da451	0.019243391
88	0x3d1a4d51	0.03767139
89	0x3d0953bc	0.03352712
90	0x3c0a3f68	0.008437969
91	0xbd090c10	-0.03345877
92	0x3d07a5ad	0.033116985
93	0x3c4972c0	0.012295425
94	0x3c8cbab1	0.017178865
95	0xbd0c0089	-0.034180198
96	0x3cdca896	0.026935857
97	0x3abf4d12	0.0014595112
98	0xbcfeae51	-0.03108898
99	0x3cb4ab1b	0.022054246
100	0xbce14700	-0.027499676
101	0xbca949e0	-0.02066511
102	0x3c982abe	0.018575069
103	0x3c62903b	0.013828333
104	0x3b83b1e8	0.004019011
105	0x3d01210a	0.03152565
106	0xbb4b40dc	-0.0031014
107	0x3c38c2dd	0.011276928
108	0x3ca1d9bc	0.019757144
109	0x3cd4b80f	0.025966672
110	0xbce2e28d	-0.027695918
111	0x3c5fa073	0.013649094
112	0x3d03a862	0.032143004
113	0x3bab6d07	0.005231503
114	0x3b9eb3c8	0.004843209
115	0xbc6653b5	-0.014058043
116	0x3d1462ae	0.03622692
117	0x3d0504d9	0.032475326
118	0x3a804518	0.0009786217
119	0x3ca94c2c	0.020666204
120	0x3d0884d1	0.03332979
121	0x3d05d3d7	0.03267273
122	0x3c93e317	0.01805262
123	0x3aaae4b0	0.0013038125
124	0x3b588ffa	0.00330448
125	0xbbf2f0ca	-0.007413958
126	0xbcc264e1	-0.023729743
127	0x3cf33754	0.029689468
128	0xbc827ea9	-0.015929537
129	0x3bfbfd1e	0.007690086
130	0xbc85ea9c	-0.016347222
131	0x3aedfca2	0.0018156955
132	0x3c65d271	0.014027224
133	0x3cf804ef	0.03027579
134	0x3a220d6c	0.00061818096
135	0xbca8cff3	-0.02060697
136	0x3bba2204	0.0056803245
137	0xbcaa0f67	-0.020759298
138	0x3c4cc318	0.012497686
139	0x3cef6ba4	0.029226132
140	0x3cf75cee	0.03019568
141	0xbd117f35	-0.035521705
142	0x3cb9d532	0.022684667
143	0xbc079663	-0.008275601
144	0x3cdd0d19	0.026983785
145	0x3cb838f4	0.022488095
146	0xbce2f640	-0.027705312
147	0xbb95021f	-0.004547372
148	0xbbfe598b	-0.007762139
149	0xbcede8c0	-0.029041648
150	0x3cc71e6c	0.024306498
151	0x3cfdeca0	0.03099662
152	0xbced8988	-0.028996244
153	0xbba5ceca	-0.0050600516
154	0xbc4c0944	-0.012453381
155	0x3c089802	0.008337023
156	0xbc35431a	-0.011063362
157	0x3d1a344d	0.037647534
158	0x3c293604	0.01032782
159	0xbd0002c5	-0.03125264
160	0x3c167cab	0.009184997
161	0xbc00a1d2	-0.007851081
162	0xbc91bffa	-0.017791737
163	0x3d165bbe	0.036708586
164	0x3cb0c83a	0.02157985
165	0x3b08ce3b	0.0020874876
166	0xba508c65	-0.0007955491
167	0x3a101982	0.0005496965
168	0xbbdf519d	-0.006815149
169	0x3c07c657	0.008287034
170	0x3c457c80	0.012053609
171	0x3cc0a038	0.023513898
172	0xbc827e26	-0.015929293
173	0x3c959ad7	0.01826231
174	0xbcbeb843	-0.023281222
175	0x3c94cb19	0.01816325
176	0x3cfdb4fa	0.030970085
177	0xbcd0be39	-0.02548133
178	0xbc83f38a	-0.01610734
179	0x3ca61ada	0.020276476
180	0x3b858fe5	0.0040759915
181	0x3cae7cca	0.021299738
182	0x3cfa06c3	0.030520802
183	0xbcce8c06	-0.025213253
184	0x3cae5ec1	0.021285417
185	0x3c55d588	0.013051398
186	0x3b38c76c	0.0028195037
187	0xbc4c32c9	-0.01246328
188	0x3b12ebcc	0.0022418378
189	0xbc1715f9	-0.009221547
190	0x3cb6355c	0.02224224
191	0xbc8e9523	-0.017405098
192	0xbca6cd15	-0.020361463
193	0xbb5b51db	-0.0033465538
194	0xbd00338c	-0.03129916
195	0xbb3e4301	-0.0029031637
196	0xbcd3b56c	-0.025843345
197	0xbd0443fd	-0.0322914
198	0xb9553df7	-0.00020336347
199	0xbc90da33	-0.01768217
200	0xbb2cd27b	-0.0026370573
201	0xbcb9837c	-0.022645704
202	0x3b843112	0.00403417
203	0x3c6bcf6c	0.014392715
204	0xbca1350e	-0.019678619
205	0xbc069f78	-0.008216731
206	0xbd072d8d	-0.033002425
207	0xbd05bc35	-0.03265019
208	0xbc83c41b	-0.016084721
209	0x3c71fd6e	0.014769895
210	0x3c8f9067	0.017524911
211	0xbcb1fd54	-0.021727242
212	0x3c88324e	0.01662555
213	0xbc8da018	-0.017288253
214	0x3d064ef5	0.032790143
215	0xbc0846df	-0.008317678
216	0xbbeeb2c0	-0.0072844923
217	0xbcca27aa	-0.024677116
218	0x3cec2c13	0.02882961
219	0x3cc271a6	0.023735832
220	0xbb88201b	-0.004154218
221	0x3c9d3186	0.019188654
222	0x3cb6f45d	0.022333318
223	0x3c83b762	0.016078655
224	0xbc937a42	-0.018002633
225	0x3c4bf483	0.012448433
226	0x3c80ee7b	0.015738716
227	0x3c2bb2d2	0.010479646
228	0xbac741c8	-0.00152021
229	0xbcce9ce8	-0.025221303
230	0x3d135177	0.035966363
231	0xbb62fe51	-0.0034636448
232	0xbc981055	-0.018562475
233	0xbb310a0c	-0.0027014045
234	0x3cb4f9fb	0.022091856
235	0xbc6a9ce4	-0.014319632
236	0xb94a9eb6	-0.00019323346
237	0x3a6a8896	0.00089467445
238	0xbb1b19e4	-0.0023666555
239	0x3ccb0b87	0.02478577
240	0xbc25c451	-0.010117606
241	0x3ca1f7ec	0.019771539
242	0x3ce20213	0.02758888
243	0x3d00d726	0.03145518
244	0x3d1292ef	0.035784658
245	0x3ba0b69d	0.0049045817
246	0x3cac395c	0.021023445
247	0xbc1a99f8	-0.009436123
248	0xbcd7da3e	-0.026349183
249	0xbce73b11	-0.028226407
250	0xbc88eeac	-0.01671537
251	0xbb3ef168	-0.0029135589
252	0x3cbf2b2f	0.023336021
253	0x3c734b38	0.0148494765
254	0x3cf0d4c9	0.029398339
255	0xbcd00798	-0.025394246
