resutls/epoch_26.663.pth (torch, 231589 bytes, 5 tensors)

conv1.weight f4 [64, 1, 9, 9]
00000000: bdbe 6a3d 5e2a 48bd 05e4 acbc 183f 573d
00000010: 0bc5 d5bd 1e7c 873d ccac bdbc 2520 683d
00000020: 05d5 833c baa6 62bc f5c5 fb3c c8b4 b53b
00000030: c135 263d 8242 31bd 96ac 10bc d838 30bc
00000040: 125d 823c b617 75b9 5cd7 c73d cea5 103d
00000050: 4667 25bd 6292 87bd ab70 8ebc d7e5 43bd
00000060: 9b22 12bd 3519 bf3b d010 893d a1cd 7a3d
00000070: f088 dcbd d666 8f3d 5b17 063d be7d da3d
00000080: 3ace 963d f243 cfbd 2774 d7bd 4840 58bd
00000090: a7f3 c83d 9df2 8dbc d0ee 483d d2d5 4cbd
000000a0: 5693 e13d 148d 40bd f3f7 a93d 3937 ae3a
000000b0: bac9 6dbd 5db6 6b3d a1db 6dbd e9fe 0a3d
000000c0: 2054 fcbc 2a2a 36bc 8c86 dbbd e330 5cbd
000000d0: 190f 763d 97bd dbbc 791d e33d 2d66 b73d
000000e0: 3b45 82bb ae53 96bd d3ea 8b3d da24 0b3d
000000f0: ef88 94bd fb73 933d 24b1 8a3d 0edb c93d
00000100: c38a 7bbd 1098 8dbc d192 97ba c4cf 8a3c
00000110: 0bef adbd 89f6 a2bd d1e2 763d a45f d3bc
00000120: c0ce 5b3d 0d6c ce3b 6aa3 163d 8e49 ca3c
00000130: c0fe 243d 15e5 5c3d 212a d5bd 98a6 623d
00000140: 6f5b a0bd 814e b3bd 202c 563b 43aa b3bc
00000150: e269 803d 433f 86bd 0f75 ccbd 7db5 a23d
00000160: 1cfd 96bc 1494 743d 125a 043d f1c7 b1bd
00000170: 3060 a03c 12bf c93c ab12 9abd ad15 5abd
00000180: f0fe 163d 3ec7 943c 0755 4cbd e1b7 17bd
00000190: 5853 c93d 0c52 bebc 6685 783d bd39 433d
000001a0: 3120 94bd c86b c3bd b248 d73d 879b 533b
000001b0: e8cb 963d 2085 aa3c 784e 0c3d c449 a83d
000001c0: 547c d93d 24f5 94bd eb6d 6d3c 7768 a93d
000001d0: 6d3f a23d 9973 893d 2b55 a8bd f290 a5bd
000001e0: 1c69 89bd 6783 833c 8545 e73d 202d 8cbd
000001f0: de6b 763d 1b20 7dbd 7589 d6bd 13ae bfbc
00000200: f750 853d 3bfe d73d 4103 84bd a8ad ec3c
00000210: 86f5 cc3d 5a13 9d3d 8050 913d c7ce 9e3d
00000220: 98a1 8d3d a1ec eb3c 5b0a 99bd 4dd1 b7bd
00000230: 704c 41bd 6aa0 1ebc 9c0e 87bd f549 2a3d
00000240: 2138 003d dc50 e5bc 92dc 263d 7037 103d
00000250: 526d 8d3d b070 9c3d cd31 16bd e83d de3d
00000260: d06d 63bc e21a 04bc aca8 dfbd 8001 9abd
00000270: 2c44 8abd 21d0 45bd 9aa7 a03d fd88 18bd
00000280: 8a89 adbd 1477 253d 7a10 123d 2ce2 933d
00000290: 3500 69bd 83c0 d53c 3bdf 18bd db6b c7bc
000002a0: a626 b8bd da96 53bd 3387 11bd 5936 473d
000002b0: 366f b33c 4717 f13c b6fc e93d 2694 e73d
000002c0: 5203 9f3d 8d6d 5e3b 3895 9dbd 06b5 b03d
000002d0: c493 d8bc 1a5c e6bb 284f bfbd 8c89 90bc
000002e0: f6ed 86bd b55e d63d 7054 c4bd dfdd b0bd
000002f0: 7ebf 8bbb 5942 72bd 1a8a 293d 4ac0 25bd
00000300: ec55 44bd ffe6 423c c58c a93d d497 a0bd
00000310: 6182 543d 4c3b 903d 3b7e de3d f425 9ebd
00000320: 9e41 e83c dd5d a1bd 467f cc3d 291d 2abd
00000330: cd7b 863d 63e8 f33a 210b 33bc c3b6 83bb
00000340: 2db5 9c3c 2b87 5a3d ade0 aa3c cec4 1c3d
00000350: 9c9e cabd db05 a33d 05a0 c33d edb2 b73d
00000360: 9bd5 a63d 4984 a4bd 3729 26bd 5096 cd3d
00000370: 331a a5bd 2dd0 cf3d 6b42 b6bd 067d a3bd
00000380: 014c 553d f86f a5bd c543 d3bc 61cc a53d
00000390: 0769 b83d f6b5 de3d e1f8 b2bc bc52 b4bd
000003a0: 7fa9 dc3d 08f5 d2bc a482 42bd 7fee d23c
000003b0: 12d6 a0bd 31fc 963d b6e1 923d 0ac7 b5bd
000003c0: cdc8 bfbd 80d7 41bc e7cc 343d 9f27 32bb
000003d0: 9cab 65bd 8c14 3f3b 668c d5bd 5f6c a0bd
000003e0: 99f9 97bd 6814 b93d 0c5e c63d ea81 1fbd
000003f0: 5807 b83b 2a9d 4c3d 01e7 613c 886b 62bd
0.05731081 -0.04886853 -0.021104822 0.052550405 -0.104379736 0.0661547 -0.023153685 0.05667128
0.016092787 -0.013833696 0.030734042 0.0055452324 0.040578607 -0.043276317 -0.00883021 -0.01075574
0.01591352 -0.00023373854 0.097578734 0.035314374 -0.040381692 -0.06619717 -0.017387709 -0.047826614
-0.035677534 0.0058318623 0.0669266 0.06123126 -0.10768306 0.07002036 0.032737117 0.10668515
0.07363553 -0.101203814 -0.10520201 -0.05279568 0.09812098 -0.017327601 0.049055874 -0.050008602
0.1101443 -0.047009543 0.08299246 0.0013291604 -0.05805371 0.057546962 -0.058070783 0.033934508
-0.030801833 -0.011118451 -0.10719022 -0.05375756 0.060072992 -0.026823802 0.11089606 0.08955035
-0.003975538 -0.073401794 0.068318985 0.03397069 -0.072526805 0.07199856 0.06772068 0.098562345
-0.06141163 -0.017284423 -0.001156414 0.016944773 -0.084928595 -0.07957179 0.060274903 -0.025802441
0.05366397 0.0062995018 0.036776938 0.024693277 0.04028201 0.053929407 -0.10408426 0.055334657
-0.078299396 -0.08755208 0.003268011 -0.021931773 0.062701955 -0.06555035 -0.09983265 0.079447724
-0.018431239 0.05971153 0.03231246 -0.08680714 0.019577116 0.024627242 -0.07523092 -0.053243328
0.03686422 0.018161412 -0.049885776 -0.037040595 0.0983035 -0.023232482 0.060674094 0.047662485
-0.072327025 -0.09542042 0.105119124 0.0032288746 0.07363111 0.020815432 0.03425452 0.08217195
0.10619417 -0.07273319 0.0144915385 0.08271878 0.07922254 0.06711502 -0.082193695 -0.08084287
-0.06709501 0.016053868 0.11292557 -0.068445444 0.060161464 -0.061798196 -0.104754366 -0.023398435
0.065095834 0.105465375 -0.06445933 0.0288914 0.100077674 0.07669707 0.07095432 0.077542834
0.06915587 0.028799357 -0.07472678 -0.08975468 -0.047192037 -0.0096818 -0.065945834 0.041574437
0.03130353 -0.027992658 0.040737696 0.03520912 0.06905617 0.07638681 -0.036668587 0.108516514
-0.013881162 -0.00806305 -0.109208435 -0.07519817 -0.06751284 -0.04829419 0.078444675 -0.037240017
-0.08473499 0.040396765 0.035660245 0.07220873 -0.056884963 0.026092773 -0.037322264 -0.024343422
-0.089917466 -0.051657535 -0.035529327 0.048635814 0.021903615 0.029430045 0.11425154 0.11307554
0.07764305 0.003393981 -0.07694477 0.086282775 -0.026437648 -0.0070300223 -0.0934127 -0.017643712
-0.06588356 0.10467283 -0.09586418 -0.086360686 -0.004264771 -0.059145305 0.04139147 -0.040466584
-0.047933504 0.011895894 0.08278803 -0.07841459 0.05188215 0.0704256 0.1086392 -0.07722083
0.028351601 -0.07879231 0.09985213 -0.041531716 0.06566582 0.0018608685 -0.010927946 -0.0040195896
0.01912936 0.053351562 0.020859087 0.038273625 -0.098935336 0.07960101 0.09552006 0.08969674
0.08146211 -0.08033044 -0.04056665 0.100384355 -0.08061638 0.10147128 -0.08899387 -0.07982831
0.052074436 -0.08077997 -0.025789151 0.08095623 0.090044074 0.1087455 -0.02184719 -0.08804843
0.10774516 -0.025751606 -0.04748787 0.02574849 -0.07853331 0.073723204 0.07171957 -0.08875854
-0.093644716 -0.011831164 0.044140723 -0.002718426 -0.056071863 0.0029156534 -0.104271695 -0.0783317
-0.07420654 0.09037095 0.09685907 -0.038942255 0.00561611 0.04995457 0.013787986 -0.05527833

conv1.bias f4 [64]
00000000: 965c 59bd 1cbf b63c 7f91 90bd 2447 2dbd
00000010: df33 a13d 4da0 2c3d c3e5 a63d e204 babc
00000020: 6bbb d13d af6d a03d 67b8 813d c8c5 5c3d
00000030: 7bae c2bd ebaf 64bd fa87 9a3b 9602 103d
00000040: b8d1 fa3d 663e bf3d 309a 45bd 22b8 6d3d
00000050: 8f59 2c3d f45b 62bd 28f4 dbbd 80ce 403d
00000060: 5ba3 1e3c 91ef 013d 24e0 993d ea03 05bd
00000070: a26f 2ebd 6077 043d 6769 30bd 45ac 85bd
00000080: 326d d6bd 2b48 b6bd 8732 17bc 760e c33d
00000090: 576f 8fbd dcf6 e83c d59d 853d da9c a53c
000000a0: 39db 43bb 43a0 ae3d 03fe d3bd 6eb7 c13d
000000b0: c1a7 bb3d 8592 c43d 0c4c ac3d 02ec f0bb
000000c0: aa9d aebd 2e96 8fbd 1b46 b2bd 0c2a 88bd
000000d0: 35c6 cabd 209d 973d 81a9 313d c444 45bd
000000e0: a256 163c c7a9 723c 9f85 193b 183e 8f3d
000000f0: cef2 333d 7dd8 b3bd 8410 d73d 385b 34bd
-0.053066812 0.022307925 -0.07059001 -0.042304173 0.07871222 0.042145062 0.08149292 -0.022707406
0.10240825 0.078334205 0.06334 0.053899556 -0.09505936 -0.05583183 0.0047159167 0.035158716
0.12247032 0.093380734 -0.048242748 0.05803693 0.042077597 -0.055263475 -0.107399285 0.047071934
0.009682502 0.03172261 0.075134546 -0.032474436 -0.04258693 0.032340407 -0.04306927 -0.065269984
-0.10470046 -0.08900484 -0.009228355 0.095242426 -0.07003658 0.028438024 0.06524245 0.020216394
-0.0029885306 0.08526661 -0.10351183 0.094588146 0.09162856 0.09598259 0.08412942 -0.007352353
-0.08526166 -0.070110664 -0.08704778 -0.06648645 -0.09901086 0.07403016 0.043374542 -0.048161283
0.009175928 0.014810986 0.0023425592 0.06994265 0.04393273 -0.08781526 0.10501197 -0.044032305

conv2.weight f4 [32, 64, 5, 5]
00000000: 771a fdbb 30d7 df3c d98c 4cbc c58e 38bb
00000010: 52c3 4a3b d4cc a7bc 55e8 a13c 4d51 b13c
00000020: a2fd afbc b336 82bb 90bc ee3b 62a6 8d3c
00000030: 2c80 593c f368 893a f9dd b93c d996 83bb
00000040: e217 0a3b 7bf4 6bbc fb9b 4bbc 7e24 00bc
00000050: de72 b1bc 3dd6 26bb d3de e13b d0c2 79bc
00000060: b23a afbc 0f17 cf3c 4ec9 25bc adbe 98bc
00000070: da81 d6bb dc1a 4cbc 53b8 9cbc 9a0b 81ba
00000080: e456 24bc 95ab d7bb 8c24 3e3c 76b9 b53b
00000090: 182f ba3c c2de c5bc 0d9f b63c c6a9 5a3c
000000a0: 9a2f 16bb f597 9d3c 49b8 c53c f790 3a3b
000000b0: 9919 d33b 3e1f 7abb 31e8 a6ba c78f f9ba
000000c0: c9cb 5ebc 8578 2f3b 72de 27bc a302 483c
000000d0: 0c39 8e3b 6361 8cbc f649 c23c d072 1e3c
000000e0: 61ea 563c 1ff0 b6bc 956e d23c 43ea 2f3c
000000f0: ab80 8fb9 4051 80bc a2bf db3b 22d3 543c
00000100: 235b 223c 59a5 9b3c d741 bcbc 2dc7 99bc
00000110: 1c5c d53c a93b b23c 7eb6 d7ba 1cb8 5b3c
00000120: 9352 943c b15a 9c3c 05a7 47bc 0f43 17bc
00000130: 6f39 53bc 680f c6bb a83d c83c 8be4 0e39
00000140: cfc9 a2bc 3327 9d3c 78f0 313c b34f ae3b
00000150: e69e 48bc c989 963c 7feb a2bc f321 5f3c
00000160: 0ac5 c2ba 491d 02bc 745d b6bc f6d2 7f3b
00000170: e059 2dbc c0e6 08bc fe99 793c aab0 80bc
00000180: 7f0e c63c 0177 b23c cb06 a43c df5e 7d3b
00000190: ca31 acbc f810 09bc 845a 64bc e77f a3bb
000001a0: 7e69 c8bc 91ca 4fbc 53c8 d5bb 8ebc abba
000001b0: 31bc f4bb 044d 8e3b 272b 56bc 7114 8dbc
000001c0: ba77 8ebc 9e78 c53c 0e62 803c abe4 acbc
000001d0: 2e75 abbc 947a e938 92f9 46bc ac92 1c3c
000001e0: 60af 1dbc 00f9 813a 604d e7bb 3a23 a3bc
000001f0: d499 3abb 2c58 e03c f538 c33c 489d 4ebc
00000200: 5ffd 303c 90f7 b33c 35d5 ef3b 8742 633b
00000210: eee7 e13c 58a8 b43b dc35 36bb e1c7 e73c
00000220: 9f44 833c 0eaa 21bc 18a1 bf3c b2a9 b43c
00000230: 86b8 ca3c 685d e1bb df29 87bb 3c93 a63c
00000240: a4e8 a03c dc7e 8cbc aee9 c43c b3b1 803c
00000250: 4493 1f3c eb54 04bc fbc1 66bb abfc 753c
00000260: 339f 7a3b ecde a03c 885b 80bc b618 14bc
00000270: 3c98 4dbb e03d 223c 5ae6 0a3c 1d60 553c
00000280: 72b1 66bc 7ae2 99bb ccb7 1b3c aec5 38bc
00000290: 1dd0 903c 31e4 8e3c af40 5f3c e9da 563c
000002a0: a59b 733c a30b afbc 89ab 00bc 9201 983c
000002b0: 418f 2dbc d76f f13a fb60 0fbc 8aef 143c
000002c0: 7a36 e63a ab28 18ba 51b6 1e3c 61af ce3c
000002d0: 2563 1f3c 4f73 f0ba b5de da3c 8ccd cdbb
000002e0: cf28 093c 57a6 343c 6899 673c 346a b93c
000002f0: 7057 5a3c d214 ac3a 6971 953c 98fd ed3b
00000300: 3291 aa39 ccf7 0b3c 839e 58bc 4809 083c
00000310: 80fd 50bc dff3 643c d170 ce3c c014 33bc
00000320: 636e bbbc 7e8b a63c de28 55bc 25c5 853c
00000330: 149d 8a3c 74b2 18bc a8bf 093a 57da 2abc
00000340: 8a7b aa3c 39f4 95bc 6775 1d3b 0ce5 64bc
00000350: 8aa1 a33c 3423 473c cff0 ae3c 599a 42bc
00000360: 2f6d 093c 27fd adbc 0fe5 703c 5a15 0ebc
00000370: dacb 013c b5fd 433c 08fe 80bc 60a9 613c
00000380: cae6 2ebc db1a 2d3c d916 dbbb 10e6 643b
00000390: b7a3 893b a792 a73c 3f78 fc3b d897 be3b
000003a0: 88b3 33bb 7374 c4bc 700e 57bc e7e2 f6bb
000003b0: 2f1f 353c 0cf3 6838 2076 0b3c 0f25 7cbc
000003c0: 3f9e c6bc 4c39 2a3c eb76 723c 936e 583c
000003d0: 61cf 8e3c 4fcc bebc 64fe 133c 772f b03c
000003e0: df2d 4cbc c0ee 333c 1bcf 4d3c c451 a03b
000003f0: a2d8 c6bc e71f 383c bea4 b43c ea1f 7cbb
-0.007724102 0.02732429 -0.012484753 -0.002816127 0.0030939174 -0.020483412 0.019764105 0.021645213
-0.021483246 -0.003973806 0.007285662 0.017291252 0.013275187 0.0010483548 0.022688853 -0.004015785
0.0021071364 -0.01440155 -0.012427325 -0.0078212 -0.021661218 -0.0025457286 0.006893018 -0.015244201
-0.021390293 0.02527955 -0.010118796 -0.018645609 -0.006546241 -0.012457576 -0.019130861 -0.0009845376
-0.010030482 -0.0065817335 0.011605393 0.0055457903 0.022727534 -0.02415407 0.022292638 0.013346141
-0.0022916556 0.019237498 0.024135726 0.0028467753 0.0064422605 -0.0038165594 -0.0012733993 -0.0019040041
-0.013598391 0.0026774716 -0.010245906 0.01220766 0.0043402966 -0.017136281 0.023716908 0.009670928
0.013117404 -0.022331296 0.025687495 0.010737005 -0.0002737095 -0.015663743 0.006706194 0.012989791
0.009909424 0.018999742 -0.022980614 -0.018771732 0.026044898 0.021756964 -0.0016457585 0.013410594
0.01810578 0.019086214 -0.012185817 -0.009232297 -0.012892111 -0.006044317 0.024443462 0.00013627314
-0.01987162 0.01918373 0.010860555 0.0053195595 -0.012244916 0.018376248 -0.019887684 0.013618934
-0.0014859748 -0.007941552 -0.022261359 0.0039035655 -0.01058051 -0.008355796 0.0152344685 -0.01570924
0.024176834 0.021785261 0.02002277 0.0038661284 -0.021019835 -0.008365862 -0.013937596 -0.0049896124
-0.024464365 -0.012682573 -0.0065241246 -0.0013102458 -0.007468723 0.004342677 -0.013071812 -0.017221661
-0.017391074 0.024105366 0.015671756 -0.021105131 -0.020929899 0.00011133138 -0.012144463 0.009556454
-0.009624332 0.0009916127 -0.0070587844 -0.019914258 -0.0028473036 0.027385794 0.02383087 -0.012610741
0.010802596 0.021968633 0.0073191174 0.0034677105 0.027576413 0.005513232 -0.0027803099 0.028293552
0.016023932 -0.009867204 0.023392245 0.022053573 0.02474619 -0.00687759 -0.0041248645 0.020333879
0.019642182 -0.017150335 0.024037208 0.015709734 0.009739701 -0.008076887 -0.0035210836 0.015013854
0.0038241863 0.019637547 -0.015668646 -0.009039095 -0.0031371256 0.009902447 0.008477772 0.0130234035
-0.014080392 -0.0046961876 0.00950427 -0.011277599 0.017677361 0.017442795 0.013626262 0.013113716
0.0148686515 -0.021367854 -0.007853397 0.018555436 -0.010593236 0.0018420172 -0.008751149 0.009090314
0.0017563843 -0.00058044 0.009687022 0.025230112 0.009728228 -0.0018344912 0.026717523 -0.0062806066
0.008371546 0.011025987 0.014135696 0.02263365 0.013326511 0.0013128764 0.018242555 0.0072628967
0.00032533106 0.008542966 -0.013221386 0.008302994 -0.012755752 0.013974159 0.02520028 -0.01093024
-0.022879785 0.020330187 -0.013010232 0.016329357 0.016920604 -0.00931989 0.0005254694 -0.010428033
0.020810861 -0.018304931 0.0024026276 -0.013970625 0.019974489 0.012154389 0.02135506 -0.01187762
0.008387848 -0.021238877 0.014703049 -0.008672083 0.007922137 0.011962344 -0.015746132 0.013773292
-0.010675142 0.010565485 -0.0066860733 0.0034927167 0.0042004245 0.020455671 0.007704764 0.005816441
-0.0027420241 -0.023981309 -0.013126001 -0.007534373 0.011054798 5.5539465e-05 0.00851205 -0.015389695
-0.02424538 0.010389637 0.01479886 0.013209957 0.01743287 -0.023290781 0.009032819 0.021507008
-0.012462108 0.010982215 0.012561585 0.0048925597 -0.02427322 0.011238075 0.022051211 -0.003847117

conv2.bias f4 [32]
00000000: f40e 53bc 43d3 b0bc 5a76 a9bc f16d a23c
00000010: d853 18bc e837 a93b 0e4b 743c d70c 663c
00000020: 188a 923c 841b 94bb b7b9 8b3a 1d7a 8b3c
00000030: fe77 84b7 1794 4abc e091 8fba 5081 7b3c
00000040: 17a7 a73c 844c 2e3b a7b0 89bb 9b2a b7bc
00000050: d387 3cbc cefa cf3b 1fd6 123b de6a 993c
00000060: 10d4 bf3b 344b 223c 302f 893c a05c 5c3c
00000070: 21c2 93bb 9ad7 873c ce13 c23c d563 023c
-0.012881983 -0.021585112 -0.020686317 0.019827815 -0.009297334 0.0051641352 0.014910473 0.014041147
0.017888114 -0.0045198817 0.0010660206 0.017026002 -1.5791502e-05 -0.012364409 -0.0010953508 0.015350655
0.020465417 0.00265959 -0.004201967 -0.022359183 -0.011506992 0.006347037 0.0022405458 0.018727716
0.0058541372 0.009905625 0.016746134 0.013449818 -0.004509226 0.016582299 0.023691084 0.007958372

conv3.weight f4 [1, 32, 5, 5]
00000000: 4c92 81bc aa89 123d 9f52 e53c 479e 90bc
00000010: c436 f63c 95a2 793c 17c3 fd3c b8e5 31bb
00000020: 84c3 dbbc a4a1 3fbc 41a1 ef3c 8cec edbb
00000030: 348b ce3c d806 693c 1117 f8bb 5944 623c
00000040: a617 dd3c 5438 dc3c b303 dabc a3d4 acbc
00000050: bf7c 0b3c e0ba dabc 8fc5 f4bc 57eb 433c
00000060: 4ac0 ccbb a5a5 17bc 2fbd 543c 6c72 0dbd
00000070: e8b1 b83a 694a 87bc 7919 fbbc 2c85 263c
00000080: 2667 933b b038 8ebc d915 043c db30 ccbc
00000090: 6ff8 093d 7199 3d3c e657 c0bb aed1 3ebc
000000a0: 2d36 053d d8a2 07bd 1af3 fdbb b3f8 9e3c
000000b0: b3e5 3d3c a2ad 713c 12b9 b2bc 2c36 053d
000000c0: 8d11 e93b 35c4 e2bc affe df3c dc54 063d
000000d0: 4907 253d bff1 1e3c fa12 a6bc 6bf0 2d3c
000000e0: 021f f0bc 0281 72bc ff10 11bc 862c dfbb
000000f0: b4ac 0ebc cc21 f03a ce68 2f3c 4841 c53c
00000100: bea3 593b dbc1 e23c 3282 6d3c 096d 123d
00000110: a9e1 773c ff62 9d3c 86cf bc3c 4edf 93bb
00000120: 74b9 8dba 9b53 01bd 21f6 2dbb f87e bfbc
00000130: 192d d1ba 1604 cb3c f7b5 073d ad4a acbc
00000140: a5a0 06bb 13a1 f13a 2694 da3c a2e1 2cbc
00000150: 3b8d 65bb 76b2 0839 794c 683c af70 973c
00000160: 8c90 183d d235 083d 3f6f 0f3c 0415 09bd
00000170: 7c27 063d 7388 443c c7ff 8a3c fec3 09bd
00000180: 19ea de3c f872 a93a 2592 ffbc 4fa9 b33c
00000190: a50d dfbc d5b4 a8bc 6a20 943c b013 5f3c
000001a0: b2a0 813b 1f6b 013d 5aef 57bb 03ef 2a3c
000001b0: 90d8 9d3c af45 d33c b61a e2bc 57b6 593c
000001c0: 9013 fe3c a8ea 993b 07d7 9d3b 1416 66bc
000001d0: de52 133d 392d 013d a18a 423a 2f28 ac3c
000001e0: 48ac 083d 875e 053d 3f4d 8f3c 4145 bf3a
000001f0: 073b 833b c7d4 ebbb d780 c0bc efbd f33c
00000200: 5b48 82bc 3d43 f93b 711c 85bc 72f7 fb3a
00000210: de71 633c 2239 f73c 278b ef39 936b a8bc
00000220: 87f1 ba3b 67c8 abbc 9fe5 483c 224b ee3c
00000230: f387 f93c b759 11bd b467 ba3c ad40 05bc
00000240: a964 de3c b856 ba3c b32d dfbc b46a 88bb
00000250: ceac efbb 307c e9bc b403 c73c 854d fe3c
00000260: 94ea eebc e7c3 a8bb 0ef4 48bc f73f 063c
00000270: b85b 36bc b7d8 193d 7958 263c 1f8d ffbc
00000280: 0ac0 133c 3ef5 01bc 2578 94bc 4a37 163d
00000290: 4183 b13c dedb 093b 732d 2eba 733a fc39
000002a0: 18b1 debb bdd9 0b3c ecd4 453c 93c5 c13c
000002b0: c8a7 82bc 56cc 953c 3247 bdbc 3ecb 943c
000002c0: 86bd fd3c 15be d0bc 88f3 83bc 3d26 a63c
000002d0: 6fd9 853b d680 ae3c e406 fa3c 058c cebc
000002e0: 7f65 ae3c a335 553c c8c2 3e3b 709b 4bbc
000002f0: fa72 1a3b 4fa0 13bc 4e33 b63c 1d95 8ebc
00000300: 11cd a6bc e593 51bb 8c33 00bd 9599 44bb
00000310: 5db5 d3bc fd43 04bd cf47 3cb7 2d4c 90bc
00000320: 7bd2 2cbb 7c83 b9bc 1231 843b 6ccf 6b3c
00000330: 0e35 a1bc 789f 06bc 8d2d 07bd 35bc 05bd
00000340: 1bc4 83bc 6efd 713c 6790 8f3c 54fd b1bc
00000350: 4e32 883c 18a0 8dbc f54e 063d df46 08bc
00000360: c0b2 eebb aa27 cabc 132c ec3c a671 c23c
00000370: 1b20 88bb 8631 9d3c 5df4 b63c 62b7 833c
00000380: 427a 93bc 83f4 4b3c 7bee 803c d2b2 2b3c
00000390: f8ed cfba e89c cebc 7751 133d ecd2 6abb
000003a0: 5610 98bc 4810 3dbb fbf9 b43c ff03 6bbc
000003b0: be4a a7b9 2fb8 363a 9175 28bb 570a cb3c
000003c0: fb88 25bc ecf7 a13c 1302 e23c 26d7 003d
000003d0: ef92 123d 39df a63b b539 ac3c cb6d 18bc
000003e0: 21da d7bc 063b e7bc c75f 87bc 3325 33bb
000003f0: 782a bf3c d672 713c 98a2 ef3c deef cdbc
-0.01581683 0.035775818 0.027993498 -0.017653598 0.030055411 0.0152365165 0.030976815 -0.002714498
-0.026826628 -0.011696253 0.029251697 -0.0072608646 0.025212862 0.014222823 -0.007571109 0.013810241
0.026988816 0.026882328 -0.026613092 -0.021097487 0.0085136285 -0.026700437 -0.02987936 0.011957965
-0.0062485086 -0.009255801 0.012984558 -0.03453295 0.0014091106 -0.016514974 -0.030651795 0.010163587
0.0044983802 -0.017361015 0.0080618495 -0.02492564 0.03368419 0.011572228 -0.0058698533 -0.011646671
0.03252237 -0.033114284 -0.007749927 0.019405698 0.011590409 0.01475087 -0.021816764 0.032522365
0.007112688 -0.02768145 0.027343122 0.032795772 0.04029015 0.009701191 -0.02027272 0.010616402
-0.02931166 -0.014801266 -0.00885415 -0.0068107275 -0.008708168 0.0018320619 0.01070614 0.02407898
0.003320917 0.027680328 0.014496373 0.035748515 0.015129485 0.019212244 0.023048174 -0.004512704
-0.0010812716 -0.031573873 -0.002654441 -0.023375973 -0.0015958875 0.024782222 0.03313252 -0.021031702
-0.002054253 0.0018434845 0.02668197 -0.010551842 -0.0035026807 0.00013036453 0.014178389 0.018486349
0.037247226 0.033254452 0.0087545505 -0.033467308 0.0327525 0.011995423 0.016967667 -0.03363418
0.027211236 0.001292794 -0.031197617 0.021931319 -0.027228186 -0.02059404 0.018081862 0.013615534
0.003955924 0.0315963 -0.003294906 0.010432961 0.019268304 0.025790064 -0.027600627 0.013288102
0.031015188 0.0046971627 0.004816893 -0.01404335 0.0359677 0.03153727 0.000742117 0.021015255
0.033367425 0.03256085 0.017492888 0.0014592783 0.0040048393 -0.007196996 -0.023498936 0.029753653
-0.015903642 0.0076068924 -0.016248913 0.0019223525 0.0138821285 0.03017861 0.0004568931 -0.020559108
0.005705062 -0.020969583 0.012261777 0.02908856 0.030460333 -0.03548595 0.022754528 -0.008133096
0.027147608 0.022746429 -0.02724347 -0.0041631106 -0.007314301 -0.0285016 0.024293758 0.031042824
-0.02916459 -0.0051503065 -0.012265218 0.008193961 -0.011130266 0.03756019 0.010152929 -0.031195221
0.009017954 -0.007932005 -0.018123696 0.03667382 0.021669032 0.0021035592 -0.00066443457 0.00048108734
-0.0067960136 0.0085358 0.01207469 0.023653781 -0.015949145 0.018285912 -0.023105238 0.01816332
0.03097416 -0.025481263 -0.016107336 0.020281905 0.004084758 0.021301668 0.030520864 -0.02521325
0.021288631 0.013013276 0.0029107798 -0.012427196 0.0023567067 -0.0090103885 0.02224126 -0.017405087
-0.020361455 -0.003197902 -0.03129916 -0.0029998769 -0.025843317 -0.0322914 -1.12223925e-05 -0.017614448
-0.0026370573 -0.022645704 0.00403417 0.014392715 -0.019678619 -0.008216731 -0.033002425 -0.03265019
-0.016084721 0.014769895 0.017524911 -0.021727242 0.01662555 -0.017288253 0.032790143 -0.008317678
-0.0072844923 -0.024677116 0.02882961 0.023735832 -0.004154218 0.019188654 0.022333318 0.016078655
-0.018002633 0.012448433 0.015738716 0.010479646 -0.0015863767 -0.025221303 0.035966363 -0.0035831286
-0.018562477 -0.0028848816 0.022091856 -0.014344214 -0.0003190841 0.00069701945 -0.002570484 0.024785204
-0.0101034595 0.019771539 0.02758888 0.03145518 0.035784658 0.005092528 0.02102361 -0.00930352
-0.02634913 -0.028226387 -0.016525162 -0.0027335405 0.02333568 0.014736852 0.029252335 -0.025138792
