resutls/epoch_22.38.pth (torch, 231589 bytes, 5 tensors)

conv1.weight f4 [64, 1, 9, 9]
0	0x3d6a958d	0.05727153
1	0xbd48bee9	-0.04901019
2	0xbcb01ee9	-0.021499114
3	0x3d55cb9c	0.05219613
4	0xbdd6278a	-0.1045676
5	0x3d885eaf	0.066586845
6	0xbcbb8fe0	-0.022895753
7	0x3d67917a	0.05653522
8	0x3c7e4791	0.015519992
9	0xbc5e99d8	-0.013586484
10	0x3cfcb9cc	0.030850314
11	0x3bb50511	0.0055242856
12	0x3d2667fb	0.040626507
13	0xbd31340c	-0.043262526
14	0xbc059580	-0.008153319
15	0xbc24abc5	-0.010050719
16	0x3c83e5e0	0.016100824
17	0xb9c7f0da	-0.00038135686
18	0x3dc71ad0	0.09721911
19	0x3d0e10a6	0.034683846
20	0xbd28ffe9	-0.04125968
21	0xbd893027	-0.066986375
22	0xbc97ab0f	-0.018514184
23	0xbd4442f5	-0.047915418
24	0xbd11cdb7	-0.035596576
25	0x3baff3b2	0.005369627
26	0x3d87e4fb	0.066354714
27	0x3d77c296	0.060488306
28	0xbdde375c	-0.10850403
29	0x3d8d540b	0.069007955
30	0x3cff4fbc	0.03116595
31	0x3dd8136b	0.10550579
32	0x3d9632ee	0.07333933
33	0xbdcf5a43	-0.10124638
34	0xbdd8466e	-0.105603084
35	0xbd5b174b	-0.05348901
36	0x3dc7f322	0.09763171
37	0xbc96f85e	-0.018428978
38	0x3d43231c	0.047640905
39	0xbd5323d9	-0.05154786
40	0x3ddf6d5b	0.1090953
41	0xbd40bf46	-0.047057413
42	0x3daa86c5	0.083264865
43	0x3aaa8ab5	0.0013011309
44	0xbd6f882f	-0.058479484
45	0x3d6a1e61	0.057157878
46	0xbd7151ab	-0.058915775
47	0x3d0626e8	0.032751948
48	0xbd032349	-0.032016072
49	0xbc46d077	-0.012134663
50	0xbddaea3f	-0.1068921
51	0xbd594cf5	-0.053051908
52	0x3d76d6d2	0.060263462
53	0xbcdce3d3	-0.026964104
54	0x3de2bb30	0.110708594
55	0x3db688a6	0.08912782
56	0xbba84cdf	-0.005136117
57	0xbd97c2c3	-0.07410195
58	0x3d8aa4e9	0.06769735
59	0x3d0ced8e	0.034406237
60	0xbd934383	-0.07190611
61	0x3d93c205	0.07214741
62	0x3d8a4085	0.067505874
63	0x3dc9eb47	0.09859329
64	0xbd7ed677	-0.06221625
65	0xbc9534aa	-0.018213589
66	0xbb08899e	-0.002083398
67	0x3c855958	0.016277954
68	0xbdacd3d1	-0.08438838
69	0xbda199ca	-0.07890661
70	0x3d77973f	0.060446974
71	0xbcd4cce0	-0.025976598
72	0x3d5e35cd	0.054250527
73	0x3bcf56b3	0.006327474
74	0x3d15704b	0.036484044
75	0x3cc81f42	0.024428967
76	0x3d25678e	0.04038196
77	0x3d611e8c	0.054960772
78	0xbdd2f5db	-0.103007995
79	0x3d64e20a	0.05587963
80	0xbd9ff2cb	-0.07809981
81	0xbdabd161	-0.08389545
82	0x3bdbdc8b	0.0067096404
83	0xbc9a8b69	-0.018865304
84	0x3d85efed	0.06539903
85	0xbd83355a	-0.064066604
86	0xbdc9aa8d	-0.09846983
87	0x3da61207	0.08108907
88	0xbc85a190	-0.01631239
89	0x3d801d34	0.0625557
90	0x3d123e09	0.035703693
91	0xbdaaa3bc	-0.08332011
92	0x3cb7d7e9	0.022441821
93	0x3cdc3af6	0.026883584
94	0xbd97a9d2	-0.074054375
95	0xbd567047	-0.05235317
96	0x3d1c5860	0.03817022
97	0x3ca4d352	0.020120297
98	0xbd412473	-0.0471539
99	0xbd09d2c9	-0.033648286
100	0x3dd06be9	0.10176832
101	0xbca75ac4	-0.020429023
102	0x3d80b7ee	0.06285082
103	0x3d4687ac	0.04846923
104	0xbd924e7b	-0.07143875
105	0xbdc0e66f	-0.09418952
106	0x3ddae844	0.106888324
107	0x3bc226e0	0.0059250444
108	0x3d9c27ce	0.0762478
109	0x3cbd7c60	0.023130596
110	0x3d1357b8	0.035972327
111	0x3daaa1b2	0.08331622
112	0x3dd8bff1	0.10583485
113	0xbd95f778	-0.073225915
114	0x3c6a86f2	0.0143144
115	0x3daa875c	0.08326599
116	0x3da552ee	0.08072458
117	0x3d8db5e8	0.069194615
118	0xbda44c6e	-0.0802239
119	0xbda331f9	-0.07968516
120	0xbd88c466	-0.06678085
121	0x3c6e2fd2	0.014537768
122	0x3de40bab	0.11135038
123	0xbd8ea930	-0.06965864
124	0x3d745fb0	0.059661567
125	0xbd7a8c3f	-0.061168905
126	0xbdd5460b	-0.1041375
127	0xbcbe8840	-0.023258328
128	0x3d84224b	0.06451853
129	0x3dd479ed	0.10374818
130	0xbd8bc2b2	-0.068242446
131	0x3ccbfe92	0.024901662
132	0x3dc5c9e2	0.09657647
133	0x3d981010	0.07424939
134	0x3d8ed29a	0.06973763
135	0x3da240c7	0.079225115
136	0x3d908725	0.07057027
137	0x3ceea385	0.029130707
138	0xbd9a8665	-0.07545165
139	0xbdbdac8d	-0.09261427
140	0xbd4d9836	-0.050193988
141	0xbc49a000	-0.012306213
142	0xbd8a5add	-0.06755612
143	0x3d28399f	0.041070577
144	0x3d0d1a67	0.034449007
145	0xbccd7114	-0.025078334
146	0x3d2fcb29	0.042918358
147	0x3d14571e	0.036215894
148	0x3d8be0ba	0.068299726
149	0x3d9a3dea	0.075313404
150	0xbd187e4e	-0.03722983
151	0x3ddefc92	0.10888018
152	0xbc4f2f20	-0.012645513
153	0xbb81674d	-0.003949082
154	0xbdd706e9	-0.10499365
155	0xbd9272e4	-0.0715082
156	0xbd84c17a	-0.06482215
157	0xbd41b33c	-0.04729007
158	0x3da24e35	0.07925073
159	0xbd140818	-0.03614053
160	0xbda9d758	-0.08293027
161	0x3d2f1010	0.042739928
162	0x3d10db36	0.035365306
163	0x3d9309c6	0.071795985
164	0xbd6c10ab	-0.057633083
165	0x3cc497be	0.023998138
166	0xbd261004	-0.040542617
167	0xbccea099	-0.025223063
168	0xbdb614ba	-0.08890672
169	0xbd50e651	-0.051000897
170	0xbd0ce85e	-0.03440129
171	0x3d421126	0.047379635
172	0x3ca58511	0.020205053
173	0x3ce05d89	0.027388351
174	0x3de31bd2	0.11089291
175	0x3dddc346	0.10828261
176	0x3d9ad37b	0.07559868
177	0x3b54b1ef	0.003245469
178	0xbd9e0270	-0.07715309
179	0x3db1361a	0.08652897
180	0xbce4baa9	-0.027921038
181	0xbc14b608	-0.009076603
182	0xbdc42b4d	-0.095785715
183	0xbcb3e101	-0.021957876
184	0xbd92cad0	-0.0716759
185	0x3dd0b816	0.101913616
186	0xbdc5544e	-0.096352205
187	0xbdb1fa81	-0.08690358
188	0xbb85f296	-0.0040877564
189	0xbd76e9ff	-0.06028175
190	0x3d22308d	0.039597083
191	0xbd2fb240	-0.0428946
192	0xbd561559	-0.052266452
193	0x3bcb7703	0.0062092557
194	0x3da431c1	0.08017302
195	0xbda0d425	-0.07852963
196	0x3d543022	0.051803716
197	0x3d91646e	0.070992336
198	0x3dddfbaa	0.10839017
199	0xbd9fd472	-0.078041926
200	0x3cda86dc	0.026675634
201	0xbda8a5ef	-0.08234774
202	0x3dc1df62	0.09466435
203	0xbd321504	-0.043477073
204	0x3d881238	0.066441
205	0x3b38dc75	0.0028207575
206	0xbc15f473	-0.0091525195
207	0xbb7ce2e8	-0.0038587395
208	0x3c9876c5	0.018611321
209	0x3d5587b3	0.052131366
210	0x3c9053ce	0.017618086
211	0x3d09f915	0.03368481
212	0xbdcd7c6a	-0.10033496
213	0x3da4c50c	0.08045396
214	0x3dc56300	0.096380234
215	0x3dbb1144	0.091341525
216	0x3da79240	0.08182192
217	0xbda4cd6f	-0.08046996
218	0xbd29c005	-0.04144289
219	0x3dc833b0	0.097754836
220	0xbdadc60f	-0.08485042
221	0x3dcda2de	0.1004083
222	0xbdb3fd5c	-0.08788559
223	0xbda14f62	-0.07876469
224	0x3d5c6c41	0.053814176
225	0xbda412e0	-0.080114126
226	0xbcd28ec3	-0.02570284
227	0x3da517c6	0.08061175
228	0x3db3e89c	0.08784601
229	0x3dd6dc49	0.10491235
230	0xbcbb931b	-0.022897294
231	0xbdb1c9a6	-0.086810395
232	0x3ddf224f	0.10895216
233	0xbcc5ab02	-0.024129394
234	0xbd3c4562	-0.045964606
235	0x3cdc1d00	0.026869297
236	0xbd9f860f	-0.077892415
237	0x3d954294	0.072880894
238	0x3d8e4d48	0.06948334
239	0xbdb53039	-0.08847088
240	0xbdbbbf57	-0.091673546
241	0xbc2629be	-0.010141788
242	0x3d3d73a5	0.046252865
243	0xbb5bf1c5	-0.0033560854
244	0xbd675ada	-0.056483127
245	0x3b1d2c70	0.0023982786
246	0xbdd62c7e	-0.10457705
247	0xbda11bfc	-0.07866666
248	0xbd97a7e9	-0.07405073
249	0x3dbb3f11	0.09142888
250	0x3dc870f0	0.09787166
251	0xbd1aea65	-0.037821192
252	0x3b9ebe40	0.004844457
253	0x3d4a6239	0.04941008
254	0x3c57c25d	0.013168898
255	0xbd647ccb	-0.055783074

conv1.bias f4 [64]
0	0xbd5a5898	-0.053307146
1	0x3cf8b1c1	0.030358197
2	0xbd9b7a0e	-0.075916395
3	0xbd3199f3	-0.043359708
4	0x3da2e8c1	0.079545505
5	0x3d5c57c0	0.053794622
6	0x3da5f6ee	0.08103739
7	0xbc85237c	-0.016252272
8	0x3dce544d	0.10074673
9	0x3d9bd53f	0.07609033
10	0x3d637899	0.055534933
11	0x3d841cd8	0.06450814
12	0xbdc2e0a2	-0.095155016
13	0xbd733959	-0.059380863
14	0x3a870f22	0.0010304193
15	0x3c9ef848	0.0194055
16	0x3dde3161	0.10849262
17	0x3dc6fa9e	0.0971577
18	0xbd460470	-0.048344076
19	0x3d956785	0.072951354
20	0x3d2bfa8e	0.041986994
21	0xbd61d2a6	-0.05513253
22	0xbde16f10	-0.110075116
23	0x3d3c7b5b	0.04601608
24	0x3c8a2ef0	0.016868085
25	0x3ce02c72	0.027364943
26	0x3d9fe3f9	0.07807154
27	0xbd0e9c83	-0.03481723
28	0xbd30d39c	-0.043170556
29	0x3c9b3a1d	0.018948609
30	0xbd306967	-0.04306927
31	0xbd85f432	-0.06540717
32	0xbde0eda0	-0.10982823
33	0xbdbdccca	-0.09267576
34	0xbc0e6f85	-0.0086935805
35	0x3db73db5	0.089473166
36	0xbd8f6f57	-0.07003658
37	0x3cb05bfb	0.021528235
38	0x3d6bede1	0.057599906
39	0x3c8dcf21	0.01731068
40	0xbb6708dc	-0.0035253083
41	0x3da5d9dd	0.08098195
42	0xbdd83e95	-0.105588116
43	0x3dbe11d0	0.09280741
44	0x3dbbe69e	0.09174846
45	0x3dc43f1f	0.09582352
46	0x3da8e175	0.082461275
47	0xbbf0d48d	-0.007349557
48	0xbdb66149	-0.089052744
49	0xbd8f962e	-0.070110664
50	0xbdc0ad49	-0.094080515
51	0xbd8cc19d	-0.06872866
52	0xbdcac635	-0.09901086
53	0x3d9cc7e5	0.07655314
54	0x3d482083	0.04885913
55	0xbd4544c4	-0.048161283
56	0xba3874a8	-0.0007036426
57	0x3c303fbd	0.010757384
58	0x3b334ef8	0.0027360301
59	0x3da069f7	0.07832711
60	0x3d495ca7	0.049160626
61	0xbdafa685	-0.08576683
62	0x3dd6640a	0.104683
63	0xbd32657f	-0.043553825

conv2.weight f4 [32, 64, 5, 5]
0	0xbc2447ba	-0.010026867
1	0x3cd00118	0.025391147
2	0xbc771924	-0.015081678
3	0xbbb7a857	-0.0056047845
4	0x3b3157ba	0.0027060346
5	0xbcb53a5a	-0.02212255
6	0x3c9934bf	0.01870191
7	0x3ca3f462	0.020013992
8	0xbcbf0000	-0.02331543
9	0xbb59c197	-0.003322696
10	0x3b9fccca	0.0048767077
11	0x3c7c7fdc	0.015411343
12	0x3c302f67	0.010753489
13	0xbae030f4	-0.0017104433
14	0x3cb76099	0.022384929
15	0xbba4fbc1	-0.005034894
16	0x3ace3dd0	0.0015734974
17	0xbc80043b	-0.015627017
18	0xbc638a6f	-0.013887986
19	0xbbdfe5e6	-0.006832826
20	0xbcb8f068	-0.022575572
21	0xbb4b40de	-0.0031014006
22	0x3bb6321e	0.0055601737
23	0xbc899020	-0.016792357
24	0xbca81af3	-0.020520663
25	0x3cbb7b80	0.022886038
26	0xbc29779d	-0.010343459
27	0xbc92c73b	-0.017917266
28	0xbbbe88f7	-0.0058146673
29	0xbc3a6400	-0.011376381
30	0xbcbc5d34	-0.022993661
31	0xbb2d4eb9	-0.0026444627
32	0xbc2ff648	-0.01073987
33	0xbbe95582	-0.007120789
34	0x3c3ef3ea	0.011654833
35	0x3b0b7e4c	0.0021284996
36	0x3cb157ac	0.02164825
37	0xbcc63ebb	-0.024199834
38	0x3cb8c8b6	0.022556644
39	0x3c6a428f	0.014298095
40	0xbbc2125a	-0.005922598
41	0x3c941155	0.01807467
42	0x3cc5b44f	0.02413383
43	0x3b4f26c6	0.0031608804
44	0x3bf6bfb6	0.007530178
45	0xbbcd1ff3	-0.006259912
46	0xbaa1a88e	-0.0012333558
47	0xba282822	-0.00064146717
48	0xbc470ac1	-0.01214856
49	0x3b9b7e52	0.004745283
50	0xbc29a6dd	-0.010354725
51	0x3c547425	0.012967144
52	0x3b87ab23	0.004140274
53	0xbc9a9f7c	-0.018874876
54	0x3cbb413d	0.022858256
55	0x3c017ab1	0.007902787
56	0x3c48790c	0.012235891
57	0xbcc75ef2	-0.024337266
58	0x3cb4eb3a	0.022084821
59	0x3c04bb03	0.008101228
60	0xbaca91a1	-0.0015454778
61	0xbc8370a8	-0.01604493
62	0x3bad3dfb	0.0052869297
63	0x3c262838	0.010141425
64	0x3c04c489	0.008103498
65	0x3c975af2	0.018475983
66	0xbcb8e2fc	-0.022569172
67	0xbc9cf6eb	-0.019160708
68	0x3cc9fd74	0.024656989
69	0x3cb033b6	0.021509033
70	0xbb015d1b	-0.0019739333
71	0x3c65e8ea	0.014032582
72	0x3c946bf1	0.018117877
73	0x3c972274	0.018449046
74	0xbc3d60b8	-0.011558704
75	0xbc17149d	-0.009221223
76	0xbc560e51	-0.013064937
77	0xbbdf0358	-0.0068058185
78	0x3cc15650	0.023600727
79	0xb9dc5918	-0.0004202805
80	0xbca38fdb	-0.019966057
81	0x3c9afb8c	0.018918775
82	0x3c222213	0.009895819
83	0x3b880d8b	0.004152005
84	0xbc552329	-0.013008871
85	0x3c944812	0.018100772
86	0xbca674f3	-0.020319438
87	0x3c4c86b0	0.012483284
88	0xbb3d27a0	-0.002886273
89	0xbc1332e0	-0.0089842975
90	0xbcb81b1c	-0.022473864
91	0x3b6278b5	0.003455681
92	0xbc3fb79e	-0.011701493
93	0xbc204c4e	-0.009783817
94	0x3c697c1d	0.014250782
95	0xbc8308b3	-0.015995359
96	0x3cc228b6	0.023701053
97	0x3ca6d5ae	0.020365562
98	0x3c9650e7	0.018349124
99	0x3b334853	0.002735634
100	0xbc9cad3a	-0.01912557
101	0xbbbd8cc4	-0.005784603
102	0xbc43faeb	-0.011961679
103	0xbb5d3502	-0.003375352
104	0xbcbe00a4	-0.023193665
105	0xbc36ff3f	-0.011169254
106	0xbb8cd675	-0.004298026
107	0x39380570	0.00017549633
108	0xbbcd2a0c	-0.006261116
109	0x3bb09bc9	0.005389665
110	0xbc5c35f4	-0.013440598
111	0xbc8a4046	-0.016876351
112	0xbc92baa4	-0.017911263
113	0x3cbff288	0.023431078
114	0x3c7715b6	0.01508086
115	0xbcb3641c	-0.021898322
116	0xbcac19f0	-0.021008462
117	0xba3eb17c	-0.0007274372
118	0xbc575329	-0.0131423855
119	0x3c0e459d	0.008683589
120	0xbc11f88c	-0.008909356
121	0x3b1b839d	0.002372957
122	0xbbcca759	-0.0062455353
123	0xbc9e751d	-0.019342953
124	0xbb17da89	-0.0023171029
125	0x3cc12465	0.023576925
126	0x3ca7372a	0.020412046
127	0xbc82cb7b	-0.015966168
128	0x3c0a6552	0.008447008
129	0x3cb7dad7	0.022443218
130	0x3b1c6e4e	0.0023869458
131	0xbab1afa3	-0.0013556372
132	0x3cb8fc4e	0.022581246
133	0x3ac50043	0.0015029985
134	0xbb717d6c	-0.003684844
135	0x3cc4640b	0.023973485
136	0x3c3dc583	0.011582735
137	0xbc7001a6	-0.0146488305
138	0x3ca084dd	0.019594604
139	0x3cafdf1e	0.021468695
140	0x3caa912a	0.020821173
141	0xbc31d02c	-0.010852855
142	0xbc08808c	-0.008331429
143	0x3c8bf7f8	0.017086014
144	0x3c9ed930	0.019390672
145	0xbca2bfb9	-0.019866811
146	0x3cb12a08	0.021626487
147	0x3c5b31fd	0.013378617
148	0x3c08c5da	0.008347953
149	0xbbdaee43	-0.006681235
150	0xbb571cc4	-0.0032823542
151	0x3c798e18	0.015231632
152	0x3b856bea	0.0040717022
153	0x3ca2493e	0.019810315
154	0xbc7dbd23	-0.015486988
155	0xbc10a681	-0.00882876
156	0xbb3d9018	-0.0028924998
157	0x3c25c054	0.010116655
158	0x3c0e7b6d	0.008696419
159	0x3c591d66	0.013251638
160	0xbc632f76	-0.013866296
161	0xbb91ddfc	-0.0044515114
162	0x3c1f3f1c	0.009719636
163	0xbc35334e	-0.011059595
164	0x3c924877	0.01785682
165	0x3c903f02	0.01760817
166	0x3c62c1d5	0.0138401585
167	0x3c5a4c82	0.013323905
168	0x3c770c1b	0.01507857
169	0xbcad959d	-0.021189505
170	0xbbfa7a44	-0.0076439697
171	0x3c996102	0.018723015
172	0xbc2a29f7	-0.010385982
173	0x3b086cbd	0.0020816766
174	0xbc0b7df8	-0.00851392
175	0x3a7d5844	0.00096643367
176	0xbb1ee30d	-0.002424422
177	0xbba5258e	-0.0050398773
178	0x3bd6470f	0.0065392326
179	0x3cca9b85	0.02473236
180	0x3b22fe3c	0.0024870774
181	0xbbab9251	-0.005235948
182	0x3cb9a737	0.022662742
183	0xbc16f4df	-0.009213655
184	0x3c0885b7	0.008332661
185	0x3b2c2c71	0.0026271606
186	0x3c1af398	0.009457491
187	0x3c8b846f	0.017030923
188	0x3c132bb3	0.008982587
189	0x39744a6d	0.00023297379
190	0x3c50481b	0.012712504
191	0x3bb6491f	0.005562916
192	0xbb08dd30	-0.002088379
193	0x3bf7bcf6	0.0075603677
194	0xbc324c83	-0.0108825
195	0x3b832b09	0.004002933
196	0xbc575f71	-0.013145314
197	0x3c587479	0.013211363
198	0x3cd63c88	0.02615191
199	0xbbd94e4a	-0.0066316472
200	0xbcb77a03	-0.022397047
201	0x3ca897c3	0.020580178
202	0xbc534460	-0.01289472
203	0x3c878c0d	0.016546274
204	0x3c8dc91c	0.01730781
205	0xbc109cff	-0.008826493
206	0x3a24a377	0.00062804617
207	0xbc2d5290	-0.010578766
208	0x3cab3aad	0.020902002
209	0xbc938ea4	-0.018012352
210	0x3b34f4f5	0.0027611826
211	0xbc665b93	-0.014059919
212	0x3ca173a8	0.01970847
213	0x3c46ef84	0.012142066
214	0x3cb0d988	0.021588102
215	0xbc3c64d8	-0.011498652
216	0x3c0a5ab7	0.00844448
217	0xbcae9a82	-0.02131391
218	0x3c733d83	0.0148462085
219	0xbc084607	-0.008317477
220	0x3c082074	0.008308519
221	0x3c46b6c6	0.0121285375
222	0xbc807ebb	-0.01568543
223	0x3c65ea2c	0.014032882
224	0xbc27df1d	-0.010246065
225	0x3c223f38	0.009902768
226	0xbc066078	-0.008201711
227	0x3aca3ceb	0.0015429532
228	0x3b46bd22	0.0030325134
229	0x3cb31582	0.021860842
230	0x3bf10fc8	0.0073566176
231	0x3b97e808	0.0046358146
232	0xbb8aa6cc	-0.0042313095
233	0xbcc8716c	-0.024468146
234	0xbc320370	-0.010865077
235	0xbc085c5c	-0.008322801
236	0x3c1d9bdd	0.00961968
237	0xbabfb4bf	-0.001462601
238	0x3c06c085	0.008224611
239	0xbc512d24	-0.01276711
240	0xbcca7bf0	-0.024717301
241	0x3c19ec77	0.0093947565
242	0x3c628773	0.013826239
243	0x3c5e8e1c	0.013583686
244	0x3cab4af7	0.02090977
245	0xbcc5f1a8	-0.024163082
246	0x3bfd0a8e	0.0077222055
247	0x3ca5c759	0.020236658
248	0xbc4a48f0	-0.012346491
249	0x3c6831b3	0.0141720055
250	0x3c53736d	0.012905938
251	0x3badb08c	0.005300587
252	0xbcc40e82	-0.0239327
253	0x3c3fa811	0.011697785
254	0x3cb7bd04	0.022428997
255	0xbb621090	-0.0034494735

conv2.bias f4 [32]
0	0xbcaefd36	-0.021360975
1	0xbcb00260	-0.021485507
2	0xbc9c815d	-0.019104654
3	0x3b83ed8e	0.0040261215
4	0xbc8998a3	-0.016796416
5	0xbaf66e36	-0.0018801156
6	0x3c8dc3c0	0.017305255
7	0x3c49cfd7	0.012317619
8	0x3c8cd6a7	0.017192198
9	0xbbeff737	-0.0073231715
10	0x3b8be37b	0.004269061
11	0x3c085951	0.008322076
12	0xbb5c4872	-0.0033612517
13	0xbc88925f	-0.016671358
14	0xba10be55	-0.0005521526
15	0x3cafbf5f	0.021453558
16	0x3cd3fc43	0.025877124
17	0x3be8a69f	0.007099941
18	0xbae2384a	-0.0017259207
19	0xbcbcbb34	-0.023038484
20	0xbc5d31c6	-0.013500636
21	0x3c8aa241	0.016923072
22	0x3b525be0	0.0032098219
23	0x3c373bbd	0.011183676
24	0xbb2fe44d	-0.0026838959
25	0x3c2c6b79	0.01052367
26	0x3c68ad46	0.014201468
27	0x3c857b3d	0.016294116
28	0xbb9221ae	-0.0044595813
29	0x3c0e3d9c	0.008681681
30	0x3ca6e430	0.02037248
31	0x3c5af533	0.013364124

conv3.weight f4 [1, 32, 5, 5]
0	0xbc9f6aa7	-0.019460035
1	0x3d05e8db	0.03269277
2	0x3cc66348	0.024217263
3	0xbc959d08	-0.018263355
4	0x3cf70331	0.030152889
5	0x3c483dc6	0.012221759
6	0x3ce95fed	0.028488124
7	0xbbc27900	-0.0059348345
8	0xbcdb1b1e	-0.026746329
9	0xbc3226a1	-0.010873468
10	0x3cd4b0f6	0.025963288
11	0xbc24249a	-0.010018492
12	0x3cb26fe8	0.021781877
13	0x3c697c24	0.014250789
14	0xbbde1ff1	-0.00677871
15	0x3c4e8335	0.012604524
16	0x3cd8de29	0.026473122
17	0x3cd38bbf	0.025823472
18	0xbcc7f968	-0.024410918
19	0xbc9651af	-0.018349497
20	0x3c091bdc	0.008368459
21	0xbcd54eac	-0.02603849
22	0xbcf2cd4b	-0.029638907
23	0x3c79216b	0.015205721
24	0xbb32aec1	-0.0027264806
25	0xbc17e703	-0.009271386
26	0x3c578783	0.013154867
27	0xbd0ddfbc	-0.034637198
28	0x3a927d15	0.0011176193
29	0xbc874a69	-0.016514974
30	0xbcfb4694	-0.030673303
31	0x3c294dbc	0.010333475
32	0x3b904f8c	0.004404014
33	0xbc903dcb	-0.01760759
34	0x3c0415d9	0.0080618495
35	0xbccc68d5	-0.024952332
36	0x3d0a6290	0.033785403
37	0x3c3bf60d	0.011472237
38	0xbbca0638	-0.006165292
39	0xbc3ed1ae	-0.011646671
40	0x3d052b4c	0.032511994
41	0xbd072886	-0.03299763
42	0xbc0036b7	-0.007825545
43	0x3c9d3175	0.019188622
44	0x3c3de5b3	0.011590409
45	0x3c717cf6	0.014739266
46	0xbcb1d1a4	-0.02170641
47	0x3d04d9ed	0.032434393
48	0x3be162ea	0.0068782466
49	0xbce2c435	-0.02768145
50	0x3cc55319	0.024087476
51	0x3ced10f5	0.02893875
52	0x3d13099a	0.03589783
53	0x3c07a7a0	0.008279711
54	0xbcacd24b	-0.02109637
55	0x3bf1c6a7	0.0073784175
56	0xbd085258	-0.033281654
57	0xbc9e7132	-0.019341085
58	0xbc2929f5	-0.010324945
59	0xbbf6d0da	-0.0075322213
60	0xbc510cca	-0.012759397
61	0xbb476d2e	-0.0030430066
62	0x3baab6b3	0.0052097677
63	0x3cb22440	0.021745801
64	0x3aef0b98	0.0018237708
65	0x3cc7ca40	0.024388433
66	0x3c2b3eb5	0.010451962
67	0x3cfef908	0.031124607
68	0x3c5e4600	0.013566494
69	0x3c96591f	0.018353043
70	0x3ca7596f	0.020428387
71	0xbbfe9733	-0.007769489
72	0xbb9f259b	-0.004856778
73	0xbd0553f0	-0.032550752
74	0xbb511e61	-0.0031908976
75	0xbcc08202	-0.023499493
76	0xbb27a6e0	-0.0025581643
77	0x3cb4331f	0.021997033
78	0x3cfe6413	0.031053578
79	0xbcc39b87	-0.023877872
80	0xbb446315	-0.0029966284
81	0x361afffa	2.3096786e-06
82	0x3cbbb562	0.022913639
83	0xbc5ed619	-0.01360085
84	0xbbed16d5	-0.007235388
85	0xbaeec8d7	-0.0018217814
86	0x3c38e193	0.01128425
87	0x3c5e7573	0.013577807
88	0x3d07b5e4	0.03313245
89	0x3ce98cc2	0.028509501
90	0x3c1cf6bb	0.0095803095
91	0xbd096018	-0.033538908
92	0x3cfca668	0.030841067
93	0x3c2f74fa	0.010709042
94	0x3c75084f	0.014955594
95	0xbd05da86	-0.032679103
96	0x3cdf0e81	0.027228596
97	0xba0a590d	-0.0005277552
98	0xbd051703	-0.03249265
99	0x3ca24716	0.019809287
100	0xbce3634e	-0.027757313
101	0xbcb52905	-0.022114286
102	0x3c5f10ec	0.013614874
103	0x3c2c1a21	0.0105042765
104	0x3ae70a4f	0.0017626974
105	0x3cf71ad6	0.030164164
106	0xbbbded5d	-0.005796118
107	0x3ba1826f	0.004928879
108	0x3c79de56	0.015250763
109	0x3cbb6278	0.022874102
110	0xbcf2dc13	-0.029645955
111	0x3c24d460	0.0100604
112	0x3ccb2d22	0.024801794
113	0x3944ca3e	0.00018767358
114	0x3ad704b5	0.0016404601
115	0xbc755161	-0.0149730155
116	0x3d0b45f8	0.034002274
117	0x3cdbdf76	0.026839953
118	0xbb0bdbf6	-0.0021340824
119	0x3c9f843e	0.019472238
120	0x3d057b71	0.032588426
121	0x3cfd3808	0.030910507
122	0x3c5ad38b	0.0133561
123	0xba5bf91d	-0.0008391308
124	0x3b428ecf	0.0029687171
125	0xbc0f673d	-0.008752641
126	0xbccbce4c	-0.024878643
127	0x3ce6a765	0.028155992
128	0xbc8ea7de	-0.01741403
129	0x3bbded14	0.005796084
130	0xbc995b64	-0.018720336
131	0xb9e7de96	-0.00044225593
132	0x3c3724d3	0.011178213
133	0x3ce2a3ce	0.027665999
134	0xbb12c5ad	-0.0022395656
135	0xbcba3703	-0.02273131
136	0x3b6e3ebd	0.0036353313
137	0xbcbf606b	-0.023361405
138	0x3c24ba57	0.0100541925
139	0x3cdbbcc1	0.026823403
140	0x3cfb47c1	0.030673863
141	0xbd0fac22	-0.035076268
142	0x3cbba737	0.022906883
143	0xbbff05c6	-0.0077826707
144	0x3ce06acf	0.02739468
145	0x3cc11ec1	0.023574235
146	0xbcd618c6	-0.02613486
147	0xbb527e8f	-0.0032118892
148	0xbbc9f0e5	-0.00616275
149	0xbce136b3	-0.027491903
150	0x3cc11b5a	0.023572613
151	0x3cf74900	0.030186176
152	0xbd03f052	-0.03221161
153	0xbbe02c71	-0.0068412353
154	0xbc533fc9	-0.012893626
155	0x3be7cd77	0.007074054
156	0xbc4a7d4d	-0.012358976
157	0x3d0c1547	0.03419998
158	0x3c05dab4	0.008169819
159	0xbd03691c	-0.032082662
160	0x3be2c026	0.0069198785
161	0xbc25c053	-0.010116654
162	0xbcb883a2	-0.022523705
163	0x3d0ab091	0.033859793
164	0x3ca367ba	0.019946922
165	0x3b30b56e	0.002696361
166	0xb894f4b7	-7.1027716e-05
167	0xba84d4ba	-0.0010134198
168	0xbbe281ea	-0.0069124596
169	0x3c19e0bd	0.009391961
170	0x3c556832	0.01302533
171	0x3cc9e9ab	0.024647554
172	0xbc8b20a8	-0.016983345
173	0x3c97bb57	0.018521948
174	0xbcb45179	-0.022011505
175	0x3c90dd36	0.017683607
176	0x3d0004ae	0.031254463
177	0xbcce8c6a	-0.025213439
178	0xbc81b8cc	-0.015835188
179	0x3ca95705	0.020671377
180	0x3b669743	0.0035185374
181	0x3cb03b0b	0.021512529
182	0x3cfbedf3	0.030753111
183	0xbccca2e3	-0.024980014
184	0x3cb13e6e	0.021636214
185	0x3c4551d4	0.012043435
186	0x3b376172	0.0027981666
187	0xbc4c369e	-0.012464194
188	0x3b1a4f0f	0.0023545658
189	0xbc101952	-0.008795099
190	0x3cad205b	0.021133592
191	0xbc9229a8	-0.017842129
192	0xbca94749	-0.020663874
193	0xbb5c71b1	-0.0033637101
194	0xbd00f16c	-0.031480238
195	0xbb77115c	-0.0037699556
196	0xbcd3eb4a	-0.02586903
197	0xbd03e973	-0.032205056
198	0x398801f0	0.00025941385
199	0xbc8ca517	-0.017168565
200	0xbb2d282d	-0.0026421652
201	0xbcb98bf4	-0.022649743
202	0x3b83ef29	0.004026313
203	0x3c6ba4bb	0.0143825365
204	0xbca147ca	-0.019687552
205	0xbc06ad81	-0.0082200775
206	0xbd073163	-0.033006083
207	0xbd05c02c	-0.032653973
208	0xbc83d18d	-0.016091133
209	0x3c71c7ec	0.014757138
210	0x3c8f8b1d	0.01752239
211	0xbcb20c10	-0.021734267
212	0x3c88234c	0.016618393
213	0xbc8db841	-0.017299773
214	0x3d06424a	0.032778062
215	0xbc082985	-0.00831068
216	0xbbeecf7b	-0.007287917
217	0xbcca2eb5	-0.024680475
218	0x3cec1e61	0.02882308
219	0x3cc25cb2	0.023725841
220	0xbb87cc81	-0.004144252
221	0x3c9d2f8a	0.019187707
222	0x3cb6f162	0.022331897
223	0x3c83afb7	0.016074998
224	0xbc93883d	-0.0180093
225	0x3c456c45	0.012049739
226	0x3c77c615	0.01512291
227	0x3c1a465c	0.009416189
228	0xbb2d74e9	-0.002646739
229	0xbcd5fc10	-0.02612117
230	0x3d0f2b5b	0.034953456
231	0xbba322d4	-0.004978517
232	0xbca76171	-0.020432206
233	0xbb9c34df	-0.004767045
234	0x3ca74fab	0.02042373
235	0xbc8203ea	-0.015871007
236	0xbb06ddd0	-0.0020578988
237	0xbacf05c5	-0.0015794566
238	0xbb9e7024	-0.0048351455
239	0x3cb9afc1	0.022666814
240	0xbc242d7c	-0.01002061
241	0x3ca05a72	0.019574378
242	0x3cdc0def	0.026862113
243	0x3cfb719f	0.030693827
244	0x3d0fb4e9	0.03508464
245	0x3bbce1b5	0.005764211
246	0x3cb04769	0.021518426
247	0xbc17c79c	-0.009263899
248	0xbcd7a4b8	-0.026323661
249	0xbce6be3d	-0.028166885
250	0xbc87aa4a	-0.016560692
251	0xbb6a653a	-0.0035765902
252	0x3cadaac4	0.021199591
253	0x3c664f55	0.014057
254	0x3cee045b	0.029054811
255	0xbccdbbab	-0.025113901
