resutls/epoch_27.014.pth (torch, 231589 bytes, 5 tensors)

conv1.weight f4 [64, 1, 9, 9]
0.05736907 -0.048782885 -0.020779656 0.052648816 -0.10437969 0.0661547 -0.02284985 0.05676001
0.016354447 -0.013702668 0.030913265 0.005782753 0.04062203 -0.043247763 -0.008670998 -0.01053448
0.016195273 3.808485e-05 0.09757876 0.035366412 -0.04028783 -0.06619707 -0.017105127 -0.0478
-0.035643954 0.006129753 0.066926606 0.061264347 -0.107682884 0.070021115 0.032984268 0.10668532
0.07363553 -0.101203814 -0.10520201 -0.052729093 0.0981211 -0.016907398 0.049437594 -0.04960249
0.110144526 -0.04698982 0.08299246 0.0014600522 -0.057999816 0.05762683 -0.057854246 0.034288578
-0.030308772 -0.010836696 -0.10719024 -0.053834047 0.060049124 -0.02676331 0.11089672 0.08955435
-0.003396013 -0.07340071 0.068318985 0.033911705 -0.072527856 0.071998425 0.06772068 0.098563015
-0.06097114 -0.01663508 -0.00064284867 0.01714768 -0.084928595 -0.07957188 0.06023864 -0.025878878
0.053705666 0.0067852004 0.037349306 0.025277603 0.040387236 0.053929806 -0.10408426 0.05532713
-0.078299396 -0.08750659 0.004028163 -0.0212897 0.0627884 -0.065470204 -0.09975799 0.079467885
-0.018266995 0.059775002 0.03284534 -0.086617865 0.020273995 0.025335427 -0.07515372 -0.05269509
0.0371222 0.018190742 -0.049899254 -0.036299266 0.09863872 -0.022452103 0.061438996 0.04828194
-0.072280474 -0.095413744 0.10511763 0.0031943861 0.07370486 0.021643613 0.03486986 0.082219064
0.10623564 -0.07270469 0.014718561 0.08271603 0.07921712 0.06712562 -0.082168415 -0.08083785
-0.067089856 0.016343057 0.11294321 -0.068440035 0.06013105 -0.06188883 -0.10473409 -0.022813402
0.06512031 0.1055272 -0.064244054 0.029792883 0.100356884 0.07674173 0.070963256 0.07756401
0.06922585 0.029309962 -0.07459104 -0.08928146 -0.04596712 -0.008552778 -0.06576288 0.04204426
0.031820502 -0.027271274 0.041301843 0.03607825 0.069613226 0.07732287 -0.03547453 0.10868341
-0.013321779 -0.0073937885 -0.10903189 -0.07513978 -0.06734601 -0.04739 0.07886894 -0.036353607
-0.08467502 0.040851697 0.035959348 0.07224333 -0.056762923 0.026272915 -0.036979645 -0.024035372
-0.08991534 -0.05150525 -0.03547088 0.048871607 0.02232724 0.02967988 0.11427257 0.11323083
0.07767414 0.003551232 -0.0769441 0.086277895 -0.026136646 -0.0065633934 -0.09338816 -0.017034931
-0.065369315 0.10477931 -0.09586057 -0.08636065 -0.004544005 -0.058959723 0.041798357 -0.0400399
-0.047120333 0.013063877 0.08296001 -0.07841263 0.051821165 0.07037094 0.10864252 -0.077194564
0.028813332 -0.078492604 0.10086526 -0.040850267 0.06566575 0.0016109361 -0.011524594 -0.004172005
0.019206937 0.053478103 0.02145317 0.039299976 -0.09887538 0.07959887 0.095509306 0.089583255
0.08146025 -0.08032364 -0.040317588 0.10056463 -0.07983475 0.10163765 -0.08898959 -0.07982851
0.051940862 -0.08078037 -0.02553586 0.08096971 0.09024246 0.10969419 -0.020925289 -0.08800725
0.10775471 -0.025593828 -0.047568016 0.025769899 -0.0785329 0.073749036 0.0720565 -0.08859731
-0.09361457 -0.011444827 0.04432203 -0.0025168718 -0.05606769 0.0030672317 -0.1042717 -0.0783317
-0.07420654 0.09037095 0.09685907 -0.038943946 0.0058294497 0.04996048 0.013913777 -0.05527253
00000000: d4fb 6a3d 90d0 47bd 193a aabc 49a6 573d
00000010: 05c5 d5bd 1e7c 873d 9c2f bbbc 2f7d 683d
00000020: c3f9 853c 2881 60bc d13d fd3c 407d bd3b
00000030: 4963 263d 9124 31bd cd10 0ebc d098 2cbc
00000040: f3ab 843c 4cbd 1f38 5fd7 c73d 5fdc 103d
00000050: da04 25bd 5492 87bd 0d20 8cbc efc9 43bd
00000060: 65ff 11bd 18dc c83b d110 893d 53f0 7a3d
00000070: d888 dcbd 3b67 8f3d 831a 073d d57d da3d
00000080: 3ace 963d f243 cfbd 2774 d7bd 76fa 57bd
00000090: b7f3 c83d 6281 8abc 137f 4a3d fb2b 4bbd
000000a0: 7493 e13d 6678 40bd f3f7 a93d 395f bf3a
000000b0: 3791 6dbd 1c0a 6c3d 93f8 6cbd 2e72 0c3d
000000c0: 1a4a f8bc 668c 31bc 8e86 dbbd 1781 5cbd
000000d0: 12f6 753d bb3e dbbc d21d e33d 4568 b73d
000000e0: a58f 5ebb 1d53 96bd d3ea 8b3d 00e7 0a3d
000000f0: 7c89 94bd e973 933d 24b1 8a3d 68db c93d
00000100: e0bc 79bd 4b46 88bc d884 28ba 4b79 8c3c
00000110: 0bef adbd 95f6 a2bd cbbc 763d f1ff d3bc
00000120: 79fa 5b3d 6356 de3b 96fb 183d fa12 cf3c
00000130: 166d 253d 80e5 5c3d 212a d5bd b39e 623d
00000140: 6f5b a0bd a836 b3bd aefe 833b bd67 aebc
00000150: 3497 803d 3e15 86bd eb4d ccbd 0fc0 a23d
00000160: aaa4 95bc a2d6 743d d688 063d b564 b1bd
00000170: a615 a63c 3e8c cf3c 32ea 99bd cfd6 57bd
00000180: 730d 183d c004 953c 2963 4cbd 8aae 14bd
00000190: 1903 ca3d 79ed b7bc 75a7 7b3d 49c3 453d
000001a0: c907 94bd 4868 c3bd e947 d73d e858 513b
000001b0: 93f2 963d f24d b13c b3d3 0e3d 7862 a83d
000001c0: 1292 d93d 32e6 94bd 1f26 713c 0667 a93d
000001d0: 963c a23d 2879 893d ea47 a8bd 518e a5bd
000001e0: 6866 89bd e0e1 853c c54e e73d 4a2a 8cbd
000001f0: fa4b 763d 247f 7dbd d47e d6bd 2ce3 babc
00000200: cc5d 853d a51e d83d 6392 83bd 3410 f43c
00000210: e987 cd3d c52a 9d3d 2f55 913d e1d9 9e3d
00000220: 48c6 8d3d 721b f03c 30c3 98bd 33d9 b6bd
00000230: 0548 3cbd f320 0cbc b0ae 86bd 9a36 2c3d
00000240: 3756 023d 0268 dfbc 1f2c 293d c9c6 133d
00000250: 6191 8e3d 745b 9e3d be4d 11bd 6895 de3d
00000260: 9743 5abc 9847 f2bb 1d4c dfbd e3e2 99bd
00000270: b4ec 89bd 041c 42bd 0a86 a13d 85e7 14bd
00000280: 196a adbd 1c54 273d 1c4a 133d 50f4 933d
00000290: 3d80 68bd 4c3a d73c f877 17bd d4e5 c4bc
000002a0: 8925 b8bd 2bf7 52bd ea49 11bd 982d 483d
000002b0: 9ee7 b63c 3823 f33c bd07 ea3d 91e5 e73d
000002c0: 9f13 9f3d c9bb 683b de94 9dbd 77b2 b03d
000002d0: 851c d6bc bc11 d7bb 4b42 bfbd d78c 8bbc
000002e0: 59e0 85bd 8996 d63d 8c52 c4bd dadd b0bd
000002f0: e0e5 94bb c07f 71bd c134 2b3d e100 24bd
00000300: 4001 41bd df09 563c f0e6 a93d cd96 a0bd
00000310: 6e42 543d a41e 903d f87f de3d 2f18 9ebd
00000320: f009 ec3c bbc0 a0bd 7292 ce3d 9c52 27bd
00000330: c47b 863d 0c26 d33a a7d1 3cbc 51b5 88bb
00000340: de57 9d3c db0b 5b3d 8fbe af3c 03f9 203d
00000350: 2d7f cabd bb04 a33d 629a c33d 6d77 b73d
00000360: a2d4 a63d b880 a4bd 0e24 25bd d4f4 cd3d
00000370: 6780 a3bd 6627 d03d 2d40 b6bd 217d a3bd
00000380: f1bf 543d 2e70 a5bd 9430 d1bc 73d3 a53d
00000390: 0ad1 b83d 59a7 e03d 836b abbc 253d b4bd
000003a0: 80ae dc3d 26aa d1bc aed6 42bd 651b d33c
000003b0: dbd5 a0bd bc09 973d 5c92 933d 8272 b5bd
000003c0: ffb8 bfbd 1583 3bbc 048b 353d 1af2 24bb
000003d0: 3ca7 65bd 9c03 493b 678c d5bd 5f6c a0bd
000003e0: 99f9 97bd 6814 b93d 0c5e c63d b083 1fbd
000003f0: f804 bf3b 5ca3 4c3d 9cf6 633c 7365 62bd

conv1.bias f4 [64]
-0.05279427 0.02396782 -0.070231706 -0.042187575 0.08002756 0.04232347 0.081491224 -0.021864604
0.10240825 0.076815896 0.06405238 0.054005347 -0.09505936 -0.054372326 0.0066910996 0.035945367
0.11968497 0.09380338 -0.04844871 0.05809792 0.043476343 -0.053941634 -0.1070228 0.04707
0.014152046 0.035584867 0.07580843 -0.03370911 -0.042734418 0.033230226 -0.04306927 -0.065269984
-0.102480955 -0.08916867 -0.010572041 0.09538921 -0.07003658 0.025391653 0.06355347 0.021251922
-0.0029741642 0.085130855 -0.103511095 0.09658533 0.091632985 0.09611351 0.08427176 -0.00735235
-0.08335018 -0.070110664 -0.08454141 -0.06648645 -0.09901086 0.07401987 0.043400526 -0.048161283
0.011906323 0.015094253 0.004055669 0.071450286 0.04433987 -0.08785247 0.1053491 -0.045915045
00000000: ce3e 58bd 2958 c43c a4d5 8fbd e1cc 2cbd
00000010: 7de5 a33d 605b 2d3d dfe4 a63d 661d b3bc
00000020: 6bbb d13d a751 9d3d e52d 833d b634 5d3d
00000030: 7bae c2bd 84b5 5ebd 0341 db3b 733b 133d
00000040: 651d f53d fd1b c03d 2872 46bd 16f8 6d3d
00000050: 4014 323d e7f1 5cbd c52e dbbd 79cc 403d
00000060: fcdd 673c 70c1 113d 7341 9b3d 9012 0abd
00000070: 490a 2fbd 6b1c 083d 6769 30bd 45ac 85bd
00000080: 89e1 d1bd 109e b6bd 5b36 2dbc 6b5b c33d
00000090: 576f 8fbd 2802 d03c 5228 823d 8318 ae3c
000000a0: 32ea 42bb 1659 ae3d a0fd d3bd 88ce c53d
000000b0: 13aa bb3d 29d7 c43d ac96 ac3d fbeb f0bb
000000c0: 80b3 aabd 2e96 8fbd 0c24 adbd 0c2a 88bd
000000d0: 35c6 cabd bb97 973d c0c4 313d c444 45bd
000000e0: bd12 433c e34d 773c 6be5 843b 8754 923d
000000f0: b99d 353d ffeb b3bd 45c1 d73d 6a11 3cbd

conv2.weight f4 [32, 64, 5, 5]
-0.0074251564 0.02748972 -0.012315382 -0.002889067 0.0026224595 -0.020013506 0.01995017 0.021691704
-0.021712227 -0.0046526245 0.007953707 0.01771176 0.013493318 0.0009329275 0.022143852 -0.0034681968
0.002429917 -0.014231445 -0.012580078 -0.008405296 -0.021058138 -0.0020889267 0.007283407 -0.015147708
-0.02171537 0.025325963 -0.009908838 -0.018607225 -0.0066397726 -0.012735086 -0.018693808 -0.00038555465
-0.009610609 -0.0064050187 0.011458258 0.005840153 0.02311148 -0.024056388 0.022026388 0.012648793
-0.0019024365 0.01966596 0.024189806 0.00245109 0.005550039 -0.0034161522 -0.0008388996 -0.0018817502
-0.013996799 0.0018611988 -0.010671559 0.011671307 0.0038154533 -0.017516013 0.023604402 0.00962321
0.012909553 -0.022398993 0.025836656 0.011195071 -0.0002570487 -0.015780088 0.00658359 0.013051765
0.010254007 0.019321319 -0.022911778 -0.018802838 0.025924051 0.021798296 -0.0011026029 0.01370472
0.018068956 0.018626036 -0.012548145 -0.009232297 -0.012892111 -0.00593656 0.02444346 0.00016040765
-0.01987162 0.01918373 0.010944199 0.005455655 -0.012224063 0.018376248 -0.019887684 0.013717913
-0.001314199 -0.007850217 -0.022261359 0.003933746 -0.010369999 -0.008066993 0.015405862 -0.01570924
0.024176834 0.021842536 0.020190436 0.0040509067 -0.020680843 -0.008143424 -0.013981875 -0.005074427
-0.024372896 -0.012388945 -0.0063710744 -0.0013854437 -0.0076336684 0.0042821583 -0.012678989 -0.017048538
-0.0173819 0.024012294 0.015489374 -0.020709036 -0.02075503 0.00011595218 -0.012259125 0.009383302
-0.009446189 0.0010630192 -0.007214358 -0.020004725 -0.0029330899 0.027482713 0.023778358 -0.012545426
0.0111268 0.022207722 0.00770988 0.0038869493 0.02824177 0.0063917963 -0.0022000296 0.02837135
0.016279606 -0.009231137 0.024240404 0.022518741 0.024719793 -0.0067481752 -0.0036199354 0.021098258
0.020165682 -0.017271092 0.023875631 0.01575979 0.01004252 -0.00789383 -0.0035679324 0.015011767
0.003780517 0.019637546 -0.015668646 -0.009040955 -0.0031799362 0.0099009415 0.008476041 0.013021947
-0.014082117 -0.0047168257 0.009503078 -0.011278972 0.017677361 0.017442795 0.013625125 0.0131128505
0.01486764 -0.021367854 -0.007854397 0.018555436 -0.010593896 0.001805147 -0.008752826 0.009057626
0.0015725644 -0.0008264615 0.009456943 0.025037568 0.009771433 -0.0019531746 0.026675224 -0.006191595
0.008396528 0.011216924 0.014214055 0.022917103 0.013695244 0.0014572102 0.018218836 0.0071073216
0.00023975063 0.008425102 -0.013630048 0.008460751 -0.01275042 0.01383162 0.024812266 -0.011680999
-0.02288147 0.020329805 -0.0130084865 0.016329352 0.016920589 -0.009363965 0.00057130394 -0.010204754
0.02081095 -0.018304937 0.00236252 -0.01380942 0.02017928 0.012366259 0.021355055 -0.011885201
0.008447527 -0.02122614 0.014751726 -0.008674394 0.007917065 0.011970432 -0.015745958 0.013773008
-0.010681287 0.010617096 -0.006510403 0.0035672388 0.0041409256 0.02023374 0.0077774697 0.0060227644
-0.0026918275 -0.024212899 -0.013665027 -0.007143949 0.011469101 0.00016858474 0.008132727 -0.016261615
-0.02369576 0.010862535 0.014865204 0.012639953 0.016200844 -0.022758717 0.009410383 0.021434197
-0.013206546 0.009590557 0.012553272 0.004833463 -0.02427332 0.011217129 0.022051044 -0.003911271
00000000: ba4e f3bb 1f32 e13c 75c6 49bc 8056 3dbb
00000010: 92dd 2b3b 5df3 a3bc 8a6e a33c cdb2 b13c
00000020: d7dd b1bc 0b75 98bb 4450 023c 4118 913c
00000030: 1413 5d3c b48f 743a 0667 b53c b04a 63bb
00000040: 3e3f 1f3b 022b 69bc ac1c 4ebc 5eb6 09bc
00000050: 1e82 acbc 60e6 08bb a5a9 ee3b 182e 78bc
00000060: 6ee4 b1bc 6578 cf3c ae58 22bc 2e6e 98bc
00000070: 7392 d9bb d2a6 50bc c223 99bc 4524 cab9
00000080: d175 1dbc 31e1 d1bb 6bbb 3b3c c15e bf3b
00000090: 4954 bd3c e711 c5bc af70 b43c e23c 4f3c
000000a0: 2d5b f9ba 821a a13c b329 c63c 77a2 203b
000000b0: 1add b53b 86e1 5fbb 99e9 5bba 0fa5 f6ba
000000c0: d452 65bc 78f3 f33a c3d7 2ebc 0239 3f3c
000000d0: af0c 7a3b be7d 8fbc 055e c13c abaa 1d3c
000000e0: 9782 533c 187e b7bc 65a7 d33c 886b 373c
000000f0: 7ec4 86b9 3e45 81bc 28bb d73b 12d7 553c
00000100: 6c00 283c be47 9e3c 7bb1 bbbc 6908 9abc
00000110: ad5e d43c 5792 b23c 3785 90ba c389 603c
00000120: 5905 943c a195 983c bc96 4dbc 0f43 17bc
00000130: 6f39 53bc 7a87 c2bb a73d c83c 1a33 2839
00000140: cfc9 a2bc 3327 9d3c 4c4f 333c 5ac5 b23b
00000150: 7047 48bc c989 963c 7feb a2bc 19c1 603c
00000160: 3341 acba 329e 00bc 745d b6bc a7e6 803b
00000170: eee6 29bc 6c2b 04bc de68 7c3c aab0 80bc
00000180: 7f0e c63c 1eef b23c 6a66 a53c 78bd 843b
00000190: df6a a9bc ff6b 05bc 3c14 65bc 6147 a6bb
000001a0: aba9 c7bc 00fb 4abc 72c4 d0bb c797 b5ba
000001b0: da23 fabb 5951 8c3b 89bb 4fbc 60a9 8bbc
000001c0: 7d64 8ebc 6eb5 c43c 25c7 7d3c ffa5 a9bc
000001d0: 7406 aabc 5a2b f338 7fda 48bc 6cbc 193c
000001e0: 30c4 1abc 0155 8b3a 6c66 ecbb f3e0 a3bc
000001f0: 1539 40bb 6d23 e13c d5ca c23c 558b 4dbc
00000200: 2f4d 363c f8ec b53c 29a3 fc3b 30bc 7e3b
00000210: 495b e73c 4672 d13b 5f2e 10bb 096b e83c
00000220: cf5c 853c 323e 17bc d093 c63c 3979 b83c
00000230: 2a81 ca3c cc1f ddbb 703c 6dbb 41d6 ac3c
00000240: 8032 a53c 1b7c 8dbc d496 c33c ad1a 813c
00000250: 6289 243c 1f55 01bc f9d3 69bb eaf3 753c
00000260: 8dc2 773b ebde a03c 885b 80bc 8420 14bc
00000270: 7a66 50bb 8f37 223c 18df 0a3c 015a 553c
00000280: aeb8 66bc 9a8f 9abb ccb2 1b3c 70cb 38bc
00000290: 1dd0 903c 31e4 8e3c eb3b 5f3c 48d7 563c
000002a0: 6797 733c a30b afbc bbaf 00bc 9201 983c
000002b0: 0592 2dbc af9a ec3a 0368 0fbc 7066 143c
000002c0: 811e ce3a e4a6 58ba 4bf1 1a3c 961b cd3c
000002d0: 5c18 203c d500 00bb 0086 da3c dde2 cabb
000002e0: 9791 093c 30c7 373c 11e2 683c a6bc bb3c
000002f0: 0462 603c dcff be3a ab3f 953c 89e4 e83b
00000300: 9265 7b39 7009 0a3c 9150 5fbc f69e 0a3c
00000310: 23e7 50bc 059e 623c 1843 cb3c a961 3fbc
00000320: ec71 bbbc b18a a63c 8c21 55bc 22c5 853c
00000330: 0c9d 8a3c 516b 19bc 8fc3 153a d731 27bc
00000340: ba7b aa3c 3cf4 95bc 82d4 1a3b e840 62bc
00000350: 044f a53c d99b 4a3c ccf0 ae3c 25ba 42bc
00000360: 7f67 0a3c 71e2 adbc 39b1 713c 0c1f 0ebc
00000370: 94b6 013c a11f 443c abfd 80bc 2fa8 613c
00000380: 9100 2fbc 54f3 2d3c 3855 d5bb 56c8 693b
00000390: 9ab0 873b 3ac1 a53c 25da fe3b 9c5a c53b
000003a0: 5f69 30bb 215a c6bc 47e3 5fbc ca17 eabb
000003b0: e5e8 3b3c 1fc6 3039 213f 053c 1437 85bc
000003c0: 9c1d c2bc c6f8 313c 2f8d 733c ce17 4f3c
000003d0: a2b7 843c 7d70 babc 022e 1a3c c596 af3c
000003e0: 4560 58bc b621 1d3c 3dac 4d3c 0762 9e3b
000003f0: d7d8 c6bc 0dc8 373c 64a4 b43c 1f2a 80bb

conv2.bias f4 [32]
-0.0133883115 -0.021714672 -0.021543667 0.020700447 -0.010886724 0.00639262 0.013812686 0.013774794
0.018044215 -0.004689771 0.00011486737 0.019515311 0.0010957317 -0.011748567 -0.0012325525 0.014166005
0.020310156 0.002520206 -0.004446392 -0.02285695 -0.011028533 0.005444148 0.003549008 0.020950051
0.0061710537 0.009808637 0.016106054 0.012269655 -0.004459802 0.017653454 0.023989541 0.006804753
00000000: a65a 5bbc f8e2 b1bc 587c b0bc fc93 a93c
00000010: 3b5e 32bc 2f79 d13b 9b4e 623c acaf 613c
00000020: 76d1 933c a7ac 99bb f3e4 f038 93de 9f3c
00000030: a89e 8f3a 107d 40bc 998d a1ba 8818 683c
00000040: 7c61 a63c 0a2a 253b 0ab3 91bb 803e bbbc
00000050: 05b1 34bc d364 b23b 7996 683b 719f ab3c
00000060: 8d36 ca3b 68b4 203c d8f0 833c aa06 493c
00000070: 8823 92bb fa9d 903c b785 c43c 68fa de3b

conv3.weight f4 [1, 32, 5, 5]
-0.015975613 0.035840176 0.028337834 -0.017844366 0.029761177 0.01519631 0.031220192 -0.0021881703
-0.02696509 -0.012036712 0.029435309 -0.0068037105 0.025890807 0.014091081 -0.007963035 0.0136281885
0.02695508 0.026964433 -0.027249688 -0.021860795 0.008075069 -0.027112607 -0.030269884 0.010991332
-0.0071346136 -0.009255801 0.012984558 -0.03453295 0.0014242291 -0.016514974 -0.030651795 0.010163587
0.0044983802 -0.017361015 0.0080618495 -0.02492564 0.03368419 0.011572228 -0.0058698533 -0.011646671
0.03252237 -0.033114284 -0.007749927 0.019405698 0.011590409 0.01475087 -0.021816764 0.032522365
0.007112688 -0.02768145 0.027343081 0.03291585 0.04059429 0.009599226 -0.020698776 0.010766028
-0.028903898 -0.014141546 -0.008740838 -0.0071571576 -0.008397719 0.0024739904 0.011651859 0.02439683
0.0030869795 0.027887829 0.015014856 0.036582585 0.015366213 0.018968608 0.023025965 -0.0043006567
-0.00059894257 -0.031535923 -0.0028879882 -0.023763806 -0.0017636397 0.0249684 0.03313665 -0.021047251
-0.0021942372 0.0019711503 0.027242836 -0.010195398 -0.0032240446 2.9239898e-05 0.014389886 0.01921179
0.037654817 0.03351725 0.008447799 -0.033459928 0.03310078 0.012280595 0.017168809 -0.034159783
0.02695002 0.0014555488 -0.031091258 0.022052158 -0.02749111 -0.020663377 0.018556664 0.013819369
0.004017323 0.031528812 -0.0031098104 0.011243421 0.019736206 0.02596011 -0.027693227 0.013631002
0.032093488 0.0052054445 0.0048414203 -0.014061212 0.036211245 0.03243202 0.000963641 0.020679757
0.033329625 0.032664977 0.018026251 0.0013075296 0.0033352668 -0.0074017816 -0.023718078 0.029693896
-0.015928062 0.0076871323 -0.016340004 0.0018212255 0.014021658 0.030270377 0.0006110865 -0.020603742
0.0056801466 -0.020770809 0.012484009 0.029216608 0.030203953 -0.035521418 0.022685025 -0.008274906
0.026985502 0.022498632 -0.02768584 -0.004529011 -0.007742351 -0.029018585 0.02430632 0.030996883
-0.029003259 -0.0050649107 -0.01244618 0.0083314525 -0.011067972 0.037644573 0.010319269 -0.031252503
0.009179099 -0.007855665 -0.017805355 0.036707178 0.021582756 0.0020861134 -0.0007943126 0.0005439774
-0.006818447 0.008293619 0.012053411 0.023516472 -0.015931336 0.018261045 -0.023276629 0.018163254
0.030970087 -0.02548133 -0.01610734 0.020276476 0.0040765665 0.021299738 0.030520802 -0.025213253
0.021285417 0.013050162 0.0028223621 -0.012462365 0.0022470257 -0.009218562 0.02224223 -0.017405098
-0.020361463 -0.0033397651 -0.03129916 -0.0029066906 -0.025843345 -0.0322914 -0.00019469333 -0.017682143
-0.0026370573 -0.022645704 0.00403417 0.014392715 -0.019678619 -0.008216731 -0.033002425 -0.03265019
-0.016084721 0.014769895 0.017524911 -0.021727242 0.01662555 -0.017288253 0.032790143 -0.008317678
-0.0072844923 -0.024677116 0.02882961 0.023735832 -0.004154218 0.019188654 0.022333318 0.016078655
-0.018002633 0.012448433 0.015738716 0.010479646 -0.001524166 -0.025221303 0.035966363 -0.0034685573
-0.018562475 -0.0027099974 0.022091856 -0.01432023 -0.00019869687 0.0008854955 -0.0023762425 0.024785755
-0.0101176 0.019771539 0.02758888 0.03145518 0.035784658 0.0049133366 0.021023445 -0.0094353
-0.026349183 -0.028226407 -0.01670833 -0.0029060808 0.023336692 0.01484527 0.029393615 -0.025383655
00000000: 4adf 82bc 26cd 123d bf24 e83c 592e 92bc
00000010: b6cd f33c f2f9 783c 7dc1 ff3c 6867 0fbb
00000020: e4e5 dcbc a135 45bc 5122 f13c a9f1 debb
00000030: f518 d43c 47de 663c 6477 02bc c448 5f3c
00000040: e6d0 dc3c 84e4 dc3c bd3a dfbc 6915 b3bc
00000050: 4b4d 043c 421b debc 8cf8 f7bc fd14 343c
00000060: 7ac9 e9bb a5a5 17bc 2fbd 543c 6c72 0dbd
00000070: 33ad ba3a 694a 87bc 7919 fbbc 2c85 263c
00000080: 2667 933b b038 8ebc d915 043c db30 ccbc
00000090: 6ff8 093d 7199 3d3c e657 c0bb aed1 3ebc
000000a0: 2d36 053d d8a2 07bd 1af3 fdbb b3f8 9e3c
000000b0: b3e5 3d3c a2ad 713c 12b9 b2bc 2c36 053d
000000c0: 8d11 e93b 35c4 e2bc 99fe df3c c5d2 063d
000000d0: 3346 263d 1246 1d3c 7b90 a9bc ff63 303c
000000e0: dec7 ecbc f1b1 67bc bb35 0fbc 9786 eabb
000000f0: 9696 09bc ac22 223b 70e7 3e3c dcdb c73c
00000100: ec4e 4a3b 0475 e43c df00 763c 9fd7 153d
00000110: 92c2 7b3c 0e64 9b3c f3a0 bc3c 86ec 8cbb
00000120: 5b02 1dba d02b 01bd 6744 3dbb 50ac c2bc
00000130: ee29 e7ba 888a cc3c 4cba 073d 496b acbc
00000140: 31cd 0fbb 6a2e 013b 5e2c df3c 990a 27bc
00000150: 7e4a 53bb 3448 f537 8ec3 6b3c 0b62 9d3c
00000160: f03b 1a3d 6249 093d a368 0a3c 470d 09bd
00000170: af94 073d 8c34 493c 9aa5 8c3c 21eb 0bbd
00000180: 4ac6 dc3c 1dc8 be3a 18b3 febc baa6 b43c
00000190: 0935 e1bc 3e46 a9bc 2504 983c a26a 623c
000001a0: bfa3 833b 5b24 013d f6cd 4bbb 5336 383c
000001b0: d3ad a13c 4caa d43c e8dc e2bc 9154 5f3c
000001c0: 7674 033d 6f92 aa3b c7a4 9e3b ff60 66bc
000001d0: 3e52 143d 70d7 043d da9c 7c3a 9868 a93c
000001e0: a584 083d b6cb 053d caab 933c 6a61 ab3a
000001f0: 7e94 5a3b a58a f2bb 6a4c c2bc 9d40 f33c
00000200: 917b 82bc 57e4 fb3b 79db 85bc 30b6 ee3a
00000210: 19bb 653c 95f9 f73c 5231 203a 2ec9 a8bc
00000220: 8620 ba3b 8b27 aabc bb89 4c3c ab57 ef3c
00000230: 486e f73c e87e 11bd f2d5 b93c 7993 07bc
00000240: b310 dd3c 0d4f b83c 6acd e2bc 1968 94bb
00000250: 8cb3 fdbb 62b8 edbc 0c1e c73c 2ded fd3c
00000260: 3e98 edbc 8df7 a5bb 10eb 4bbc a580 083c
00000270: 7056 35bc 3231 1a3d 2712 293c a002 00bd
00000280: ef63 163c 0cb5 00bc 89dc 91bc 445a 163d
00000290: 52ce b03c 2db7 083b 6b39 50ba b599 0e3a
000002a0: 476d dfbb f6e1 073c ac7b 453c 9ea5 c03c
000002b0: 6f82 82bc 3098 953c a1ae bebc 1bcb 943c
000002c0: fbb4 fd3c 39be d0bc 8af3 83bc da1a a63c
000002d0: b894 853b ca7c ae3c c306 fa3c 068c cebc
000002e0: c15e ae3c 59d0 553c 61f7 383b f32e 4cbc
000002f0: d642 133b 7409 17bc 5635 b63c 2395 8ebc
00000300: 15cd a6bc f6df 5abb 8c33 00bd 2d7e 3ebb
00000310: 6cb5 d3bc fd43 04bd 9826 4cb9 24da 90bc
00000320: 7bd2 2cbb 7c83 b9bc 1231 843b 6ccf 6b3c
00000330: 0e35 a1bc 789f 06bc 8d2d 07bd 35bc 05bd
00000340: 1bc4 83bc 6efd 713c 6790 8f3c 54fd b1bc
00000350: 4e32 883c 18a0 8dbc f54e 063d df46 08bc
00000360: c0b2 eebb aa27 cabc 132c ec3c a671 c23c
00000370: 1b20 88bb 8631 9d3c 5df4 b63c 62b7 833c
00000380: 427a 93bc 83f4 4b3c 7bee 803c d2b2 2b3c
00000390: 86c6 c7ba e89c cebc 7751 133d bc50 63bb
000003a0: 5510 98bc 369a 31bb fbf9 b43c 669f 6abc
000003b0: 4959 50b9 9920 683a bcba 1bbb 7f0b cb3c
000003c0: 4ac4 25bc ecf7 a13c 1302 e23c 26d7 003d
000003d0: ef92 123d 0e00 a13b 5c39 ac3c 8496 1abc
000003e0: 3eda d7bc 113b e7bc e8df 88bc f273 3ebb
000003f0: 972c bf3c 9339 733c e1ca f03c 62f1 cfbc
